Client/results/ppo/MoveToGoal.onnx (onnx, 73585 bytes, 6 tensors)

network_body._body_endoder.seq_layers.0.weight f4 [128, 4]
0.20208392 -0.09934398 -0.41753912 0.15674582 0.40576392 0.73193496 0.4938907 0.027590144
-0.7418467 -0.6055956 0.29761618 -0.62385136 -0.3314127 -0.61801505 -0.17702745 0.0341725
0.20332362 0.630053 -0.5432465 -0.72287285 -0.25983065 0.029776502 0.19830358 -0.036457248
-0.27962106 -1.0115358 0.6428171 0.43559557 0.63799894 0.15832247 0.07392595 0.46841827
-0.10250045 0.23824184 -0.3163399 0.36021012 0.36886665 -0.009861944 -0.59247345 0.1424062
-1.3656992 0.10335216 -0.50350934 -0.049869876 0.36207303 -0.8208709 -0.42504042 -0.8867917
-1.0746839 -0.07723015 0.49707726 0.19198899 0.4347885 0.3287216 -0.033923853 -0.32900774
-0.77291137 -0.012799082 -0.44952223 0.16778252 -0.74018043 0.33280128 -0.61721754 -0.7376445
0.08931209 -0.13193513 -0.8118307 -0.5266937 -0.48101327 0.022984093 1.3800268 -0.59443396
-0.14044076 -0.8670778 -0.5938476 0.5994723 0.44206333 0.37003207 -0.49182543 -0.7588219
-0.56451887 0.7044957 0.16257535 -0.30197904 0.254346 0.34166306 0.12271569 -0.48311913
-0.8340584 0.05729118 0.53976536 0.1782766 -0.021019878 -1.0630642 0.33293888 0.44505623
0.15006156 -0.35897288 -0.56670207 -0.40768805 0.7056386 -0.17840587 -0.22390863 0.88330996
-0.22770922 -0.31391 0.68479943 0.9805151 0.807165 0.20514715 -0.25347236 0.6694653
0.17658839 -0.66763383 0.6418928 0.44333658 -0.37925756 0.122924365 -0.8364404 -0.20938414
0.007651414 -0.02802357 -0.57059723 0.2673324 -0.55282736 0.8079855 -0.8319267 -0.7287196
0.25152326 0.12561712 0.033312235 -0.0060962676 -0.07102588 1.2235414 0.28434893 -0.58556956
-0.20475863 0.7253425 0.60835314 -0.13924131 -0.5241047 -0.20578936 0.2549362 0.42064956
0.74111193 0.103544064 -0.50113696 -0.44598314 -0.015791764 0.66849357 -0.82758164 -0.39460397
0.22810525 0.13896391 0.18304278 -0.06892682 -0.39488092 0.32809502 -0.46527213 0.44587094
-0.69428384 0.21990377 0.38337305 1.0958155 0.36746243 0.20693018 0.65040845 -0.0002845249
0.35072386 0.023539867 0.20642057 0.45882282 -0.97606796 0.32138184 -0.81898284 0.20779125
-0.20915727 0.08713554 0.80165386 0.10245706 0.41737854 -0.50894344 1.361691 -0.35431635
-0.20528503 -0.51812696 0.13549127 -0.012128809 0.040465146 -0.3291394 0.27265745 0.4203648
-0.21709432 -0.2041565 0.37335888 -0.16584651 -0.012753772 -0.08920373 0.9455164 -0.43437237
-0.006550025 -0.42918283 0.5347184 -0.7153772 0.09877575 -0.008103645 -0.12588067 0.50690794
-0.0008698082 -1.1946725 -0.07132372 0.368402 -0.08383956 0.011918095 0.04806489 -0.42915443
0.17991263 -0.015789837 0.39453202 -0.4368825 -0.034144644 -0.22500193 -0.3642777 0.92804927
0.26777154 0.038295448 -0.5991062 0.79719836 -1.0860124 0.31511328 0.27757558 -0.18057598
0.052758165 0.09288485 0.55224377 0.43462512 -0.16101299 0.4716884 -0.22482593 -1.2206372
-0.1362335 -0.35331506 0.2810612 0.47800842 -0.30355725 0.280694 0.8754477 0.8047544
-0.37246943 0.6333205 -0.00368063 0.4774702 0.3556049 0.77029085 0.42935598 -0.32467732
00000000: 16ef 4e3e db74 cbbd b0c7 d5be fa81 203e
00000010: 4ac0 cf3e 1760 3b3f 3edf fc3e ba04 e23c
00000020: aae9 3dbf 5008 1bbf 2661 983e b9b4 1fbf
00000030: edae a9be 3c36 1ebf af46 35be 77f8 0b3d
00000040: 1134 503e 274b 213f 3412 0bbf 320e 39bf
00000050: 8608 85be daed f33c 1810 4b3e 3254 15bd
00000060: 7e2a 8fbe 017a 81bf a98f 243f 6206 df3e
00000070: e653 233f 491f 223e 7d66 973d 85d4 ef3e
00000080: c2eb d1bd abf5 733e 4ef7 a1be 766d b83e
00000090: 17dc bc3e fe93 21bc 57ac 17bf eed2 113e
000000a0: 3bcf aebf 4caa d33d fde5 00bf 5b44 4cbd
000000b0: a361 b93e 9824 52bf e69e d9be c804 63bf
000000c0: 3e8f 89bf d72a 9ebd e980 fe3e c398 443e
000000d0: 999c de3e 334e a83e bdf3 0abd b473 a8be
000000e0: 85dd 45bf 3eb3 51bc c727 e6be 2ecf 2b3e
000000f0: 777c 3dbf ee64 aa3e f801 1ebf 45d6 3cbf
00000100: 42e9 b63d 011a 07be 23d4 4fbf 66d5 06bf
00000110: 5f47 f6be 2349 bc3c b8a4 b03f d32c 18bf
00000120: b4cf 0fbe d0f8 5dbf 6506 18bf 0477 193f
00000130: 2056 e23e d874 bd3e 8bd0 fbbe 2742 42bf
00000140: 4f84 10bf d559 343f 277a 263e ff9c 9abe
00000150: a439 823e 76ee ae3e 5d52 fb3d 645b f7be
00000160: da84 55bf 28aa 6a3d 102e 0a3f 248e 363e
00000170: e131 acbc 7d12 88bf f776 aa3e 69de e33e
00000180: bda9 193e 4bcb b7be 6313 11bf 7dbc d0be
00000190: bba4 343f 07b0 36be 4e48 65be 9a20 623f
000001a0: 9b2c 69be d0b8 a0be 044f 2f3f 0a03 7b3f
000001b0: 5ea2 4e3f 1812 523e 21c7 81be 1462 2b3f
000001c0: 96d3 343e 0dea 2abf 1653 243f 03fd e23e
000001d0: 0c2e c2be c5bf fb3d f520 56bf cc68 56be
000001e0: b6b8 fa3b b091 e5bc a912 12bf cbdf 883e
000001f0: 1886 0dbf 23d8 4e3f 26f9 54bf 5e8d 3abf
00000200: a8c7 803e c6a1 003e 6972 083d 33c3 c7bb
00000210: 0476 91bd 019d 9c3f 2f96 913e e3e7 15bf
00000220: 3fac 51be 0cb0 393f 08bd 1b3f 4695 0ebe
00000230: ba2b 06bf 72ba 52be ff86 823e 615f d73e
00000240: 83b9 3d3f e90e d43d 834a 00bf e757 e4be
00000250: bb5d 81bc 6522 2b3f 64dc 53bf 8809 cabe
00000260: 6c94 693e 8e4c 0e3e 916f 3b3e 8129 8dbd
00000270: d52d cabe 12fc a73e 2638 eebe 3249 e43e
00000280: 96bc 31bf 742e 613e 7949 c43e af43 8c3f
00000290: 0924 bc3e 81e5 533e 2b81 263f 492c 95b9
000002a0: 1492 b33e aed6 c03c ea5f 533e d3ea ea3e
000002b0: 97df 79bf 298c a43e dca8 51bf 3bc7 543e
000002c0: 532d 56be 1e74 b23d 3039 4d3f 02d5 d13d
000002d0: a4b2 d53e 1e4a 02bf e44b ae3f f468 b5be
000002e0: 3d36 52be f8a3 04bf 39be 0a3e e9b7 46bc
000002f0: c8be 253d f684 a8be c299 8b3e 0e3a d73e
00000300: f94d 5ebe 670e 51be e528 bf3e abd3 29be
00000310: 32f5 50bc 72b0 b6bd 5d0d 723f 0e66 debe
00000320: 98a1 d6bb dabd dbbe 4ee3 083f f622 37bf
00000330: f14a ca3d 27c5 04bc dde6 00be b8c4 013f
00000340: d703 64ba 07eb 98bf 2c12 92bd 309f bc3e
00000350: 13b4 abbd 1d44 433c b1df 443d 21ba dbbe
00000360: 043b 383e b059 81bc 1a00 ca3e 10af dfbe
00000370: 41db 0bbd e866 66be 9b82 babe a394 6d3f
00000380: 5a19 893e b0db 1c3d 065f 19bf 3115 4c3f
00000390: 7402 8bbf 8756 a13e 631e 8e3e e9e8 38be
000003a0: f218 583d 6a3a be3d d95f 0d3f 2f87 de3e
000003b0: 97e0 24be 2481 f13e c538 66be d73d 9cbf
000003c0: cb80 0bbe b6e5 b4be 41e7 8f3e 85bd f43e
000003d0: db6b 9bbe 20b7 8f3e 571d 603f 6204 4e3f
000003e0: 50b4 bebe 4b21 223f b936 71bb f976 f43e
000003f0: d811 b63e c831 453f 8cd4 db3e 1b3c a6be

network_body._body_endoder.seq_layers.0.bias f4 [128]
0.0 0.0 0.0 0.0 0.0 0.0 0.0 0.0
0.0 0.0 0.0 0.0 0.0 0.0 0.0 0.0
0.0 0.0 0.0 0.0 0.0 0.0 0.0 0.0
0.0 0.0 0.0 0.0 0.0 0.0 0.0 0.0
0.0 0.0 0.0 0.0 0.0 0.0 0.0 0.0
0.0 0.0 0.0 0.0 0.0 0.0 0.0 0.0
0.0 0.0 0.0 0.0 0.0 0.0 0.0 0.0
0.0 0.0 0.0 0.0 0.0 0.0 0.0 0.0
0.0 0.0 0.0 0.0 0.0 0.0 0.0 0.0
0.0 0.0 0.0 0.0 0.0 0.0 0.0 0.0
0.0 0.0 0.0 0.0 0.0 0.0 0.0 0.0
0.0 0.0 0.0 0.0 0.0 0.0 0.0 0.0
0.0 0.0 0.0 0.0 0.0 0.0 0.0 0.0
0.0 0.0 0.0 0.0 0.0 0.0 0.0 0.0
0.0 0.0 0.0 0.0 0.0 0.0 0.0 0.0
0.0 0.0 0.0 0.0 0.0 0.0 0.0 0.0
00000000: 0000 0000 0000 0000 0000 0000 0000 0000
00000010: 0000 0000 0000 0000 0000 0000 0000 0000
00000020: 0000 0000 0000 0000 0000 0000 0000 0000
00000030: 0000 0000 0000 0000 0000 0000 0000 0000
00000040: 0000 0000 0000 0000 0000 0000 0000 0000
00000050: 0000 0000 0000 0000 0000 0000 0000 0000
00000060: 0000 0000 0000 0000 0000 0000 0000 0000
00000070: 0000 0000 0000 0000 0000 0000 0000 0000
00000080: 0000 0000 0000 0000 0000 0000 0000 0000
00000090: 0000 0000 0000 0000 0000 0000 0000 0000
000000a0: 0000 0000 0000 0000 0000 0000 0000 0000
000000b0: 0000 0000 0000 0000 0000 0000 0000 0000
000000c0: 0000 0000 0000 0000 0000 0000 0000 0000
000000d0: 0000 0000 0000 0000 0000 0000 0000 0000
000000e0: 0000 0000 0000 0000 0000 0000 0000 0000
000000f0: 0000 0000 0000 0000 0000 0000 0000 0000
00000100: 0000 0000 0000 0000 0000 0000 0000 0000
00000110: 0000 0000 0000 0000 0000 0000 0000 0000
00000120: 0000 0000 0000 0000 0000 0000 0000 0000
00000130: 0000 0000 0000 0000 0000 0000 0000 0000
00000140: 0000 0000 0000 0000 0000 0000 0000 0000
00000150: 0000 0000 0000 0000 0000 0000 0000 0000
00000160: 0000 0000 0000 0000 0000 0000 0000 0000
00000170: 0000 0000 0000 0000 0000 0000 0000 0000
00000180: 0000 0000 0000 0000 0000 0000 0000 0000
00000190: 0000 0000 0000 0000 0000 0000 0000 0000
000001a0: 0000 0000 0000 0000 0000 0000 0000 0000
000001b0: 0000 0000 0000 0000 0000 0000 0000 0000
000001c0: 0000 0000 0000 0000 0000 0000 0000 0000
000001d0: 0000 0000 0000 0000 0000 0000 0000 0000
000001e0: 0000 0000 0000 0000 0000 0000 0000 0000
000001f0: 0000 0000 0000 0000 0000 0000 0000 0000

network_body._body_endoder.seq_layers.2.weight f4 [128, 128]
-0.06444766 0.067561656 -0.18970235 -0.057972938 0.018751744 0.040751934 -0.072557904 0.14014006
0.10135223 -0.021975547 -0.09613436 -0.009982255 -0.03871726 0.033842474 -0.12357015 0.047656294
-0.18834606 0.09257791 0.016327765 -0.02715446 -0.015686229 -0.036463253 0.014811819 0.04837097
0.12370574 -0.008061157 0.015263529 0.06269606 0.055205937 -0.03918978 -0.06593483 0.022668473
-0.14756785 0.027597561 0.08798786 -0.028367516 -0.049249075 0.034121674 -0.17876329 -0.002709315
-0.045876786 0.08026466 -0.06491476 0.052626356 -0.034307692 0.18054394 -0.067498945 0.06297141
0.13925275 -0.100159824 0.03616096 -0.09514334 -0.055410877 -0.13452284 0.11646373 -0.069435775
-0.05389886 -0.12732957 -0.010104856 0.014248514 0.03605758 -0.031757478 0.05582252 0.07044067
-0.07893441 0.242587 0.020136736 -0.0816674 -0.04358439 0.0013618948 -0.06182397 -0.027604407
-0.22109832 -0.0073804148 0.043210723 -0.030365106 -0.08316833 0.11367514 -0.18910211 0.10200474
-0.044012316 0.049605496 -0.024693493 0.060831785 0.009032124 -0.10407639 0.015098281 0.018837426
0.096536815 -0.018576624 0.19588928 -0.0068959217 0.037288487 0.109197825 -0.20823692 0.061846264
0.005454492 -0.043318845 -0.19989805 -0.15494452 -0.07479612 -0.10824046 0.0074000745 -0.012373431
-0.08652018 0.029976927 -0.05721189 0.040602736 0.003954221 0.08046193 -0.0042752647 0.010764658
-0.06826515 0.19342197 0.11786664 0.03508587 -0.07552468 0.032009333 -0.025320258 -0.07500987
0.028299928 0.19026682 0.005843295 -0.051141586 -0.040518675 0.018954232 0.074963816 0.15330276
-0.00539997 -0.030451125 -0.034853004 0.13556707 -0.07936193 0.012653324 0.06870893 -0.076143436
0.004914903 -0.07013647 -0.079519965 -0.038393296 0.09811581 -0.06186314 -0.035705328 0.01876563
-0.14341366 -0.0035446964 -0.002287884 0.12585665 0.01795861 0.06814495 -0.072781265 -0.15242721
0.0383565 0.043219965 0.15596639 0.10083873 -0.06446343 -0.059688177 0.048980944 -0.05497272
0.093860544 -0.08672187 -0.0464199 0.12802947 0.09284822 0.012328206 0.04484306 -0.0005802233
-0.018986417 -0.07700099 -0.03189434 0.12066478 -0.057420023 0.04254937 -0.10492881 -0.0022699316
-0.1486566 -0.09227503 -0.13615415 0.15422545 0.07199906 0.0638607 0.12229438 0.05564157
0.01027517 -0.10385193 0.14317565 -0.05660811 0.0021538646 0.009633707 -0.045211405 -0.117148586
-0.13732511 -0.0025591443 -0.04209036 0.00034729022 -0.010283939 0.02881516 -0.1156129 0.047457315
0.06939899 -0.15077552 0.014479593 0.086368546 -0.12720513 -0.057508208 -0.06886968 0.09639566
-0.048982162 -0.0079750735 0.006048157 -0.050712995 -0.060588628 -0.08367884 -0.21869639 0.12312881
-0.10470064 -0.15828982 -0.07487012 -0.023516817 0.09808718 -0.015597294 -0.06886369 0.11637282
0.11077082 -0.02214639 0.011915386 -0.066867694 -0.017571518 -0.20534587 0.10168456 0.0011915978
0.060737006 0.057013612 0.083225645 0.00816559 0.051984034 0.09360619 0.09452152 -0.017597768
-0.055889376 0.019977143 -0.0891202 0.03285273 0.07604193 0.11267749 0.0077913716 -0.030031562
-0.039150342 0.1231203 0.16860509 -0.008884053 -0.040392958 -0.060298648 0.061392225 0.18373843
00000000: 23fd 83bd c45d 8a3d 5541 42be 0875 6dbd
00000010: 429d 993c 80eb 263d 3d99 94bd e080 0f3e
00000020: c291 cf3d 1006 b4bc 17e2 c4bd 9d8c 23bc
00000030: fd95 1ebd 689e 0a3d 5912 fdbd 3f33 433d
00000040: cadd 40be 7d99 bd3d cec1 853c 0873 debc
00000050: 6880 80bc 7e5a 15bd 46ad 723c a320 463d
00000060: 6f59 fd3d f112 04bc e113 7a3c cb66 803d
00000070: 9f1f 623d 7685 20bd d708 87bd 3cb3 b93c
00000080: 071c 17be 4814 e23c fb32 b43d fe62 e8bc
00000090: 66b9 49bd 2bc3 0b3d b90d 37be c38e 31bb
000000a0: 4ce9 3bbd cc61 a43d 08f2 84bd bc8e 573d
000000b0: 3986 0cbd 83e0 383e e33c 8abd 28f7 803d
000000c0: 4698 0e3e 9820 cdbd 841d 143d 83da c2bd
000000d0: 84f6 62bd 5bc0 09be 8984 ee3d 5834 8ebd
000000e0: 0dc5 5cbd af62 02be d78e 25bc 9972 693c
000000f0: 1db1 133d 2114 02bd 28a6 643d 3343 903d
00000100: 5da8 a1bd ba68 783e ccf5 a43c 3d41 a7bd
00000110: 8c85 32bd 9b81 b23a 223b 7dbd a322 e2bc
00000120: 9967 62be 68d7 f1bb bafd 303d 3ec0 f8bc
00000130: 2854 aabd 83ce e83d fca3 41be dce7 d03d
00000140: 4246 34bd 222f 4b3d 024a cabc c02a 793d
00000150: 79fb 133c 0126 d5bd c85e 773c f250 9a3c
00000160: 18b5 c53d 012e 98bc 3397 483e 2ff7 e1bb
00000170: d0bb 183d 1ca3 df3d 0f3c 55be 8252 7d3d
00000180: 98bb b23b 1a6f 31bd 13b2 4cbe c7a9 1ebe
00000190: b52e 99bd 2dad ddbd 537c f23b eeb9 4abc
000001a0: 7e31 b1bd 2c92 f53c 0457 6abd 0e4f 263d
000001b0: 6992 813b 39c9 a43d 8517 8cbb 405e 303c
000001c0: 99ce 8bbd 6910 463e 1164 f13d 34b6 0f3d
000001d0: afac 9abd 381c 033d 6e6c cfbc c69e 99bd
000001e0: 40d5 e73c 4ed5 423e 1c79 bf3b d779 51bd
000001f0: e9f6 25bd e845 9b3c a186 993d 66fb 1c3e
00000200: 3bf2 b0bb a374 f9bc 06c2 0ebd 18d2 0a3e
00000210: 8288 a2bd e34f 4f3c 44b7 8c3d 17f1 9bbd
00000220: 320d a13b b6a3 8fbd 5ddb a2bd 4a42 1dbd
00000230: f1f0 c83d 3464 7dbd c03f 12bd 61ba 993c
00000240: 08db 12be 234e 68bb 53f0 15bb 91e0 003e
00000250: ef1d 933c 948f 8b3d 580e 95bd e115 1cbe
00000260: b51b 1d3d 6b07 313d a7b5 1f3e 8984 ce3d
00000270: 6705 84bd 977b 74bd 3ea0 483d 132b 61bd
00000280: f539 c03d 3c9b b1bd cb22 3ebd 281a 033e
00000290: 3527 be3d 3efc 493c 5bad 373d 201a 18ba
000002a0: 6789 9bbc b2b2 9dbd a4a3 02bd 191f f73d
000002b0: 4231 6bbd 4048 2e3d eae4 d6bd 22c3 14bb
000002c0: 7039 18be b1fa bcbd fe6b 0bbe 47ed 1d3e
000002d0: 3e74 933d 66c9 823d 7a75 fa3d 6ae8 633d
000002e0: 3059 283c 52b0 d4bd a39c 123e e8dd 67bd
000002f0: da27 0d3b b2d6 1d3c 982f 39bd 99eb efbd
00000300: f49e 0cbe 51b7 27bb f166 2cbd 8114 b639
00000310: f77d 28bc c50d ec3c 75c6 ecbd 9a62 423d
00000320: 0f21 8e3d e664 1abe d13b 6d3c fee1 b03d
00000330: 1042 02be ba8d 6bbd 8c0b 8dbd 166b c53d
00000340: 85a1 48bd e2a9 02bc 9e2f c63b 6eb8 4fbd
00000350: c82b 78bd d05f abbd f2f1 5fbe f52a fc3d
00000360: 4a6d d6bd ba16 22be 8155 99bd 57a6 c0bc
00000370: eee1 c83d cb8b 7fbc 6808 8dbd e054 ee3d
00000380: d0db e23d 596c b5bc c038 433c eef1 88bd
00000390: 25f2 8fbc 3046 52be ff3f d03d 632f 9c3a
000003a0: 5ec7 783d 1b87 693d 3572 aa3d f8c8 053c
000003b0: 36ed 543d 9ab4 bf3d 8094 c13d 3229 90bc
000003c0: 42ec 64bd 1ba7 a33c a784 b6bd 9690 063d
000003d0: dfbb 9b3d 75c3 e63d c34e ff3b c004 f6bc
000003e0: 1c5c 20bd 7f26 fc3d d0a6 2c3e 6b8e 11bc
000003f0: 1673 25bd b7fb 76bd 6a76 7b3d ed25 3c3e

action_model._continuous_distribution.log_sigma f4 [1, 2]
0.0 0.0
00000000: 0000 0000 0000 0000

action_model._continuous_distribution.mu.weight f4 [2, 128]
0.0073802727 0.0004507477 -0.013624399 -0.0008994614 -0.0006575274 -0.012234178 -0.010771356 -0.011901203
-0.0036640216 -0.012419609 -0.023441335 -0.0019191854 0.0018422321 -0.00064013683 0.00894531 0.010720323
-4.6230474e-05 -0.022870608 0.0114516085 0.011489223 0.014452708 0.024193605 -0.015837902 0.0042921756
-0.017120346 0.01343064 -0.027429799 0.001661571 0.0038960688 -0.019036235 -0.022746323 0.000559122
-0.014765659 0.027023211 -0.004237813 -0.014044679 -0.0080363555 -0.012653825 0.01945608 -0.009550015
0.0064378637 -0.020766402 0.002036842 0.033687677 -0.0017238352 0.0049383575 0.0067592673 -0.02136562
0.0066174767 0.02686078 0.0043174936 -0.0024413688 0.0014682283 0.0034562256 -0.0029499787 0.015366857
0.011776204 0.0123517085 0.049164858 -0.034711923 0.018229632 -0.027349805 0.0086376965 -0.0021145937
-0.025433114 0.004375089 0.016280986 0.0013004191 -0.004240402 0.0011849188 0.0041050324 0.008369348
0.008225419 0.03294426 0.012245465 -0.015398267 -0.009889447 0.027098512 0.03077201 -0.0045865835
-0.008786674 0.001180966 0.018434208 -0.007293573 0.0022305518 0.012177049 -0.0037326792 0.0021867899
0.020742139 -0.010864157 -0.026016463 -0.020874152 0.022215096 -0.02006681 0.02005515 -0.0016743161
-0.010282851 0.012699778 0.00204657 -0.002955315 0.027185593 -0.006029891 0.0066504492 -0.00033141393
-0.02698487 -0.011002465 0.024954138 -0.04142461 0.011218581 0.02977842 0.008125782 -0.012746385
0.004912575 0.0075303116 -0.010345033 -0.0044725905 0.023269515 0.0010502412 -0.0023355824 -0.013297525
0.01687896 -0.0013206657 -0.0053579966 0.007683818 0.014276013 -0.0001105536 0.0039050863 0.00085114915
-0.013185412 -0.049734116 -0.008801571 0.020298539 0.0033434324 -0.023062414 -0.00021734305 -0.019929202
-0.018605826 -0.028417096 -0.01887111 -0.010787336 0.005269804 0.01492897 -0.009698141 -0.010859031
0.020529334 0.012811914 -0.022588989 -0.01969685 -0.018350419 -0.0048551215 -0.020146487 -0.0046706456
-0.026355106 -0.007565497 -0.013973703 0.013061459 0.010197955 -0.018778346 0.004109449 -0.005602497
0.028349278 -0.0103008635 -0.010945549 0.018153347 -0.014284963 0.001432075 -0.0041943816 0.01554894
0.009348559 -0.028724194 -0.020741865 -0.018131431 -0.009877532 -0.023604041 -0.010891972 -0.013770227
-0.013135302 0.010862286 -0.02629224 0.033806022 -0.022245029 0.007145352 0.030373743 0.011610457
0.020380463 0.026701195 -0.019816222 0.011005567 -0.0013839565 0.013620989 -0.03303613 0.018761024
0.046169054 -0.014628651 0.0017557156 0.0006413664 0.0021095853 -0.0060504735 0.015858682 -0.0071443515
0.031377584 -0.008173875 -0.00618301 0.0029749162 -0.018336723 0.003525146 -0.02338533 -0.0033014223
0.0077439225 -0.008890062 0.0005861422 -0.014511639 -0.00201156 0.008299405 0.0021791297 0.009300118
-0.0043613496 0.019301083 0.0016345404 0.04640458 0.0097641125 0.017335478 -0.002337253 0.008424551
-0.016855769 0.015750337 0.018585263 -0.0014640222 -0.0022735267 0.0071806717 -0.012805814 -0.006137119
0.0038668045 0.007086206 -0.01707462 -0.0034636531 -0.03541469 -0.025662726 0.016045177 0.017344493
-0.015295356 -0.012213802 0.0027525907 0.0014216617 -0.007367242 0.002231084 0.0077600153 -0.011624148
-0.011690449 0.01522874 -0.006757689 -0.02266131 0.020963393 -0.02399632 0.00378158 -0.005758084
00000000: 37d6 f13b 5552 ec39 df38 5fbc d5c9 6bba
00000010: eb5d 2cba dd71 48bc 577a 30bc 43fd 42bc
00000020: 1520 70bb 9e7b 4bbc 0b08 c0bc 2d8d fbba
00000030: 0d77 f13a dbce 27ba 598f 123c 4ba4 2f3c
00000040: 98e7 41b8 245b bbbc 879f 3b3c 4b3d 3c3c
00000050: 0dcb 6c3c ab31 c63c 7dbe 81bc 61a5 8c3b
00000060: f83f 8cbc 300c 5c3c 75b4 e0bc 12c9 d93a
00000070: 3055 7f3b e1f1 9bbc 7f56 babc 0b92 123a
00000080: aaeb 71bc c85f dd3c 5add 8abb a71b 66bc
00000090: ebaa 03bc fd51 4fbc 5b62 9f3c ab77 1cbc
000000a0: b7f4 d23b 4d1e aabc 8a7c 053b 17fc 093d
000000b0: 50f2 e1ba f2d1 a13b d87c dd3b f406 afbc
000000c0: 6bd7 d83b 230b dc3c c379 8d3b 5fff 1fbb
000000d0: 9171 c03a d881 623b 6e54 41bb 45c5 7b3c
000000e0: fbf0 403c d25e 4a3c 1761 493d 172e 0ebd
000000f0: 4f56 953c b30c e0bc 2085 0d3c ff94 0abb
00000100: 1b59 d0bc e85c 8f3b b45f 853c d372 aa3a
00000110: 12f3 8abb 474f 9b3a 8283 863b 971f 093c
00000120: e8c3 063c 8ff0 063d 34a1 483c 0349 7cbc
00000130: 5907 22bc b3fd dd3c 9515 fc3c 0d4b 96bb
00000140: fbf5 0fbc a5ca 9a3a 5603 973c edfe eebb
00000150: 732e 123b 3f82 473c f79f 74bb 3f50 0f3b
00000160: 6beb a93c 94ff 31bc 7a20 d5bc 4500 abbc
00000170: 6ffc b53c 2763 a4bc b34a a43c ba74 dbba
00000180: 6779 28bc bb12 503c bf1f 063b f5ad 41bb
00000190: 52b4 de3c 6496 c5bb 03ec d93b a0c1 adb9
000001a0: 600f ddbc af43 34bc 9f6c cc3c daac 29bd
000001b0: 24ce 373c e0f1 f33c 0022 053c 37d6 50bc
000001c0: aaf9 a03b d5c0 f63b 377e 29bc cf8e 92bb
000001d0: b69f be3c 3fa8 893a 9210 19bb dddd 59bc
000001e0: bf45 8a3c 301a adba 2292 afbb 8ac8 fb3b
000001f0: f0e5 693c 03d9 e7b8 7aec 7f3b a71f 5f3a
00000200: a007 58bc 00b6 4bbd 7734 10bc 1f49 a63c
00000210: 7d1d 5b3b 63ed bcbc 95e6 63b9 9142 a3bc
00000220: 3f6b 98bc f8ca e8bc 9697 9abc 5ebd 30bc
00000230: 52ae ac3b a398 743c f4e4 1ebc 14ea 31bc
00000240: 222d a83c 10e9 513c 8b0c b9bc 4a5b a1bc
00000250: 9e53 96bc b617 9fbb 3f0a a5bc 370c 99bb
00000260: aae6 d7bc fde7 f7bb f5f1 64bc bbff 553c
00000270: 5315 273c 0cd5 99bc 8fa8 863b 2795 b7bb
00000280: bf3c e83c f4c4 28bc f654 33bc 54b6 943c
00000290: 7a0b 6abc 77b4 bb3a 0671 89bb fbc0 7e3c
000002a0: b32a 193c 004f ebbc d8ea a9bc 5e88 94bc
000002b0: 5fd5 21bc 435d c1bc 3e74 32bc 859c 61bc
000002c0: 7335 57bc bbf7 313c d362 d7bc 2f78 0a3d
000002d0: 353b b6bc 8f23 ea3b 5bd2 f83c c939 3e3c
000002e0: eef4 a63c 77bc da3c a155 a2bc b250 343c
000002f0: e065 b5ba 922a 5f3c e550 07bd b8b0 993c
00000300: c31b 3d3d 02ad 6fbc 0a20 e63a 5f21 283a
00000310: f840 0a3b 0d43 c6bb 11ea 813c 2a1b eabb
00000320: c885 003d b7eb 05bc d99a cabb d0f6 423b
00000330: e536 96bc 2306 673b 9792 bfbc ad5c 58bb
00000340: bbc0 fd3b 9fa7 11bc 56a7 193a 3ac2 6dbc
00000350: 60d4 03bb 3afa 073c bbcf 0e3b 865f 183c
00000360: a7e9 8ebb 4e1d 9e3c 133e d63a bb12 3e3d
00000370: a8f9 1f3c 2203 8e3c 992c 19bb 2107 0a3c
00000380: 1c15 8abc da06 813c 1f40 983c 6fe4 bfba
00000390: 73ff 14bb d74b eb3b 7acf 51bc e319 c9bb
000003a0: 376a 7d3b 6833 e83b 13e0 8bbc 75fe 62bb
000003b0: fe0e 11bd a33a d2bc 2d71 833c 0a16 8e3c
000003c0: 5f99 7abc 661c 48bc cf64 343b 0d57 ba3a
000003d0: e868 f1bb 6137 123b ba47 fe3b 3673 3ebc
000003e0: 4c89 3fbc f781 793c 9b6f ddbb 36a4 b9bc
000003f0: 6cbb ab3c ee93 c4bc 62d4 773b 4fae bcbb

action_model._continuous_distribution.mu.bias f4 [2]
0.0 0.0
00000000: 0000 0000 0000 0000
