Client/results/ppo/Move to target.onnx (onnx, 71561 bytes, 4 tensors)

network_body._body_endoder.seq_layers.0.weight f4 [128, 1]
0	0x3fa53328	1.2906237
1	0x3f3e1662	0.74252903
2	0x3e7106fc	0.2353782
3	0xbe4ff0a1	-0.20306636
4	0x3fb37d9c	1.4022708
5	0xbf89d220	-1.076725
6	0x3f4fc69d	0.81162435
7	0x403931c4	2.8936625
8	0x3d6a5a54	0.05721505
9	0xbf1b9ff7	-0.6079096
10	0x3f6b81b2	0.91994774
11	0x3f413fa8	0.75487757
12	0xbf02e503	-0.51130694
13	0xbfa34610	-1.2755756
14	0xbfc8c285	-1.5684363
15	0xbed5397f	-0.4164543
16	0xbf18d8c2	-0.59705746
17	0x3f3a9b1f	0.72892946
18	0x3f8d4952	1.1038
19	0xbfff63ac	-1.9952292
20	0x400123bd	2.0178063
21	0xbe245532	-0.16048124
22	0xbfa86f9c	-1.315906
23	0x3d54cbff	0.05195236
24	0xbf9da25d	-1.2315174
25	0xbd9d1643	-0.07670262
26	0xbf420401	-0.7578736
27	0x3f8f8be8	1.1214571
28	0x3f9d534a	1.2291043
29	0xbfd89981	-1.6921846
30	0x3eb5a55f	0.3547773
31	0x3f2e24a1	0.6802464
32	0xbdc17142	-0.0944543
33	0x3e662b78	0.2247752
34	0xbf145571	-0.57942873
35	0xbfb813b7	-1.4381016
36	0xbe36ce81	-0.17852212
37	0xbc57ca35	-0.0131707685
38	0xbece8bc0	-0.40340996
39	0x3fb626b1	1.4230558
40	0xbdf8244e	-0.121162996
41	0xbde2d182	-0.11075117
42	0x3f840ed8	1.031703
43	0x3f1d3cf3	0.61421126
44	0xbf56ef84	-0.8395922
45	0xbf37f512	-0.7185832
46	0x3f04abd4	0.5182469
47	0x3f14938f	0.58037657
48	0xbf2b9de8	-0.6703782
49	0xbfa28124	-1.269566
50	0x3e944632	0.28959805
51	0xbf08b063	-0.53394145
52	0xbf5faa37	-0.873691
53	0x3cce661a	0.02519517
54	0x3ed24835	0.41070715
55	0x3e4054fc	0.18782419
56	0xbeb2ecd3	-0.34946308
57	0x3f907803	1.1286625
58	0xbe5db2a3	-0.21650176
59	0xbf8a35a9	-1.0797626
60	0x3e95aeb9	0.29234865
61	0x3d98db6e	0.07463728
62	0xbf852776	-1.0402668
63	0x3f6303bf	0.8867759
64	0x3d0f09b5	0.034921367
65	0xbe2a9191	-0.16657092
66	0xbed90904	-0.4238969
67	0x3d2d66b8	0.04233429
68	0xbefe34ec	-0.4964975
69	0x3f351c38	0.70746183
70	0x3cfad79a	0.030620385
71	0x3efb6dd4	0.4910723
72	0xbf7dd555	-0.99153644
73	0xbf7bd515	-0.9837201
74	0xbec66bc4	-0.38754094
75	0xbf6424a7	-0.8911843
76	0xbf310332	-0.691455
77	0x3f2b6731	0.6695433
78	0xbfa6270b	-1.2980665
79	0x3f61b537	0.88167137
80	0xbe11c06c	-0.1423356
81	0x3f83fb9a	1.0311158
82	0xbf800662	-1.0001948
83	0xbf63af0a	-0.88938963
84	0x3d6a8edb	0.057265144
85	0xbf9aef4b	-1.2104276
86	0xbf19e762	-0.6011869
87	0xbdf4b005	-0.119476356
88	0x3f9b9e2e	1.2157648
89	0x3ed6cfae	0.41955322
90	0x3f64250a	0.8911902
91	0xbe7ffdac	-0.24999112
92	0xbf2a082b	-0.66418713
93	0x3ed7dd99	0.42161253
94	0xbf1e1834	-0.6175568
95	0x3fcf00e8	1.6172152
96	0xbedff5d6	-0.43742245
97	0x3eb6b6c5	0.35686317
98	0x3f7e2587	0.9927601
99	0x3fb3ffea	1.4062474
100	0xbfef7d24	-1.8710065
101	0x3e8d6eee	0.27623695
102	0x3f57f600	0.8435974
103	0x3c652774	0.013986457
104	0x3eeb40e0	0.45947933
105	0x3f1662f8	0.58744764
106	0x3f79d199	0.97585446
107	0x3ec2ac96	0.38022298
108	0x3e9183a1	0.28420737
109	0xbeb37d1c	-0.35056388
110	0xbee489eb	-0.44636473
111	0xbf8c61f7	-1.0967396
112	0xc04c0409	-3.1877463
113	0x3ea28c23	0.3174754
114	0xbf369f07	-0.71336406
115	0x3f62652c	0.88435626
116	0x3ec73a41	0.38911632
117	0xbec2ca2e	-0.38044876
118	0x3f4edec3	0.8080866
119	0xbdb5fc82	-0.08886053
120	0xbfe15ccc	-1.7606444
121	0xbf6929ea	-0.9107958
122	0x3f16b88a	0.58875334
123	0x3ec4bccb	0.38425288
124	0x3f045969	0.5169893
125	0x3f0a3e70	0.5400152
126	0x3f1afae1	0.6053906
127	0xbf223645	-0.6336406

network_body._body_endoder.seq_layers.0.bias f4 [128]
0	0x00000000	0.0
1	0x00000000	0.0
2	0x00000000	0.0
3	0x00000000	0.0
4	0x00000000	0.0
5	0x00000000	0.0
6	0x00000000	0.0
7	0x00000000	0.0
8	0x00000000	0.0
9	0x00000000	0.0
10	0x00000000	0.0
11	0x00000000	0.0
12	0x00000000	0.0
13	0x00000000	0.0
14	0x00000000	0.0
15	0x00000000	0.0
16	0x00000000	0.0
17	0x00000000	0.0
18	0x00000000	0.0
19	0x00000000	0.0
20	0x00000000	0.0
21	0x00000000	0.0
22	0x00000000	0.0
23	0x00000000	0.0
24	0x00000000	0.0
25	0x00000000	0.0
26	0x00000000	0.0
27	0x00000000	0.0
28	0x00000000	0.0
29	0x00000000	0.0
30	0x00000000	0.0
31	0x00000000	0.0
32	0x00000000	0.0
33	0x00000000	0.0
34	0x00000000	0.0
35	0x00000000	0.0
36	0x00000000	0.0
37	0x00000000	0.0
38	0x00000000	0.0
39	0x00000000	0.0
40	0x00000000	0.0
41	0x00000000	0.0
42	0x00000000	0.0
43	0x00000000	0.0
44	0x00000000	0.0
45	0x00000000	0.0
46	0x00000000	0.0
47	0x00000000	0.0
48	0x00000000	0.0
49	0x00000000	0.0
50	0x00000000	0.0
51	0x00000000	0.0
52	0x00000000	0.0
53	0x00000000	0.0
54	0x00000000	0.0
55	0x00000000	0.0
56	0x00000000	0.0
57	0x00000000	0.0
58	0x00000000	0.0
59	0x00000000	0.0
60	0x00000000	0.0
61	0x00000000	0.0
62	0x00000000	0.0
63	0x00000000	0.0
64	0x00000000	0.0
65	0x00000000	0.0
66	0x00000000	0.0
67	0x00000000	0.0
68	0x00000000	0.0
69	0x00000000	0.0
70	0x00000000	0.0
71	0x00000000	0.0
72	0x00000000	0.0
73	0x00000000	0.0
74	0x00000000	0.0
75	0x00000000	0.0
76	0x00000000	0.0
77	0x00000000	0.0
78	0x00000000	0.0
79	0x00000000	0.0
80	0x00000000	0.0
81	0x00000000	0.0
82	0x00000000	0.0
83	0x00000000	0.0
84	0x00000000	0.0
85	0x00000000	0.0
86	0x00000000	0.0
87	0x00000000	0.0
88	0x00000000	0.0
89	0x00000000	0.0
90	0x00000000	0.0
91	0x00000000	0.0
92	0x00000000	0.0
93	0x00000000	0.0
94	0x00000000	0.0
95	0x00000000	0.0
96	0x00000000	0.0
97	0x00000000	0.0
98	0x00000000	0.0
99	0x00000000	0.0
100	0x00000000	0.0
101	0x00000000	0.0
102	0x00000000	0.0
103	0x00000000	0.0
104	0x00000000	0.0
105	0x00000000	0.0
106	0x00000000	0.0
107	0x00000000	0.0
108	0x00000000	0.0
109	0x00000000	0.0
110	0x00000000	0.0
111	0x00000000	0.0
112	0x00000000	0.0
113	0x00000000	0.0
114	0x00000000	0.0
115	0x00000000	0.0
116	0x00000000	0.0
117	0x00000000	0.0
118	0x00000000	0.0
119	0x00000000	0.0
120	0x00000000	0.0
121	0x00000000	0.0
122	0x00000000	0.0
123	0x00000000	0.0
124	0x00000000	0.0
125	0x00000000	0.0
126	0x00000000	0.0
127	0x00000000	0.0

network_body._body_endoder.seq_layers.2.weight f4 [128, 128]
0	0xbd59b9f3	-0.05315585
1	0xbb4e0e1b	-0.0031441513
2	0xbb86853e	-0.004105239
3	0xbc29a6a1	-0.010354669
4	0xbd2dd381	-0.042438034
5	0xbc9e91c7	-0.019356621
6	0xbdc81d9f	-0.09771275
7	0xbe6568d9	-0.22403277
8	0x3e428d37	0.18999182
9	0xbd8c8e96	-0.068631336
10	0xbd58f069	-0.052963648
11	0x3daa6a41	0.083210476
12	0xbcd9b8dd	-0.026577407
13	0xbe091bb0	-0.13389468
14	0x3dba96ef	0.091108195
15	0x3d8a441a	0.067512706
16	0xbcaa94fe	-0.020822998
17	0xbdb1db31	-0.086843856
18	0xbc6e429f	-0.014542251
19	0xbe163704	-0.14669424
20	0x3dc30bed	0.09523759
21	0xbd6675f8	-0.056264848
22	0xbd94eca9	-0.07271702
23	0xbdd71633	-0.10502281
24	0x3dff2577	0.12458318
25	0xbd9ff4f6	-0.078103945
26	0xbd9948c8	-0.07484585
27	0xbdbe1b67	-0.0928257
28	0xbd3d27b6	-0.04618045
29	0x3d97faac	0.07420859
30	0x3dc40b14	0.095724255
31	0xbb8f33e3	-0.004370199
32	0xbd7feada	-0.06247983
33	0xbde916b2	-0.11381282
34	0x3d2d247e	0.04227113
35	0xbcc26b5e	-0.023732837
36	0xbd84837d	-0.06470392
37	0xbdf48d1e	-0.119409785
38	0x3dc74f95	0.09731976
39	0x3dd7a8b8	0.105302274
40	0xbcc0bb9a	-0.023526955
41	0x3da58a8f	0.080830686
42	0xbcbf79b1	-0.023373457
43	0x3e0b027e	0.1357517
44	0xbe0baed7	-0.13640915
45	0x3dff4d43	0.124659084
46	0x3cb69606	0.022288334
47	0x3d810b6a	0.06301005
48	0x3d560e27	0.05225959
49	0xbc2c8070	-0.010528669
50	0x3e23bbcf	0.15989612
51	0x3db529c5	0.088458575
52	0x3de9677f	0.113966934
53	0xbd93888b	-0.07203778
54	0xbc6ed6d2	-0.014577584
55	0xbd1bf50f	-0.038075503
56	0xbe4d800f	-0.20068382
57	0x39ae529c	0.00033249415
58	0x3c2cbd1b	0.010543133
59	0x3cc2f4e5	0.023798415
60	0x3bd16f52	0.0063914442
61	0x3e13814d	0.14404793
62	0x3e05346b	0.13008277
63	0x3d11df4b	0.03561334
64	0x3e53e7bb	0.20693867
65	0x3e3c011b	0.18359797
66	0xbc4ad9d9	-0.0123810405
67	0xbdd6fce6	-0.10497455
68	0x3c3590aa	0.011081854
69	0x3d5a190a	0.053246535
70	0xbde7e2f3	-0.11322584
71	0xbd7d7a9f	-0.06188452
72	0x3dbd4ce1	0.09243179
73	0xbddb7187	-0.10715013
74	0xbd846820	-0.06465173
75	0x3ba02f9c	0.004888488
76	0xbc97f5d4	-0.018549837
77	0xbd9336f4	-0.07188216
78	0x3dccdb7e	0.10002802
79	0x3d8ee3ba	0.06977029
80	0xbe4408dc	-0.19144005
81	0x3cc5460a	0.024081249
82	0xbc702502	-0.014657261
83	0x3cd99336	0.026559453
84	0xbd819405	-0.063270606
85	0xbc05569e	-0.008138327
86	0x3cb30034	0.021850683
87	0x3c83b906	0.016079437
88	0xbcf6b0af	-0.030113546
89	0xbb4608cb	-0.0030217643
90	0x3e31ddc9	0.1736976
91	0x3caa712b	0.020805916
92	0xbcea3d7a	-0.028593767
93	0x3e1fc13c	0.15601057
94	0x3d4758d6	0.048668705
95	0xbd8ea911	-0.069658406
96	0x3db46f36	0.08810274
97	0xbe14b04c	-0.14520377
98	0xbd45c8a4	-0.04828705
99	0x3d05f908	0.032708198
100	0xbe0108c6	-0.12601003
101	0xbda0347a	-0.07822509
102	0x3e3dbf35	0.18529971
103	0xbdb3a8dc	-0.08772442
104	0x3c0ffb9d	0.008788017
105	0x3ea1172a	0.31462985
106	0x3c998bcd	0.01874342
107	0xbd50afb1	-0.050948802
108	0xbde03d5a	-0.10949202
109	0x3cba56b0	0.022746414
110	0x3ceb2e27	0.02870853
111	0x3e99a2f0	0.30007124
112	0xbe039c3f	-0.12852572
113	0xbdcac4a6	-0.09900789
114	0xbdb5cca3	-0.08876922
115	0xbd8cb9cd	-0.06871376
116	0xbe193449	-0.14961351
117	0xbddb61d4	-0.107120186
118	0x3dfff616	0.12498109
119	0xbe0fd1e8	-0.14044917
120	0xbd1c3126	-0.03813281
121	0xbe2111e9	-0.15729488
122	0xbda00676	-0.07813732
123	0xbc8a1339	-0.01685487
124	0xbc8883c7	-0.016664399
125	0xbdb4e58d	-0.08832846
126	0xbd43128e	-0.047625117
127	0xbe436b90	-0.19084
128	0x3dbd2c76	0.09236996
129	0xbda08092	-0.07837023
130	0xbe3fecc6	-0.18742666
131	0x3c1d223c	0.009590682
132	0x3d917743	0.071028255
133	0x3d92e64d	0.07172833
134	0xbd3028cc	-0.043007657
135	0xbdb0562d	-0.08610187
136	0xbd07c025	-0.033142228
137	0x3db591b4	0.08865681
138	0xbd1afe3c	-0.037840113
139	0xbc1805fc	-0.009278771
140	0xbe561211	-0.2090533
141	0x3d49a819	0.049232576
142	0xbc5c35e2	-0.013440581
143	0x3d767794	0.060172632
144	0xbbaceb06	-0.0052770404
145	0xbc08c76d	-0.008348328
146	0xbdf1b1fc	-0.11801526
147	0x3d247101	0.04014683
148	0xbce35dff	-0.027754782
149	0x3d58ff85	0.052978057
150	0x3daba59c	0.08381197
151	0x3d88e874	0.06684962
152	0xbd3d706c	-0.046249792
153	0x3daa1915	0.08305565
154	0x39adb6a9	0.00033133224
155	0x3d602927	0.054726746
156	0x3c2f6f37	0.010707668
157	0xbcbf13fd	-0.02332496
158	0x3d8d3933	0.068956755
159	0x3ea3eb4d	0.32015458
160	0x3e1f36fb	0.15548317
161	0xbc366ba4	-0.011134062
162	0x3d0ecab8	0.034861296
163	0xbd51fa2c	-0.051263973
164	0xbda8336b	-0.08212932
165	0x3c9dc257	0.019257708
166	0x3d3cc43c	0.04608558
167	0xbd898d81	-0.06716443
168	0x3ddc871a	0.10767956
169	0x3d001a27	0.03127494
170	0x3bda51bf	0.006662577
171	0xbdd993c4	-0.10623887
172	0x3c7f6b58	0.015589558
173	0x3d00fc27	0.03149047
174	0x3d53ba9d	0.05169164
175	0x3c8c8438	0.01715289
176	0x3d96c009	0.073608465
177	0xbc9e6eee	-0.019340005
178	0xbc16f850	-0.009214476
179	0x3cb28f95	0.02179698
180	0x3d299b48	0.041407853
181	0xbe06288f	-0.1310141
182	0xbe80129e	-0.25014204
183	0xbde7b61f	-0.11314034
184	0x3df4c474	0.11951533
185	0xbc9e879c	-0.019351773
186	0xbd231195	-0.03981169
187	0xbdb3f419	-0.08786792
188	0xbc1cc8e8	-0.009569384
189	0x3d4fef24	0.05076517
190	0x3ccb418d	0.02481153
191	0x3cffe04b	0.03123488
192	0x3d84d3d3	0.06485715
193	0x3c27bc9c	0.010237839
194	0xbddda6c8	-0.108228266
195	0x3d65a14e	0.056062035
196	0x3cce9269	0.025216298
197	0x3b92d66a	0.0044811266
198	0x3da10dde	0.07863973
199	0xbdf36bf7	-0.11885827
200	0x3bccef1d	0.0062540905
201	0xbda8b13f	-0.08236932
202	0xbdebcb6e	-0.115134105
203	0xbd806e29	-0.062710114
204	0xbc0f2378	-0.008736484
205	0xbe06d27c	-0.13166231
206	0x3de06289	0.10956294
207	0xbbbd6ad6	-0.005780558
208	0x3d7c3d58	0.06158194
209	0x3db3c470	0.08777702
210	0x3e017f01	0.12646104
211	0xbd5890d5	-0.052872498
212	0x3de1f952	0.11033882
213	0x3c3d231f	0.011544018
214	0x3e5f490b	0.21805207
215	0xbc33ac67	-0.010966397
216	0xbd0cfa34	-0.0344183
217	0xbd891d75	-0.066950716
218	0xbcc1bce5	-0.023649642
219	0x3d499d42	0.04922224
220	0xbd01ccdc	-0.03168951
221	0xbddaf7e5	-0.106918134
222	0xbd2bac96	-0.041912638
223	0x3d52cfa3	0.05146755
224	0xbc715d73	-0.014731753
225	0xbd218dd7	-0.03944191
226	0xbd9bd165	-0.07608298
227	0xbc5d0aad	-0.013491315
228	0xbdb6d61f	-0.08927559
229	0x3e28c51c	0.16481441
230	0xbc8ed139	-0.01743375
231	0x3d036fe7	0.03208914
232	0xbe261b8f	-0.1622145
233	0xbcf384b0	-0.029726356
234	0xbc72de6c	-0.014823537
235	0x3d6531e4	0.055955783
236	0xbc0d6588	-0.008630164
237	0x3dddee2b	0.108364426
238	0xbe21aa26	-0.15787563
239	0x3dab3506	0.08359723
240	0xbd72c42d	-0.05926912
241	0xbdcc7278	-0.09982771
242	0xbdb01256	-0.08597247
243	0x3da5082f	0.080582015
244	0xbde38cf8	-0.11110872
245	0x3bf9b489	0.0076203984
246	0xbd54b8db	-0.051934104
247	0xbd33653a	-0.04379771
248	0x3e190c2e	0.14946052
249	0xbe07a35d	-0.13245912
250	0x3d8af072	0.067841426
251	0xbc807887	-0.015682472
252	0x3e3721bd	0.17883964
253	0xbdb20a2f	-0.086933486
254	0x3d2f01b4	0.042726234
255	0xbe206dbb	-0.15666859

action_model._continuous_distribution.mu.weight f4 [1, 128]
0	0xba5b9fc0	-0.00083779916
1	0xbc9fe6dd	-0.019519264
2	0xbce98da7	-0.028509928
3	0x39d75412	0.00041070633
4	0xbd1ea9d5	-0.038736183
5	0x3c496d33	0.0122941015
6	0x3b68db73	0.0035531193
7	0x3cb1d382	0.0217073
8	0x3bcdf898	0.006285738
9	0xbbd19463	-0.006395863
10	0xbc6370d5	-0.013881882
11	0xbc9bd59e	-0.019022759
12	0xbcb0c4bc	-0.021578185
13	0xbb8c8a73	-0.0042889654
14	0xbb8af6b2	-0.004240834
15	0xbc3aebea	-0.011408785
16	0xbcdebc0d	-0.027189279
17	0x3c9cd848	0.0191461
18	0xbb8a7ec3	-0.004226537
19	0xbbf03d9d	-0.0073315636
20	0x3d0c1f48	0.03420952
21	0x3c60ecef	0.013728364
22	0xbc827dd0	-0.015929133
23	0xbd115a16	-0.035486303
24	0x3a591ec5	0.0008282478
25	0x3c4cf207	0.012508876
26	0x3cccb383	0.024987942
27	0x3c372b5e	0.011179773
28	0xbc93b6bb	-0.018031469
29	0x3c246ae5	0.010035251
30	0xbc6606b3	-0.014039683
31	0x3b46cce8	0.0030334536
32	0x3b890e52	0.0041826153
33	0x3c224f59	0.009906613
34	0x3c4a3a9c	0.012343075
35	0x3bc1926f	0.005907349
36	0xbc172817	-0.009225867
37	0x3c63d9bf	0.013906895
38	0xbc3c8f9e	-0.01150885
39	0xbb2eaf13	-0.0026654645
40	0x3ced9cb8	0.029005393
41	0xbc0ca7c4	-0.00858492
42	0xbc23cd76	-0.009997716
43	0x3ac21b83	0.0014809225
44	0x3cc235cb	0.023707291
45	0x3c809c8d	0.01569965
46	0xbc5e2b38	-0.013560109
47	0xbbd9093f	-0.0066234167
48	0xbc450154	-0.012024242
49	0xbc0ea199	-0.00870552
50	0xba8e0428	-0.0010834979
51	0xbb91a87c	-0.0044451337
52	0xbb218ffb	-0.002465247
53	0xbd13c970	-0.036080778
54	0x3c8ef330	0.017449945
55	0xbd2565de	-0.04038035
56	0xbc2844b8	-0.01027029
57	0xbcd9552d	-0.026529873
58	0x3c7bbd3d	0.015364942
59	0x3c0c9eab	0.008582751
60	0x3c4e4a02	0.012590887
61	0xbc8d0453	-0.017213976
62	0xbceeba5d	-0.0291416
63	0xbbe50762	-0.0069894055
64	0x3cd7d17a	0.026345003
65	0xbbc4a522	-0.0060011307
66	0xbb3d9148	-0.0028925706
67	0xbc232bf5	-0.009959211
68	0x3bac3b23	0.005256073
69	0xbb9522f4	-0.004551286
70	0xbb1ca22b	-0.002390037
71	0x3c62219b	0.0138019575
72	0x3cbeea0b	0.02330496
73	0xbbe90888	-0.0071116127
74	0x3c05203e	0.008125363
75	0xbc8490c1	-0.016182305
76	0xbb1a1931	-0.002351355
77	0xbb8af4fa	-0.0042406293
78	0x3ca057ad	0.019573057
79	0x3cc0f34c	0.023553513
80	0xbbd3355a	-0.006445569
81	0xbc81ad87	-0.015829815
82	0x3c31eebf	0.010860144
83	0x3cd0dea8	0.025496796
84	0x3c88406b	0.01663228
85	0xbcecf5aa	-0.028925736
86	0x3cbedab3	0.023297643
87	0xbc0ebc40	-0.0087118745
88	0x3bbba42c	0.005726358
89	0x3cb5b9e3	0.022183364
90	0xbb93b9e4	-0.004508244
91	0x3c1da287	0.009621269
92	0xbc8cba13	-0.01717857
93	0xbc645977	-0.013937346
94	0xbb2aa2bd	-0.002603694
95	0x3c52d6e7	0.0128686195
96	0x3c0910c4	0.008365814
97	0x3d6174c3	0.055042993
98	0x3cfe85b3	0.031069612
99	0x3a6a53c8	0.0008938876
100	0xbd00e76a	-0.031470694
101	0x3d2b020a	0.04174999
102	0x3cc9446f	0.024568764
103	0x3c0fde3d	0.008781013
104	0xbce84d40	-0.028357148
105	0xbb931fd7	-0.0044898796
106	0xbd14fd86	-0.03637459
107	0x3ce17762	0.027522746
108	0x3b67516f	0.003529634
109	0x3cb62396	0.022233766
110	0x3d009f13	0.031401705
111	0xbc8a91ab	-0.016915163
112	0xbca1881b	-0.01971822
113	0xbc62cfd5	-0.013843496
114	0x3cd1810f	0.025574235
115	0xbb58999a	-0.0033050538
116	0xbb2e8248	-0.0026627947
117	0x3c2aaebe	0.010417638
118	0x3bfce627	0.007717866
119	0x3c19fe54	0.009399015
120	0xbcbf55f3	-0.023356413
121	0xbd0918f3	-0.03347106
122	0xbccdfbf0	-0.025144547
123	0x3ae048a0	0.0017111488
124	0xbc0ac2f4	-0.008469332
125	0x3c353ca1	0.011061818
126	0xbad91c4f	-0.0016564223
127	0x3c952664	0.018206783
