Client/results/test1/Move to target/Move to target-0.pt (torch, 145772 bytes, 11 tensors)

network_body._body_endoder.seq_layers.0.weight f4 [128, 1]
0.2528844 0.6297162 0.9222038 -0.10632064 -0.16191633 -1.3543108 -0.18321994 0.3692449
1.4809239 2.057935 0.3539498 -1.0770719 0.6598233 0.97033745 0.32343996 0.025681924
0.18970011 -0.7042634 0.35425207 0.76928395 -1.4762034 -1.8334588 0.5931011 -0.47280812
-1.7621801 0.25561053 0.08255548 0.5669659 1.275658 0.4776494 -1.2615681 -1.1374043
-0.26032504 -1.464626 0.47084746 -0.42278525 0.7019421 0.27389988 1.5698961 0.118377596
1.112122 -1.2705854 0.27930155 0.9008312 0.2458334 0.48579675 1.2498714 1.3154182
0.30457127 0.2320703 0.40911353 -0.16548201 0.9244694 0.20629613 0.0073416894 0.64238375
-0.66092193 0.55309725 0.9827601 1.9550506 -0.63221663 0.6717205 1.1618934 0.33028308
1.9409992 1.497346 0.4530818 -0.25727147 0.21827501 -0.07066597 -0.029722437 0.5732621
-0.16420017 1.2390093 -0.2688718 -0.045512494 2.0139334 0.5186607 0.49472827 0.25189647
0.313355 0.03236648 -0.93857974 0.020588811 -0.26655376 -0.5581647 -1.5983129 -0.5312116
-0.19059375 0.16255501 0.36132514 0.6848586 0.39048848 0.53510064 1.1063193 -0.18638848
-2.6653187 -1.9005754 0.35068867 -0.51671815 0.10164195 -0.8006681 -0.17772973 0.0018768822
-0.4018023 0.61923474 -0.9882786 0.6973921 -0.9847582 -1.7345109 0.3286883 -0.15645406
1.6761308 0.18443264 -0.68868375 0.504183 -0.037613943 1.7221135 0.094539784 0.49989983
-0.5184968 0.1699744 1.1767716 -0.07285133 0.7566809 -0.008936548 0.5255966 0.93662834
00000000: 107a 813e 1535 213f 8c15 6c3f a3be d9bd
00000010: 65cd 25be 0e5a adbf 029e 3bbe ab0d bd3e
00000020: ea8e bd3f 35b5 0340 e838 b53e 7edd 89bf
00000030: 2eea 283f 0968 783f ec99 a53e e662 d23c
00000040: bf40 423e 9b4a 34bf 8760 b53e cbef 443f
00000050: 3cf4 bcbf c7ae eabf 79d5 173f e813 f2be
00000060: 1e8f e1bf 62df 823e d912 a93d ad24 113f
00000070: c348 a33f 768e f43e 107b a1bf 7796 91bf
00000080: 5349 85be dd78 bbbf eb12 f13e 4f77 d8be
00000090: 7ab2 333f 9b3c 8c3e 5bf2 c83f f46f f23d
000000a0: 045a 8e3f 8ba2 a2bf 9d00 8f3e e09c 663f
000000b0: c0bb 7b3e 5aba f83e c9fb 9f3f a05f a83f
000000c0: c4f0 9b3e d6a3 6d3e 5477 d13e 1e74 29be
000000d0: 07aa 6c3f 4b3f 533e 8e92 f03b 4373 243f
000000e0: 2e32 29bf c897 0d3f 2a96 7b3f 193f fa3f
000000f0: f3d8 21bf e0f5 2b3f ecb8 943f dd1a a93e
00000100: a972 f83f 09a9 bf3f 56fa e73e 16b9 83be
00000110: 7c83 5f3e 52b9 90bd 787c f3bc 4ec1 123f
00000120: 1724 28be db97 9e3f 91a9 89be 4f6b 3abd
00000130: 49e4 0040 f3c6 043f 064d fd3e 93f8 803e
00000140: 1170 a03e b792 043d c346 70bf dea9 a83c
00000150: bc79 88be e2e3 0ebf 8495 ccbf 7cfd 07bf
00000160: 022b 43be d274 263e 9cff b83e e552 2f3f
00000170: 1bee c73e 5bfc 083f df9b 8d3f 9fdc 3ebe
00000180: 9594 2ac0 0e46 f3bf 778d b33e a447 04bf
00000190: a829 d03d 96f8 4cbf c8fe 35be b701 f63a
000001a0: 08b9 cdbe 2b86 1e3f d4ff 7cbf 4a88 323f
000001b0: 1d19 7cbf 7404 debf d549 a83e 7e35 20be
000001c0: 748b d63f e9db 3c3e 944d 30bf 2312 013f
000001d0: 1411 1abd 376e dc3f 139e c13d dff2 ff3e
000001e0: 35bc 04bf c50d 2e3e 74a0 963f 1433 95bd
000001f0: d7b5 413f 996a 12bc 808d 063f e0c6 6f3f

network_body._body_endoder.seq_layers.0.bias f4 [128]
0.0 0.0 0.0 0.0 0.0 0.0 0.0 0.0
0.0 0.0 0.0 0.0 0.0 0.0 0.0 0.0
0.0 0.0 0.0 0.0 0.0 0.0 0.0 0.0
0.0 0.0 0.0 0.0 0.0 0.0 0.0 0.0
0.0 0.0 0.0 0.0 0.0 0.0 0.0 0.0
0.0 0.0 0.0 0.0 0.0 0.0 0.0 0.0
0.0 0.0 0.0 0.0 0.0 0.0 0.0 0.0
0.0 0.0 0.0 0.0 0.0 0.0 0.0 0.0
0.0 0.0 0.0 0.0 0.0 0.0 0.0 0.0
0.0 0.0 0.0 0.0 0.0 0.0 0.0 0.0
0.0 0.0 0.0 0.0 0.0 0.0 0.0 0.0
0.0 0.0 0.0 0.0 0.0 0.0 0.0 0.0
0.0 0.0 0.0 0.0 0.0 0.0 0.0 0.0
0.0 0.0 0.0 0.0 0.0 0.0 0.0 0.0
0.0 0.0 0.0 0.0 0.0 0.0 0.0 0.0
0.0 0.0 0.0 0.0 0.0 0.0 0.0 0.0
00000000: 0000 0000 0000 0000 0000 0000 0000 0000
00000010: 0000 0000 0000 0000 0000 0000 0000 0000
00000020: 0000 0000 0000 0000 0000 0000 0000 0000
00000030: 0000 0000 0000 0000 0000 0000 0000 0000
00000040: 0000 0000 0000 0000 0000 0000 0000 0000
00000050: 0000 0000 0000 0000 0000 0000 0000 0000
00000060: 0000 0000 0000 0000 0000 0000 0000 0000
00000070: 0000 0000 0000 0000 0000 0000 0000 0000
00000080: 0000 0000 0000 0000 0000 0000 0000 0000
00000090: 0000 0000 0000 0000 0000 0000 0000 0000
000000a0: 0000 0000 0000 0000 0000 0000 0000 0000
000000b0: 0000 0000 0000 0000 0000 0000 0000 0000
000000c0: 0000 0000 0000 0000 0000 0000 0000 0000
000000d0: 0000 0000 0000 0000 0000 0000 0000 0000
000000e0: 0000 0000 0000 0000 0000 0000 0000 0000
000000f0: 0000 0000 0000 0000 0000 0000 0000 0000
00000100: 0000 0000 0000 0000 0000 0000 0000 0000
00000110: 0000 0000 0000 0000 0000 0000 0000 0000
00000120: 0000 0000 0000 0000 0000 0000 0000 0000
00000130: 0000 0000 0000 0000 0000 0000 0000 0000
00000140: 0000 0000 0000 0000 0000 0000 0000 0000
00000150: 0000 0000 0000 0000 0000 0000 0000 0000
00000160: 0000 0000 0000 0000 0000 0000 0000 0000
00000170: 0000 0000 0000 0000 0000 0000 0000 0000
00000180: 0000 0000 0000 0000 0000 0000 0000 0000
00000190: 0000 0000 0000 0000 0000 0000 0000 0000
000001a0: 0000 0000 0000 0000 0000 0000 0000 0000
000001b0: 0000 0000 0000 0000 0000 0000 0000 0000
000001c0: 0000 0000 0000 0000 0000 0000 0000 0000
000001d0: 0000 0000 0000 0000 0000 0000 0000 0000
000001e0: 0000 0000 0000 0000 0000 0000 0000 0000
000001f0: 0000 0000 0000 0000 0000 0000 0000 0000

network_body._body_endoder.seq_layers.2.weight f4 [128, 128]
0.006138998 0.00051563984 -0.13320948 0.098132044 -0.13496348 -0.046533804 0.03088074 -0.0020862482
-0.11523352 -0.10085461 0.054388262 -0.019166265 -0.026637893 -0.06544803 -0.11783386 0.021939281
0.098873846 -0.14355405 0.0973842 -0.014987684 -0.047532387 -0.22289425 0.009138597 0.0975981
-0.071334764 -0.051823102 -0.10335164 -0.12089307 0.053744297 0.018172018 -0.05225716 0.0028615338
0.10650247 0.020165056 0.11843864 0.029803744 0.04411499 0.03810395 0.21424328 0.058556575
-0.018322071 0.14279233 -0.10611591 -0.015015704 0.0049457187 -0.01909449 0.14938939 -0.083644114
-0.25178522 0.10437295 0.09658675 -0.025366576 -0.15094452 0.042432323 -0.06762609 0.012719666
-0.069890484 0.118055984 -0.12333348 -0.09021072 -0.01795066 0.11881325 0.0369627 0.015158732
-0.13833952 0.08659524 0.00999615 -0.020329935 0.047630146 -0.1579721 0.06692466 0.05178953
-0.012760651 0.0878932 0.16827106 0.090903 0.019290753 0.082016155 0.03343893 -0.08155218
0.09783099 -0.05226254 -0.023977887 0.12177823 -0.003516263 -0.004473493 -0.0138607705 0.21209946
0.12116503 -0.0669393 -0.044943314 0.036964428 0.20424058 0.06331808 -0.1729967 0.014357813
-0.084530585 0.15607941 -0.13055737 0.14161864 -0.034166127 0.028997753 -0.10756581 0.07730976
-0.014376481 -0.032929443 0.11703706 0.031058276 -0.006999956 -0.034808803 -0.03842566 -0.10874993
-0.049706507 -0.14280847 0.0069470536 0.12997256 -0.010530241 0.1394808 -0.08145205 0.05828893
-0.02349517 -0.07611923 0.083779365 -0.03612151 -0.16836232 0.10384112 -0.04780758 -0.042884335
-0.04151523 0.09160488 -0.028349696 -0.14395432 -0.10964665 0.11123255 -0.1655373 -0.10885273
0.0052418364 0.022015298 -0.094209224 -0.090861514 0.1555101 0.07195099 0.1699911 0.015112915
0.16466627 -0.053595677 0.051914252 -0.0913894 0.04559754 -0.05259277 0.0048133577 -0.036544316
-0.1108347 -0.09126526 0.07946406 0.013368345 0.024048056 -0.14368261 -0.020968683 -0.025331886
0.08534037 0.26139444 0.08208718 -0.011123884 0.00991461 -0.007597647 0.047009 0.0014290987
0.046151094 0.035571113 0.07460088 0.11647348 0.124375746 0.044752635 -0.080616206 0.15191032
0.0065089446 -0.05452133 0.08128568 0.035555527 -0.008893688 0.0006642151 0.08808706 -0.01033978
-0.07048977 -0.00619455 0.07961687 -0.09808964 0.060139623 -0.12291039 0.063334815 -0.10114455
0.12312363 0.054897323 -0.06555944 0.01622387 -0.13669781 -0.13348465 -0.18045232 -0.0108956145
0.018173382 -0.10503865 0.026362168 0.005247949 -0.028165579 0.17055732 -0.050785676 0.09333464
0.09005517 -0.021497358 0.014541428 0.01701914 0.029619008 0.038087487 0.1000732 0.014740453
-0.04541183 0.09893118 0.038028926 0.0548428 0.03942894 -0.109762244 0.1589266 -0.012405265
-0.036817227 -0.16613033 -0.22845022 -0.06000225 0.049223226 0.2310778 -0.010430205 -0.049901757
-0.11222819 0.11014282 0.046314813 -0.12180573 0.06639033 0.047774907 0.0659119 -0.078519545
-0.017455498 -0.10088287 0.0204916 0.036163427 -0.012897667 0.0863888 0.07591287 0.032030676
0.046225455 0.021686092 0.0007006708 -0.044762675 -0.022433965 0.012296388 0.015807202 0.06684452
00000000: a629 c93b 012c 073a 1168 08be 74f9 c83d
00000010: de33 0abe 3b9a 3ebd 9bf9 fc3c 70b9 08bb
00000020: 8dff ebbd dd8c cebd 3ac6 5e3d 9202 9dbc
00000030: b637 dabc 9e09 86bd e152 f1bd 02ba b33c
00000040: 5f7e ca3d d5ff 12be 5e71 c73d e78e 75bc
00000050: 52b1 42bd 643e 64be 0eba 153c 83e1 c73d
00000060: f617 92bd 7644 54bd 06aa d3bd c996 f7bd
00000070: fb22 5c3d 7cdd 943c 9b0b 56bd 9288 3b3b
00000080: f81d da3d 3031 a53c f58f f23d fb26 f43c
00000090: ebb1 343d e312 1c3d 9762 5b3e 05d9 6f3d
000000a0: 2b18 96bc 2738 123e 4c53 d9bd 6d04 76bc
000000b0: b20f a23b 0c6c 9cbc 88f9 183e 9b4d abbd
000000c0: fee9 80be 7cc1 d53d 46cf c53d 91cd cfbc
000000d0: 3391 1abe 84cd 2d3d 8c7f 8abd 2566 503c
000000e0: be22 8fbd 56c7 f13d 4396 fcbd 66c0 b8bd
000000f0: 430d 93bc 5c54 f33d 3366 173d 555c 783c
00000100: e0a8 0dbe d858 b13d e4c6 233c f78a a6bc
00000110: d417 433d 70c3 21be cc0f 893d 4221 543d
00000120: 0d12 51bc 5a01 b43d 404f 2c3e 5a2b ba3d
00000130: a407 9e3c 16f8 a73d 42f7 083d d404 a7bd
00000140: 9d5b c83d 3f11 56bd 466d c4bc dd66 f93d
00000150: 1b71 66bb 6196 92bb 4918 63bc 9a30 593e
00000160: 5f25 f83d 7917 89bd 7b16 38bd 0368 173d
00000170: 7124 513e e9ac 813d 0c26 31be 083d 6b3c
00000180: 5f1e adbd 48d3 1f3e d5b0 05be 7a04 113e
00000190: c8f1 0bbd b28c ed3c 774b dcbd 9454 9e3d
000001a0: 558b 6bbc 06e1 06bd 20b1 ef3d ed6d fe3c
000001b0: e35f e5bb ad93 0ebd 3a64 1dbd 49b8 debd
000001c0: 0d99 4bbd 623c 12be 1ca4 e33b 8717 053e
000001d0: 0887 2cbc 0ed4 0e3e 55d0 a6bd 60c0 6e3d
000001e0: f178 c0bc 66e4 9bbd 8494 ab3d 26f4 13bd
000001f0: 2c67 2cbe a7aa d43d e2d1 43bd 7ca7 2fbd
00000200: e00b 2abd 579b bb3d 9f3d e8bc c368 13be
00000210: 6c8e e0bd e4cd e33d 9c82 29be 2eee debd
00000220: b6c3 ab3b 6d59 b43c c4f0 c0bd 9a15 babd
00000230: 0a3e 1f3e 0a5b 933d 2612 2e3e 299c 773c
00000240: 469e 283e 2487 5bbd 0aa4 543d 5e2a bbbd
00000250: 7cc4 3a3d 846b 57bd 5fb9 9d3b 7eaf 15bd
00000260: 4efd e2bd 48e9 babd 0ebe a23d e706 5b3c
00000270: 6e00 c53c 8921 13be 84c6 abbc d184 cfbc
00000280: efc6 ae3d 7ed5 853e 531d a83d f340 36bc
00000290: e370 223c aff5 f8bb 828c 403d 9850 bb3a
000002a0: ee08 3d3d 04b3 113d 59c8 983d a689 ee3d
000002b0: b6b8 fe3d 8a4e 373d 1c1a a5bd 618e 1b3e
000002c0: fc48 d53b c251 5fbd 1b79 a63d aca2 113d
000002d0: d5b6 11bc b91e 2e3a fd66 b43d 2e68 29bc
000002e0: f15c 90bd a7fb cabb 2b0e a33d 39e3 c8bd
000002f0: f754 763d 71b8 fbbd afb5 813d e024 cfbd
00000300: 3e28 fc3d 04dc 603d 0744 86bd ece7 843c
00000310: 83fa 0bbe 33b0 08be 7ec8 38be 8583 32bc
00000320: 58e0 943c 811e d7bd 79f5 d73c fdf6 ab3b
00000330: 80bb e6bc 94a6 2e3e a404 50bd 3b26 bf3d
00000340: d86e b83d 3a1b b0bc 2b3f 6e3c b96b 8b3c
00000350: 90a3 f23c a001 1c3d 2ef3 cc3d f181 713c
00000360: c101 3abd 6e9c ca3d 38c4 1b3d d8a2 603d
00000370: 3d80 213d 07cb e0bd a8bd 223e 743f 4bbc
00000380: a9cd 16bd 121e 2abe dbee 69be ebc4 75bd
00000390: 4b9e 493d a99f 6c3e 73e3 2abc c965 4cbd
000003a0: e5d7 e5bd 8f92 e13d 9ab4 3d3d 4875 f9bd
000003b0: a7f7 873d 9faf 433d d1fc 863d dbce a0bd
000003c0: d5fe 8ebc ae9b cebd 00de a73c 1a20 143d
000003d0: bc50 53bc 9cec b03d 3578 9b3d 9932 033d
000003e0: e756 3d3d 08a7 b13c 39ad 373a 1159 37bd
000003f0: 6fc7 b7bc ca76 493c 1b7e 813c c8e5 883d

network_body._body_endoder.seq_layers.2.bias f4 [128]
0.0 0.0 0.0 0.0 0.0 0.0 0.0 0.0
0.0 0.0 0.0 0.0 0.0 0.0 0.0 0.0
0.0 0.0 0.0 0.0 0.0 0.0 0.0 0.0
0.0 0.0 0.0 0.0 0.0 0.0 0.0 0.0
0.0 0.0 0.0 0.0 0.0 0.0 0.0 0.0
0.0 0.0 0.0 0.0 0.0 0.0 0.0 0.0
0.0 0.0 0.0 0.0 0.0 0.0 0.0 0.0
0.0 0.0 0.0 0.0 0.0 0.0 0.0 0.0
0.0 0.0 0.0 0.0 0.0 0.0 0.0 0.0
0.0 0.0 0.0 0.0 0.0 0.0 0.0 0.0
0.0 0.0 0.0 0.0 0.0 0.0 0.0 0.0
0.0 0.0 0.0 0.0 0.0 0.0 0.0 0.0
0.0 0.0 0.0 0.0 0.0 0.0 0.0 0.0
0.0 0.0 0.0 0.0 0.0 0.0 0.0 0.0
0.0 0.0 0.0 0.0 0.0 0.0 0.0 0.0
0.0 0.0 0.0 0.0 0.0 0.0 0.0 0.0
00000000: 0000 0000 0000 0000 0000 0000 0000 0000
00000010: 0000 0000 0000 0000 0000 0000 0000 0000
00000020: 0000 0000 0000 0000 0000 0000 0000 0000
00000030: 0000 0000 0000 0000 0000 0000 0000 0000
00000040: 0000 0000 0000 0000 0000 0000 0000 0000
00000050: 0000 0000 0000 0000 0000 0000 0000 0000
00000060: 0000 0000 0000 0000 0000 0000 0000 0000
00000070: 0000 0000 0000 0000 0000 0000 0000 0000
00000080: 0000 0000 0000 0000 0000 0000 0000 0000
00000090: 0000 0000 0000 0000 0000 0000 0000 0000
000000a0: 0000 0000 0000 0000 0000 0000 0000 0000
000000b0: 0000 0000 0000 0000 0000 0000 0000 0000
000000c0: 0000 0000 0000 0000 0000 0000 0000 0000
000000d0: 0000 0000 0000 0000 0000 0000 0000 0000
000000e0: 0000 0000 0000 0000 0000 0000 0000 0000
000000f0: 0000 0000 0000 0000 0000 0000 0000 0000
00000100: 0000 0000 0000 0000 0000 0000 0000 0000
00000110: 0000 0000 0000 0000 0000 0000 0000 0000
00000120: 0000 0000 0000 0000 0000 0000 0000 0000
00000130: 0000 0000 0000 0000 0000 0000 0000 0000
00000140: 0000 0000 0000 0000 0000 0000 0000 0000
00000150: 0000 0000 0000 0000 0000 0000 0000 0000
00000160: 0000 0000 0000 0000 0000 0000 0000 0000
00000170: 0000 0000 0000 0000 0000 0000 0000 0000
00000180: 0000 0000 0000 0000 0000 0000 0000 0000
00000190: 0000 0000 0000 0000 0000 0000 0000 0000
000001a0: 0000 0000 0000 0000 0000 0000 0000 0000
000001b0: 0000 0000 0000 0000 0000 0000 0000 0000
000001c0: 0000 0000 0000 0000 0000 0000 0000 0000
000001d0: 0000 0000 0000 0000 0000 0000 0000 0000
000001e0: 0000 0000 0000 0000 0000 0000 0000 0000
000001f0: 0000 0000 0000 0000 0000 0000 0000 0000

action_model._discrete_distribution.branches.0.weight f4 [5, 128]
0.0059046187 0.008941716 -0.0073506916 -0.0067092176 -0.0025797337 -0.008890717 0.0048043258 0.015534054
0.0027938054 0.002616522 0.0035337955 -0.004141838 0.0023098965 0.0034848729 0.017118564 0.0016370872
-0.0062679197 -0.0002893889 0.0019642822 -0.0020792661 0.015496656 -0.009883159 -0.0004753918 -0.013646464
0.014171459 0.0074469373 0.0015592142 -0.0016336062 0.004254258 0.008243871 0.015638491 -0.00090187305
0.009475143 0.017673632 0.0057192175 -0.023447124 -0.008872549 0.007454189 -0.0018420123 0.017626608
0.01485758 -0.0025735213 0.00014015245 -0.012752135 0.008970954 -0.00024883394 0.009155082 -0.0023086176
0.025375316 -0.0002095697 -0.00851398 -0.006036961 -0.0029030906 -0.0010206058 0.010064402 -0.00054811564
0.009764766 0.008020459 0.013700879 0.003632138 -0.0008124779 0.007507052 0.012909702 0.00014175956
0.0038760726 0.008049183 -0.0025921836 -0.01080923 -0.00061528705 0.0009176434 0.01502909 0.004200186
-0.00928688 0.0019197194 -0.009651278 -0.008253521 0.01090138 -0.0037861231 0.012562046 -0.022751965
0.021070583 -0.009550243 0.005311473 -0.00561952 0.0027246792 -0.0013228036 0.012700031 0.00502734
0.011329022 -0.0009798602 0.0024703725 0.009663973 -0.006057559 0.020018002 -0.0018069551 0.012740637
-0.019222287 0.0068747513 0.0007684524 0.0028748326 -0.00024339292 0.017718837 0.0033645486 0.0046499204
0.0071243085 0.0058231778 -0.010340333 0.0044936454 0.011935595 0.005994248 -0.013960143 0.01285163
0.0005828318 0.002006648 0.004704475 0.0003490095 0.0016403918 0.0018321768 0.006312663 0.009467429
0.01349771 0.004035273 -0.011675878 0.011173383 -0.011975712 -0.0055197417 -0.010473696 0.0084002
-0.0072714663 -0.0004694659 -0.013614066 -0.012364585 -0.00024722278 -0.0013284917 -0.0071178526 0.01363795
-0.0038094667 -0.0078010657 -0.02088973 0.0021828013 0.0035343 4.5479548e-05 0.0021937918 0.011847592
-0.003959335 -0.00027328782 0.005664852 0.012944423 0.0090057915 -0.005546393 0.007946463 -0.014813103
-0.0010087776 -0.0046308595 0.018637145 0.0063945907 -0.0015820296 0.0054423404 0.0015375118 -0.005888937
0.001343937 -0.002476516 -0.0032203153 0.0012288349 -0.009753963 0.012295804 0.0017853369 0.018284203
2.5670617e-05 -0.013814178 -0.007709759 0.012166062 3.548683e-05 0.0065615857 0.0057687084 0.003554877
0.0009419191 0.0015863804 0.0027664616 0.026185185 0.0010292658 0.0018184427 0.0113200685 0.0050835796
0.005858716 0.00023125128 0.009600816 -0.015106412 0.0043818727 -0.014737137 -0.0043312605 -5.2415977e-05
-0.0007464643 -0.015776692 -0.0030557343 0.0115412725 0.0016676547 -0.02192407 -0.010969206 -0.0007317536
0.010209042 -0.010529229 0.013959961 0.002222029 -0.0046394705 -0.0015546054 -0.0052883564 -0.018822728
0.0028658449 -0.01484163 -0.0103208665 -0.020823097 0.019643096 0.0055892053 0.002522215 0.01726568
0.012210046 0.002203784 0.0062859803 0.0005588499 -0.0072171614 0.010133273 -0.0084364945 0.016937012
0.008600466 0.0032718747 0.00030373124 -0.0026346385 -0.011203654 0.0060425545 0.00134077 0.008239675
0.009725243 0.015114362 0.0030662483 0.004617415 0.004656841 0.010264526 -0.001357528 -0.0023488093
0.0018567778 -0.0019764511 0.0058192257 0.018211668 0.002999503 0.013549599 0.0044419556 -0.010947475
-0.0108701615 -0.0009393996 -0.011124548 0.020780515 -0.004587169 0.008498012 -0.018468274 -0.0063040005
00000000: 887b c13b 4680 123c 12de f0bb ffd8 dbbb
00000010: c010 29bb 5faa 11bc 9b6d 9d3b 8b82 7e3c
00000020: 4718 373b f479 2b3b 4097 673b 41b8 87bb
00000030: a261 173b 7762 643b 3b3c 8c3c 8893 d63a
00000040: 1f63 cdbb 1fb9 97b9 30bb 003b 4c44 08bb
00000050: b0e5 7d3c f9ec 21bc 023e f9b9 6b95 5fbc
00000060: 682f 683c 7005 f43b 8c5e cc3a ba1e d6ba
00000070: 4d67 8b3b 4d11 073c 4b1c 803c ad6b 6cba
00000080: a13d 1b3c 4bc8 903c 4668 bb3b 2f14 c0bc
00000090: 2b5e 11bc 4542 f43b ad6f f1ba ad65 903c
000000a0: 356d 733c 86a8 28bb e3f5 1239 55ee 50bc
000000b0: e9fa 123c ed75 82b9 32ff 153c 2d4c 17bb
000000c0: e5df cf3c f0bf 5bb9 387e 0bbc b3d1 c5bb
000000d0: c741 3ebb d9c5 85ba 29e5 243c 6baf 0fba
000000e0: 66fc 1f3c 3e68 033c a779 603c 2a09 6e3b
000000f0: 78fc 54ba b7fd f53b 3783 533c 4ba5 1439
00000100: b505 7e3b b8e0 033c a0e1 29bb 3219 31bc
00000110: 374b 21ba 028e 703a 933c 763c b7a1 893b
00000120: ff27 18bc 189f fb3a 6520 1ebc c739 07bc
00000130: b49b 323c 9b20 78bb 0ad1 4d3c 5462 babc
00000140: 379c ac3c 9f78 1cbc dd0b ae3b f323 b8bb
00000150: 8890 323b ec61 adba ca13 503c 62bc a43b
00000160: 5d9d 393c a76e 80ba f9e5 213b a455 1e3c
00000170: 7d7e c6bb cbfc a33c 5ad7 ecba 1bbe 503c
00000180: 0f78 9dbc 9845 e13b f871 493a b067 3c3b
00000190: 4a37 7fb9 1827 913c c27f 5c3b 5c5e 983b
000001a0: 0873 e93b 5bd0 be3b 806a 29bc 6e3f 933b
000001b0: 848d 433c 666b c43b 15b9 64bc a58f 523c
000001c0: 2ec9 183a f881 033b ff27 9a3b 43fb b639
000001d0: 6a02 d73a a725 f03a 75da ce3b 461d 1b3c
000001e0: 8025 5d3c 533a 843b 2f4c 3fbc 9110 373c
000001f0: c735 44bc f3de b4bb dd99 2bbc fea0 093c
00000200: 7b45 eebb a522 f6b9 880d 5fbc d494 4abc
00000210: ae9d 81b9 c920 aeba e03c e9bb b571 5f3c
00000220: 3fa8 79bb 15a0 ffbb f020 abbc 540d 0f3b
00000230: b79f 673b 4bc1 3e38 b8c5 0f3b 671c 423c
00000240: 4fbd 81bb 1248 8fb9 39a0 b93b d814 543c
00000250: 078d 133c 84be b5bb e231 023c a8b2 72bc
00000260: f638 84ba 77be 97bb edac 983c b789 d13b
00000270: 1b5c cfba a955 b23b 5686 c93a fcf7 c0bb
00000280: 0b27 b03a 0b4d 22bb ed0b 53bb db10 a13a
00000290: 16cf 1fbc 5774 493c f701 ea3a c1c8 953c
000002a0: 3b57 d737 dd54 62bc 25a2 fcbb 2a54 473c
000002b0: b2d7 1438 9202 d73b 6f07 bd3b f0f8 683b
000002c0: 1feb 763a 18ee cf3a 864d 353b 5082 d63c
000002d0: 6ee8 863a d058 ee3a cf77 393c 2894 a63b
000002e0: 79fa bf3b 0b7c 7239 be4c 1d3c e280 77bc
000002f0: d095 8f3b 0874 71bc 3fed 8dbb 3ad9 5bb8
00000300: 5fae 43ba 1f3e 81bc b742 48bb 9b17 3d3c
00000310: 3595 da3a 1b9a b3bc 2fb8 33bc 27d3 3fba
00000320: d343 273c ca82 2cbc 52b8 643c 769f 113b
00000330: b306 98bb e7c3 cbba f349 adbb 1f32 9abc
00000340: e6d0 3b3b 4f2a 73bc da18 29bc 3395 aabc
00000350: 8fea a03c a725 b73b bf4b 253b c170 8d3c
00000360: a50c 483c 5c6d 103b a0fa cd3b c87f 123a
00000370: f07d ecbb 0706 263c 3939 0abc 7dbf 8a3c
00000380: f8e8 0c3c f36c 563b 1e3e 9f39 e6a9 2cbb
00000390: 888f 37bc 9f00 c63b c7bc af3a b4ff 063c
000003a0: a056 1f3c 3ba2 773c 1cf3 483b af4d 973b
000003b0: 6a98 983b 8b2c 283c 15ef b1ba 7bee 19bb
000003c0: 205f f33a 5987 01bb 34af be3b a330 953c
000003d0: 4f93 443b 23ff 5d3c d38d 913b 0a5d 33bc
000003e0: c318 32bc 0a42 76ba bc43 36bc e63b aa3c
000003f0: f64f 96bb 3f3b 0b3c c74a 97bc ca91 cebb

action_model._discrete_distribution.branches.0.bias f4 [5]
0.0 0.0 0.0 0.0 0.0
00000000: 0000 0000 0000 0000 0000 0000 0000 0000
00000010: 0000 0000

network_body._body_endoder.seq_layers.0.weight f4 [128, 1]
-0.7289433 0.7608494 0.4807533 -1.939288 1.2583184 -0.08359446 0.71509075 -1.1349363
0.5395423 -0.7004915 0.9915535 0.86351675 -0.2700406 0.19016407 -0.9186519 1.1822929
-0.120012335 0.30849692 -1.1083741 -0.5258833 1.0253758 -0.23166953 0.1428479 -0.09421261
-0.44599977 1.3525882 0.3436284 -1.1476011 -0.5995222 -1.091697 0.11864703 -1.3484384
0.11297202 1.1217884 2.1714702 -0.10581408 0.81704867 -0.82680756 -1.4827545 -1.1935431
1.4435197 1.8562592 -0.30531222 1.0003746 -0.123626634 -0.6381011 -0.24620463 0.818012
1.5879322 0.2668507 0.15575877 0.9659343 0.58819765 1.8009951 0.49839267 -1.2627287
-0.73315436 0.4906884 0.5080587 0.6114963 1.0713379 -0.3690263 -0.39985245 -2.2705715
0.23983714 -2.32978 -0.47209716 -1.4835835 2.227135 0.5821899 0.4086978 -1.4466119
1.1314361 0.45407987 -1.8985566 -1.373242 -0.10534372 0.4570047 -0.4219098 -0.016537728
0.48834956 0.4467797 -1.256359 -0.56764483 1.1117009 -0.108183704 0.7189727 0.16405039
-0.32138443 1.2721089 0.14078262 2.0114334 0.113653325 0.23402019 -0.5237363 -0.52416366
-2.4514587 -0.77541083 -0.0829932 0.50279695 -0.14701617 -0.9014514 -0.95731986 -0.084510446
1.11655 -1.488373 0.18988632 -0.45173806 -0.63071656 0.25365615 1.3224958 0.46612203
-0.44611397 0.13046838 -0.6631587 -1.0183771 0.3323536 -2.0442023 1.329489 -0.89768624
-0.82064927 -0.9210911 0.44517887 -1.6536405 -0.31792617 0.7203019 -1.389368 -0.6949307
00000000: 079c 3abf 07c7 423f 4c25 f63e 973a f8bf
00000010: 9410 a13f 9233 abbd 3010 373f 9845 91bf
00000020: 721f 0a3f 6953 33bf 73d6 7d3f 6f0f 5d3f
00000030: c342 8abe 5fba 423e c52c 6bbf 6055 973f
00000040: 07c9 f5bd 4ff3 9d3e 34df 8dbf 4aa0 06bf
00000050: 843f 833f c73a 6dbe b846 123e 8af2 c0bd
00000060: 155a e4be 9c21 ad3f 10f0 af3e 98e4 92bf
00000070: 497a 19bf babc 8bbf 37fd f23d a199 acbf
00000080: e05d e73d c396 8f3f 5ef9 0a40 0db5 d8bd
00000090: 1a2a 513f a9a9 53bf e6ca bdbf 05c6 98bf
000000a0: 41c5 b83f e799 ed3f e251 9cbe 460c 803f
000000b0: f62f fdbd 985a 23bf 111d 7cbe 3c69 513f
000000c0: 5d41 cb3f a8a0 883e 3a7f 1f3e 7847 773f
000000d0: 1f94 163f 0287 e63f 532d ff3e 18a1 a1bf
000000e0: 01b0 3bbf 833b fb3e 2310 023f 068b 1c3f
000000f0: 9a21 893f 04f1 bcbe 76b9 ccbe 0b51 11c0
00000100: de97 753e 1e1b 15c0 b8b6 f1be 10e6 bdbf
00000110: 6189 0e40 660a 153f d740 d13e 942a b9bf
00000120: e6d2 903f 287d e83e e703 f3bf 65c6 afbf
00000130: 73be d7bd 85fc e93e 9004 d8be 217a 87bc
00000140: f408 fa3e 4fc0 e43e 5fd0 a0bf 2c51 11bf
00000150: 374c 8e3f 6b8f ddbd 980e 383f d3fc 273e
00000160: 808c a4be 77d4 a23f 5229 103e 53bb 0040
00000170: 13c3 e83d fda2 6f3e 9513 06bf 972f 06bf
00000180: b3e4 1cc0 5381 46bf 57f8 a9bd 4db7 003f
00000190: 688b 16be 85c5 66bf ea12 75bf d013 adbd
000001a0: 1ceb 8e3f 0283 bebf 8f71 423e 364a e7be
000001b0: a476 21bf 38df 813e 8b47 a93f 8ca7 ee3e
000001c0: 0d69 e4be 8199 053e c5c4 29bf 2e5a 82bf
000001d0: 402a aa3e 36d4 02c0 b22c aa3f c4ce 65bf
000001e0: 1216 52bf a0cc 6bbf 7cee e33e 7eaa d3bf
000001f0: 38c7 a2be b565 383f d0d6 b1bf fae6 31bf

network_body._body_endoder.seq_layers.0.bias f4 [128]
0.0 0.0 0.0 0.0 0.0 0.0 0.0 0.0
0.0 0.0 0.0 0.0 0.0 0.0 0.0 0.0
0.0 0.0 0.0 0.0 0.0 0.0 0.0 0.0
0.0 0.0 0.0 0.0 0.0 0.0 0.0 0.0
0.0 0.0 0.0 0.0 0.0 0.0 0.0 0.0
0.0 0.0 0.0 0.0 0.0 0.0 0.0 0.0
0.0 0.0 0.0 0.0 0.0 0.0 0.0 0.0
0.0 0.0 0.0 0.0 0.0 0.0 0.0 0.0
0.0 0.0 0.0 0.0 0.0 0.0 0.0 0.0
0.0 0.0 0.0 0.0 0.0 0.0 0.0 0.0
0.0 0.0 0.0 0.0 0.0 0.0 0.0 0.0
0.0 0.0 0.0 0.0 0.0 0.0 0.0 0.0
0.0 0.0 0.0 0.0 0.0 0.0 0.0 0.0
0.0 0.0 0.0 0.0 0.0 0.0 0.0 0.0
0.0 0.0 0.0 0.0 0.0 0.0 0.0 0.0
0.0 0.0 0.0 0.0 0.0 0.0 0.0 0.0
00000000: 0000 0000 0000 0000 0000 0000 0000 0000
00000010: 0000 0000 0000 0000 0000 0000 0000 0000
00000020: 0000 0000 0000 0000 0000 0000 0000 0000
00000030: 0000 0000 0000 0000 0000 0000 0000 0000
00000040: 0000 0000 0000 0000 0000 0000 0000 0000
00000050: 0000 0000 0000 0000 0000 0000 0000 0000
00000060: 0000 0000 0000 0000 0000 0000 0000 0000
00000070: 0000 0000 0000 0000 0000 0000 0000 0000
00000080: 0000 0000 0000 0000 0000 0000 0000 0000
00000090: 0000 0000 0000 0000 0000 0000 0000 0000
000000a0: 0000 0000 0000 0000 0000 0000 0000 0000
000000b0: 0000 0000 0000 0000 0000 0000 0000 0000
000000c0: 0000 0000 0000 0000 0000 0000 0000 0000
000000d0: 0000 0000 0000 0000 0000 0000 0000 0000
000000e0: 0000 0000 0000 0000 0000 0000 0000 0000
000000f0: 0000 0000 0000 0000 0000 0000 0000 0000
00000100: 0000 0000 0000 0000 0000 0000 0000 0000
00000110: 0000 0000 0000 0000 0000 0000 0000 0000
00000120: 0000 0000 0000 0000 0000 0000 0000 0000
00000130: 0000 0000 0000 0000 0000 0000 0000 0000
00000140: 0000 0000 0000 0000 0000 0000 0000 0000
00000150: 0000 0000 0000 0000 0000 0000 0000 0000
00000160: 0000 0000 0000 0000 0000 0000 0000 0000
00000170: 0000 0000 0000 0000 0000 0000 0000 0000
00000180: 0000 0000 0000 0000 0000 0000 0000 0000
00000190: 0000 0000 0000 0000 0000 0000 0000 0000
000001a0: 0000 0000 0000 0000 0000 0000 0000 0000
000001b0: 0000 0000 0000 0000 0000 0000 0000 0000
000001c0: 0000 0000 0000 0000 0000 0000 0000 0000
000001d0: 0000 0000 0000 0000 0000 0000 0000 0000
000001e0: 0000 0000 0000 0000 0000 0000 0000 0000
000001f0: 0000 0000 0000 0000 0000 0000 0000 0000

network_body._body_endoder.seq_layers.2.weight f4 [128, 128]
0.07063699 -0.08405123 -0.051449515 0.03375188 -0.035890076 -0.1312317 0.11701623 -0.027385447
-0.15853444 0.017755074 0.17090127 -0.0724128 -0.046363376 -0.050539307 0.039586365 0.02028481
-0.081661776 0.10986443 -0.054024484 -0.111363254 0.11137722 0.14129639 -0.033961743 -0.014245263
-0.02433322 0.12328739 -0.014692335 0.12096024 -0.051622633 0.21923643 -0.028183207 -0.021532014
-0.024124153 -0.002253733 -0.11001456 0.05736078 0.05947123 -0.053421766 -0.080818444 0.032624852
-0.06075485 -0.016987314 0.0701316 -0.08617055 -0.16094941 -0.002138996 0.022003466 -0.085842855
0.06489978 -0.0335494 0.09067121 0.031048413 -0.041871164 0.07376075 0.022192048 -0.035488464
-0.22417259 0.10641191 -0.10559075 0.0864892 -0.088942945 0.12823446 -0.044207707 -0.09315418
-0.035424516 0.03424712 0.060409576 -0.058116805 0.1438672 -0.14501747 -0.14714427 -0.025516171
-0.02701992 -0.0740199 0.028904585 -0.11198567 -0.031896535 -0.04697825 0.12730129 0.07573547
0.021213122 -0.022668118 0.04538439 -0.018996088 0.04540596 -0.124124184 0.030840963 0.13111961
-0.060185056 0.088057354 -0.08503039 -0.024220996 0.14782739 0.10634645 0.020654453 0.00086048304
-0.0512951 -0.010182501 -0.07212657 0.05903499 0.016212938 -0.13569623 0.024846874 0.05748094
-0.06820306 -0.020282764 -0.078707166 0.025125282 0.038619854 0.063753664 0.10817335 -0.048280895
0.13664766 0.13410062 -0.053340428 -0.0734546 0.027273301 -0.097092904 0.1100228 0.0702204
-0.060102858 -0.057979655 0.04466371 -0.06742834 0.01062424 0.00024321598 0.06286962 0.0743793
-0.16001205 0.014535792 0.046050973 -0.042087074 -0.06193429 0.06742004 -0.15191293 0.16002372
-0.07517852 0.028275438 -0.023738164 -0.005565128 -0.08118389 -0.09052505 -0.071918294 0.042684518
0.062022384 -0.07042573 -0.05042995 0.05113571 0.20981194 -0.016880563 0.15328296 0.07608274
-0.09601315 -0.101826765 0.010719603 0.07043943 -0.34509376 -0.033311166 0.056174725 -0.068236604
-0.07998417 -0.0069601075 0.023965823 0.01826473 0.019233156 0.086104214 -0.029584356 -0.08170708
-0.13106047 0.00051342923 -0.09079652 0.07546988 -0.16489363 0.033321906 0.005368433 -0.0061862636
0.07153531 -0.007985424 -0.06370658 0.14144425 -0.017615799 -0.0069459393 0.047258522 -0.038275063
0.036002584 -0.08130768 -0.106245816 -0.14839222 -0.07675273 0.13236678 -0.020378206 -0.10129095
-0.10247025 0.0678845 0.11222521 -0.11142536 0.022149324 0.0032253359 -0.12221199 -0.05000749
0.10861552 -0.11536214 -0.061972376 -0.028205402 -0.009142729 -0.13472906 0.10100968 0.081435636
0.029088156 0.019519132 0.09014791 0.05107335 -0.03817445 -0.04158471 -0.01241334 0.051455665
0.068950936 0.1077396 -0.0024604616 0.006731925 0.25053355 0.045773424 0.16158827 -0.024647603
-0.002948884 -0.031109218 0.04825729 -0.13212223 0.08982342 -0.062159624 0.027998317 -0.08593478
-0.03068471 0.020519203 -0.021141995 0.06973294 0.03616608 -0.0018632456 0.10438554 0.18660511
0.07560556 -0.024072893 -0.020932307 -0.13287205 0.023775266 -0.106671266 0.10851944 -0.005337679
0.10850016 0.12168644 0.06360899 0.12225544 -0.0821111 -0.12920845 0.07149407 -0.045478452
00000000: 20aa 903d 0d23 acbd babc 52bd 693f 0a3d
00000010: 7901 13bd 9a61 06be 35a6 ef3d 7257 e0bc
00000020: da56 22be 1773 913c be00 2f3e 294d 94bd
00000030: 86e7 3dbd 4e02 4fbd 5025 223d 542c a63c
00000040: 4a3e a7bd 9a00 e13d c748 5dbd 6b12 e4bd
00000050: bd19 e43d 00b0 103e 781b 0bbd f764 69bc
00000060: 7656 c7bc 197e fc3d 1fb8 70bc 01ba f73d
00000070: 4172 53bd 847f 603e 78e0 e6bc e863 b0bc
00000080: 04a0 c5bc 5eb3 13bb 504f e1bd 23f3 6a3d
00000090: 1b98 733d c8d0 5abd 2484 a5bd a3a1 053d
000000a0: 14da 78bd fb28 8bbc 28a1 8f3d 2f7a b0bd
000000b0: eccf 24be 662e 0cbb 9d40 b43c 61ce afbd
000000c0: 2dea 843d 186b 09bd d4b1 b93d 3e59 fe3c
000000d0: 1981 2bbd e00f 973d 19cc b53c 5a5c 11bd
000000e0: 808d 65be 7dee d93d f73f d8bd 4021 b13d
000000f0: b827 b6bd e54f 033e 2413 35bd 9ec7 bebd
00000100: 4c19 11bd b546 0c3d 0870 773d e30b 6ebd
00000110: ec51 133e 767f 14be fdac 16be 4a07 d1bc
00000120: e158 ddbc bf97 97bd 4fc9 ec3c be58 e5bd
00000130: f1a5 02bd 446c 40bd 455b 023e 331b 9b3d
00000140: 24c7 ad3c 7db2 b9bc fbe4 393d af9d 9bbc
00000150: 9afb 393d d234 febd 30a6 fc3c 3844 063e
00000160: 9b84 76bd 6a57 b43d 6a24 aebd 1c6b c6bc
00000170: 1060 173e 2bcc d93d 8733 a93c 0a92 613a
00000180: d01a 52bd 81d4 26bc 18b7 93bd acce 713d
00000190: ffd0 843c f4f3 0abe ac8b cb3c 2271 6b3d
000001a0: 0cae 8bbd 0a28 a6bc 3931 a1bd 89d3 cd3c
000001b0: da2f 1e3d 4891 823d fd89 dd3d 30c2 45bd
000001c0: 5ded 0b3e ac51 093e 7e7b 5abd 5e6f 96bd
000001d0: 426c df3c a5d8 c6bd a253 e13d b7cf 8f3d
000001e0: 6a2e 76bd 137c 6dbd 4bf1 363d df17 8abd
000001f0: 4b11 2e3c cb07 7f39 cac1 803d 2d54 983d
00000200: 33da 23be 8827 6e3c f29f 3c3d 7f63 2cbd
00000210: cfae 7dbd 8513 8a3d 108f 1bbe 42dd 233e
00000220: 32f7 99bd e4a1 e73c 8a76 c2bc ad5b b6bb
00000230: bd43 a6bd 3365 b9bd e649 93bd f6d5 2e3d
00000240: 2f0b 7e3d 5d3b 90bd a38f 4ebd ae73 513d
00000250: f1d8 563e 1b49 8abc 35f6 1c3e 45d1 9b3d
00000260: 8ba2 c4bd 8d8a d0bd 46a1 2f3c 8c42 903d
00000270: 21b0 b0be 4a71 08bd 7817 663d a2bf 8bbd
00000280: bece a3bd 9d11 e4bb f953 c43c ea9f 953c
00000290: da8e 9d3c 6857 b03d e45a f2bc 0b56 a7bd
000002a0: b734 06be a797 063a 87f3 b9bd f48f 9a3d
000002b0: e0d9 28be 8d7c 083d aee9 af3b 24b6 cabb
000002c0: 1b81 923d 4cd5 02bc 9878 82bd c3d6 103e
000002d0: 024f 90bc c39a e3bb 2792 413d 50c6 1cbd
000002e0: 7277 133d a484 a6bd 6897 d9bd 21f4 17be
000002f0: 8930 9dbd 288b 073e 32f0 a6bc a171 cfbd
00000300: ecdb d1bd 0707 8b3d 55d6 e53d fb32 e4bd
00000310: 8072 b53c 2860 533b 484a fabd a7d4 4cbd
00000320: d071 de3d fc42 ecbd bfd6 7dbd 040f e7bc
00000330: 63cb 15bc 6af6 09be 2ade ce3d bac7 a63d
00000340: 494a ee3c 96e6 9f3c 789f b83d 4a32 513d
00000350: d05c 1cbd bb54 2abd 5261 4bbc 2dc3 523d
00000360: 2636 8d3d 94a6 dc3d b23f 21bb 7b97 dc3b
00000370: ef45 803e ea7c 3b3d 6577 253e c5e9 c9bc
00000380: 1042 41bb c2d8 febc 70a9 453d 0d4b 07be
00000390: 57f5 b73d 179b 7ebd ba5c e53c 93fe afbd
000003a0: 805e fbbc e317 a83c fa31 adbc 25d0 8e3d
000003b0: e222 143d 2638 f4ba 16c8 d53d 6915 3f3e
000003c0: 16d7 9a3d 8434 c5bc 3b7a abbc 9c0f 08be
000003d0: 59c4 c23c 7776 dabd 713f de3d b2e7 aebb
000003e0: 5535 de3d be36 f93d 6e45 823d 0f61 fa3d
000003f0: dd29 a8bd 384f 04be 7c6b 923d 9d47 3abd

network_body._body_endoder.seq_layers.2.bias f4 [128]
0.0 0.0 0.0 0.0 0.0 0.0 0.0 0.0
0.0 0.0 0.0 0.0 0.0 0.0 0.0 0.0
0.0 0.0 0.0 0.0 0.0 0.0 0.0 0.0
0.0 0.0 0.0 0.0 0.0 0.0 0.0 0.0
0.0 0.0 0.0 0.0 0.0 0.0 0.0 0.0
0.0 0.0 0.0 0.0 0.0 0.0 0.0 0.0
0.0 0.0 0.0 0.0 0.0 0.0 0.0 0.0
0.0 0.0 0.0 0.0 0.0 0.0 0.0 0.0
0.0 0.0 0.0 0.0 0.0 0.0 0.0 0.0
0.0 0.0 0.0 0.0 0.0 0.0 0.0 0.0
0.0 0.0 0.0 0.0 0.0 0.0 0.0 0.0
0.0 0.0 0.0 0.0 0.0 0.0 0.0 0.0
0.0 0.0 0.0 0.0 0.0 0.0 0.0 0.0
0.0 0.0 0.0 0.0 0.0 0.0 0.0 0.0
0.0 0.0 0.0 0.0 0.0 0.0 0.0 0.0
0.0 0.0 0.0 0.0 0.0 0.0 0.0 0.0
00000000: 0000 0000 0000 0000 0000 0000 0000 0000
00000010: 0000 0000 0000 0000 0000 0000 0000 0000
00000020: 0000 0000 0000 0000 0000 0000 0000 0000
00000030: 0000 0000 0000 0000 0000 0000 0000 0000
00000040: 0000 0000 0000 0000 0000 0000 0000 0000
00000050: 0000 0000 0000 0000 0000 0000 0000 0000
00000060: 0000 0000 0000 0000 0000 0000 0000 0000
00000070: 0000 0000 0000 0000 0000 0000 0000 0000
00000080: 0000 0000 0000 0000 0000 0000 0000 0000
00000090: 0000 0000 0000 0000 0000 0000 0000 0000
000000a0: 0000 0000 0000 0000 0000 0000 0000 0000
000000b0: 0000 0000 0000 0000 0000 0000 0000 0000
000000c0: 0000 0000 0000 0000 0000 0000 0000 0000
000000d0: 0000 0000 0000 0000 0000 0000 0000 0000
000000e0: 0000 0000 0000 0000 0000 0000 0000 0000
000000f0: 0000 0000 0000 0000 0000 0000 0000 0000
00000100: 0000 0000 0000 0000 0000 0000 0000 0000
00000110: 0000 0000 0000 0000 0000 0000 0000 0000
00000120: 0000 0000 0000 0000 0000 0000 0000 0000
00000130: 0000 0000 0000 0000 0000 0000 0000 0000
00000140: 0000 0000 0000 0000 0000 0000 0000 0000
00000150: 0000 0000 0000 0000 0000 0000 0000 0000
00000160: 0000 0000 0000 0000 0000 0000 0000 0000
00000170: 0000 0000 0000 0000 0000 0000 0000 0000
00000180: 0000 0000 0000 0000 0000 0000 0000 0000
00000190: 0000 0000 0000 0000 0000 0000 0000 0000
000001a0: 0000 0000 0000 0000 0000 0000 0000 0000
000001b0: 0000 0000 0000 0000 0000 0000 0000 0000
000001c0: 0000 0000 0000 0000 0000 0000 0000 0000
000001d0: 0000 0000 0000 0000 0000 0000 0000 0000
000001e0: 0000 0000 0000 0000 0000 0000 0000 0000
000001f0: 0000 0000 0000 0000 0000 0000 0000 0000

value_heads.value_heads.extrinsic.weight f4 [1, 128]
0.09906483 0.109110534 -0.025692657 0.011829764 -0.19457117 0.18600196 -0.097180314 -0.08139664
-0.11503738 -0.18272297 -0.13692893 -0.038385272 0.08695772 -0.028304622 -0.05289015 -0.1328014
-0.09215949 0.0046829283 0.14852294 0.07103571 0.03542009 0.1618405 -0.1964261 -0.19260237
-0.1470632 -0.13690725 -0.20367764 -0.21398838 -0.14653003 -0.19359377 0.13016868 -0.16766329
-0.17150114 -0.19064808 0.14376503 0.19612813 -0.02618584 0.033944756 0.052654177 -0.19447
-0.068853766 0.13649952 0.21536034 0.039394528 0.1605402 0.10786587 0.12692842 0.10858035
0.011997834 0.1880115 0.08074096 -0.024596125 0.095688134 -0.04204662 -0.07009888 -0.078422785
0.1968933 0.03520921 0.10520807 0.12027845 0.19872025 0.013611272 0.043423593 -0.011951596
0.068005055 -0.11981371 0.17065585 -0.052340195 0.08032581 0.14825428 -0.17830734 -0.13329315
0.12403524 0.09932649 0.12344277 -0.10659361 0.0120702535 -0.056576848 0.016714722 0.18480352
0.1111854 0.072547674 -0.16308983 0.060046613 0.053271502 0.04676038 0.13865864 0.19231415
-0.15457192 0.068130076 -0.06537175 0.14209121 -0.14919272 -0.21199249 -0.17451747 -0.07664259
-0.040305763 0.13455045 -0.15627806 0.012645811 -0.21490908 0.03613922 -0.11675186 0.12339124
0.013449833 0.116689116 -0.1917185 0.11082065 0.14050514 -0.068417326 0.06533584 0.16331446
-0.07909395 0.05175662 0.13987839 -0.17829257 0.21193585 -0.048344582 0.14080065 0.1424469
-0.02375707 0.2101652 0.0776597 0.08892313 -0.13574077 0.08809087 -0.1708878 0.12902224
00000000: 80e2 ca3d 5875 df3d 6879 d2bc a0d1 413c
00000010: aa3d 47be 4c77 3e3e 7906 c7bd 48b3 a6bd
00000020: b898 ebbd bb1b 3bbe 1937 0cbe e039 1dbd
00000030: e416 b23d 18df e7bc 58a3 58bd 17fd 07be
00000040: 1dbe bcbd 4073 993b 6616 183e 2c7b 913d
00000050: a814 113d 84b9 253e ec23 49be 8e39 45be
00000060: bc97 16be 6a31 0cbe df90 50be c51f 5bbe
00000070: f80b 16be 723d 46be f04a 053e edaf 2bbe
00000080: ff9d 2fbe 4039 43be 2437 133e d0d5 483e
00000090: b083 d6bc a809 0b3d e8ab 573d 2523 47be
000000a0: 3403 8dbd 88c6 0b3e 6c87 5c3e 285c 213d
000000b0: a664 243e c8e8 dc3d 86f9 013e 605f de3d
000000c0: 9092 443c 1686 403e 845b a53d d07d c9bc
000000d0: 24f8 c33d 1439 2cbd 0090 8fbd 209c a0bd
000000e0: 669e 493e 8837 103d 5477 d73d 8c54 f63d
000000f0: 527d 4b3e d001 5f3c f0dc 313d a0d0 43bc
00000100: 3c46 8b3d e460 f5bd 68c0 2e3e ac62 56bd
00000110: dc81 a43d f8cf 173e 3396 36be 007e 08be
00000120: 3006 fe3d b06b cb3d 90cf fc3d c04d dabd
00000130: 50c2 453c 20bd 67bd 50ed 883c 223d 3d3e
00000140: 2cb5 e33d e093 943d 0501 27be 70f3 753d
00000150: 3833 5a3d d087 3f3d 88fc 0d3e 00ee 443e
00000160: 1a48 1ebe c887 8b3d a0e1 85bd 5c80 113e
00000170: fac5 18be 8f14 59be b5b4 32be caf6 9cbd
00000180: a817 25bd 98c7 093e 5b07 20be 6030 4f3c
00000190: 2011 5cbe b806 143d 991b efbd 8cb4 fc3d
000001a0: b05c 5c3c b4fa ee3d db51 44be f0f5 e23d
000001b0: 94e0 0f3e 621e 8cbd ccce 853d e83b 273e
000001c0: 02fc a1bd c0fe 533d 483c 0f3e 5492 36be
000001d0: b605 593e f804 46bd 0c2e 103e 9add 113e
000001e0: 309e c2bc 8c35 573e 0c0c 9f3d 541d b63d
000001f0: a1ff 0abe fc68 b43d 36fd 2ebe 681e 043e
