Client/results/test3/Move to target.onnx (onnx, 71561 bytes, 4 tensors)

network_body._body_endoder.seq_layers.0.weight f4 [128, 1]
2.3169675 -0.10081945 -0.4444381 -1.4558016 0.4344179 -0.12450164 -1.3671591 -0.6954441
-0.7065383 0.52230984 0.1834129 0.6243856 -1.3450595 0.04549224 0.11449153 0.8333206
1.2206042 0.32024106 0.6469715 0.6983287 0.58566004 -2.9019942 0.2529921 0.18837342
-1.078801 0.08983715 0.40666965 -0.9688778 0.36784264 -0.59692776 0.6073111 0.5473273
-1.6317145 -1.193502 -0.030457139 0.91253865 0.25444993 -1.1916325 -1.1254414 0.63306856
-1.7554492 -1.5819522 -0.48463696 1.7989005 0.79336613 -0.40680054 0.51557016 0.4286462
-0.012540651 -0.6419915 0.07863721 -0.65204203 1.4299268 -0.31169975 -1.0786512 -2.2495592
-0.19026059 0.4492245 -1.1590761 1.0792807 0.03983193 -0.30974552 -1.5901707 -0.04726002
-1.1590294 -0.64172757 -0.05688734 0.31273228 -0.41928923 -2.3264961 -1.7761409 -1.9030931
-0.65616536 0.8121617 0.4314107 -0.602954 -0.45688316 -1.0311642 0.41181633 0.41508555
-0.3006362 1.434278 0.4130979 0.19469193 0.7021503 -0.55261004 0.016920114 0.4096799
0.4234123 -0.17563736 0.34042683 1.22105 1.3518268 1.0261688 -1.3890098 -0.37504032
0.7108218 0.9894378 0.54346395 1.3993217 0.85341156 -1.1581577 -0.3783831 1.0076176
1.3202513 2.1802998 0.43578854 -0.4034649 -0.6891115 -0.16025162 -0.7830155 -0.54962873
1.8837708 -0.3064889 -0.59680384 1.171037 1.1932106 -0.999595 -0.25718334 -2.5923657
0.8645859 -1.0499518 0.065334305 -1.4581608 1.9620676 -0.0013525656 0.80285525 0.2382345
00000000: 3249 1440 6e7a cebd 648d e3be b557 babf
00000010: 066c de3e b7fa febd 12ff aebf a008 32bf
00000020: b2df 34bf 19b6 053f 97d0 3b3e bcd7 1f3f
00000030: e92a acbf 1256 3a3d 897a ea3d 8054 553f
00000040: c23c 9c3f a3f6 a33e ed9f 253f abc5 323f
00000050: d1ed 153f 46ba 39c0 2e88 813e f6e4 403e
00000060: 2716 8abf 8afc b73d 0137 d03e 6008 78bf
00000070: df55 bc3e 42d0 18bf be78 1b3f a41d 0c3f
00000080: 05dc d0bf acc4 98bf 4081 f9bc 229c 693f
00000090: 4347 823e 6a87 98bf 770e 90bf c810 223f
000000a0: 8fb2 e0bf 697d cabf 5622 f8be 5f42 e63f
000000b0: 0b1a 4b3f 2948 d0be 68fc 033f 8477 db3e
000000c0: 4d77 4dbc 8e59 24bf 8c0c a13d 3aec 26bf
000000d0: d707 b73f 1c97 9fbe 3e11 8abf c7f8 0fc0
000000e0: acd3 42be c100 e63e 9b5c 94bf df25 8a3f
000000f0: ce26 233d f796 9ebe b78a cbbf b993 41bd
00000100: 135b 94bf 4248 24bf b302 69bd 721e a03e
00000110: 14ad d6be 50e5 14c0 9658 e3bf 8e98 f3bf
00000120: 74fa 27bf d4e9 4f3f dde1 dc3e 315b 1abf
00000130: 97ec e9be 30fd 83bf 97d9 d23e 1886 d43e
00000140: fdec 99be 6c96 b73f 9181 d33e 525d 473e
00000150: 1fc0 333f da77 0dbf 0d9c 8a3c 90c1 d13e
00000160: 7fc9 d83e 48da 33be 6d4c ae3e 5e4b 9c3f
00000170: a908 ad3f 8059 833f 13cb b1bf 4905 c0be
00000180: 6bf8 353f cc4b 7d3f 7420 0b3f f91c b33f
00000190: 2e79 5a3f 833e 94bf 6ebb c1be 9df9 803f
000001a0: fffd a83f 088a 0b40 ad1f df3e f492 cebe
000001b0: 9c69 30bf 0019 24be b473 48bf 78b4 0cbf
000001c0: 671f f13f 1dec 9cbe 23c8 18bf 8ae4 953f
000001d0: 20bb 983f 75e5 7fbf 89ad 83be 52e9 25c0
000001e0: 8055 5d3f d264 86bf fecd 853d 03a5 babf
000001f0: 0825 fb3f 9248 b1ba ec87 4d3f bff3 733e

network_body._body_endoder.seq_layers.0.bias f4 [128]
0.0 0.0 0.0 0.0 0.0 0.0 0.0 0.0
0.0 0.0 0.0 0.0 0.0 0.0 0.0 0.0
0.0 0.0 0.0 0.0 0.0 0.0 0.0 0.0
0.0 0.0 0.0 0.0 0.0 0.0 0.0 0.0
0.0 0.0 0.0 0.0 0.0 0.0 0.0 0.0
0.0 0.0 0.0 0.0 0.0 0.0 0.0 0.0
0.0 0.0 0.0 0.0 0.0 0.0 0.0 0.0
0.0 0.0 0.0 0.0 0.0 0.0 0.0 0.0
0.0 0.0 0.0 0.0 0.0 0.0 0.0 0.0
0.0 0.0 0.0 0.0 0.0 0.0 0.0 0.0
0.0 0.0 0.0 0.0 0.0 0.0 0.0 0.0
0.0 0.0 0.0 0.0 0.0 0.0 0.0 0.0
0.0 0.0 0.0 0.0 0.0 0.0 0.0 0.0
0.0 0.0 0.0 0.0 0.0 0.0 0.0 0.0
0.0 0.0 0.0 0.0 0.0 0.0 0.0 0.0
0.0 0.0 0.0 0.0 0.0 0.0 0.0 0.0
00000000: 0000 0000 0000 0000 0000 0000 0000 0000
00000010: 0000 0000 0000 0000 0000 0000 0000 0000
00000020: 0000 0000 0000 0000 0000 0000 0000 0000
00000030: 0000 0000 0000 0000 0000 0000 0000 0000
00000040: 0000 0000 0000 0000 0000 0000 0000 0000
00000050: 0000 0000 0000 0000 0000 0000 0000 0000
00000060: 0000 0000 0000 0000 0000 0000 0000 0000
00000070: 0000 0000 0000 0000 0000 0000 0000 0000
00000080: 0000 0000 0000 0000 0000 0000 0000 0000
00000090: 0000 0000 0000 0000 0000 0000 0000 0000
000000a0: 0000 0000 0000 0000 0000 0000 0000 0000
000000b0: 0000 0000 0000 0000 0000 0000 0000 0000
000000c0: 0000 0000 0000 0000 0000 0000 0000 0000
000000d0: 0000 0000 0000 0000 0000 0000 0000 0000
000000e0: 0000 0000 0000 0000 0000 0000 0000 0000
000000f0: 0000 0000 0000 0000 0000 0000 0000 0000
00000100: 0000 0000 0000 0000 0000 0000 0000 0000
00000110: 0000 0000 0000 0000 0000 0000 0000 0000
00000120: 0000 0000 0000 0000 0000 0000 0000 0000
00000130: 0000 0000 0000 0000 0000 0000 0000 0000
00000140: 0000 0000 0000 0000 0000 0000 0000 0000
00000150: 0000 0000 0000 0000 0000 0000 0000 0000
00000160: 0000 0000 0000 0000 0000 0000 0000 0000
00000170: 0000 0000 0000 0000 0000 0000 0000 0000
00000180: 0000 0000 0000 0000 0000 0000 0000 0000
00000190: 0000 0000 0000 0000 0000 0000 0000 0000
000001a0: 0000 0000 0000 0000 0000 0000 0000 0000
000001b0: 0000 0000 0000 0000 0000 0000 0000 0000
000001c0: 0000 0000 0000 0000 0000 0000 0000 0000
000001d0: 0000 0000 0000 0000 0000 0000 0000 0000
000001e0: 0000 0000 0000 0000 0000 0000 0000 0000
000001f0: 0000 0000 0000 0000 0000 0000 0000 0000

network_body._body_endoder.seq_layers.2.weight f4 [128, 128]
-0.08180702 -0.14211461 -0.008223548 -0.04349601 -0.07031753 -0.0036865133 -0.16644196 -0.07227341
-0.007278569 0.079931505 -0.13072345 0.0987203 -0.033021327 -0.023938783 0.063843004 0.024626348
0.04334879 -0.08779786 -0.020997271 0.07304411 -0.17750625 0.07212011 0.17826907 0.07356598
-0.037331782 -0.09746007 0.043217514 -0.062325004 -0.113534495 0.015526316 0.03937457 -0.099999875
-0.09763478 0.07539369 0.03770437 0.1763756 0.014889176 -0.11601546 0.025473995 0.097647965
0.03636813 -0.03404982 -0.014149803 0.030667696 -0.11993826 0.1691774 -0.007863118 0.03899861
0.13169658 0.021059534 -0.120250486 -0.09011505 0.024018783 0.0672615 -0.020428414 -0.15245558
0.13510887 0.014248554 0.10523539 -0.0631951 -0.18995912 0.10326378 0.00963759 -0.074313134
-0.0106907 0.083845474 -0.099388465 -0.24260956 -0.009687812 0.06949619 0.011181016 -0.1231649
0.07872015 -0.04415375 0.020281818 -0.045644615 -0.007432376 0.18494225 -0.007055832 0.07711379
0.037630357 -0.029898355 -0.020021008 -0.15950438 0.088705845 -0.013876793 -0.038212985 0.05896947
0.15346673 -0.06322142 -0.053381816 0.0493728 0.0577696 -0.052509457 0.027497917 -0.0021712664
-0.030306939 -0.037222486 0.007910488 -0.07233937 -0.11457458 0.032901064 0.098243155 0.08853566
-0.030062791 -0.030650979 0.20352046 -0.00892527 -0.07689713 -0.11335933 0.06288065 0.06424195
-0.00017997212 0.10162485 -0.06974048 0.13667499 0.07369916 0.11180691 0.0011023317 0.032043617
0.019902274 -0.08334613 -0.060437404 0.0032454787 -0.043767955 0.026789522 0.15245867 -0.04712071
0.116075695 0.05626531 -0.101579875 0.061540045 0.13049112 -0.06831417 -0.17275487 0.13691957
-0.13969584 0.07186805 -0.015235735 -0.09922976 0.07233587 0.08396101 -0.10615757 -0.0011529954
-0.12206156 -0.06349587 -0.074585356 0.078253254 -0.054233387 -0.007493174 0.19319533 -0.074123986
0.1576169 -0.074331574 0.012701506 -0.030474536 -0.107375965 0.12408616 0.02675352 0.070976965
0.09672503 0.13798614 -0.0032526362 0.116569385 -0.0037197454 -0.021352826 0.083032764 0.14613646
0.05114923 0.15728153 0.0470918 -0.11198881 0.0061586667 0.06187547 0.028720345 0.14634207
-0.037001073 0.042190522 0.10346322 0.004084552 -0.011388348 -0.1027318 0.011969636 0.123336725
-0.09508003 -0.13893355 0.13687667 0.22357507 -0.1899929 0.027701983 0.059307028 0.03291396
-0.061728746 -0.04466021 -0.24681409 0.12850359 0.13221085 0.07538686 -0.037977528 -0.035027906
-0.10620916 -0.00739521 0.16701588 0.032411203 0.08578186 0.07975512 0.014343231 0.078129135
0.1068831 -0.009373939 0.09887667 0.09084461 -0.0011489415 0.26208252 -0.035767276 -0.09212985
0.00037827063 0.15774469 0.12921631 -0.049656015 0.04905262 -0.095536664 -0.013367187 -0.21764244
0.024927527 -0.030775523 -0.042224925 -0.010170445 0.061066326 0.011529125 0.09063973 0.06702532
-0.08647447 0.017106978 0.047753513 -0.047298558 -0.0028938425 0.09302605 -0.07029868 0.02093155
-0.0048579606 -0.106523134 -0.109562635 -0.074593686 0.046326134 0.042604323 0.007529587 0.11369621
0.11523787 0.098785475 0.17947066 -0.07475327 0.094799854 0.037006464 0.020236846 -0.03760162
00000000: 708a a7bd 7e86 11be 0fbc 06bc df28 32bd
00000010: a302 90bd 6e99 71bb c36f 2abe 1504 94bd
00000020: 1081 eebb 21b3 a33d 5edc 05be de2d ca3d
00000030: 5f41 07bd 441b c4bc 1fc0 823d 32bd c93c
00000040: 808e 313d 5dcf b3bd 7802 acbc 2698 953d
00000050: 33c4 35be b5b3 933d 2b8c 363e c3a9 963d
00000060: 36e9 18bd 2599 c7bd d904 313d 8148 7fbd
00000070: c684 e8bd 1762 7e3c 3b47 213d bccc ccbd
00000080: bef4 c7bd 0268 9a3d e66f 1a3d ce9b 343e
00000090: bbf1 733c 8399 edbd d7ae d03c a8fb c73d
000000a0: c0f6 143d d377 0bbd 93d4 67bc d23a fb3c
000000b0: 31a2 f5bd d73c 2d3e 4fd4 00bc 02bd 1f3d
000000c0: 78db 063e 0b85 ac3c e345 f6bd 3d8e b8bd
000000d0: 0ac3 c43c 66c0 893d 7d59 a7bc 511d 1cbe
000000e0: fb59 0a3e c472 693c a785 d73d 6f6c 81bd
000000f0: a584 42be f67b d33d fbe6 1d3c 7c31 98bd
00000100: 0c28 2fbc 2db7 ab3d 2e8c cbbd a46e 78be
00000110: a1b9 1ebc 0554 8e3d 9530 373c e13d fcbd
00000120: 0838 a13d 90da 34bd 0e26 a63c d9f5 3abd
00000130: 4a8b f3bb 8061 3d3e 9c34 e7bb d6ed 9d3d
00000140: 4a22 1a3d 65ed f4bc 1903 a4bc 1e55 23be
00000150: 69ab b53d 7d5b 63bc 3885 1cbd f989 713d
00000160: 6226 1d3e 3b7a 81bd e4a6 5abd 223b 4a3d
00000170: d19f 6c3d 2814 57bd 5043 e13c ce4b 0ebb
00000180: 4246 f8bc 9b76 18bd fe9a 013c aa26 94bd
00000190: 14a6 eabd 44c3 063d b533 c93d 2f52 b53d
000001a0: 3e46 f6bc c317 fbbc ab67 503e 4c3b 12bc
000001b0: 3e7c 9dbd f028 e8bd 92c7 803d 4991 833d
000001c0: e6b6 3cb9 b020 d03d 19d4 8ebd 87f4 0b3e
000001d0: 96ef 963d 05fb e43d 1d7c 903a 2b40 033d
000001e0: 180a a33c 60b1 aabd 368d 77bd 19b2 543b
000001f0: 0746 33bd b375 db3c 201e 1c3e a501 41bd
00000200: 18b9 ed3d 7476 663d 1c09 d0bd 6a11 7c3d
00000210: 779f 053e 4de8 8bbd a7e6 30be a534 0c3e
00000220: 6d0c 0fbe 8e2f 933d 4e9f 79bc f938 cbbd
00000230: d424 943d c0f3 ab3d 2469 d9bd 1b20 97ba
00000240: 69fb f9bd 1f0a 82bd 35c0 98bd 3e43 a03d
00000250: d423 5ebd 4d89 f5bb ffd4 453e 51ce 97bd
00000260: 5366 213e 273b 98bd fa19 503c bca5 f9bc
00000270: eee7 dbbd e220 fe3d 332a db3c 5f5c 913d
00000280: c617 c63d 3d4c 0d3e 2e2a 55bb eebb ee3d
00000290: f9c6 73bb 1fec aebc 150d aa3d cca4 153e
000002a0: db81 513d 690e 213e 55e3 403d 645a e5bd
000002b0: a4ce c93b 2271 7d3d ee46 eb3c b2da 153e
000002c0: 708e 17bd f8cf 2c3d 86e4 d33d b5d7 853b
000002d0: 3296 3abc 0d65 d2bd 4b1c 443c f797 fc3d
000002e0: 52b9 c2bd 9944 0ebe 6629 0c3e ddf0 643e
000002f0: 808d 42be 45ef e23c edeb 723d cad0 063d
00000300: 48d7 7cbd a0ed 36bd d5bc 7cbe 7296 033e
00000310: 4862 073e 6d64 9a3d 538e 1bbd 6c79 0fbd
00000320: 3084 d9bd 8553 f2bb 3606 2b3e 9cc1 043d
00000330: 66ae af3d a756 a33d dfff 6a3c 2b02 a03d
00000340: 87e5 da3d 2695 19bc da7f ca3d bd0c ba3d
00000350: 1498 96ba ae2f 863e b580 12bd 93ae bcbd
00000360: a052 c639 d387 213e 4851 043e 1b64 4bbd
00000370: 66eb 483d baa8 c3bd 0c02 5bbc a9dd 5ebe
00000380: d034 cc3c f31c fcbc 0bf4 2cbd f0a1 26bc
00000390: af20 7a3d a8e4 3c3c 53a1 b93d 9244 893d
000003a0: 8719 b1bd ef23 8c3c 3099 433d 22bc 41bd
000003b0: 9fa6 3dbb 7184 be3d c1f8 8fbd a478 ab3c
000003c0: 872f 9fbb cd28 dabd 6062 e0bd 93c4 98bd
000003d0: 79c0 3d3d df81 2e3d c1ba f63b 8fd9 e83d
000003e0: d501 ec3d 0a50 ca3d 28c7 373e 3e18 99bd
000003f0: 6d26 c23d 1794 173d bec7 a53c 2804 1abd

action_model._continuous_distribution.mu.weight f4 [1, 128]
0.018584356 0.005697718 0.0010234221 0.003947051 -0.01849979 0.0051195933 -0.009353891 0.025356619
-0.00070927775 0.0047041574 -0.019851077 0.0070923525 0.029641343 0.012197713 0.018681856 -0.030632246
-0.041376803 0.0030857462 -0.02305148 -0.031440802 -0.017568901 0.0034335062 0.01457218 0.0035359927
-0.030643675 -0.013320754 0.0006547302 -0.0453629 -0.0008684876 0.03405347 -0.0093131475 0.0013795354
0.022776753 0.0074339244 -0.016197134 0.0019419242 0.0033780865 -0.007956854 -0.010273709 0.01918877
0.009511172 0.034078777 0.018340036 -0.027216438 0.0049700695 0.008033253 0.0015949234 0.02048241
0.01609902 -0.012928071 0.022901189 0.0066832886 0.012025424 0.0031766493 -9.120712e-05 0.015754841
-0.00075845415 0.0031176526 0.034909222 -0.03257221 -0.013210154 -0.0031011393 -0.015420295 -0.036469474
0.012940812 0.015476621 0.033223927 -0.008798359 -0.023375342 -0.004142714 0.009050825 -0.0032308535
0.006959813 0.016000642 -0.0018827841 0.010231285 -0.026447257 -0.026741788 0.01707155 -0.0096251955
-0.01916196 0.015659867 0.019042784 0.009456347 -0.010704796 -0.005259196 -0.003679479 -0.02187656
0.022569582 0.007541275 0.018703422 -0.012953374 0.010074685 -0.03404938 -0.02295361 0.0070133256
-0.012442802 0.0334859 0.0031715927 -0.0033523531 0.0103714345 0.00342706 0.011457273 -0.0099426275
-0.016574338 -0.025521314 -0.016533231 0.023515534 -0.012765633 -0.0053550648 -0.018387591 0.0008841976
-0.024237806 0.00045526857 0.0074701025 0.031993583 0.033743758 -0.026955847 0.0036446655 -0.0005637653
0.00036051983 -0.0058141504 -0.022231078 0.0052163876 -0.010193468 0.036949046 -0.007346548 0.029129762
00000000: 383e 983c ecb3 ba3b 5924 863a 4356 813b
00000010: df8c 97bc 43c2 a73b 1041 19bc afb8 cf3c
00000020: d3ee 39ba 5525 9a3b ba9e a2bc f766 e83b
00000030: 67d2 f23c ebd8 473c b10a 993c 7af0 fabc
00000040: b97a 29bd 3b3a 4a3b 75d6 bcbc 12c8 00bd
00000050: a8ec 8fbc ad04 613b 27c0 6e3c 1dbc 673b
00000060: 7208 fbbc 4b3f 5abc 33a2 2b3a 73ce 39bd
00000070: 37ab 63ba a77b 0b3d 2c96 18bc 87d1 b43a
00000080: 5096 ba3c 4798 f33b daaf 84bc 2a88 fe3a
00000090: e362 5d3b 775d 02bc 0f53 28bc c431 9d3c
000000a0: bfd4 1b3c 3096 0b3d d83d 963c 02f5 debc
000000b0: f7db a23b e89d 033c c00c d13a baca a73c
000000c0: 18e2 833c 43d0 53bc 469b bb3c 7dff da3b
000000d0: 4906 453c 552f 503b 7346 bfb8 4c10 813c
000000e0: ffd2 46ba 8851 4c3b f9fc 0e3d 706a 05bd
000000f0: 676f 58bc 7c3c 4bbb 68a5 7cbc 0461 15bd
00000100: b305 543c a791 7d3c d015 083d fe26 10bc
00000110: a57d bfbc 9bbf 87bb e949 143c babc 53bb
00000120: 250f e43b c713 833c c0c7 f6ba 1fa1 273c
00000130: eba7 d8bc 9811 dbbc a3d9 8b3c ffb2 1dbc
00000140: 8bf9 9cbc 1f49 803c 9dff 9b3c cbee 1a3c
00000150: 2b63 2fbc 5555 acbb 6a23 71bb 7936 b3bc
00000160: d8e3 b83c cd1c f73b eb37 993c 633a 54bc
00000170: 4b10 253c 5d77 0bbd 3609 bcbc 0ad0 e53b
00000180: e5dc 4bbc 8328 093d 7fda 4f3b 27b3 5bbb
00000190: f3ec 293c 8798 603b 49b7 3b3c 67e6 22bc
000001a0: e8c6 87bc 1312 d1bc b370 87bc a6a3 c03c
000001b0: f226 51bc 8a79 afbb 93a1 96bc 7fc9 673a
000001c0: 5d8e c6bc 1db1 ee39 c3c7 f43b b40b 033d
000001d0: e536 0a3d 82d2 dcbc 57db 6e3b a6c9 13ba
000001e0: 2704 bd39 a184 bebb f31d b6bc 3bee aa3b
000001f0: 8102 27bc e257 173d 50bb f0bb 8aa1 ee3c
