Client/results/ppo/MoveToGoal/checkpoint.pt (torch, 147362 bytes, 12 tensors)

network_body._body_endoder.seq_layers.0.weight f4 [128, 4]
00000000: 16ef 4e3e db74 cbbd b0c7 d5be fa81 203e
00000010: 4ac0 cf3e 1760 3b3f 3edf fc3e ba04 e23c
00000020: aae9 3dbf 5008 1bbf 2661 983e b9b4 1fbf
00000030: edae a9be 3c36 1ebf af46 35be 77f8 0b3d
00000040: 1134 503e 274b 213f 3412 0bbf 320e 39bf
00000050: 8608 85be daed f33c 1810 4b3e 3254 15bd
00000060: 7e2a 8fbe 017a 81bf a98f 243f 6206 df3e
00000070: e653 233f 491f 223e 7d66 973d 85d4 ef3e
00000080: c2eb d1bd abf5 733e 4ef7 a1be 766d b83e
00000090: 17dc bc3e fe93 21bc 57ac 17bf eed2 113e
000000a0: 3bcf aebf 4caa d33d fde5 00bf 5b44 4cbd
000000b0: a361 b93e 9824 52bf e69e d9be c804 63bf
000000c0: 3e8f 89bf d72a 9ebd e980 fe3e c398 443e
000000d0: 999c de3e 334e a83e bdf3 0abd b473 a8be
000000e0: 85dd 45bf 3eb3 51bc c727 e6be 2ecf 2b3e
000000f0: 777c 3dbf ee64 aa3e f801 1ebf 45d6 3cbf
00000100: 42e9 b63d 011a 07be 23d4 4fbf 66d5 06bf
00000110: 5f47 f6be 2349 bc3c b8a4 b03f d32c 18bf
00000120: b4cf 0fbe d0f8 5dbf 6506 18bf 0477 193f
00000130: 2056 e23e d874 bd3e 8bd0 fbbe 2742 42bf
00000140: 4f84 10bf d559 343f 277a 263e ff9c 9abe
00000150: a439 823e 76ee ae3e 5d52 fb3d 645b f7be
00000160: da84 55bf 28aa 6a3d 102e 0a3f 248e 363e
00000170: e131 acbc 7d12 88bf f776 aa3e 69de e33e
00000180: bda9 193e 4bcb b7be 6313 11bf 7dbc d0be
00000190: bba4 343f 07b0 36be 4e48 65be 9a20 623f
000001a0: 9b2c 69be d0b8 a0be 044f 2f3f 0a03 7b3f
000001b0: 5ea2 4e3f 1812 523e 21c7 81be 1462 2b3f
000001c0: 96d3 343e 0dea 2abf 1653 243f 03fd e23e
000001d0: 0c2e c2be c5bf fb3d f520 56bf cc68 56be
000001e0: b6b8 fa3b b091 e5bc a912 12bf cbdf 883e
000001f0: 1886 0dbf 23d8 4e3f 26f9 54bf 5e8d 3abf
00000200: a8c7 803e c6a1 003e 6972 083d 33c3 c7bb
00000210: 0476 91bd 019d 9c3f 2f96 913e e3e7 15bf
00000220: 3fac 51be 0cb0 393f 08bd 1b3f 4695 0ebe
00000230: ba2b 06bf 72ba 52be ff86 823e 615f d73e
00000240: 83b9 3d3f e90e d43d 834a 00bf e757 e4be
00000250: bb5d 81bc 6522 2b3f 64dc 53bf 8809 cabe
00000260: 6c94 693e 8e4c 0e3e 916f 3b3e 8129 8dbd
00000270: d52d cabe 12fc a73e 2638 eebe 3249 e43e
00000280: 96bc 31bf 742e 613e 7949 c43e af43 8c3f
00000290: 0924 bc3e 81e5 533e 2b81 263f 492c 95b9
000002a0: 1492 b33e aed6 c03c ea5f 533e d3ea ea3e
000002b0: 97df 79bf 298c a43e dca8 51bf 3bc7 543e
000002c0: 532d 56be 1e74 b23d 3039 4d3f 02d5 d13d
000002d0: a4b2 d53e 1e4a 02bf e44b ae3f f468 b5be
000002e0: 3d36 52be f8a3 04bf 39be 0a3e e9b7 46bc
000002f0: c8be 253d f684 a8be c299 8b3e 0e3a d73e
00000300: f94d 5ebe 670e 51be e528 bf3e abd3 29be
00000310: 32f5 50bc 72b0 b6bd 5d0d 723f 0e66 debe
00000320: 98a1 d6bb dabd dbbe 4ee3 083f f622 37bf
00000330: f14a ca3d 27c5 04bc dde6 00be b8c4 013f
00000340: d703 64ba 07eb 98bf 2c12 92bd 309f bc3e
00000350: 13b4 abbd 1d44 433c b1df 443d 21ba dbbe
00000360: 043b 383e b059 81bc 1a00 ca3e 10af dfbe
00000370: 41db 0bbd e866 66be 9b82 babe a394 6d3f
00000380: 5a19 893e b0db 1c3d 065f 19bf 3115 4c3f
00000390: 7402 8bbf 8756 a13e 631e 8e3e e9e8 38be
000003a0: f218 583d 6a3a be3d d95f 0d3f 2f87 de3e
000003b0: 97e0 24be 2481 f13e c538 66be d73d 9cbf
000003c0: cb80 0bbe b6e5 b4be 41e7 8f3e 85bd f43e
000003d0: db6b 9bbe 20b7 8f3e 571d 603f 6204 4e3f
000003e0: 50b4 bebe 4b21 223f b936 71bb f976 f43e
000003f0: d811 b63e c831 453f 8cd4 db3e 1b3c a6be
0.20208392 -0.09934398 -0.41753912 0.15674582 0.40576392 0.73193496 0.4938907 0.027590144
-0.7418467 -0.6055956 0.29761618 -0.62385136 -0.3314127 -0.61801505 -0.17702745 0.0341725
0.20332362 0.630053 -0.5432465 -0.72287285 -0.25983065 0.029776502 0.19830358 -0.036457248
-0.27962106 -1.0115358 0.6428171 0.43559557 0.63799894 0.15832247 0.07392595 0.46841827
-0.10250045 0.23824184 -0.3163399 0.36021012 0.36886665 -0.009861944 -0.59247345 0.1424062
-1.3656992 0.10335216 -0.50350934 -0.049869876 0.36207303 -0.8208709 -0.42504042 -0.8867917
-1.0746839 -0.07723015 0.49707726 0.19198899 0.4347885 0.3287216 -0.033923853 -0.32900774
-0.77291137 -0.012799082 -0.44952223 0.16778252 -0.74018043 0.33280128 -0.61721754 -0.7376445
0.08931209 -0.13193513 -0.8118307 -0.5266937 -0.48101327 0.022984093 1.3800268 -0.59443396
-0.14044076 -0.8670778 -0.5938476 0.5994723 0.44206333 0.37003207 -0.49182543 -0.7588219
-0.56451887 0.7044957 0.16257535 -0.30197904 0.254346 0.34166306 0.12271569 -0.48311913
-0.8340584 0.05729118 0.53976536 0.1782766 -0.021019878 -1.0630642 0.33293888 0.44505623
0.15006156 -0.35897288 -0.56670207 -0.40768805 0.7056386 -0.17840587 -0.22390863 0.88330996
-0.22770922 -0.31391 0.68479943 0.9805151 0.807165 0.20514715 -0.25347236 0.6694653
0.17658839 -0.66763383 0.6418928 0.44333658 -0.37925756 0.122924365 -0.8364404 -0.20938414
0.007651414 -0.02802357 -0.57059723 0.2673324 -0.55282736 0.8079855 -0.8319267 -0.7287196
0.25152326 0.12561712 0.033312235 -0.0060962676 -0.07102588 1.2235414 0.28434893 -0.58556956
-0.20475863 0.7253425 0.60835314 -0.13924131 -0.5241047 -0.20578936 0.2549362 0.42064956
0.74111193 0.103544064 -0.50113696 -0.44598314 -0.015791764 0.66849357 -0.82758164 -0.39460397
0.22810525 0.13896391 0.18304278 -0.06892682 -0.39488092 0.32809502 -0.46527213 0.44587094
-0.69428384 0.21990377 0.38337305 1.0958155 0.36746243 0.20693018 0.65040845 -0.0002845249
0.35072386 0.023539867 0.20642057 0.45882282 -0.97606796 0.32138184 -0.81898284 0.20779125
-0.20915727 0.08713554 0.80165386 0.10245706 0.41737854 -0.50894344 1.361691 -0.35431635
-0.20528503 -0.51812696 0.13549127 -0.012128809 0.040465146 -0.3291394 0.27265745 0.4203648
-0.21709432 -0.2041565 0.37335888 -0.16584651 -0.012753772 -0.08920373 0.9455164 -0.43437237
-0.006550025 -0.42918283 0.5347184 -0.7153772 0.09877575 -0.008103645 -0.12588067 0.50690794
-0.0008698082 -1.1946725 -0.07132372 0.368402 -0.08383956 0.011918095 0.04806489 -0.42915443
0.17991263 -0.015789837 0.39453202 -0.4368825 -0.034144644 -0.22500193 -0.3642777 0.92804927
0.26777154 0.038295448 -0.5991062 0.79719836 -1.0860124 0.31511328 0.27757558 -0.18057598
0.052758165 0.09288485 0.55224377 0.43462512 -0.16101299 0.4716884 -0.22482593 -1.2206372
-0.1362335 -0.35331506 0.2810612 0.47800842 -0.30355725 0.280694 0.8754477 0.8047544
-0.37246943 0.6333205 -0.00368063 0.4774702 0.3556049 0.77029085 0.42935598 -0.32467732

network_body._body_endoder.seq_layers.0.bias f4 [128]
00000000: 0000 0000 0000 0000 0000 0000 0000 0000
00000010: 0000 0000 0000 0000 0000 0000 0000 0000
00000020: 0000 0000 0000 0000 0000 0000 0000 0000
00000030: 0000 0000 0000 0000 0000 0000 0000 0000
00000040: 0000 0000 0000 0000 0000 0000 0000 0000
00000050: 0000 0000 0000 0000 0000 0000 0000 0000
00000060: 0000 0000 0000 0000 0000 0000 0000 0000
00000070: 0000 0000 0000 0000 0000 0000 0000 0000
00000080: 0000 0000 0000 0000 0000 0000 0000 0000
00000090: 0000 0000 0000 0000 0000 0000 0000 0000
000000a0: 0000 0000 0000 0000 0000 0000 0000 0000
000000b0: 0000 0000 0000 0000 0000 0000 0000 0000
000000c0: 0000 0000 0000 0000 0000 0000 0000 0000
000000d0: 0000 0000 0000 0000 0000 0000 0000 0000
000000e0: 0000 0000 0000 0000 0000 0000 0000 0000
000000f0: 0000 0000 0000 0000 0000 0000 0000 0000
00000100: 0000 0000 0000 0000 0000 0000 0000 0000
00000110: 0000 0000 0000 0000 0000 0000 0000 0000
00000120: 0000 0000 0000 0000 0000 0000 0000 0000
00000130: 0000 0000 0000 0000 0000 0000 0000 0000
00000140: 0000 0000 0000 0000 0000 0000 0000 0000
00000150: 0000 0000 0000 0000 0000 0000 0000 0000
00000160: 0000 0000 0000 0000 0000 0000 0000 0000
00000170: 0000 0000 0000 0000 0000 0000 0000 0000
00000180: 0000 0000 0000 0000 0000 0000 0000 0000
00000190: 0000 0000 0000 0000 0000 0000 0000 0000
000001a0: 0000 0000 0000 0000 0000 0000 0000 0000
000001b0: 0000 0000 0000 0000 0000 0000 0000 0000
000001c0: 0000 0000 0000 0000 0000 0000 0000 0000
000001d0: 0000 0000 0000 0000 0000 0000 0000 0000
000001e0: 0000 0000 0000 0000 0000 0000 0000 0000
000001f0: 0000 0000 0000 0000 0000 0000 0000 0000
0.0 0.0 0.0 0.0 0.0 0.0 0.0 0.0
0.0 0.0 0.0 0.0 0.0 0.0 0.0 0.0
0.0 0.0 0.0 0.0 0.0 0.0 0.0 0.0
0.0 0.0 0.0 0.0 0.0 0.0 0.0 0.0
0.0 0.0 0.0 0.0 0.0 0.0 0.0 0.0
0.0 0.0 0.0 0.0 0.0 0.0 0.0 0.0
0.0 0.0 0.0 0.0 0.0 0.0 0.0 0.0
0.0 0.0 0.0 0.0 0.0 0.0 0.0 0.0
0.0 0.0 0.0 0.0 0.0 0.0 0.0 0.0
0.0 0.0 0.0 0.0 0.0 0.0 0.0 0.0
0.0 0.0 0.0 0.0 0.0 0.0 0.0 0.0
0.0 0.0 0.0 0.0 0.0 0.0 0.0 0.0
0.0 0.0 0.0 0.0 0.0 0.0 0.0 0.0
0.0 0.0 0.0 0.0 0.0 0.0 0.0 0.0
0.0 0.0 0.0 0.0 0.0 0.0 0.0 0.0
0.0 0.0 0.0 0.0 0.0 0.0 0.0 0.0

network_body._body_endoder.seq_layers.2.weight f4 [128, 128]
00000000: 23fd 83bd c45d 8a3d 5541 42be 0875 6dbd
00000010: 429d 993c 80eb 263d 3d99 94bd e080 0f3e
00000020: c291 cf3d 1006 b4bc 17e2 c4bd 9d8c 23bc
00000030: fd95 1ebd 689e 0a3d 5912 fdbd 3f33 433d
00000040: cadd 40be 7d99 bd3d cec1 853c 0873 debc
00000050: 6880 80bc 7e5a 15bd 46ad 723c a320 463d
00000060: 6f59 fd3d f112 04bc e113 7a3c cb66 803d
00000070: 9f1f 623d 7685 20bd d708 87bd 3cb3 b93c
00000080: 071c 17be 4814 e23c fb32 b43d fe62 e8bc
00000090: 66b9 49bd 2bc3 0b3d b90d 37be c38e 31bb
000000a0: 4ce9 3bbd cc61 a43d 08f2 84bd bc8e 573d
000000b0: 3986 0cbd 83e0 383e e33c 8abd 28f7 803d
000000c0: 4698 0e3e 9820 cdbd 841d 143d 83da c2bd
000000d0: 84f6 62bd 5bc0 09be 8984 ee3d 5834 8ebd
000000e0: 0dc5 5cbd af62 02be d78e 25bc 9972 693c
000000f0: 1db1 133d 2114 02bd 28a6 643d 3343 903d
00000100: 5da8 a1bd ba68 783e ccf5 a43c 3d41 a7bd
00000110: 8c85 32bd 9b81 b23a 223b 7dbd a322 e2bc
00000120: 9967 62be 68d7 f1bb bafd 303d 3ec0 f8bc
00000130: 2854 aabd 83ce e83d fca3 41be dce7 d03d
00000140: 4246 34bd 222f 4b3d 024a cabc c02a 793d
00000150: 79fb 133c 0126 d5bd c85e 773c f250 9a3c
00000160: 18b5 c53d 012e 98bc 3397 483e 2ff7 e1bb
00000170: d0bb 183d 1ca3 df3d 0f3c 55be 8252 7d3d
00000180: 98bb b23b 1a6f 31bd 13b2 4cbe c7a9 1ebe
00000190: b52e 99bd 2dad ddbd 537c f23b eeb9 4abc
000001a0: 7e31 b1bd 2c92 f53c 0457 6abd 0e4f 263d
000001b0: 6992 813b 39c9 a43d 8517 8cbb 405e 303c
000001c0: 99ce 8bbd 6910 463e 1164 f13d 34b6 0f3d
000001d0: afac 9abd 381c 033d 6e6c cfbc c69e 99bd
000001e0: 40d5 e73c 4ed5 423e 1c79 bf3b d779 51bd
000001f0: e9f6 25bd e845 9b3c a186 993d 66fb 1c3e
00000200: 3bf2 b0bb a374 f9bc 06c2 0ebd 18d2 0a3e
00000210: 8288 a2bd e34f 4f3c 44b7 8c3d 17f1 9bbd
00000220: 320d a13b b6a3 8fbd 5ddb a2bd 4a42 1dbd
00000230: f1f0 c83d 3464 7dbd c03f 12bd 61ba 993c
00000240: 08db 12be 234e 68bb 53f0 15bb 91e0 003e
00000250: ef1d 933c 948f 8b3d 580e 95bd e115 1cbe
00000260: b51b 1d3d 6b07 313d a7b5 1f3e 8984 ce3d
00000270: 6705 84bd 977b 74bd 3ea0 483d 132b 61bd
00000280: f539 c03d 3c9b b1bd cb22 3ebd 281a 033e
00000290: 3527 be3d 3efc 493c 5bad 373d 201a 18ba
000002a0: 6789 9bbc b2b2 9dbd a4a3 02bd 191f f73d
000002b0: 4231 6bbd 4048 2e3d eae4 d6bd 22c3 14bb
000002c0: 7039 18be b1fa bcbd fe6b 0bbe 47ed 1d3e
000002d0: 3e74 933d 66c9 823d 7a75 fa3d 6ae8 633d
000002e0: 3059 283c 52b0 d4bd a39c 123e e8dd 67bd
000002f0: da27 0d3b b2d6 1d3c 982f 39bd 99eb efbd
00000300: f49e 0cbe 51b7 27bb f166 2cbd 8114 b639
00000310: f77d 28bc c50d ec3c 75c6 ecbd 9a62 423d
00000320: 0f21 8e3d e664 1abe d13b 6d3c fee1 b03d
00000330: 1042 02be ba8d 6bbd 8c0b 8dbd 166b c53d
00000340: 85a1 48bd e2a9 02bc 9e2f c63b 6eb8 4fbd
00000350: c82b 78bd d05f abbd f2f1 5fbe f52a fc3d
00000360: 4a6d d6bd ba16 22be 8155 99bd 57a6 c0bc
00000370: eee1 c83d cb8b 7fbc 6808 8dbd e054 ee3d
00000380: d0db e23d 596c b5bc c038 433c eef1 88bd
00000390: 25f2 8fbc 3046 52be ff3f d03d 632f 9c3a
000003a0: 5ec7 783d 1b87 693d 3572 aa3d f8c8 053c
000003b0: 36ed 543d 9ab4 bf3d 8094 c13d 3229 90bc
000003c0: 42ec 64bd 1ba7 a33c a784 b6bd 9690 063d
000003d0: dfbb 9b3d 75c3 e63d c34e ff3b c004 f6bc
000003e0: 1c5c 20bd 7f26 fc3d d0a6 2c3e 6b8e 11bc
000003f0: 1673 25bd b7fb 76bd 6a76 7b3d ed25 3c3e
-0.06444766 0.067561656 -0.18970235 -0.057972938 0.018751744 0.040751934 -0.072557904 0.14014006
0.10135223 -0.021975547 -0.09613436 -0.009982255 -0.03871726 0.033842474 -0.12357015 0.047656294
-0.18834606 0.09257791 0.016327765 -0.02715446 -0.015686229 -0.036463253 0.014811819 0.04837097
0.12370574 -0.008061157 0.015263529 0.06269606 0.055205937 -0.03918978 -0.06593483 0.022668473
-0.14756785 0.027597561 0.08798786 -0.028367516 -0.049249075 0.034121674 -0.17876329 -0.002709315
-0.045876786 0.08026466 -0.06491476 0.052626356 -0.034307692 0.18054394 -0.067498945 0.06297141
0.13925275 -0.100159824 0.03616096 -0.09514334 -0.055410877 -0.13452284 0.11646373 -0.069435775
-0.05389886 -0.12732957 -0.010104856 0.014248514 0.03605758 -0.031757478 0.05582252 0.07044067
-0.07893441 0.242587 0.020136736 -0.0816674 -0.04358439 0.0013618948 -0.06182397 -0.027604407
-0.22109832 -0.0073804148 0.043210723 -0.030365106 -0.08316833 0.11367514 -0.18910211 0.10200474
-0.044012316 0.049605496 -0.024693493 0.060831785 0.009032124 -0.10407639 0.015098281 0.018837426
0.096536815 -0.018576624 0.19588928 -0.0068959217 0.037288487 0.109197825 -0.20823692 0.061846264
0.005454492 -0.043318845 -0.19989805 -0.15494452 -0.07479612 -0.10824046 0.0074000745 -0.012373431
-0.08652018 0.029976927 -0.05721189 0.040602736 0.003954221 0.08046193 -0.0042752647 0.010764658
-0.06826515 0.19342197 0.11786664 0.03508587 -0.07552468 0.032009333 -0.025320258 -0.07500987
0.028299928 0.19026682 0.005843295 -0.051141586 -0.040518675 0.018954232 0.074963816 0.15330276
-0.00539997 -0.030451125 -0.034853004 0.13556707 -0.07936193 0.012653324 0.06870893 -0.076143436
0.004914903 -0.07013647 -0.079519965 -0.038393296 0.09811581 -0.06186314 -0.035705328 0.01876563
-0.14341366 -0.0035446964 -0.002287884 0.12585665 0.01795861 0.06814495 -0.072781265 -0.15242721
0.0383565 0.043219965 0.15596639 0.10083873 -0.06446343 -0.059688177 0.048980944 -0.05497272
0.093860544 -0.08672187 -0.0464199 0.12802947 0.09284822 0.012328206 0.04484306 -0.0005802233
-0.018986417 -0.07700099 -0.03189434 0.12066478 -0.057420023 0.04254937 -0.10492881 -0.0022699316
-0.1486566 -0.09227503 -0.13615415 0.15422545 0.07199906 0.0638607 0.12229438 0.05564157
0.01027517 -0.10385193 0.14317565 -0.05660811 0.0021538646 0.009633707 -0.045211405 -0.117148586
-0.13732511 -0.0025591443 -0.04209036 0.00034729022 -0.010283939 0.02881516 -0.1156129 0.047457315
0.06939899 -0.15077552 0.014479593 0.086368546 -0.12720513 -0.057508208 -0.06886968 0.09639566
-0.048982162 -0.0079750735 0.006048157 -0.050712995 -0.060588628 -0.08367884 -0.21869639 0.12312881
-0.10470064 -0.15828982 -0.07487012 -0.023516817 0.09808718 -0.015597294 -0.06886369 0.11637282
0.11077082 -0.02214639 0.011915386 -0.066867694 -0.017571518 -0.20534587 0.10168456 0.0011915978
0.060737006 0.057013612 0.083225645 0.00816559 0.051984034 0.09360619 0.09452152 -0.017597768
-0.055889376 0.019977143 -0.0891202 0.03285273 0.07604193 0.11267749 0.0077913716 -0.030031562
-0.039150342 0.1231203 0.16860509 -0.008884053 -0.040392958 -0.060298648 0.061392225 0.18373843

network_body._body_endoder.seq_layers.2.bias f4 [128]
00000000: 0000 0000 0000 0000 0000 0000 0000 0000
00000010: 0000 0000 0000 0000 0000 0000 0000 0000
00000020: 0000 0000 0000 0000 0000 0000 0000 0000
00000030: 0000 0000 0000 0000 0000 0000 0000 0000
00000040: 0000 0000 0000 0000 0000 0000 0000 0000
00000050: 0000 0000 0000 0000 0000 0000 0000 0000
00000060: 0000 0000 0000 0000 0000 0000 0000 0000
00000070: 0000 0000 0000 0000 0000 0000 0000 0000
00000080: 0000 0000 0000 0000 0000 0000 0000 0000
00000090: 0000 0000 0000 0000 0000 0000 0000 0000
000000a0: 0000 0000 0000 0000 0000 0000 0000 0000
000000b0: 0000 0000 0000 0000 0000 0000 0000 0000
000000c0: 0000 0000 0000 0000 0000 0000 0000 0000
000000d0: 0000 0000 0000 0000 0000 0000 0000 0000
000000e0: 0000 0000 0000 0000 0000 0000 0000 0000
000000f0: 0000 0000 0000 0000 0000 0000 0000 0000
00000100: 0000 0000 0000 0000 0000 0000 0000 0000
00000110: 0000 0000 0000 0000 0000 0000 0000 0000
00000120: 0000 0000 0000 0000 0000 0000 0000 0000
00000130: 0000 0000 0000 0000 0000 0000 0000 0000
00000140: 0000 0000 0000 0000 0000 0000 0000 0000
00000150: 0000 0000 0000 0000 0000 0000 0000 0000
00000160: 0000 0000 0000 0000 0000 0000 0000 0000
00000170: 0000 0000 0000 0000 0000 0000 0000 0000
00000180: 0000 0000 0000 0000 0000 0000 0000 0000
00000190: 0000 0000 0000 0000 0000 0000 0000 0000
000001a0: 0000 0000 0000 0000 0000 0000 0000 0000
000001b0: 0000 0000 0000 0000 0000 0000 0000 0000
000001c0: 0000 0000 0000 0000 0000 0000 0000 0000
000001d0: 0000 0000 0000 0000 0000 0000 0000 0000
000001e0: 0000 0000 0000 0000 0000 0000 0000 0000
000001f0: 0000 0000 0000 0000 0000 0000 0000 0000
0.0 0.0 0.0 0.0 0.0 0.0 0.0 0.0
0.0 0.0 0.0 0.0 0.0 0.0 0.0 0.0
0.0 0.0 0.0 0.0 0.0 0.0 0.0 0.0
0.0 0.0 0.0 0.0 0.0 0.0 0.0 0.0
0.0 0.0 0.0 0.0 0.0 0.0 0.0 0.0
0.0 0.0 0.0 0.0 0.0 0.0 0.0 0.0
0.0 0.0 0.0 0.0 0.0 0.0 0.0 0.0
0.0 0.0 0.0 0.0 0.0 0.0 0.0 0.0
0.0 0.0 0.0 0.0 0.0 0.0 0.0 0.0
0.0 0.0 0.0 0.0 0.0 0.0 0.0 0.0
0.0 0.0 0.0 0.0 0.0 0.0 0.0 0.0
0.0 0.0 0.0 0.0 0.0 0.0 0.0 0.0
0.0 0.0 0.0 0.0 0.0 0.0 0.0 0.0
0.0 0.0 0.0 0.0 0.0 0.0 0.0 0.0
0.0 0.0 0.0 0.0 0.0 0.0 0.0 0.0
0.0 0.0 0.0 0.0 0.0 0.0 0.0 0.0

action_model._continuous_distribution.log_sigma f4 [1, 2]
00000000: 0000 0000 0000 0000
0.0 0.0

action_model._continuous_distribution.mu.weight f4 [2, 128]
00000000: 37d6 f13b 5552 ec39 df38 5fbc d5c9 6bba
00000010: eb5d 2cba dd71 48bc 577a 30bc 43fd 42bc
00000020: 1520 70bb 9e7b 4bbc 0b08 c0bc 2d8d fbba
00000030: 0d77 f13a dbce 27ba 598f 123c 4ba4 2f3c
00000040: 98e7 41b8 245b bbbc 879f 3b3c 4b3d 3c3c
00000050: 0dcb 6c3c ab31 c63c 7dbe 81bc 61a5 8c3b
00000060: f83f 8cbc 300c 5c3c 75b4 e0bc 12c9 d93a
00000070: 3055 7f3b e1f1 9bbc 7f56 babc 0b92 123a
00000080: aaeb 71bc c85f dd3c 5add 8abb a71b 66bc
00000090: ebaa 03bc fd51 4fbc 5b62 9f3c ab77 1cbc
000000a0: b7f4 d23b 4d1e aabc 8a7c 053b 17fc 093d
000000b0: 50f2 e1ba f2d1 a13b d87c dd3b f406 afbc
000000c0: 6bd7 d83b 230b dc3c c379 8d3b 5fff 1fbb
000000d0: 9171 c03a d881 623b 6e54 41bb 45c5 7b3c
000000e0: fbf0 403c d25e 4a3c 1761 493d 172e 0ebd
000000f0: 4f56 953c b30c e0bc 2085 0d3c ff94 0abb
00000100: 1b59 d0bc e85c 8f3b b45f 853c d372 aa3a
00000110: 12f3 8abb 474f 9b3a 8283 863b 971f 093c
00000120: e8c3 063c 8ff0 063d 34a1 483c 0349 7cbc
00000130: 5907 22bc b3fd dd3c 9515 fc3c 0d4b 96bb
00000140: fbf5 0fbc a5ca 9a3a 5603 973c edfe eebb
00000150: 732e 123b 3f82 473c f79f 74bb 3f50 0f3b
00000160: 6beb a93c 94ff 31bc 7a20 d5bc 4500 abbc
00000170: 6ffc b53c 2763 a4bc b34a a43c ba74 dbba
00000180: 6779 28bc bb12 503c bf1f 063b f5ad 41bb
00000190: 52b4 de3c 6496 c5bb 03ec d93b a0c1 adb9
000001a0: 600f ddbc af43 34bc 9f6c cc3c daac 29bd
000001b0: 24ce 373c e0f1 f33c 0022 053c 37d6 50bc
000001c0: aaf9 a03b d5c0 f63b 377e 29bc cf8e 92bb
000001d0: b69f be3c 3fa8 893a 9210 19bb dddd 59bc
000001e0: bf45 8a3c 301a adba 2292 afbb 8ac8 fb3b
000001f0: f0e5 693c 03d9 e7b8 7aec 7f3b a71f 5f3a
00000200: a007 58bc 00b6 4bbd 7734 10bc 1f49 a63c
00000210: 7d1d 5b3b 63ed bcbc 95e6 63b9 9142 a3bc
00000220: 3f6b 98bc f8ca e8bc 9697 9abc 5ebd 30bc
00000230: 52ae ac3b a398 743c f4e4 1ebc 14ea 31bc
00000240: 222d a83c 10e9 513c 8b0c b9bc 4a5b a1bc
00000250: 9e53 96bc b617 9fbb 3f0a a5bc 370c 99bb
00000260: aae6 d7bc fde7 f7bb f5f1 64bc bbff 553c
00000270: 5315 273c 0cd5 99bc 8fa8 863b 2795 b7bb
00000280: bf3c e83c f4c4 28bc f654 33bc 54b6 943c
00000290: 7a0b 6abc 77b4 bb3a 0671 89bb fbc0 7e3c
000002a0: b32a 193c 004f ebbc d8ea a9bc 5e88 94bc
000002b0: 5fd5 21bc 435d c1bc 3e74 32bc 859c 61bc
000002c0: 7335 57bc bbf7 313c d362 d7bc 2f78 0a3d
000002d0: 353b b6bc 8f23 ea3b 5bd2 f83c c939 3e3c
000002e0: eef4 a63c 77bc da3c a155 a2bc b250 343c
000002f0: e065 b5ba 922a 5f3c e550 07bd b8b0 993c
00000300: c31b 3d3d 02ad 6fbc 0a20 e63a 5f21 283a
00000310: f840 0a3b 0d43 c6bb 11ea 813c 2a1b eabb
00000320: c885 003d b7eb 05bc d99a cabb d0f6 423b
00000330: e536 96bc 2306 673b 9792 bfbc ad5c 58bb
00000340: bbc0 fd3b 9fa7 11bc 56a7 193a 3ac2 6dbc
00000350: 60d4 03bb 3afa 073c bbcf 0e3b 865f 183c
00000360: a7e9 8ebb 4e1d 9e3c 133e d63a bb12 3e3d
00000370: a8f9 1f3c 2203 8e3c 992c 19bb 2107 0a3c
00000380: 1c15 8abc da06 813c 1f40 983c 6fe4 bfba
00000390: 73ff 14bb d74b eb3b 7acf 51bc e319 c9bb
000003a0: 376a 7d3b 6833 e83b 13e0 8bbc 75fe 62bb
000003b0: fe0e 11bd a33a d2bc 2d71 833c 0a16 8e3c
000003c0: 5f99 7abc 661c 48bc cf64 343b 0d57 ba3a
000003d0: e868 f1bb 6137 123b ba47 fe3b 3673 3ebc
000003e0: 4c89 3fbc f781 793c 9b6f ddbb 36a4 b9bc
000003f0: 6cbb ab3c ee93 c4bc 62d4 773b 4fae bcbb
0.0073802727 0.0004507477 -0.013624399 -0.0008994614 -0.0006575274 -0.012234178 -0.010771356 -0.011901203
-0.0036640216 -0.012419609 -0.023441335 -0.0019191854 0.0018422321 -0.00064013683 0.00894531 0.010720323
-4.6230474e-05 -0.022870608 0.0114516085 0.011489223 0.014452708 0.024193605 -0.015837902 0.0042921756
-0.017120346 0.01343064 -0.027429799 0.001661571 0.0038960688 -0.019036235 -0.022746323 0.000559122
-0.014765659 0.027023211 -0.004237813 -0.014044679 -0.0080363555 -0.012653825 0.01945608 -0.009550015
0.0064378637 -0.020766402 0.002036842 0.033687677 -0.0017238352 0.0049383575 0.0067592673 -0.02136562
0.0066174767 0.02686078 0.0043174936 -0.0024413688 0.0014682283 0.0034562256 -0.0029499787 0.015366857
0.011776204 0.0123517085 0.049164858 -0.034711923 0.018229632 -0.027349805 0.0086376965 -0.0021145937
-0.025433114 0.004375089 0.016280986 0.0013004191 -0.004240402 0.0011849188 0.0041050324 0.008369348
0.008225419 0.03294426 0.012245465 -0.015398267 -0.009889447 0.027098512 0.03077201 -0.0045865835
-0.008786674 0.001180966 0.018434208 -0.007293573 0.0022305518 0.012177049 -0.0037326792 0.0021867899
0.020742139 -0.010864157 -0.026016463 -0.020874152 0.022215096 -0.02006681 0.02005515 -0.0016743161
-0.010282851 0.012699778 0.00204657 -0.002955315 0.027185593 -0.006029891 0.0066504492 -0.00033141393
-0.02698487 -0.011002465 0.024954138 -0.04142461 0.011218581 0.02977842 0.008125782 -0.012746385
0.004912575 0.0075303116 -0.010345033 -0.0044725905 0.023269515 0.0010502412 -0.0023355824 -0.013297525
0.01687896 -0.0013206657 -0.0053579966 0.007683818 0.014276013 -0.0001105536 0.0039050863 0.00085114915
-0.013185412 -0.049734116 -0.008801571 0.020298539 0.0033434324 -0.023062414 -0.00021734305 -0.019929202
-0.018605826 -0.028417096 -0.01887111 -0.010787336 0.005269804 0.01492897 -0.009698141 -0.010859031
0.020529334 0.012811914 -0.022588989 -0.01969685 -0.018350419 -0.0048551215 -0.020146487 -0.0046706456
-0.026355106 -0.007565497 -0.013973703 0.013061459 0.010197955 -0.018778346 0.004109449 -0.005602497
0.028349278 -0.0103008635 -0.010945549 0.018153347 -0.014284963 0.001432075 -0.0041943816 0.01554894
0.009348559 -0.028724194 -0.020741865 -0.018131431 -0.009877532 -0.023604041 -0.010891972 -0.013770227
-0.013135302 0.010862286 -0.02629224 0.033806022 -0.022245029 0.007145352 0.030373743 0.011610457
0.020380463 0.026701195 -0.019816222 0.011005567 -0.0013839565 0.013620989 -0.03303613 0.018761024
0.046169054 -0.014628651 0.0017557156 0.0006413664 0.0021095853 -0.0060504735 0.015858682 -0.0071443515
0.031377584 -0.008173875 -0.00618301 0.0029749162 -0.018336723 0.003525146 -0.02338533 -0.0033014223
0.0077439225 -0.008890062 0.0005861422 -0.014511639 -0.00201156 0.008299405 0.0021791297 0.009300118
-0.0043613496 0.019301083 0.0016345404 0.04640458 0.0097641125 0.017335478 -0.002337253 0.008424551
-0.016855769 0.015750337 0.018585263 -0.0014640222 -0.0022735267 0.0071806717 -0.012805814 -0.006137119
0.0038668045 0.007086206 -0.01707462 -0.0034636531 -0.03541469 -0.025662726 0.016045177 0.017344493
-0.015295356 -0.012213802 0.0027525907 0.0014216617 -0.007367242 0.002231084 0.0077600153 -0.011624148
-0.011690449 0.01522874 -0.006757689 -0.02266131 0.020963393 -0.02399632 0.00378158 -0.005758084

action_model._continuous_distribution.mu.bias f4 [2]
00000000: 0000 0000 0000 0000
0.0 0.0

network_body._body_endoder.seq_layers.0.weight f4 [128, 4]
00000000: d3d8 ac3b b5b3 ac3e e9a6 793d 2c91 6dbd
00000010: 017c 203e 9121 5e3e 37c1 58be f592 bfbf
00000020: 21e2 3dbe cb7c 793f 6c03 903f 5a0f 053f
00000030: c4ac f33e 17e4 cebe 90be ffbe 25bb 62bf
00000040: c574 4e3d c980 1e3e a328 0dbf 54d6 3fbe
00000050: a499 8fbd 8c59 bebe 7fef 0cbf 956f 813f
00000060: ec9a 913f 7f77 e6bd 3c73 3f3f 48f4 0a3f
00000070: 3dc6 b8bd b151 80bd b006 a1bd c7ef 04bf
00000080: 3f2d f6be 4e0f a1bd a098 943f c99d ebbe
00000090: 8b60 733e f335 083f 7bf9 d4bc 1763 963f
000000a0: 3891 a93e 6828 50be 549e 1e3f 63fa 0fbe
000000b0: 6542 353f 831c aa3e 02dc eb3d beed f53e
000000c0: 2256 ab3e 6923 813d c756 74be 047a 0fbd
000000d0: 936d 9dbf a98f 5ebf d985 61bd 3585 8e3e
000000e0: 5435 98be d075 39be 483b 92bf 8fe6 1e3f
000000f0: afde e3bd bcf9 98bc 7de1 7f3f 5c2f babd
00000100: bc93 03bf 7fdc 603f 76ce 49be 8d72 31bf
00000110: d989 863e 4e37 8abe 9079 8d3e fe72 75bf
00000120: 1388 1a3f c843 87be 027c 1cbd ed9d 93bd
00000130: 0a85 283f 5031 63bf 7b1b 3fbf c5d4 b23d
00000140: 87d5 69be 8c4c 7a3f 7d3e 9cbd 864c 743f
00000150: 10df 893d dcf2 6b3f 293d 0cbf c7e7 633f
00000160: 5723 1c3e 1bca 483e 5d2b ba3e 8689 6ebe
00000170: 3254 283e ed0c c0be 26a4 3bbf 8020 85be
00000180: 0040 2ebe aa0b 0a3f 7195 1bbe d3ba 36bf
00000190: 2a84 c9be 1f76 2e3e 04ba 4f3f 66f7 c63e
000001a0: f787 7d3e 26b8 f03e 948f 08bf 5084 0d3f
000001b0: 5337 423d 3f2c 5d3f 8c2e d43e ac8a 053f
000001c0: 372f 073e 1440 7d3f 3816 e8bd 6938 32bc
000001d0: 21b0 103e 4200 93bd 1fa0 0a3e 3e57 bbbe
000001e0: 31ba 9f3e f19e 2fbf 4be6 d6be 09f6 a63e
000001f0: 8201 02bf 68c7 c33e 1b3b 473f 3f50 41bf
00000200: 491f 6ebe b086 90be f22c 483f 40a0 793f
00000210: 17eb 363f 393d 45bf 57c0 d9be 3610 01bf
00000220: 3b3a d03d 5992 a2be ccbf 61be 0fd8 383f
00000230: 8d59 1ebf 8650 2a3f 7188 493f cbaf 8a3e
00000240: 09e4 8bbe 2398 5d3e 2eab 473f 73b4 173f
00000250: 2c81 10bf c9c9 16be 99d5 5c3f 2022 873c
00000260: 37ce 7c3e 4d51 5abf 6357 00bc 2138 823e
00000270: 4a17 8a3f 4198 96be 6b7b 84bf 8c40 67bf
00000280: 1430 be3d f564 03bd a487 bebe 3d0d cfbe
00000290: 216a 80bf bf6b bf3c 9227 0abf 8028 183e
000002a0: 48c4 0ebf be15 62bf 5e12 b7be 2539 6a3e
000002b0: 37ee 3fbc ff9c a23d ebc8 fcbe 7c98 553e
000002c0: 99b0 e73e 7a00 823f f6f4 eebd 0206 8a3e
000002d0: 1565 8c3e e00b 4b3e 33a5 93bc e5ed f6bd
000002e0: ea60 cebd e7fd 2a3f 12af 073f eb4d a03e
000002f0: 3833 dfbd 7e33 0bbf 4371 fabe 9d73 273f
00000300: d970 3d3f f3a7 a13e 2901 2ebe cb31 00bf
00000310: 8acb 5f3f e405 43bf 588a 333c be5b 02be
00000320: 886f 07bc 67b6 54bf f182 7f3e 165f 8abe
00000330: 2c60 e4bd a33b f23e d13d 00be 0b09 463f
00000340: d76d 60bd b165 a3bf dcaa 0bbf 6a1d 3fbf
00000350: d4a8 0f3f 5ba0 c83d 7c0e b8be 25e9 8cbe
00000360: 002d c0be 2976 cabe 965b 263f 3d4c 5d3e
00000370: df42 653f 001e c8bd d139 2bbf f33e 323f
00000380: 9675 3b3e dd70 c53e 2d25 74be 46a7 2c3e
00000390: f5a9 383f fd92 a43e 047a 053e cbb7 313f
000003a0: 85f7 7e3e 5099 77bd deed e43e 8fa7 1abf
000003b0: 0252 263d b632 f43d e63c 603d 1856 6b3f
000003c0: c062 2c3f 2408 0bbd a4d9 2abf ef23 af3e
000003d0: e9de 7d3e 7db7 88bf e409 123e ed6d ab3d
000003e0: f293 91be 85bc dabe ff58 22be 2ab5 6eba
000003f0: ba94 f3be a367 29be 8a0e 083e 143d ec3e
0.005274871 0.33730856 0.060950194 -0.057999775 0.15672304 0.21692492 -0.21167456 -1.4966723
-0.18543293 0.97456044 1.1251044 0.5197655 0.47592747 -0.40408394 -0.49950075 -0.8856681
0.05040433 0.15478815 -0.5514013 -0.18734103 -0.070117265 -0.37177694 -0.5505294 1.0112177
1.1375403 -0.11253261 0.7478521 0.54278994 -0.09022186 -0.062655814 -0.07862604 -0.5192837
-0.48081395 -0.07864247 1.1609077 -0.46018818 0.23767297 0.5320732 -0.025997868 1.174899
0.33118606 -0.20327914 0.6196034 -0.14060359 0.70804435 0.33224878 0.115165725 0.48032945
0.33464152 0.06305582 -0.23861228 -0.035028473 -1.2299064 -0.8693796 -0.055059288 0.27836004
-0.29728186 -0.18111348 -1.1424341 0.62070554 -0.11126458 -0.01867377 0.9995344 -0.09091064
-0.513973 0.8783645 -0.19707665 -0.69315416 0.26277044 -0.2699532 0.27631807 -0.9587859
0.6036388 -0.264189 -0.0382042 -0.07207856 0.65828 -0.8874712 -0.74651307 0.08731989
-0.2283536 0.9777305 -0.07629106 0.95429265 0.06731999 0.9216745 -0.54780823 0.8902554
0.15247856 0.19608347 0.3636121 -0.23294649 0.16438368 -0.37509862 -0.73297346 -0.26001358
-0.17016602 0.5392405 -0.15193726 -0.7137882 -0.39358646 0.17037247 0.8114321 0.38860625
0.24758898 0.47015494 -0.5334408 0.5528002 0.047416043 0.8639564 0.41441762 0.5216472
0.13201605 0.989259 -0.11332363 -0.010877707 0.14129688 -0.071777835 0.13537644 -0.36589998
0.3119674 -0.686019 -0.41972575 0.32609585 -0.5078355 0.38238072 0.7782456 -0.7551307
-0.23254122 -0.28227758 0.7819358 0.9751015 0.7145247 -0.77046543 -0.42529556 -0.5041536
0.101673566 -0.3175228 -0.22045821 0.7220468 -0.61855394 0.6652912 0.7872382 0.27087244
-0.27322415 0.21640067 0.77995574 0.5925972 -0.564471 -0.14725412 0.86263424 0.016495764
0.2468804 -0.85280305 -0.007833335 0.25433448 1.0788357 -0.29413036 -1.0350164 -0.90332866
0.09286514 -0.032078702 -0.3721286 -0.40439788 -1.0032388 0.023366807 -0.5396663 0.148592
-0.5576825 -0.88314426 -0.357562 0.22873361 -0.01171451 0.07940101 -0.49372038 0.2085895
0.4525192 1.0156395 -0.11667816 0.2695771 0.2742087 0.19828749 -0.018023109 -0.120570935
-0.10077079 0.66793674 0.5300151 0.31309447 -0.10898441 -0.54375446 -0.48914537 0.65410787
0.74000317 0.31573448 -0.1699263 -0.5007598 0.8741995 -0.76180863 0.010958277 -0.1273031
-0.008266337 -0.83090824 0.24952294 -0.2702567 -0.11151156 0.47311124 -0.12523581 0.7735755
-0.05479225 -1.2765409 -0.54557586 -0.7465426 0.56116986 0.097962104 -0.3594855 -0.27521625
-0.37534332 -0.39543274 0.649835 0.21611114 0.8955516 -0.09771347 -0.66885096 0.696273
0.18306574 0.3856267 -0.23842306 0.16860685 0.72134334 0.32143393 0.13034827 0.6942107
0.24899109 -0.060448945 0.44712728 -0.60411924 0.040605552 0.11923735 0.054745577 0.91928244
0.6733818 -0.03394331 -0.66738343 0.34207103 0.24792065 -1.0680996 0.14261585 0.08370576
-0.28433186 -0.42721954 -0.15854262 -0.0009105975 -0.47574407 -0.1654344 0.13286796 0.4614035

network_body._body_endoder.seq_layers.0.bias f4 [128]
00000000: 0000 0000 0000 0000 0000 0000 0000 0000
00000010: 0000 0000 0000 0000 0000 0000 0000 0000
00000020: 0000 0000 0000 0000 0000 0000 0000 0000
00000030: 0000 0000 0000 0000 0000 0000 0000 0000
00000040: 0000 0000 0000 0000 0000 0000 0000 0000
00000050: 0000 0000 0000 0000 0000 0000 0000 0000
00000060: 0000 0000 0000 0000 0000 0000 0000 0000
00000070: 0000 0000 0000 0000 0000 0000 0000 0000
00000080: 0000 0000 0000 0000 0000 0000 0000 0000
00000090: 0000 0000 0000 0000 0000 0000 0000 0000
000000a0: 0000 0000 0000 0000 0000 0000 0000 0000
000000b0: 0000 0000 0000 0000 0000 0000 0000 0000
000000c0: 0000 0000 0000 0000 0000 0000 0000 0000
000000d0: 0000 0000 0000 0000 0000 0000 0000 0000
000000e0: 0000 0000 0000 0000 0000 0000 0000 0000
000000f0: 0000 0000 0000 0000 0000 0000 0000 0000
00000100: 0000 0000 0000 0000 0000 0000 0000 0000
00000110: 0000 0000 0000 0000 0000 0000 0000 0000
00000120: 0000 0000 0000 0000 0000 0000 0000 0000
00000130: 0000 0000 0000 0000 0000 0000 0000 0000
00000140: 0000 0000 0000 0000 0000 0000 0000 0000
00000150: 0000 0000 0000 0000 0000 0000 0000 0000
00000160: 0000 0000 0000 0000 0000 0000 0000 0000
00000170: 0000 0000 0000 0000 0000 0000 0000 0000
00000180: 0000 0000 0000 0000 0000 0000 0000 0000
00000190: 0000 0000 0000 0000 0000 0000 0000 0000
000001a0: 0000 0000 0000 0000 0000 0000 0000 0000
000001b0: 0000 0000 0000 0000 0000 0000 0000 0000
000001c0: 0000 0000 0000 0000 0000 0000 0000 0000
000001d0: 0000 0000 0000 0000 0000 0000 0000 0000
000001e0: 0000 0000 0000 0000 0000 0000 0000 0000
000001f0: 0000 0000 0000 0000 0000 0000 0000 0000
0.0 0.0 0.0 0.0 0.0 0.0 0.0 0.0
0.0 0.0 0.0 0.0 0.0 0.0 0.0 0.0
0.0 0.0 0.0 0.0 0.0 0.0 0.0 0.0
0.0 0.0 0.0 0.0 0.0 0.0 0.0 0.0
0.0 0.0 0.0 0.0 0.0 0.0 0.0 0.0
0.0 0.0 0.0 0.0 0.0 0.0 0.0 0.0
0.0 0.0 0.0 0.0 0.0 0.0 0.0 0.0
0.0 0.0 0.0 0.0 0.0 0.0 0.0 0.0
0.0 0.0 0.0 0.0 0.0 0.0 0.0 0.0
0.0 0.0 0.0 0.0 0.0 0.0 0.0 0.0
0.0 0.0 0.0 0.0 0.0 0.0 0.0 0.0
0.0 0.0 0.0 0.0 0.0 0.0 0.0 0.0
0.0 0.0 0.0 0.0 0.0 0.0 0.0 0.0
0.0 0.0 0.0 0.0 0.0 0.0 0.0 0.0
0.0 0.0 0.0 0.0 0.0 0.0 0.0 0.0
0.0 0.0 0.0 0.0 0.0 0.0 0.0 0.0

network_body._body_endoder.seq_layers.2.weight f4 [128, 128]
00000000: f1b6 5ebc e584 083e fe0d 053e db78 8dbd
00000010: 046a 433c f0b1 50bd d016 0e3e 0d5e 9b3d
00000020: f18d ac3c e4ca 38be aabf 9dbd 04f5 abbd
00000030: dfcd 02bc e622 90bd ae8a 67bd 50c4 3c3c
00000040: 4dda c2bc 976d bb3d 7e3a 993c 403a ee3c
00000050: 0d4f 993d d758 c4bc 2e11 913d e64f 3d3c
00000060: 9136 d73c b922 8d3c 0ab6 c4bd 28fe dfbd
00000070: dc13 b43d 858d 083d 767a cebd 9254 a2bb
00000080: 0841 2ebd 8f6f 123d 756a 6e3d eb64 873d
00000090: 13b8 ee3d 722b 9ebd 9cd2 e1bd 736d 0a3d
000000a0: bdce c03c 6871 16bd 87fc 0d3d 8a02 333d
000000b0: 772e 743e d003 023c 77f3 373c 6343 013e
000000c0: 2186 9d3d 9c46 46bd 1f71 0e3e de4e 933d
000000d0: 3b6f 313d aa9f f73a 914e 943d be9d d53b
000000e0: b100 bcbd db22 a83b cf7d cb3b 8617 c03d
000000f0: df05 d83c 1c3c 773d 589e 233d e6e5 143d
00000100: 3eb5 843e 39a4 d13d 45c0 8a3d f313 9cbb
00000110: 9009 303d 3c7d 9cbc 7a90 0bbe 45b8 623d
00000120: 8793 22be 03a8 c4bd d20c 713d 37b5 d83d
00000130: acae 8a3d 9c28 e8bd 985a 8a3b a14f 823d
00000140: 8629 19bd 69d7 7bba e12e afbb d526 92bd
00000150: 3178 96bd 140a 1a3e 5c48 9b3d 654c 853d
00000160: 4063 223d d31f c43d 9685 0b3e b955 243d
00000170: 95c9 36bc 3111 12bd 73aa d4bc d5d9 583c
00000180: 42e3 113e 08fd 31bd e9c8 ee3c 0618 38bc
00000190: 0286 313d b0ee 88bd 1847 8b3c 10ca fdbb
000001a0: ce3d a53d d069 a8bb f4cc 1cbe 623f 12be
000001b0: 921c 623d ccca 9bbd ce80 a53d 28b2 1cbd
000001c0: 6c4f 13be 8304 ea3d 39f5 bbbd 8aa6 7ebd
000001d0: 10ac 143c af65 a03c 31bb 523c 834d c0bc
000001e0: f364 7e3d 7143 b13d 0766 c83d 8038 96bd
000001f0: d3ec ecbd 9b7e 9a3d 910c 4dbd 0a5c 183e
00000200: a748 c73d 50ed 48bb 2e1a 333e 96c5 f8bc
00000210: 6ce1 d43d 8ce4 c33d e3fe 683d 683d e9bc
00000220: 7adc 50bc c25c 70bd d88a c5bc 0964 adbc
00000230: 6978 ddbd db46 b83c 5411 5ebd 5f6f 55bd
00000240: e913 a73d ffa3 e8bd f40c a0bc 8557 113d
00000250: 9770 9e3c ecf7 d639 df84 573d 0d4c b5bc
00000260: 7f3a 37bc 0111 733d e91c e2bc 7d0c 253d
00000270: bcc2 833d 34fc 0a3d 587e 03be f943 bc3c
00000280: e3e9 a8bd f3c6 c0bc eb0d 6a3c f5e0 55bd
00000290: b39b aa3c 3ee6 0ebd bc72 1fbe fa84 38be
000002a0: 1ff1 283d 3fd9 ab3d 8401 07bd d055 27bc
000002b0: 285c b3bc 5cad 91bd 94dd 8f3d a50a c3bd
000002c0: efdc f93d a12b 36bd 9ced a7bd 6383 2a3d
000002d0: 154f d93d 3e6e 9d3d b16c b23d ca28 893c
000002e0: 9d83 e6bd cedf e2bd 81a6 153d 6596 39bd
000002f0: 0835 01bd 5dcc 25bd 606f cbbd 25b8 043d
00000300: 206a 7cbc 00e1 a3bd 1878 ae3c 7b16 803d
00000310: 7608 8a3d 5544 9d36 50e8 e5bd 2799 7cbe
00000320: 6889 b43d dcae aabd b9d0 6c3d 973c 9ebb
00000330: cc85 2c3e 3c1e e2bd 3160 eabc 4883 793d
00000340: 7531 103c a09d 84bd 7b3c 1fbd 0713 293e
00000350: f7c2 ebbd 5e9b 52bd 5a32 19be 79a8 c33d
00000360: a2cc c6bc 34a2 373e 8ac2 e33b d163 843c
00000370: 5335 713e 7b1c 003e 5c41 653d a12e 99bc
00000380: 7721 8d3d 6ce4 03bc 9cc1 9abd 1bd2 d2bc
00000390: 9567 52bd 139e 51bd a6db 80be 3acb 00be
000003a0: e666 aebd f98b 6c3d 2078 c7bd ea00 a43d
000003b0: 5cd6 b5bd d16a 5abd 94ff 57bd c285 debc
000003c0: 1818 58bd 0b78 37bd e472 3cbd 07f2 f0bd
000003d0: dfc1 e5bd 80e5 9f3d cc67 7cbe 164c de3c
000003e0: d83d 11bd 6c16 a83d 4fa7 00bc 44ac d2bd
000003f0: 9a67 003d 1064 35bc 22fe d1bc c3ee 80bd
-0.013593421 0.13331945 0.12993619 -0.06907817 0.011927132 -0.050950944 0.1387589 0.07586298
0.021063777 -0.18046147 -0.07702573 -0.083963424 -0.007983654 -0.07037906 -0.05652874 0.011521414
-0.023785735 0.09151762 0.018704649 0.02908051 0.07485781 -0.023968143 0.07083355 0.011554694
0.026271136 0.017228471 -0.09605034 -0.10937148 0.087928504 0.03333809 -0.10081951 -0.004953929
-0.042542487 0.03575092 0.058206994 0.066110454 0.11656203 -0.0772313 -0.11026499 0.033795785
0.02353608 -0.036729246 0.034664657 0.043703593 0.2384585 0.007935479 0.01122748 0.12623362
0.07691599 -0.048407182 0.1391034 0.07192777 0.04331897 0.0018892188 0.07241548 0.0065190485
-0.091798194 0.005131108 0.006210066 0.09379487 0.026369987 0.06036006 0.03994593 0.03635206
0.25919527 0.10236401 0.06774954 -0.0047631203 0.04297787 -0.019102685 -0.13629332 0.055351514
-0.1587659 -0.09602358 0.058850117 0.10581439 0.06771597 -0.113358706 0.0042222254 0.06362844
-0.037393115 -0.0009606989 -0.0053461646 -0.07136313 -0.073471434 0.15042907 0.07582161 0.06508712
0.039645433 0.095763825 0.13625178 0.040120814 -0.011156459 -0.035660926 -0.025960183 0.013235529
0.14246848 -0.0434542 0.029148536 -0.011236196 0.04334069 -0.06686151 0.017001674 -0.007745035
0.08068429 -0.005139567 -0.15312558 -0.14281991 0.055203028 -0.0760704 0.08081208 -0.03825584
-0.14385766 0.11426642 -0.09177632 -0.062170543 0.009074226 0.019579737 0.012862013 -0.02347446
0.06210799 0.086554416 0.09785085 -0.07334995 -0.11568608 0.07543679 -0.050060812 0.1487886
0.09730654 -0.0030659027 0.17490456 -0.030367654 0.10394558 0.09565076 0.056883704 -0.028471664
-0.012747878 -0.05868221 -0.024114057 -0.021165865 -0.10813982 0.022494724 -0.054215744 -0.052108165
0.081580944 -0.11359405 -0.019537427 0.035483856 0.019340796 0.00041001977 0.05261695 -0.02213099
-0.01118338 0.059342388 -0.027601676 0.040295113 0.06433627 0.033931926 -0.12841165 0.02298163
-0.08247735 -0.023532366 0.014285545 -0.05221649 0.020826196 -0.034887545 -0.15571111 -0.18019477
0.041245576 0.08391046 -0.03296043 -0.01021333 -0.02189453 -0.07113144 0.070246845 -0.09523515
0.12200343 -0.0444752 -0.08199617 0.041629206 0.10610787 0.07687043 0.087121375 0.016743083
-0.11255572 -0.110778436 0.036535744 -0.045309443 -0.031544715 -0.0404781 -0.099333525 0.032402176
-0.015406162 -0.080019 0.0212975 0.06254288 0.06739895 4.6869195e-06 -0.11225951 -0.24667798
0.08815271 -0.08334133 0.05781624 -0.004829 0.16847914 -0.11040923 -0.02861032 0.060916215
0.008800854 -0.06475377 -0.038876038 0.16511165 -0.11511796 -0.0514177 -0.14960614 0.09553618
-0.024267498 0.1793297 0.006950681 0.016160877 0.23555498 0.12510864 0.055970535 -0.018698992
0.068911485 -0.0080500655 -0.07556459 -0.025734952 -0.051368315 -0.051176142 -0.25167578 -0.12577525
-0.0851572 0.057750676 -0.09739709 0.08007987 -0.088787764 -0.053324524 -0.052733973 -0.02716339
-0.052757353 -0.044792216 -0.046008006 -0.11764913 -0.112186186 0.078074455 -0.2464897 0.02713589
-0.03545937 0.08207402 -0.0078523895 -0.10286763 0.031348802 -0.01107122 -0.025633875 -0.0629554

network_body._body_endoder.seq_layers.2.bias f4 [128]
00000000: 0000 0000 0000 0000 0000 0000 0000 0000
00000010: 0000 0000 0000 0000 0000 0000 0000 0000
00000020: 0000 0000 0000 0000 0000 0000 0000 0000
00000030: 0000 0000 0000 0000 0000 0000 0000 0000
00000040: 0000 0000 0000 0000 0000 0000 0000 0000
00000050: 0000 0000 0000 0000 0000 0000 0000 0000
00000060: 0000 0000 0000 0000 0000 0000 0000 0000
00000070: 0000 0000 0000 0000 0000 0000 0000 0000
00000080: 0000 0000 0000 0000 0000 0000 0000 0000
00000090: 0000 0000 0000 0000 0000 0000 0000 0000
000000a0: 0000 0000 0000 0000 0000 0000 0000 0000
000000b0: 0000 0000 0000 0000 0000 0000 0000 0000
000000c0: 0000 0000 0000 0000 0000 0000 0000 0000
000000d0: 0000 0000 0000 0000 0000 0000 0000 0000
000000e0: 0000 0000 0000 0000 0000 0000 0000 0000
000000f0: 0000 0000 0000 0000 0000 0000 0000 0000
00000100: 0000 0000 0000 0000 0000 0000 0000 0000
00000110: 0000 0000 0000 0000 0000 0000 0000 0000
00000120: 0000 0000 0000 0000 0000 0000 0000 0000
00000130: 0000 0000 0000 0000 0000 0000 0000 0000
00000140: 0000 0000 0000 0000 0000 0000 0000 0000
00000150: 0000 0000 0000 0000 0000 0000 0000 0000
00000160: 0000 0000 0000 0000 0000 0000 0000 0000
00000170: 0000 0000 0000 0000 0000 0000 0000 0000
00000180: 0000 0000 0000 0000 0000 0000 0000 0000
00000190: 0000 0000 0000 0000 0000 0000 0000 0000
000001a0: 0000 0000 0000 0000 0000 0000 0000 0000
000001b0: 0000 0000 0000 0000 0000 0000 0000 0000
000001c0: 0000 0000 0000 0000 0000 0000 0000 0000
000001d0: 0000 0000 0000 0000 0000 0000 0000 0000
000001e0: 0000 0000 0000 0000 0000 0000 0000 0000
000001f0: 0000 0000 0000 0000 0000 0000 0000 0000
0.0 0.0 0.0 0.0 0.0 0.0 0.0 0.0
0.0 0.0 0.0 0.0 0.0 0.0 0.0 0.0
0.0 0.0 0.0 0.0 0.0 0.0 0.0 0.0
0.0 0.0 0.0 0.0 0.0 0.0 0.0 0.0
0.0 0.0 0.0 0.0 0.0 0.0 0.0 0.0
0.0 0.0 0.0 0.0 0.0 0.0 0.0 0.0
0.0 0.0 0.0 0.0 0.0 0.0 0.0 0.0
0.0 0.0 0.0 0.0 0.0 0.0 0.0 0.0
0.0 0.0 0.0 0.0 0.0 0.0 0.0 0.0
0.0 0.0 0.0 0.0 0.0 0.0 0.0 0.0
0.0 0.0 0.0 0.0 0.0 0.0 0.0 0.0
0.0 0.0 0.0 0.0 0.0 0.0 0.0 0.0
0.0 0.0 0.0 0.0 0.0 0.0 0.0 0.0
0.0 0.0 0.0 0.0 0.0 0.0 0.0 0.0
0.0 0.0 0.0 0.0 0.0 0.0 0.0 0.0
0.0 0.0 0.0 0.0 0.0 0.0 0.0 0.0

value_heads.value_heads.extrinsic.weight f4 [1, 128]
00000000: 91ce 51be 18c8 5c3e a27d 573e e8ba 2c3d
00000010: 8ce2 1ebd 1a84 183e 48ec a53d 748e 463e
00000020: 90eb 51bc 488b 4b3d d4f4 a63d c816 a53d
00000030: 2e34 b7bd 6015 663d 487a 773d be37 4e3e
00000040: 708a 6c3d 6186 cfbd 9213 16be 5c47 ee3d
00000050: fe0a 91bd b091 613d e095 553c d8fc c73d
00000060: ae1c 38be c046 92bd 5017 423c 70a5 2c3e
00000070: 0a78 2b3e a59a 1abe 8825 453e e964 c7bd
00000080: 9ca0 d93d 748e 053d 1223 413e 8044 36bb
00000090: f882 3bbd d84c abbc 04b8 30be 5f6f 54be
000000a0: 2c94 c03d f8cd 2c3e 2efc 58be 1074 393c
000000b0: 7817 7c3d 543d 883d 64f1 93bd b029 4b3c
000000c0: 60de a93d fb10 e9bd 90d4 393c 8c01 d53d
000000d0: f2fe 083e d482 0dbd e9d5 33be a359 4dbe
000000e0: c4d0 d63d e155 2fbe f0a3 10bd a8bd fa3d
000000f0: 7494 ee3d 6041 1a3d f84c 3e3d 29fa c5bd
00000100: c4c1 5fbd ae00 24be 384c 6dbd 90c0 2e3e
00000110: 2771 27be b860 7e3d 4380 23be 208f dd3b
00000120: bae0 523e 70c4 2dbe 7e9e d4bd 3054 5e3c
00000130: 00a7 eb3c 3c54 e43d 86af afbd 7438 f43d
00000140: c85c d33d 4cfa af3d 4879 e23d 82bf 8bbd
00000150: 807d 8ebb 5409 233e 40e2 83bd 34ad eebd
00000160: c28f babd 3533 1abe e52d 1dbe 6896 e9bc
00000170: ca43 3ebe c960 c7bd 096d eabd 40a4 40bc
00000180: e06e 3fbe a4c7 1c3e 30af 2abd 8aae a5bd
00000190: a1da dbbd f8c0 da3d 9189 5cbe 0095 71bd
000001a0: b884 17be 08b0 c23d f85d 4fbe e08f c8bd
000001b0: 8922 cabd 982d 813d 34d9 63bd c81e 28bd
000001c0: 9bcd 51be 9ed5 02be 788e c6bd bc50 7abd
000001d0: 590d c4bd f854 8e3d ea9f 453e 5881 bbbc
000001e0: c9cf f7bd 8ff5 cbbd f014 ac3d a442 063d
000001f0: 06ce 2a3e 4c8f 313e fcd8 41be 44ca febd
-0.20488955 0.21560705 0.21044019 0.042170435 -0.03879027 0.14894143 0.08101708 0.19390279
-0.01281251 0.049693376 0.08152166 0.08060986 -0.08945499 0.05617273 0.06041935 0.20138451
0.05774921 -0.101330526 -0.14655903 0.116347045 -0.07082175 0.05507058 0.013036221 0.09765023
-0.1797969 -0.07142401 0.011846378 0.16859984 0.1674501 -0.15098055 0.19252598 -0.09736044
0.10626337 0.032606557 0.18861035 -0.0027811825 -0.0457792 -0.020910665 -0.17257696 -0.2074561
0.094032615 0.16875446 -0.21189949 0.011319175 0.06154582 0.066523224 -0.07223776 0.012400076
0.08294368 -0.11380192 0.011342183 0.10400686 0.13378504 -0.034548596 -0.17562069 -0.20053725
0.10489038 -0.17122604 -0.035312593 0.12243205 0.11649409 0.037660003 0.046460122 -0.09666855
-0.05462815 -0.16015884 -0.057934016 0.17065644 -0.16351758 0.062103957 -0.15966897 0.0067614466
0.20593539 -0.16969466 -0.103817925 0.013569877 0.028766155 0.11148879 -0.085784 0.1192483
0.10320431 0.08592662 0.11058289 -0.068236366 -0.004348457 0.15921527 -0.06439638 -0.116541296
-0.09109451 -0.15058596 -0.15349539 -0.028514102 -0.18580547 -0.09735257 -0.11446578 -0.01175791
-0.18694639 0.15310532 -0.041670978 -0.08089931 -0.107350595 0.10681337 -0.21536852 -0.058979988
-0.14796722 0.095062315 -0.2025069 -0.09793067 -0.09869868 0.063075244 -0.055627063 -0.04104498
-0.20488589 -0.12776801 -0.096951425 -0.06111215 -0.09572858 0.069498 0.19299284 -0.022888824
-0.12100179 -0.09958946 0.08402431 0.032778397 0.16680154 0.1733982 -0.18930429 -0.12440923
