Client/results/ppo/MoveToGoal/MoveToGoal-0.pt (torch, 142992 bytes, 9 tensors)

network_body._body_endoder.seq_layers.0.weight f4 [128, 1]
00000000: 1673 413e 0cbc 51bf 969a c83f 2465 1abd
00000010: 9cb7 b23f e91a 98bf 1972 9c3f e1a8 7dbf
00000020: faaa c73e f1e3 72bf 51ae 8abf 264c 483d
00000030: ef52 67bf efef 1e3f 94b9 5f3f 77b5 85bf
00000040: f403 9abe bee5 943d 8dde 99bf b292 a23f
00000050: eec8 d83e f78e 90be f137 91bf c8aa 8ebf
00000060: de73 a5bf 4a2b 2abf db35 c1be 7a25 ca3e
00000070: 82e2 b33f c686 d33e 0f9d 3dbd c1d6 693e
00000080: f07a 3c3f 499d 343f 2fab a73e 1f73 333e
00000090: c0c0 29be 6c92 81bf 0103 0cc0 f655 9fbf
000000a0: 31c3 3bbf 0259 41be 2d7d 57bf 4c6f 7b3f
000000b0: 2cf6 9c3f b5d8 9f3e 5ade 76bf b4c5 84bf
000000c0: c293 ce3f 4c24 7fbf 60de 26bd 087d 1dbf
000000d0: 620c bfbf 7072 0ebf 301f c83f 573a 14c0
000000e0: 10bc 05be bcff 98bf aca0 70bf 371d 3bbf
000000f0: a877 753f 1b85 003f c73c 46bf 483a 2a3e
00000100: c4a5 a33e 0012 523e 0a2d 373e 86c1 fcbe
00000110: 6085 d1bf d8db b43e b63e 533f 0d92 1ebf
00000120: 3006 0d40 e1c6 a53f 7fb8 26c0 f7f9 83bf
00000130: ba79 a2be c59f 9e3f 7d51 a8bf 773e a9bf
00000140: d6b1 d13f 342b d6be 5734 a8be 495c b2bf
00000150: 4de9 77bd 03d4 c4bd 6a58 d93d 8c97 0ebf
00000160: 09ff 783e 42eb 5ebf ea56 2140 f7be 743f
00000170: 02bd 6abf 7aa5 973f a276 5bbe c0c5 fabe
00000180: d9be 82bf 7aa6 233f 0d2e e43e 18a3 99bf
00000190: 56f0 12bf fc19 cdbf fa76 27be 1e67 6c3f
000001a0: 25d6 06bf df45 04bf 739e 46be 99cd abbf
000001b0: bb45 d2be bcd2 943f c226 503f 0235 c7bf
000001c0: 25d5 1dbf cb7f debf a2b3 0240 592a 293f
000001d0: ac8e 94bf d2ff 59bd ddeb 53bf 5210 f7bf
000001e0: aa39 b5bd 237c f03d 3e66 0d3f 0ec4 f6bd
000001f0: 5ab6 e4bf 7e73 d73d eca1 993f 5be7 213e
0.18891558 -0.8192756 1.5672176 -0.03769411 1.3962283 -1.1883212 1.222232 -0.99085814
0.38997632 -0.9487906 -1.0834447 0.048900746 -0.9036092 0.6208486 0.87392545 -1.0446004
-0.3008114 0.07270382 -1.2021042 1.2701018 0.42340797 -0.28234074 -1.1345197 -1.1145868
-1.2925985 -0.66472304 -0.377364 0.39481717 1.40535 0.4131376 -0.04629236 0.22835828
0.7362509 0.705525 0.3274779 0.17524384 -0.16577435 -1.012281 -2.1876833 -1.2448108
-0.73344713 -0.1888161 -0.8417538 0.982167 1.2262626 0.31220022 -0.9643303 -1.0372834
1.6138842 -0.9966476 -0.040739417 -0.6151891 -1.4925654 -0.5564337 1.5634518 -2.3160608
-0.13060021 -1.1953044 -0.93995166 -0.73091453 0.95885706 0.502031 -0.7743649 0.16623795
0.31962407 0.20514679 0.17888275 -0.49366397 -1.6368828 0.35323977 0.82517564 -0.61941606
2.2035027 1.2951318 -2.6050107 -1.0310658 -0.31733495 1.2392508 -1.3149868 -1.3222188
1.6382396 -0.41829836 -0.32852432 -1.3934413 -0.060525227 -0.096107505 0.10612567 -0.5569999
0.24316038 -0.87077725 2.5209298 0.9560389 -0.91694653 1.1847374 -0.21431974 -0.48978996
-1.0214492 0.639259 0.44566384 -1.2002897 -0.57397974 -1.6023555 -0.1635398 0.92344844
-0.5267051 -0.51669115 -0.19396381 -1.3422118 -0.41068825 1.1626811 0.8130914 -1.5563052
-0.6165336 -1.7382749 2.042214 0.6608024 -1.160604 -0.053222485 -0.82781774 -1.9301856
-0.08848889 0.11742427 0.55234134 -0.12049113 -1.7868149 0.10520075 1.200254 0.15810911

network_body._body_endoder.seq_layers.0.bias f4 [128]
00000000: 0000 0000 0000 0000 0000 0000 0000 0000
00000010: 0000 0000 0000 0000 0000 0000 0000 0000
00000020: 0000 0000 0000 0000 0000 0000 0000 0000
00000030: 0000 0000 0000 0000 0000 0000 0000 0000
00000040: 0000 0000 0000 0000 0000 0000 0000 0000
00000050: 0000 0000 0000 0000 0000 0000 0000 0000
00000060: 0000 0000 0000 0000 0000 0000 0000 0000
00000070: 0000 0000 0000 0000 0000 0000 0000 0000
00000080: 0000 0000 0000 0000 0000 0000 0000 0000
00000090: 0000 0000 0000 0000 0000 0000 0000 0000
000000a0: 0000 0000 0000 0000 0000 0000 0000 0000
000000b0: 0000 0000 0000 0000 0000 0000 0000 0000
000000c0: 0000 0000 0000 0000 0000 0000 0000 0000
000000d0: 0000 0000 0000 0000 0000 0000 0000 0000
000000e0: 0000 0000 0000 0000 0000 0000 0000 0000
000000f0: 0000 0000 0000 0000 0000 0000 0000 0000
00000100: 0000 0000 0000 0000 0000 0000 0000 0000
00000110: 0000 0000 0000 0000 0000 0000 0000 0000
00000120: 0000 0000 0000 0000 0000 0000 0000 0000
00000130: 0000 0000 0000 0000 0000 0000 0000 0000
00000140: 0000 0000 0000 0000 0000 0000 0000 0000
00000150: 0000 0000 0000 0000 0000 0000 0000 0000
00000160: 0000 0000 0000 0000 0000 0000 0000 0000
00000170: 0000 0000 0000 0000 0000 0000 0000 0000
00000180: 0000 0000 0000 0000 0000 0000 0000 0000
00000190: 0000 0000 0000 0000 0000 0000 0000 0000
000001a0: 0000 0000 0000 0000 0000 0000 0000 0000
000001b0: 0000 0000 0000 0000 0000 0000 0000 0000
000001c0: 0000 0000 0000 0000 0000 0000 0000 0000
000001d0: 0000 0000 0000 0000 0000 0000 0000 0000
000001e0: 0000 0000 0000 0000 0000 0000 0000 0000
000001f0: 0000 0000 0000 0000 0000 0000 0000 0000
0.0 0.0 0.0 0.0 0.0 0.0 0.0 0.0
0.0 0.0 0.0 0.0 0.0 0.0 0.0 0.0
0.0 0.0 0.0 0.0 0.0 0.0 0.0 0.0
0.0 0.0 0.0 0.0 0.0 0.0 0.0 0.0
0.0 0.0 0.0 0.0 0.0 0.0 0.0 0.0
0.0 0.0 0.0 0.0 0.0 0.0 0.0 0.0
0.0 0.0 0.0 0.0 0.0 0.0 0.0 0.0
0.0 0.0 0.0 0.0 0.0 0.0 0.0 0.0
0.0 0.0 0.0 0.0 0.0 0.0 0.0 0.0
0.0 0.0 0.0 0.0 0.0 0.0 0.0 0.0
0.0 0.0 0.0 0.0 0.0 0.0 0.0 0.0
0.0 0.0 0.0 0.0 0.0 0.0 0.0 0.0
0.0 0.0 0.0 0.0 0.0 0.0 0.0 0.0
0.0 0.0 0.0 0.0 0.0 0.0 0.0 0.0
0.0 0.0 0.0 0.0 0.0 0.0 0.0 0.0
0.0 0.0 0.0 0.0 0.0 0.0 0.0 0.0

network_body._body_endoder.seq_layers.2.weight f4 [128, 128]
00000000: 406b 85bc 76ec e4bc e744 9fbd 88eb 99bd
00000010: 996f 4c3d 4fbe 41bd 79ab a9bd b9be 3a3d
00000020: 55b6 16bd c7a9 8dbc b1b8 3fbd e8c4 273d
00000030: 8c3b f3bd add7 003e bccc 093d f9af a33d
00000040: d92c 99bd b0b4 61ba efc5 ce3c 1a3c 163d
00000050: 40df c4bd 2b31 443e bcc1 55bd 3aba 723d
00000060: 5f56 33be d170 cfbc 4101 783d c12a ba3c
00000070: c2ad 13be 7492 3abc 8455 0b39 9b16 b5bc
00000080: 6217 99bd 251b 5bbd 21ae 2bbe c8e4 06be
00000090: c349 2f3d 78fb 22bd aed0 0cbd 0a92 2f3e
000000a0: 401b 323e f2a9 0dbe 6338 19be 5875 bbbc
000000b0: e191 8ebc ea12 9e3d acd4 293e c16d b5bd
000000c0: 990d 98bd 0046 3d3d 6028 ddbd edcf acbc
000000d0: 0763 10be 24e1 013e 8024 3c3d 4a32 683d
000000e0: b8d5 82bc 538b 50bd 97b7 383d 0abf 03be
000000f0: 8d57 533d f142 1b3d ce3e adbd e521 58bd
00000100: d4a7 e43d 5a57 0e3e fd44 4fbd d07c d53b
00000110: 29fd b63d faab 8c3d 0b2b 57be b2e8 4d3d
00000120: ea55 9f3d 7f42 dbbc 9d3a 953c 00f2 8fbd
00000130: 767b 9fbc c66b a13d 8390 bbbd e8ae 06bc
00000140: 86d9 283d b2d1 803d faee 10bd 88cf cbbc
00000150: 3031 973d 9362 1abd 88f4 93bc 1c63 403d
00000160: 6386 94bd 0781 bcbd ed3a c0bd 2c6c 863d
00000170: c521 b1bd f506 b1bd fabf 07bc 1002 fa3c
00000180: d8d7 84bd c8b4 87bd 6b09 3abe 3139 c4bd
00000190: 501f 99bd 7f16 0d3d d6d0 68bd c5dd 5dbd
000001a0: 86dd a73d f96b 2cbd 918c 103d 8f91 b93b
000001b0: 0ab0 a0bd 54cc 8dbb 3bec 553e 3a26 6fbd
000001c0: 4f21 3dbd 34c3 1e3e 393c 163e 66a2 04bd
000001d0: d34b a0bd 0521 78bd 578d 813d 7271 c73d
000001e0: e174 283e 5bbf cdbd b4ba 9e3c 7576 26bc
000001f0: 47d9 17be adaa eabd 8d04 c0bd 20b2 9dbd
00000200: 5f99 8d3d 76e0 c1bd 9c72 0abe c510 3d3e
00000210: d3d1 b7bd 2d90 d93d e60c 893d 7cd2 fd3c
00000220: 88fa 11bc 4e58 b9bb b644 a7bc 8189 b83d
00000230: 65f5 9fbd def5 99bd 3f95 ee3c afff d23c
00000240: 31a7 76bd bc6b 263c 303a b7bd 853c f93c
00000250: 465d df3c 3b46 703d f7c5 33bd 48f1 fdbd
00000260: 5635 303e 35cc 1dbd 154e 563d 1295 283d
00000270: e39e 23be dc7f e0bc f252 ff3d b482 393d
00000280: b3d8 6ebd c1ba 8dbd bf7b 923d 67d6 eebd
00000290: a6f4 d13d c498 51bd 6c83 cebd 6c0c d73c
000002a0: 329f 99bd 80ea 14bc 647f 813d 09b3 70bc
000002b0: 5010 823d 6440 313d c660 eebc e48b 063a
000002c0: 8a61 db3d e600 b33c 708f 31be 4583 96bd
000002d0: d28e 0c3e ebfb 4f3c d94c 163b e2ae d13d
000002e0: a93b 0abd 1457 0ebe 87d7 433c 73cf bbbd
000002f0: e0a9 213d 8495 033e ea3d 033e 8309 4d3d
00000300: d490 13bd ac9b 333e 514d 363e 564d a8bd
00000310: ee07 1f3d 186f 713d a428 ea3d efda d63d
00000320: e2a4 0dbc c928 5fbe 784d f7bd 500a f33c
00000330: 8741 febc e34f 963b 3581 ca3d f117 1abc
00000340: 715b 683d 6895 d73d 9f92 1f3e 83cf aabd
00000350: c7ce 1c3d 6cd7 273c b98e 2f3d 9c6d 6b3d
00000360: 8575 2a3d f88a 453d 8f6e cebd 17ec 42bc
00000370: 63f5 ac3c d9cb 42be 80d0 2abd cbc3 963d
00000380: 91c6 a33d 874d 4a3e 4bc7 b13d 4ab6 07be
00000390: 3ec8 c13c b7c6 febc 21f1 ddbd 2494 f9bd
000003a0: a061 143d a6f2 bd3d 37d2 96bd 207e 28b9
000003b0: 399d 183e 8266 ffbb 2c9d f13d 9b59 d13d
000003c0: 895c be3d d0d0 fa3c 47de 9fbd 31f5 613d
000003d0: fffa 333d f649 c4bd 52fb 913d 54fb 783b
000003e0: e015 373d 69c6 e2bb 0e9a 293c 923e 143e
000003f0: afaf 7b3c b674 0b3e 0e89 44bd 25d8 7bbc
-0.016286492 -0.027944785 -0.07776814 -0.07515627 0.049911115 -0.047300633 -0.08284659 0.045592044
-0.03679498 -0.01729287 -0.046806995 0.04095927 -0.11876592 0.12582274 0.033642516 0.079925485
-0.07479257 -0.00086099934 0.025240866 0.03667841 -0.09612894 0.19159381 -0.052186713 0.05925963
-0.17513417 -0.02532235 0.06054807 0.022725465 -0.14421752 -0.011387456 0.0001328793 -0.022105506
-0.07475163 -0.053492684 -0.16765644 -0.1317321 0.042794954 -0.0397906 -0.0343787 0.17145553
0.17393208 -0.1383436 -0.14962916 -0.022883102 -0.017403545 0.07718451 0.16585034 -0.088588245
-0.074244685 0.046209335 -0.107987165 -0.02109524 -0.14100276 0.1268354 0.045933247 0.056688584
-0.01597105 -0.05091412 0.04509696 -0.12865844 0.051597167 0.037905637 -0.08459245 -0.0527667
0.11164823 0.1390051 -0.0506029 0.006515123 0.08935005 0.068687394 -0.21012513 0.050270744
0.07780059 -0.026765106 0.018216426 -0.0702858 -0.01946805 0.07881884 -0.09158423 -0.008220412
0.04122307 0.06289996 -0.035384156 -0.024879232 0.07382429 -0.037691664 -0.018060938 0.046969518
-0.07252195 -0.092042975 -0.09386239 0.06563601 -0.08649019 -0.08643905 -0.008285517 0.030518562
-0.064864814 -0.06626278 -0.18167655 -0.09581221 -0.074766755 0.034445282 -0.056839786 -0.054166574
0.08196549 -0.04209516 0.035290305 0.005663104 -0.07846077 -0.0043273363 0.20890896 -0.058386065
-0.046174344 0.15504152 0.1467141 -0.032381438 -0.07826962 -0.060578365 0.063257866 0.09738435
0.16450836 -0.10046264 0.019376136 -0.010160078 -0.14828978 -0.11458335 -0.09375868 -0.0769999
0.06914019 -0.09466641 -0.13520283 0.18463428 -0.08975568 0.106232025 0.06691913 0.030984156
-0.008909829 -0.0056562787 -0.020418506 0.09010602 -0.07810477 -0.075175986 0.0291239 0.025756685
-0.06021804 0.010157522 -0.08946645 0.030424366 0.027266156 0.058660727 -0.043889966 -0.12399536
0.17207846 -0.038524825 0.05232056 0.04115779 -0.15978579 -0.027404718 0.124669924 0.045290664
-0.05831213 -0.06920386 0.07152509 -0.11661988 0.10251741 -0.05117108 -0.100836605 0.02625104
-0.07501067 -0.009089112 0.06323126 -0.014691123 0.063507676 0.0432743 -0.02909888 0.00051325397
0.107119635 0.021851014 -0.17339873 -0.073492564 0.13726357 0.012694339 0.0022933988 0.102384344
-0.033748303 -0.13900405 0.011953241 -0.09170427 0.039468646 0.12850004 0.12816587 0.0500579
-0.03602679 0.17539853 0.17802931 -0.08217876 0.03882592 0.058943838 0.11433533 0.10490977
-0.008645268 -0.21792902 -0.12075323 0.029668003 -0.031037105 0.00458716 0.098879255 -0.009405122
0.05672783 0.10526544 0.15583275 -0.08340361 0.038283136 0.010244232 0.04286072 0.05747758
0.04161598 0.048228234 -0.10079681 -0.0118971085 0.021113103 -0.19023074 -0.041702747 0.07361563
0.07996858 0.19756137 0.0868059 -0.13253132 0.023655053 -0.031100614 -0.10837007 -0.12186459
0.036225915 0.09274797 -0.07364314 -0.00016068714 0.14903726 -0.0077942023 0.11797556 0.10222169
0.092949934 0.030617148 -0.07806068 0.055165473 0.04394054 -0.095844194 0.07128014 0.00379916
0.044698596 -0.006920625 0.010351671 0.14476994 0.01536171 0.1361874 -0.047982268 -0.015371357

network_body._body_endoder.seq_layers.2.bias f4 [128]
00000000: 0000 0000 0000 0000 0000 0000 0000 0000
00000010: 0000 0000 0000 0000 0000 0000 0000 0000
00000020: 0000 0000 0000 0000 0000 0000 0000 0000
00000030: 0000 0000 0000 0000 0000 0000 0000 0000
00000040: 0000 0000 0000 0000 0000 0000 0000 0000
00000050: 0000 0000 0000 0000 0000 0000 0000 0000
00000060: 0000 0000 0000 0000 0000 0000 0000 0000
00000070: 0000 0000 0000 0000 0000 0000 0000 0000
00000080: 0000 0000 0000 0000 0000 0000 0000 0000
00000090: 0000 0000 0000 0000 0000 0000 0000 0000
000000a0: 0000 0000 0000 0000 0000 0000 0000 0000
000000b0: 0000 0000 0000 0000 0000 0000 0000 0000
000000c0: 0000 0000 0000 0000 0000 0000 0000 0000
000000d0: 0000 0000 0000 0000 0000 0000 0000 0000
000000e0: 0000 0000 0000 0000 0000 0000 0000 0000
000000f0: 0000 0000 0000 0000 0000 0000 0000 0000
00000100: 0000 0000 0000 0000 0000 0000 0000 0000
00000110: 0000 0000 0000 0000 0000 0000 0000 0000
00000120: 0000 0000 0000 0000 0000 0000 0000 0000
00000130: 0000 0000 0000 0000 0000 0000 0000 0000
00000140: 0000 0000 0000 0000 0000 0000 0000 0000
00000150: 0000 0000 0000 0000 0000 0000 0000 0000
00000160: 0000 0000 0000 0000 0000 0000 0000 0000
00000170: 0000 0000 0000 0000 0000 0000 0000 0000
00000180: 0000 0000 0000 0000 0000 0000 0000 0000
00000190: 0000 0000 0000 0000 0000 0000 0000 0000
000001a0: 0000 0000 0000 0000 0000 0000 0000 0000
000001b0: 0000 0000 0000 0000 0000 0000 0000 0000
000001c0: 0000 0000 0000 0000 0000 0000 0000 0000
000001d0: 0000 0000 0000 0000 0000 0000 0000 0000
000001e0: 0000 0000 0000 0000 0000 0000 0000 0000
000001f0: 0000 0000 0000 0000 0000 0000 0000 0000
0.0 0.0 0.0 0.0 0.0 0.0 0.0 0.0
0.0 0.0 0.0 0.0 0.0 0.0 0.0 0.0
0.0 0.0 0.0 0.0 0.0 0.0 0.0 0.0
0.0 0.0 0.0 0.0 0.0 0.0 0.0 0.0
0.0 0.0 0.0 0.0 0.0 0.0 0.0 0.0
0.0 0.0 0.0 0.0 0.0 0.0 0.0 0.0
0.0 0.0 0.0 0.0 0.0 0.0 0.0 0.0
0.0 0.0 0.0 0.0 0.0 0.0 0.0 0.0
0.0 0.0 0.0 0.0 0.0 0.0 0.0 0.0
0.0 0.0 0.0 0.0 0.0 0.0 0.0 0.0
0.0 0.0 0.0 0.0 0.0 0.0 0.0 0.0
0.0 0.0 0.0 0.0 0.0 0.0 0.0 0.0
0.0 0.0 0.0 0.0 0.0 0.0 0.0 0.0
0.0 0.0 0.0 0.0 0.0 0.0 0.0 0.0
0.0 0.0 0.0 0.0 0.0 0.0 0.0 0.0
0.0 0.0 0.0 0.0 0.0 0.0 0.0 0.0

network_body._body_endoder.seq_layers.0.weight f4 [128, 1]
00000000: 1b9b 073f 6554 c43e 6648 ca3e 0d7c d2bf
00000010: e64c f2be e466 ae3f e7a3 353f 79e8 febe
00000020: 2c6d 01c0 2c47 2140 3edc 22be b281 60bf
00000030: 7e24 6cbf 8d33 5a3f 33f9 ed3e 7255 a5bf
00000040: 554a 953f 698a 073f 5b08 093f 1730 e73f
00000050: f617 7b3f c559 ae3f 7f42 f53f 5260 7cbf
00000060: 8cbf 123f 72a6 a73f 4680 9ebe 520b 533e
00000070: 093e 9cbf 50ca 43bf 5f8c ecbd c1e5 713e
00000080: ab01 fbbe 8819 afbf 0463 4abf ce28 a23e
00000090: b4b9 ce3f ac0d 2dbf 666a 46bf d346 b63e
000000a0: a033 6bbd 5cba 853f c0d9 f23f a832 85bf
000000b0: 2230 523e 4454 6ebe 08b2 39bf bfdb 603d
000000c0: 8d01 e5bf 274d 923e 4d4e e1bf 3aac 5fbf
000000d0: a68d b93e 4ca1 d63f bde7 6a3f aca4 293f
000000e0: b05e 60bd d086 613f 2b3d b23f dc68 ff3e
000000f0: ba67 54bf ea9d 00bf ab3f 523e 114e 96bf
00000100: c928 35bf bdcc 633c be09 25c0 51c6 523f
00000110: efab 38c0 be63 76bf d5b8 993f ed9c 703f
00000120: 0d49 3a3f c22c f8be 7d67 5a3f ea7a f1be
00000130: bd04 34be f7c3 d9bc c1f1 cfbf 4dd8 0f3f
00000140: 9efd 98bf d1b8 a63f b4e5 48be 1944 29be
00000150: f815 b73d 0269 3c3f daa9 3340 53ae b7bf
00000160: d084 8a3e c68d 823e 7bcd 6f3f 7726 6a3f
00000170: 4999 133f ff2c 3d3f ba65 91be 414f 9abe
00000180: 768b 30c0 6efd 7b3e cf2f cabe 9b02 86bf
00000190: 1830 15c0 d08e b23e 73dc ba3d 9942 24bf
000001a0: 8002 b13f 821c cdbf a392 c43e a010 b53f
000001b0: 83ed 863f b0aa 693f e91f de3f 505a 903f
000001c0: 88e9 ce3d 110a f6bf 164e 81bf efd9 8d3f
000001d0: 936b 813f 56d0 763f d8a7 783f 4daa d53f
000001e0: b3e7 fabe 1e2b b8bf 37ac dcbd 157c aa3e
000001f0: 2059 dfbd 091c 86bf fcee 9abf c725 8f3f
0.5297105 0.38345638 0.3950836 -1.6444107 -0.47324294 1.362515 0.7095322 -0.49786738
-2.0222883 2.519969 -0.15904328 -0.876979 -0.9224318 0.8523491 0.46479186 -1.2916701
1.1663309 0.5294557 0.53528374 1.8061551 0.98083436 1.3621145 1.9160918 -0.98584473
0.5732353 1.309767 -0.3095724 0.20609787 -1.2206432 -0.7648058 -0.11550211 0.236228
-0.4902471 -1.3679667 -0.79057336 0.31671757 1.6150422 -0.67598987 -0.775061 0.3560091
-0.05742228 1.0447497 1.8972702 -1.0406084 0.20526174 -0.23274332 -0.7253728 0.054897066
-1.7891098 0.28574488 -1.760202 -0.8737217 0.36240882 1.6767974 0.91759855 0.66266894
-0.0547778 0.8809633 1.3924917 0.4988469 -0.82970774 -0.5024096 0.205321 -1.1742574
-0.7076536 0.013903794 -2.5787196 0.82333857 -2.885494 -0.96245944 1.2009531 0.9398945
0.72767717 -0.48471648 0.8531416 -0.47164088 -0.17579933 -0.026582701 -1.6245652 0.56189424
-1.1952398 1.3025151 -0.19618875 -0.16529883 0.08939737 0.7359773 2.807242 -1.4350075
0.27054453 0.2549879 0.93672913 0.9146494 0.5765577 0.73896784 -0.28397924 -0.3013859
-2.758512 0.24608395 -0.394896 -1.0469545 -2.3310604 0.34874582 0.091240786 -0.6416412
1.3828888 -1.6024325 0.38393125 1.4145699 1.0541233 0.91276073 1.7353488 1.1277561
0.10103136 -1.9221822 -1.0101955 1.1082133 1.0110954 0.96411645 0.9713111 1.6692597
-0.49004897 -1.4388158 -0.10775035 0.33297792 -0.10905671 -1.0477306 -1.2104182 1.1183404

network_body._body_endoder.seq_layers.0.bias f4 [128]
00000000: 0000 0000 0000 0000 0000 0000 0000 0000
00000010: 0000 0000 0000 0000 0000 0000 0000 0000
00000020: 0000 0000 0000 0000 0000 0000 0000 0000
00000030: 0000 0000 0000 0000 0000 0000 0000 0000
00000040: 0000 0000 0000 0000 0000 0000 0000 0000
00000050: 0000 0000 0000 0000 0000 0000 0000 0000
00000060: 0000 0000 0000 0000 0000 0000 0000 0000
00000070: 0000 0000 0000 0000 0000 0000 0000 0000
00000080: 0000 0000 0000 0000 0000 0000 0000 0000
00000090: 0000 0000 0000 0000 0000 0000 0000 0000
000000a0: 0000 0000 0000 0000 0000 0000 0000 0000
000000b0: 0000 0000 0000 0000 0000 0000 0000 0000
000000c0: 0000 0000 0000 0000 0000 0000 0000 0000
000000d0: 0000 0000 0000 0000 0000 0000 0000 0000
000000e0: 0000 0000 0000 0000 0000 0000 0000 0000
000000f0: 0000 0000 0000 0000 0000 0000 0000 0000
00000100: 0000 0000 0000 0000 0000 0000 0000 0000
00000110: 0000 0000 0000 0000 0000 0000 0000 0000
00000120: 0000 0000 0000 0000 0000 0000 0000 0000
00000130: 0000 0000 0000 0000 0000 0000 0000 0000
00000140: 0000 0000 0000 0000 0000 0000 0000 0000
00000150: 0000 0000 0000 0000 0000 0000 0000 0000
00000160: 0000 0000 0000 0000 0000 0000 0000 0000
00000170: 0000 0000 0000 0000 0000 0000 0000 0000
00000180: 0000 0000 0000 0000 0000 0000 0000 0000
00000190: 0000 0000 0000 0000 0000 0000 0000 0000
000001a0: 0000 0000 0000 0000 0000 0000 0000 0000
000001b0: 0000 0000 0000 0000 0000 0000 0000 0000
000001c0: 0000 0000 0000 0000 0000 0000 0000 0000
000001d0: 0000 0000 0000 0000 0000 0000 0000 0000
000001e0: 0000 0000 0000 0000 0000 0000 0000 0000
000001f0: 0000 0000 0000 0000 0000 0000 0000 0000
0.0 0.0 0.0 0.0 0.0 0.0 0.0 0.0
0.0 0.0 0.0 0.0 0.0 0.0 0.0 0.0
0.0 0.0 0.0 0.0 0.0 0.0 0.0 0.0
0.0 0.0 0.0 0.0 0.0 0.0 0.0 0.0
0.0 0.0 0.0 0.0 0.0 0.0 0.0 0.0
0.0 0.0 0.0 0.0 0.0 0.0 0.0 0.0
0.0 0.0 0.0 0.0 0.0 0.0 0.0 0.0
0.0 0.0 0.0 0.0 0.0 0.0 0.0 0.0
0.0 0.0 0.0 0.0 0.0 0.0 0.0 0.0
0.0 0.0 0.0 0.0 0.0 0.0 0.0 0.0
0.0 0.0 0.0 0.0 0.0 0.0 0.0 0.0
0.0 0.0 0.0 0.0 0.0 0.0 0.0 0.0
0.0 0.0 0.0 0.0 0.0 0.0 0.0 0.0
0.0 0.0 0.0 0.0 0.0 0.0 0.0 0.0
0.0 0.0 0.0 0.0 0.0 0.0 0.0 0.0
0.0 0.0 0.0 0.0 0.0 0.0 0.0 0.0

network_body._body_endoder.seq_layers.2.weight f4 [128, 128]
00000000: 1a97 eb3d 8667 7e3c 0d37 983d 10da 303d
00000010: 64a1 8c3d b227 c53c f6aa 883d 9cd7 b23d
00000020: d47d 10be bc1c be3d 23f5 2d3e e918 04bd
00000030: 9633 5dbe 9d36 50bd 1345 6bbc 2c91 603d
00000040: bd5c e63c d493 00bc 9298 73bd c65e b03b
00000050: dba7 fbbd 0e1e e4bc 3360 cc3d 32df 17be
00000060: 8613 2abd c919 febd 24ec aa3d 1d4d 8bbd
00000070: 8e58 c93d fa9e 99bd 9083 d6bd ca08 de3d
00000080: b9ad d2bd 0aae 6cbd 923b 533e 0500 fd3d
00000090: 6d8c 223d f501 b8bb b383 ddbc fa04 973d
000000a0: 5e93 693e 2d45 d0bd 1671 6bbd dadd 093e
000000b0: 3de3 db3d 65ae db3d f30d 88bd 7d10 de3c
000000c0: bb5f 5d3e c941 bf3c f80a 3ebe be50 e33b
000000d0: 5b15 c33d a31a ac3d fb7d f7bd 11c0 58bd
000000e0: 0c47 59bd 4e76 153e db21 58bd 194f 3b3d
000000f0: 668e 0f3c 0ed5 ae3d b25b 01be 9182 cd3d
00000100: 7e30 083c 6819 aebc 1973 8dbd 9c3a cd3d
00000110: 840e 6cbb 5660 02be 5746 0bbe f0b3 e8bd
00000120: 888c f8ba ba81 a8bc 6fa3 333e 746b ab3d
00000130: 7ad5 aa3c 14e6 aebd 6a14 bc39 4a0b 09be
00000140: 6873 b73c 88cb 04bd 5cd6 553c 8201 773d
00000150: 9bcc bf3d 875e 653d d855 78bd 37cb 733d
00000160: 031c 883d 94ba 8bbd 693b 643d 34f7 3c3d
00000170: 8aee b23c ad16 6e3d 7a29 933d befe 533d
00000180: e706 34be 9ccc 0fbd 35d0 cfbd dd61 0bbd
00000190: fecf 6a3a 5ce6 fc3d f821 803c 72ce 323d
000001a0: 296c 8b3d 6796 8c3d c46f 2fbd 6f09 ebbd
000001b0: 18c7 2cbc ae8f 99bc 0882 9abc 51fe 4c3e
000001c0: 23fa 6e3d 7732 cd3d d757 1a3d 3458 69bd
000001d0: 1914 c9bc e406 393d 1667 45be 1aa7 443d
000001e0: 89d5 8fbc 2caa 16bd d3cc 023d 17c2 893d
000001f0: 6238 993b 048a 323d cac6 843d a7a0 2a3d
00000200: 8bd2 30be 3176 71bd b270 cbbd aee0 e2bc
00000210: 4bec c9bd 9f99 c3bb a73d 05bd bb37 bfbc
00000220: 9dc8 6b3c ef2b 1e3d e7c8 993d a8a3 04bd
00000230: ce2f a53d 4f66 8dbd c8f6 35bd 817f ecbd
00000240: 4b5f dd3c f92a 103e 526d 143c 0cf3 81bc
00000250: 9555 043e ef41 2cbd a91d 183e 29c9 2fbe
00000260: 49fc bcbd 470c 2c3d d7dd e9bd 2124 b6bd
00000270: bc92 a1bd a9d4 32bc b8ae 193d 9d24 b13d
00000280: f0de bbbc d6c4 0a3d e942 833d 39ed 08bc
00000290: 5c1f c0bd 6462 b1bc bb8b 57bd c12d ed3d
000002a0: d5dd 303e 610a 913d 679b 453d 42af 20be
000002b0: 560a ddbd 533d 913c c55e de3b 19fe d43c
000002c0: 5301 edbc 307a 33bd 41d8 0abe e995 2abd
000002d0: 8da7 12bd 955b b83d 2c6b a53c fa79 01bd
000002e0: 83cd 1b3d 6e38 ffbd 16f1 62be e51c 83bd
000002f0: 6583 073e 743d 03be ae72 093d 7588 053e
00000300: bf9a 3ebd 3db7 c9bd 42b5 f13d 2479 4abd
00000310: 57fb 85bd 1c23 81bc 278d 06be aba2 f7bc
00000320: 513c bcbc c132 c13b f784 debc cec9 9ebc
00000330: e139 8fbc e0a8 c1bc 92f9 dbbd b683 24bc
00000340: 6b61 5d3d 7d96 4e3d c88f 2dbd 5cec 49bd
00000350: 2d5b b2bd d866 a33b 0614 34bd f1c1 54bc
00000360: 47d9 9c3d 5f71 a03c a791 f2bd 6592 19bd
00000370: e9f3 eabd 3e66 8f3b 29d0 e03c e267 6cbd
00000380: d6c1 e7bd 9b88 a3bd e870 c03b d8bb 4ebe
00000390: dae3 9eb9 9a74 fd3d 93d8 c93d ca89 50bb
000003a0: b02e bc3c c7d3 eebd 4c54 9a3d da77 133e
000003b0: 3902 1e3e bbdb d23d c432 0b3d 18a7 08be
000003c0: 3609 c03d e75e 4c3c b2ac 103e 91cd 0b3e
000003d0: dcc8 653c 3ac8 61bd 8253 7d3d 4f25 163e
000003e0: 6e78 0e3d dcca a53c 17be a1bc b15e b33c
000003f0: ea87 abbc 501e bbbd a801 d93d 129b b33c
0.1150343 0.015527612 0.07432375 0.04317671 0.0686672 0.02406678 0.06673233 0.087325305
-0.141105 0.092828244 0.16988043 -0.03225032 -0.2160171 -0.050833333 -0.01435973 0.054825947
0.028120393 -0.007847745 -0.059471674 0.0053823916 -0.12287875 -0.027846362 0.09979286 -0.14831236
-0.041522525 -0.12407262 0.083458215 -0.068018176 0.098313436 -0.075010255 -0.10474312 0.1084152
-0.10287041 -0.057783164 0.20628193 0.12353519 0.0396847 -0.0056154677 -0.027040338 0.07373996
0.22810122 -0.10169444 -0.057480894 0.13463536 0.10736702 0.107266225 -0.066432856 0.027107472
0.2161855 0.023346798 -0.18558872 0.0069371155 0.095255576 0.08403518 -0.12084576 -0.052917544
-0.05304627 0.14595911 -0.052766662 0.04572973 0.008761978 0.08536731 -0.12632635 0.10034669
0.008312343 -0.021252349 -0.06906719 0.100209445 -0.0036019394 -0.12732062 -0.13601051 -0.11362445
-0.001896278 -0.020569671 0.17542814 0.083701044 0.020853747 -0.08539978 0.00035873364 -0.13383213
0.022393897 -0.032420665 0.013051596 0.060304172 0.09365197 0.05599835 -0.060628742 0.059519973
0.06645968 -0.06822696 0.05572072 0.04613419 0.02184226 0.058127094 0.071856454 0.051756613
-0.17580758 -0.03510724 -0.10147134 -0.034028877 0.0008957385 0.12348625 0.015641198 0.043653913
0.06807739 0.068646245 -0.042831197 -0.11476409 -0.0105455145 -0.01874527 -0.018860832 0.20018889
0.058344018 0.10019391 0.037681427 -0.056968883 -0.024545716 0.045172587 -0.19277605 0.048010923
-0.017557876 -0.036783382 0.031933617 0.06726473 0.004675911 0.043588653 0.064832285 0.041657116
-0.17267816 -0.058950607 -0.09933604 -0.027695026 -0.098595224 -0.005969241 -0.0325295 -0.023342004
0.014391092 0.038616117 0.07509022 -0.032382637 0.08065759 -0.069042794 -0.044424802 -0.11547757
0.027022978 0.14078893 0.009059267 -0.015862964 0.12923272 -0.042055067 0.14855064 -0.1716658
-0.09227807 0.042003896 -0.11419266 -0.0889361 -0.078893155 -0.01091496 0.03752014 0.086495616
-0.022933453 0.033879124 0.064092465 -0.00835734 -0.09380981 -0.021653362 -0.05262349 0.115809925
0.17272122 0.07082058 0.048243906 -0.15691856 -0.10792987 0.017729437 0.0067861998 0.02600007
-0.028931295 -0.0438177 -0.13559057 -0.04164687 -0.03580432 0.09001843 0.020192705 -0.031610467
0.038037788 -0.12461935 -0.2216228 -0.064019956 0.13233717 -0.12816411 0.033556633 0.13040335
-0.046534296 -0.09849403 0.1180215 -0.049431935 -0.0654208 -0.015763812 -0.13139783 -0.030228933
-0.02297798 0.005895943 -0.027163012 -0.019383337 -0.017483654 -0.023640096 -0.10740961 -0.010041168
0.054047983 0.050436486 -0.04237345 -0.049297675 -0.08708797 0.004986625 -0.04396441 -0.012985692
0.0765863 0.01958531 -0.11844187 -0.03749313 -0.114723034 0.004376202 0.027443008 -0.057716258
-0.11316268 -0.0798504 0.0058728345 -0.20188844 -0.0003030587 0.123757556 0.098557614 -0.003182041
0.022971481 -0.11661487 0.075356096 0.14401188 0.15430535 0.102958165 0.03398396 -0.13344991
0.09376757 0.012473798 0.14128378 0.13652636 0.014024939 -0.05512259 0.061847217 0.1466267
0.03478282 0.020238332 -0.019743962 0.021895738 -0.020938832 -0.09136641 0.10596019 0.02192453

network_body._body_endoder.seq_layers.2.bias f4 [128]
00000000: 0000 0000 0000 0000 0000 0000 0000 0000
00000010: 0000 0000 0000 0000 0000 0000 0000 0000
00000020: 0000 0000 0000 0000 0000 0000 0000 0000
00000030: 0000 0000 0000 0000 0000 0000 0000 0000
00000040: 0000 0000 0000 0000 0000 0000 0000 0000
00000050: 0000 0000 0000 0000 0000 0000 0000 0000
00000060: 0000 0000 0000 0000 0000 0000 0000 0000
00000070: 0000 0000 0000 0000 0000 0000 0000 0000
00000080: 0000 0000 0000 0000 0000 0000 0000 0000
00000090: 0000 0000 0000 0000 0000 0000 0000 0000
000000a0: 0000 0000 0000 0000 0000 0000 0000 0000
000000b0: 0000 0000 0000 0000 0000 0000 0000 0000
000000c0: 0000 0000 0000 0000 0000 0000 0000 0000
000000d0: 0000 0000 0000 0000 0000 0000 0000 0000
000000e0: 0000 0000 0000 0000 0000 0000 0000 0000
000000f0: 0000 0000 0000 0000 0000 0000 0000 0000
00000100: 0000 0000 0000 0000 0000 0000 0000 0000
00000110: 0000 0000 0000 0000 0000 0000 0000 0000
00000120: 0000 0000 0000 0000 0000 0000 0000 0000
00000130: 0000 0000 0000 0000 0000 0000 0000 0000
00000140: 0000 0000 0000 0000 0000 0000 0000 0000
00000150: 0000 0000 0000 0000 0000 0000 0000 0000
00000160: 0000 0000 0000 0000 0000 0000 0000 0000
00000170: 0000 0000 0000 0000 0000 0000 0000 0000
00000180: 0000 0000 0000 0000 0000 0000 0000 0000
00000190: 0000 0000 0000 0000 0000 0000 0000 0000
000001a0: 0000 0000 0000 0000 0000 0000 0000 0000
000001b0: 0000 0000 0000 0000 0000 0000 0000 0000
000001c0: 0000 0000 0000 0000 0000 0000 0000 0000
000001d0: 0000 0000 0000 0000 0000 0000 0000 0000
000001e0: 0000 0000 0000 0000 0000 0000 0000 0000
000001f0: 0000 0000 0000 0000 0000 0000 0000 0000
0.0 0.0 0.0 0.0 0.0 0.0 0.0 0.0
0.0 0.0 0.0 0.0 0.0 0.0 0.0 0.0
0.0 0.0 0.0 0.0 0.0 0.0 0.0 0.0
0.0 0.0 0.0 0.0 0.0 0.0 0.0 0.0
0.0 0.0 0.0 0.0 0.0 0.0 0.0 0.0
0.0 0.0 0.0 0.0 0.0 0.0 0.0 0.0
0.0 0.0 0.0 0.0 0.0 0.0 0.0 0.0
0.0 0.0 0.0 0.0 0.0 0.0 0.0 0.0
0.0 0.0 0.0 0.0 0.0 0.0 0.0 0.0
0.0 0.0 0.0 0.0 0.0 0.0 0.0 0.0
0.0 0.0 0.0 0.0 0.0 0.0 0.0 0.0
0.0 0.0 0.0 0.0 0.0 0.0 0.0 0.0
0.0 0.0 0.0 0.0 0.0 0.0 0.0 0.0
0.0 0.0 0.0 0.0 0.0 0.0 0.0 0.0
0.0 0.0 0.0 0.0 0.0 0.0 0.0 0.0
0.0 0.0 0.0 0.0 0.0 0.0 0.0 0.0

value_heads.value_heads.extrinsic.weight f4 [1, 128]
00000000: 4661 90bd 1d67 f9bd b42f af3d c658 38be
00000010: 504e b93d 9c76 22bd 0028 093b 8820 b4bc
00000020: b0ba 423e bb75 4ebe d428 b2bd f496 a23d
00000030: 86a8 193e eca1 4fbd 88fe 483d 80a5 bfba
00000040: 2268 043e aea5 4dbe 4852 9e3d b0d3 b53c
00000050: e0c4 5ebd 6a34 0bbe 984a 9c3c 0039 fc3b
00000060: a493 79bd b099 663d c0c3 25bd fce8 39be
00000070: 086b 643d 005e b3b9 601c 923c 0c42 113e
00000080: 58f8 29be 1048 103e d039 65bd 7d62 3fbe
00000090: a0fd 703d 1896 8cbc ae49 233e a895 d83d
000000a0: 40a9 4c3e 7c31 8fbd 180c d73c aadf 2abe
000000b0: 0837 06bd b03b b13d b415 b83d 1c80 53be
000000c0: 008a 583c 8018 423e 9252 27be 069d 273e
000000d0: f4e2 953d 74ad e33d d83b f1bc a694 3d3e
000000e0: 5892 debc 9691 f3bd 14d7 f33d e0b1 50bc
000000f0: 2ca9 8c3d d738 34be 7565 2ebe 9203 bdbd
00000100: 28db e83d 6807 a1bc f0aa 693d c48a ebbd
00000110: 6003 b1bc c051 18bc c058 13bc 2002 49be
00000120: 103b 72bd 98ff 193e 4356 d6bd 74fd b93d
00000130: d3ae 00be e8ab 65bd 88b7 dc3d 2abc 21be
00000140: 1829 b3bd 9ee0 403e f8e1 363e 8af8 4fbe
00000150: e482 c1bd 9d69 2cbe b35a 43be 00dd 3f3a
00000160: 7489 03bd fca8 46bd 7091 d6bc 0cc5 313e
00000170: 755c bcbd 5663 573e 1ce9 0e3e d498 94bd
00000180: b86a cb3c e06f 133e 5836 093d f09e 913c
00000190: e0b2 90bd 2331 1ebe f8f2 95bc b457 e03d
000001a0: 54da 14be c08a 593c 6275 3dbe 284a bd3c
000001b0: 4a65 2a3e 1f1d 0fbe 707a 3d3c 983c 393d
000001c0: 243e ec3d f9a9 36be 8e3a 483e 082d d43d
000001d0: 9c91 b03d e49d b83d 18cb 283e b9f8 4dbe
000001e0: 009b 753d 4053 d2bd 589b ffbc 3c5f 083e
000001f0: c45b 4cbd 18da 603d 0c9f 70bd 802c 89bc
-0.070498034 -0.121778704 0.085540205 -0.18002614 0.0904814 -0.039663896 0.0020928383 -0.021988168
0.19016528 -0.20162098 -0.086991936 0.07938948 0.15005693 -0.05069153 0.049070865 -0.0014621466
0.12930349 -0.20082733 0.07730538 0.022195667 -0.054386973 -0.13594213 0.019078538 0.0076972246
-0.060931817 0.05629891 -0.040469885 -0.18155283 0.055766135 -0.00034211576 0.017835796 0.14185351
-0.16598642 0.1408999 -0.055963337 -0.18689914 0.058835626 -0.017161414 0.15946075 0.1057542
0.19986439 -0.0699186 0.026250884 -0.16686884 -0.032767326 0.086539626 0.089885145 -0.20654339
0.0132164955 0.18954659 -0.16340092 0.16368493 0.073186785 0.11117068 -0.029447481 0.18513736
-0.027169392 -0.11893003 0.11906257 -0.012737721 0.068682045 -0.17599808 -0.1703089 -0.092291966
0.11369926 -0.019656852 0.057047784 -0.11501077 -0.021608055 -0.0092968345 -0.008993328 -0.19629717
-0.059138358 0.15038908 -0.10465672 0.090815455 -0.1256669 -0.056072146 0.10777193 -0.15794435
-0.087480724 0.18835685 0.17859638 -0.20309654 -0.094487935 -0.16837163 -0.19077568 0.00073190033
-0.032113507 -0.048501 -0.026192397 0.17360324 -0.09197322 0.21033987 0.13956112 -0.07255712
0.02483116 0.14398146 0.033499092 0.017775983 -0.07065368 -0.15448432 -0.018304333 0.10954228
-0.1453641 0.0132777095 -0.18501809 0.02310665 0.16640201 -0.13975953 0.011564836 0.045223802
0.1153529 -0.17838277 0.19553587 0.103601515 0.08621523 0.0901449 0.16483724 -0.20114411
0.059962273 -0.10269785 -0.031202003 0.13317579 -0.049892202 0.05489549 -0.05874543 -0.016744852
