Client/results/ppo/MoveToGoal/MoveToGoal-2368.pt (torch, 143898 bytes, 10 tensors)

network_body._body_endoder.seq_layers.0.weight f4 [128, 1]
000000 ac 51 06 40 a9 d0 18 bf 7f db 39 3f 27 f8 39 3f
       2.0987349 -0.5969339 0.7260055 0.72644275
000010 21 0c f2 bf 68 41 69 3f ee 58 36 3f 95 40 29 bf
       -1.8909951 0.91115427 0.71229446 -0.6611417
000020 b9 1f c2 be 67 4e f3 3e ff 6c 31 be b4 61 96 3e
       -0.37914827 0.47520754 -0.17326735 0.29371417
000030 45 52 a8 bf 36 98 46 3f 80 91 01 bf 70 fb 7f bf
       -1.3150107 0.77576005 -0.5061264 -0.9999304
000040 98 84 ed bd 8c 72 9f 3e 33 17 9f 3e 70 7e 8a 3e
       -0.11597556 0.3114208 0.31072387 0.2704959
000050 02 f5 13 bf f1 40 33 bf 1f 83 1f 3f b6 5a e5 bc
       -0.5779573 -0.7002097 0.6230945 -0.027997356
000060 e8 ec 48 3f 9c 89 ef bd 56 eb dc bf 80 27 d1 3d
       0.7848649 -0.11696169 -1.7259319 0.10212612
000070 3f 4e e5 bc aa 76 1c 3f 93 f1 13 be 41 63 85 3f
       -0.027991412 0.61118567 -0.14447622 1.0420915
000080 07 99 50 3f b7 ac 9a 3e e1 44 8d 3f 57 89 1c 3f
       0.814835 0.30209896 1.1036645 0.61147064
000090 82 c7 54 bf 18 0e 84 3f da 79 ba 3e eb 81 dd 3e
       -0.83116925 1.0316801 0.3642109 0.43263182
0000a0 9e bf a2 3f da dd 51 be 08 55 94 3e 81 3e 55 bf
       1.2714727 -0.20494786 0.28971124 -0.832985
0000b0 fa ac 3f 3f f6 00 94 be d1 4c e6 3f 0e 43 c4 bf
       0.74873316 -0.28906983 1.7992193 -1.5332963
0000c0 6f d6 a4 3f b5 37 40 bf ae 22 b8 bf 3f de 68 3f
       1.287794 -0.75085 -1.4385583 0.9096412
0000d0 ea 23 38 bf 27 ab 91 3f eb f3 d5 be 3a ab 03 3f
       -0.719298 1.1380357 -0.41787657 0.51433146
0000e0 89 07 5a bd 1b 1a af 3e 44 94 89 3f 5c 4d 65 bf
       -0.053229842 0.34199604 1.0748372 -0.89571166
0000f0 78 dc 19 3f af 9d 29 3e 4e e1 32 bd c0 8b cc 3f
       0.60102034 0.16564058 -0.0436719 1.5980148
000100 4b 65 4c bf b3 0f ae 3f 38 7c 78 3e f8 dd 4b 3f
       -0.7984206 1.3598541 0.24266136 0.7963557
000110 55 84 40 bf b8 b0 34 3f c2 b3 bd 3f 6e 17 5a bf
       -0.7520192 0.7058215 1.4820483 -0.85192
000120 d3 a9 00 40 5b e2 76 40 b2 2a 8b bd 28 b5 67 bf
       2.0103652 3.8575656 -0.06795253 -0.905108
000130 60 ad 6f 3f 40 4e d3 3f d7 d4 83 bf 43 61 49 bf
       0.93623924 1.6508255 -1.0299329 -0.78664035
000140 1a fa 48 bf 49 ab a2 bf 57 f8 5d 3d c5 0a 54 be
       -0.78506625 -1.2708522 0.054191913 -0.20707233
000150 e7 64 8c bf 00 c9 01 3f 4e fb 32 bf 65 24 8e 3d
       -1.0968293 0.50697327 -0.6991471 0.069405355
000160 17 4b 82 3f 8b 9a cc 3f f4 e2 77 3d 14 78 58 bf
       1.0179166 1.5984663 0.060519174 -0.84558225
000170 63 03 c3 3f 40 5f 6e be d2 61 0e bf e1 88 38 bf
       1.5235409 -0.23278522 -0.5561801 -0.7208386
000180 80 6d af bd 68 7c d4 be 15 73 1d bf 67 70 35 bf
       -0.08565807 -0.41501164 -0.61503726 -0.7087464
000190 33 6f 69 bf 45 ff e1 bf 22 a1 cb bf fa f1 83 3f
       -0.911853 -1.7656027 -1.5908549 1.030822
0001a0 3b ff ec 3e fe 0d b8 3f 34 0e 71 bf b4 ec 80 3f
       0.46288475 1.437927 -0.941623 1.0072236
0001b0 e7 49 93 bf f4 93 17 be d8 c6 2a be 4f 33 67 bf
       -1.1506928 -0.14802533 -0.16677415 -0.90312666
0001c0 84 cf 25 3f ec 96 bc 3f 41 ab 0c 40 c7 4a 6a 3f
       0.6476977 1.4733558 2.1979525 0.9152035
0001d0 a9 cf b7 be fe 7d 5f 3e 39 61 1e 3f a4 56 57 bf
       -0.3590062 0.21825406 0.618671 -0.8411658
0001e0 a6 c4 a7 bc 88 d6 ae 3e 53 e1 ba be 10 16 b4 bd
       -0.020479511 0.3414805 -0.36500034 -0.087932706
0001f0 42 5d 27 3f 30 9b 87 3d dd 19 8a bd 7e ce 96 bf
       0.65376675 0.066213965 -0.06743214 -1.1781766

network_body._body_endoder.seq_layers.0.bias f4 [128]
000000 00 00 00 00 00 00 00 00 00 00 00 00 00 00 00 00
       0.0 0.0 0.0 0.0
000010 00 00 00 00 00 00 00 00 00 00 00 00 00 00 00 00
       0.0 0.0 0.0 0.0
000020 00 00 00 00 00 00 00 00 00 00 00 00 00 00 00 00
       0.0 0.0 0.0 0.0
000030 00 00 00 00 00 00 00 00 00 00 00 00 00 00 00 00
       0.0 0.0 0.0 0.0
000040 00 00 00 00 00 00 00 00 00 00 00 00 00 00 00 00
       0.0 0.0 0.0 0.0
000050 00 00 00 00 00 00 00 00 00 00 00 00 00 00 00 00
       0.0 0.0 0.0 0.0
000060 00 00 00 00 00 00 00 00 00 00 00 00 00 00 00 00
       0.0 0.0 0.0 0.0
000070 00 00 00 00 00 00 00 00 00 00 00 00 00 00 00 00
       0.0 0.0 0.0 0.0
000080 00 00 00 00 00 00 00 00 00 00 00 00 00 00 00 00
       0.0 0.0 0.0 0.0
000090 00 00 00 00 00 00 00 00 00 00 00 00 00 00 00 00
       0.0 0.0 0.0 0.0
0000a0 00 00 00 00 00 00 00 00 00 00 00 00 00 00 00 00
       0.0 0.0 0.0 0.0
0000b0 00 00 00 00 00 00 00 00 00 00 00 00 00 00 00 00
       0.0 0.0 0.0 0.0
0000c0 00 00 00 00 00 00 00 00 00 00 00 00 00 00 00 00
       0.0 0.0 0.0 0.0
0000d0 00 00 00 00 00 00 00 00 00 00 00 00 00 00 00 00
       0.0 0.0 0.0 0.0
0000e0 00 00 00 00 00 00 00 00 00 00 00 00 00 00 00 00
       0.0 0.0 0.0 0.0
0000f0 00 00 00 00 00 00 00 00 00 00 00 00 00 00 00 00
       0.0 0.0 0.0 0.0
000100 00 00 00 00 00 00 00 00 00 00 00 00 00 00 00 00
       0.0 0.0 0.0 0.0
000110 00 00 00 00 00 00 00 00 00 00 00 00 00 00 00 00
       0.0 0.0 0.0 0.0
000120 00 00 00 00 00 00 00 00 00 00 00 00 00 00 00 00
       0.0 0.0 0.0 0.0
000130 00 00 00 00 00 00 00 00 00 00 00 00 00 00 00 00
       0.0 0.0 0.0 0.0
000140 00 00 00 00 00 00 00 00 00 00 00 00 00 00 00 00
       0.0 0.0 0.0 0.0
000150 00 00 00 00 00 00 00 00 00 00 00 00 00 00 00 00
       0.0 0.0 0.0 0.0
000160 00 00 00 00 00 00 00 00 00 00 00 00 00 00 00 00
       0.0 0.0 0.0 0.0
000170 00 00 00 00 00 00 00 00 00 00 00 00 00 00 00 00
       0.0 0.0 0.0 0.0
000180 00 00 00 00 00 00 00 00 00 00 00 00 00 00 00 00
       0.0 0.0 0.0 0.0
000190 00 00 00 00 00 00 00 00 00 00 00 00 00 00 00 00
       0.0 0.0 0.0 0.0
0001a0 00 00 00 00 00 00 00 00 00 00 00 00 00 00 00 00
       0.0 0.0 0.0 0.0
0001b0 00 00 00 00 00 00 00 00 00 00 00 00 00 00 00 00
       0.0 0.0 0.0 0.0
0001c0 00 00 00 00 00 00 00 00 00 00 00 00 00 00 00 00
       0.0 0.0 0.0 0.0
0001d0 00 00 00 00 00 00 00 00 00 00 00 00 00 00 00 00
       0.0 0.0 0.0 0.0
0001e0 00 00 00 00 00 00 00 00 00 00 00 00 00 00 00 00
       0.0 0.0 0.0 0.0
0001f0 00 00 00 00 00 00 00 00 00 00 00 00 00 00 00 00
       0.0 0.0 0.0 0.0

network_body._body_endoder.seq_layers.2.weight f4 [128, 128]
000000 6d 84 03 bd 48 6b 77 bd 23 a5 a0 bc 37 88 69 3d
       -0.032108713 -0.060405046 -0.019609993 0.05701467
000010 7e 4b dd bc af 75 88 3c e4 de 5c 3b 40 aa dc 3c
       -0.027013537 0.016657678 0.003370219 0.02693665
000020 9a c5 84 bd a3 39 32 be c3 f2 0a 3e ce 7c 7c bd
       -0.06483002 -0.17404799 0.13569169 -0.06164246
000030 f0 e1 11 3d b9 a3 3b be ac 5e a1 bd 81 2b 5d 3d
       0.03561586 -0.18324174 -0.07879385 0.053996567
000040 74 5f 8b 3d 03 71 55 3d 2d 68 ed 3b b7 3b dd bd
       0.068053156 0.05210973 0.0072450847 -0.10802405
000050 ac fb e5 bc 17 47 ff bd f5 b3 7d bd da 3b a8 3d
       -0.028074108 -0.12464731 -0.0619392 0.08214541
000060 1a b6 1e bd c8 27 90 3d 4e 61 2b 3c 1c af 8a bd
       -0.038747884 0.07038838 0.010460211 -0.06771681
000070 9d ff 37 3e 74 86 2b be 2f 66 00 3e ab d5 9a 3c
       0.17968602 -0.16750509 0.1253898 0.018900713
000080 9c d5 9f 3d 80 2b 1f bc c7 fb 90 3d 32 f9 17 3e
       0.07804415 -0.009714961 0.07079273 0.14841154
000090 61 e9 f2 3d 44 cb 2c bd 23 fe 15 bd 4e 78 82 bc
       0.1186092 -0.042186037 -0.036619317 -0.015926506
0000a0 89 96 e1 bc bd 5a 06 bd bf b2 2d bd e6 6a c7 3c
       -0.027537601 -0.03280138 -0.042406794 0.024342965
0000b0 7b 3a 71 bc ba 94 a3 bd 4c be 00 3e 88 88 13 3e
       -0.0147234155 -0.07987352 0.12572592 0.14407551
0000c0 0d 4c 21 bd b7 f9 38 bd d3 5b 08 be 55 87 a4 3d
       -0.03937917 -0.04516002 -0.13316278 0.08033625
0000d0 14 22 34 3e 77 e2 9f 3d 72 b5 16 be 65 c9 91 3c
       0.17591125 0.078068666 -0.14717653 0.017796228
0000e0 5f ce 4b 3d 92 8e b0 bc ef 25 a9 3c 60 2d 8b bb
       0.049757358 -0.021552358 0.020647971 -0.0042473525
0000f0 be 9a ab bd 6c ba bd 3c 6a d6 fa bd e6 41 6d 3d
       -0.08379124 0.023160182 -0.122479275 0.057924174
000100 6c 78 20 3e 0a 97 f7 3d 58 25 a7 3c d9 c2 4b be
       0.15670937 0.12089355 0.02040355 -0.19898547
000110 11 8e fd bd 26 48 02 3e 6c 94 1e bb 65 a0 3c 3e
       -0.12380613 0.12722835 -0.0024197353 0.1842056
000120 b6 3a b4 bd 80 1a e7 bd 88 df 27 be b2 b7 56 bc
       -0.08800261 -0.11284351 -0.16393864 -0.01310532
000130 a4 75 cc 3d 42 06 06 bd 20 e1 7a bd a1 ae 3a 3d
       0.09983376 -0.03272081 -0.061249852 0.045576695
000140 ab e0 68 bd 05 bf 2c bc 16 5b 3e be 04 07 03 bd
       -0.056854885 -0.0105435895 -0.18589434 -0.031989112
000150 3b b3 ab bc e9 78 3a 3c b7 06 c7 3c 66 0f 08 3d
       -0.020959487 0.011381366 0.024295194 0.03321781
000160 c2 aa 98 3d ec 62 cb bd 6e fd 03 bd b6 69 88 3d
       0.074544445 -0.09930977 -0.03222411 0.06660788
000170 be d4 26 3e 34 19 e2 3d fe b9 aa 3d a3 12 34 3d
       0.16292092 0.11039963 0.083362564 0.043963086
000180 31 ce 9f 3c dc 78 11 3e a8 58 99 bd ff 12 c6 3d
       0.0195075 0.1420626 -0.07487613 0.09671592
000190 61 94 ff 3d ed c7 ac bd f8 bd 45 3d 93 ef 50 3d
       0.12479473 -0.0843657 0.04827687 0.051009726
0001a0 d6 bb db bd ac 25 d5 bc df a3 2c be 18 f5 92 3d
       -0.10729186 -0.02601894 -0.16859387 0.07175654
0001b0 07 c6 20 3e 1e a9 02 be d3 a3 09 3d 5f e1 1e 3d
       0.15700541 -0.12759826 0.0336035 0.03878915
0001c0 67 45 4e 3d c8 31 93 bd 3a 63 93 bd 2c e0 2f 3e
       0.050359156 -0.071872294 -0.0719666 0.17175359
0001d0 f1 83 da bd 09 07 80 bd 4a f6 e1 3d 94 9a 87 3c
       -0.10669697 -0.06251342 0.11033304 0.0165532
0001e0 66 5f 3a 3e 17 24 26 be 4c bc 55 bd 8a 4c 77 bd
       0.18200454 -0.16224705 -0.052181527 -0.060375728
0001f0 50 73 84 3c 85 d8 98 3d 0f dc 1d 3d 92 4a 42 3e
       0.016168267 0.07463173 0.038539942 0.18973759
000200 84 98 80 3d 9e aa ba 3d 95 88 88 bd 01 43 36 3c
       0.0627909 0.09114574 -0.06666676 0.011124373
000210 fa 6d 9b 3d f5 f6 3e 3c d6 b9 6b bd 6d 3e 9f 3c
       0.07589336 0.011655559 -0.057550274 0.019438947
000220 9e 62 6d bd 73 44 33 3e 0b 39 44 3d 10 92 1d bd
       -0.057955377 0.1750658 0.047905963 -0.038469374
000230 c4 7c 31 3c ba 51 a4 bd 85 1b 7f 3d 52 3a 94 3d
       0.010832969 -0.080234006 0.062282104 0.07237686
000240 d3 09 02 3a 87 c7 b1 bc 50 82 e3 bc 38 14 0d bc
       0.00049605704 -0.021701587 -0.027772099 -0.008610778
000250 42 6a c2 bd 5f aa d5 3c 1c eb f4 bc e9 e2 8f bc
       -0.09492923 0.026082216 -0.029897265 -0.017564254
000260 95 79 28 be a4 c3 a7 3c 2d fc 60 bd 07 7a ed 3c
       -0.1645263 0.02047903 -0.054927994 0.028988851
000270 f2 08 8e 3d 8d 20 aa 3d 4f 86 af 3d bf 86 2b 3e
       0.069353 0.0830699 0.08570539 0.1675062
000280 5b 2e d6 3d 09 10 2b 3d 2f 10 d3 bd 81 0f 0f be
       0.1045806 0.04176334 -0.10305821 -0.13970758
000290 bb 12 43 bc 41 bf 8e bc a8 49 41 3d 95 38 76 3d
       -0.011906321 -0.017425181 0.047189385 0.060112555
0002a0 1d d4 82 bd 31 dd c8 3d 7e 9a e0 3d 48 b9 22 bd
       -0.06388114 0.09807814 0.10966967 -0.03972748
0002b0 8d 3b b0 b9 e2 d6 3d 3e 21 ec 2b 3e 4a 73 3f bd
       -0.00033613705 0.18539003 0.16789295 -0.046740808
0002c0 5e c6 e4 3b 56 44 3e 3c 82 29 0f 3c 1d e7 60 3e
       0.006981655 0.011612972 0.008737924 0.21963163
0002d0 63 c5 a5 3d 64 ee 01 3d 97 7c 6a bc 63 db c0 3d
       0.08094289 0.031721488 -0.014311931 0.09416845
0002e0 57 aa a3 3d 6a 2c 43 3e ce 5b 8b bd c4 05 8b bd
       0.07991474 0.19059911 -0.0680462 -0.06788209
0002f0 d5 b7 a0 3d 9b 9c c6 bd cd 5c b5 bd 84 26 13 bd
       0.07847563 -0.09697839 -0.08855591 -0.035925403
000300 fa 4f e8 bd 62 14 ee 3b 4e 2b 9b bc fb 29 56 3c
       -0.11343379 0.0072656134 -0.018941548 0.013071532
000310 24 8a 0b 3d 2f a9 ee 3c f5 05 79 bd 38 1a a2 bd
       0.034067288 0.029133407 -0.060796697 -0.07915157
000320 c1 c2 3e 3e 0c 07 2d 3e f5 29 ce 3d 76 52 a6 3b
       0.1862898 0.1689722 0.100665964 0.005075748
000330 01 60 b5 bc bb 6b 8c bc b6 55 8b 3d 8d 0e 90 3d
       -0.022140505 -0.017141214 0.068034574 0.07034025
000340 69 03 9f bd a8 a1 b2 3d 3b b2 1f be 89 65 33 be
       -0.07764322 0.0872224 -0.15595333 -0.17519201
000350 ad 67 84 3d 8c 46 85 bd 60 7b 04 3d 5d 44 98 bd
       0.06465087 -0.065075964 0.032344222 -0.07434914
000360 a1 4d 84 3d 1e 56 5e 3d 30 f0 54 bd 34 1a 4a bd
       0.06460119 0.054281346 -0.051986873 -0.049341395
000370 4e d9 b4 3d cd c5 cd 3d d0 36 aa bd 33 48 fa bd
       0.0883051 0.10047493 -0.08311236 -0.12220802
000380 ec e1 ad 3c 1e 10 43 bc c0 e5 34 3d 2e 94 d7 3d
       0.021225892 -0.011905698 0.04416442 0.1052631
000390 cd 82 5c bc a0 95 f9 bd 69 a5 b9 3d 6d 48 a5 bd
       -0.01345892 -0.12186742 0.090647526 -0.08070455
0003a0 91 18 03 be 84 ab d5 bd f6 30 86 3c 2a c8 c6 bc
       -0.1280234 -0.10433105 0.016380768 -0.024265368
0003b0 bf 60 88 3d d1 c5 e6 bd 63 3c 0d 3e 28 ce eb bd
       0.06659078 -0.11268199 0.13792567 -0.115139306
0003c0 33 62 94 bd 74 5a 5b bd ad cc 3b be fc f7 88 3d
       -0.072452925 -0.05355306 -0.18339796 0.06687924
0003d0 cb 53 75 bd 89 54 6f bd d9 3e dd 3d 0e 70 78 3d
       -0.059894364 -0.05843023 0.10803003 0.06065374
0003e0 cb 4c ee bc f3 62 17 bc ab 24 c7 bd f5 76 8b 3d
       -0.029089352 -0.0092399 -0.09723791 0.06809799
0003f0 dd 87 c8 bd cc da a0 bd 72 bc c0 bb d8 b1 c1 bd
       -0.09791539 -0.07854232 -0.0058818394 -0.09457749

network_body._body_endoder.seq_layers.2.bias f4 [128]
000000 00 00 00 00 00 00 00 00 00 00 00 00 00 00 00 00
       0.0 0.0 0.0 0.0
000010 00 00 00 00 00 00 00 00 00 00 00 00 00 00 00 00
       0.0 0.0 0.0 0.0
000020 00 00 00 00 00 00 00 00 00 00 00 00 00 00 00 00
       0.0 0.0 0.0 0.0
000030 00 00 00 00 00 00 00 00 00 00 00 00 00 00 00 00
       0.0 0.0 0.0 0.0
000040 00 00 00 00 00 00 00 00 00 00 00 00 00 00 00 00
       0.0 0.0 0.0 0.0
000050 00 00 00 00 00 00 00 00 00 00 00 00 00 00 00 00
       0.0 0.0 0.0 0.0
000060 00 00 00 00 00 00 00 00 00 00 00 00 00 00 00 00
       0.0 0.0 0.0 0.0
000070 00 00 00 00 00 00 00 00 00 00 00 00 00 00 00 00
       0.0 0.0 0.0 0.0
000080 00 00 00 00 00 00 00 00 00 00 00 00 00 00 00 00
       0.0 0.0 0.0 0.0
000090 00 00 00 00 00 00 00 00 00 00 00 00 00 00 00 00
       0.0 0.0 0.0 0.0
0000a0 00 00 00 00 00 00 00 00 00 00 00 00 00 00 00 00
       0.0 0.0 0.0 0.0
0000b0 00 00 00 00 00 00 00 00 00 00 00 00 00 00 00 00
       0.0 0.0 0.0 0.0
0000c0 00 00 00 00 00 00 00 00 00 00 00 00 00 00 00 00
       0.0 0.0 0.0 0.0
0000d0 00 00 00 00 00 00 00 00 00 00 00 00 00 00 00 00
       0.0 0.0 0.0 0.0
0000e0 00 00 00 00 00 00 00 00 00 00 00 00 00 00 00 00
       0.0 0.0 0.0 0.0
0000f0 00 00 00 00 00 00 00 00 00 00 00 00 00 00 00 00
       0.0 0.0 0.0 0.0
000100 00 00 00 00 00 00 00 00 00 00 00 00 00 00 00 00
       0.0 0.0 0.0 0.0
000110 00 00 00 00 00 00 00 00 00 00 00 00 00 00 00 00
       0.0 0.0 0.0 0.0
000120 00 00 00 00 00 00 00 00 00 00 00 00 00 00 00 00
       0.0 0.0 0.0 0.0
000130 00 00 00 00 00 00 00 00 00 00 00 00 00 00 00 00
       0.0 0.0 0.0 0.0
000140 00 00 00 00 00 00 00 00 00 00 00 00 00 00 00 00
       0.0 0.0 0.0 0.0
000150 00 00 00 00 00 00 00 00 00 00 00 00 00 00 00 00
       0.0 0.0 0.0 0.0
000160 00 00 00 00 00 00 00 00 00 00 00 00 00 00 00 00
       0.0 0.0 0.0 0.0
000170 00 00 00 00 00 00 00 00 00 00 00 00 00 00 00 00
       0.0 0.0 0.0 0.0
000180 00 00 00 00 00 00 00 00 00 00 00 00 00 00 00 00
       0.0 0.0 0.0 0.0
000190 00 00 00 00 00 00 00 00 00 00 00 00 00 00 00 00
       0.0 0.0 0.0 0.0
0001a0 00 00 00 00 00 00 00 00 00 00 00 00 00 00 00 00
       0.0 0.0 0.0 0.0
0001b0 00 00 00 00 00 00 00 00 00 00 00 00 00 00 00 00
       0.0 0.0 0.0 0.0
0001c0 00 00 00 00 00 00 00 00 00 00 00 00 00 00 00 00
       0.0 0.0 0.0 0.0
0001d0 00 00 00 00 00 00 00 00 00 00 00 00 00 00 00 00
       0.0 0.0 0.0 0.0
0001e0 00 00 00 00 00 00 00 00 00 00 00 00 00 00 00 00
       0.0 0.0 0.0 0.0
0001f0 00 00 00 00 00 00 00 00 00 00 00 00 00 00 00 00
       0.0 0.0 0.0 0.0

action_model._continuous_distribution.mu.weight f4 [1, 128]
000000 10 fd a3 3c be e7 b3 39 e7 12 60 3c 03 7f 52 bb
       0.02001813 0.00034314202 0.013676382 -0.0032119162
000010 03 24 06 bc ef 1f 08 bc a3 ac 48 3c f9 4b 12 bd
       -0.008187297 -0.008308395 0.012248191 -0.035716984
000020 0a d8 ca 3c d8 25 f6 ba 26 1d c3 bc 69 98 8f 3b
       0.024761219 -0.0018779589 -0.02381761 0.0043821824
000030 05 89 8f 3c e2 a5 cb bc 94 66 ac 3b 80 ee ee 3b
       0.01752139 -0.024859373 0.0052612517 0.007291615
000040 e2 56 99 3b 27 8d 67 3c 45 19 70 3c bb 2f 53 3b
       0.0046795467 0.014132774 0.014654462 0.0032224494
000050 24 66 8d 3c 35 cb e6 3c c6 1d 01 3c 62 5d 4c bc
       0.017260619 0.028173069 0.007880634 -0.012473436
000060 5b c8 78 3c 17 58 93 3b e6 5c 49 3c b2 5d 7b bc
       0.015184487 0.004496585 0.012290215 -0.015342163
000070 0d 0e b8 ba 67 b8 ba bc a4 b2 b2 bb 65 7e d4 bc
       -0.0014042273 -0.022793008 -0.0054534245 -0.025939176
000080 f7 a9 26 bb 46 f6 9f bb 67 30 80 bc fa eb 25 bb
       -0.0025430897 -0.004881653 -0.01564808 -0.0025317655
000090 e9 e7 19 3c 14 97 88 bc 72 ae 14 3d a0 c8 fb bc
       0.009393671 -0.016673602 0.036299177 -0.030735314
0000a0 7a 5c e8 bb 0e 60 b8 3a ef a2 83 3c 46 31 43 bc
       -0.007091102 0.0014066712 0.016068904 -0.011913603
0000b0 3b cd b5 bc c6 bb 2b 3c b5 63 d0 b9 f6 22 17 bd
       -0.022192588 0.01048178 -0.0003974714 -0.036898576
0000c0 91 b1 16 bd 93 aa 96 bb de 7e 97 bc 3f bd 96 bc
       -0.036790434 -0.0045979708 -0.018493112 -0.018400786
0000d0 c3 50 1e 3d ff 42 1e 3b 2b 30 c1 3c 23 7a 15 bc
       0.03865124 0.002414882 0.023582539 -0.009123358
0000e0 cb 62 c0 3b 0e 0a 8f bc b1 a5 3e 3c 15 8b 4f 3c
       0.005871152 -0.01746085 0.011636184 0.012667437
0000f0 e2 9e a1 3c 8d 7a 80 bc 0d b2 57 3c 33 5e 0f 3b
       0.019729082 -0.015683437 0.013165009 0.0021876215
000100 60 57 b2 bc 49 e7 81 3c f1 96 36 3c 53 07 8f ba
       -0.02177018 0.015857356 0.011144386 -0.0010912217
000110 8d e6 cb bc 25 48 d6 bb 64 f8 32 3c 20 59 95 3c
       -0.024890209 -0.006539362 0.010923479 0.018230975
000120 ab 88 b4 3a c5 cd 3e 3c 7c 52 bf ba 2f 0c 49 3c
       0.001377364 0.011645739 -0.0014596726 0.012270971
000130 ca a9 fc bc 5f fb 70 bc 1b 72 37 bc 87 e8 45 bb
       -0.03084268 -0.014708369 -0.011196638 -0.0030198412
000140 3a 25 06 3c 5c 19 84 3c 06 f2 92 3b 53 1c e8 bb
       0.008187586 0.016125374 0.004484418 -0.0070834546
000150 0d b9 0f 3c b7 c0 5c 3c b3 0e eb 3c 95 f9 75 bc
       0.008772147 0.013473681 0.028693533 -0.015013118
000160 c7 7c 23 bd b6 e4 a8 bc 7f 9e 52 bb 98 52 c9 3c
       -0.03991392 -0.02061687 -0.0032137928 0.024575517
000170 4d be b3 ba 63 06 bb bc 51 f4 00 bd 23 54 21 bc
       -0.001371333 -0.022830194 -0.031483 -0.00984672
000180 af 83 e6 3b 07 fd b5 bc d0 20 18 bd 1f 1f 65 bc
       0.007034741 -0.02221538 -0.037140667 -0.013984471
000190 d7 ad 81 bb 9f 6d 81 bb 7a 50 e9 bb 6d 5f 5a bc
       -0.003957491 -0.0039498354 -0.0071201893 -0.013328415
0001a0 d2 04 ec bb ef 7d a0 3c f5 69 61 3b 4c 42 24 3b
       -0.007202723 0.0195913 0.003439543 0.002506393
0001b0 e3 63 55 bc 14 14 88 3b f8 1b ec 3c 6a 5c 53 3d
       -0.013024303 0.004152784 0.02882193 0.051601805
0001c0 10 4d c4 3c 68 90 d3 bc b0 ab 75 bc e9 2f 10 3a
       0.023962528 -0.025825694 -0.014994547 0.0005500303
0001d0 34 60 00 3c 57 53 b1 bc eb 45 ee bc e5 05 09 bd
       0.007835437 -0.021646185 -0.029086074 -0.033452887
0001e0 eb 73 de bc 24 35 a3 3b 78 df e7 bb 57 3a a1 bc
       -0.027154883 0.0049807 -0.0070762 -0.019681139
0001f0 e6 36 4a bc 86 e3 c3 3b 0d b9 dc 39 5b 9a 80 bb
       -0.01234219 0.0059780506 0.00042099543 -0.0039246506

network_body._body_endoder.seq_layers.0.weight f4 [128, 1]
000000 df ba d6 3f b3 66 21 c0 bc 7f 08 bf 31 e2 70 be
       1.6775779 -2.5218933 -0.5331991 -0.23523785
000010 aa 8b 97 bf 9e 91 c5 3e a1 68 aa 3f 51 d5 b3 3e
       -1.1839497 0.3858766 1.331318 0.35123685
000020 d0 08 47 40 6f c2 a8 3e b3 c0 47 bf 0c 39 2f 3f
       3.1099129 0.3296084 -0.7802841 0.6844642
000030 c9 2f 6c 3f 31 fa bb bf 12 fb b7 bf 22 2b a3 3e
       0.92260414 -1.4685727 -1.4373496 0.31868845
000040 4f 83 df 3f e1 48 bb 3f d3 23 92 bf 0f 04 ac bf
       1.7461947 1.4631616 -1.1417183 -1.3438739
000050 1b 20 4a 3f 17 cb de bd ed 4d c8 3e 9c 92 4e 3f
       0.7895524 -0.1087858 0.39121953 0.8069246
000060 7e 37 3c bf 94 f1 a2 bd c3 12 99 bf 35 2c 05 3d
       -0.73522174 -0.079562336 -1.1958851 0.032512862
000070 64 c6 1f bf 1a fe 81 bf a4 46 eb 3c e8 fd 4e bf
       -0.62412095 -1.0155671 0.028720208 -0.8085618
000080 28 64 a4 3f a0 9e c2 3f 08 06 00 c0 de 11 92 be
       1.2843065 1.5204659 -2.000368 -0.28529257
000090 ff 07 58 3f 28 bb 94 3f 81 e8 37 3f 69 22 49 3e
       0.843872 1.1619616 0.7183915 0.19642033
0000a0 7e a0 8f bd cc 15 01 bf ba 6d 5d bf c5 42 c7 3f
       -0.07013033 -0.50423884 -0.86495554 1.5567251
0000b0 f5 39 fd 3d 54 49 68 3f 80 cd b5 3f 5c 21 cc be
       0.1236457 0.9073689 1.4203339 -0.398692
0000c0 85 c9 c0 3f 87 97 e1 3f bf 40 9a be 27 31 0b 40
       1.5061499 1.7624367 -0.30127522 2.174875
0000d0 40 01 a5 bf 1b 4a ed be 6a 98 2b bf ed 18 03 3f
       -1.2891006 -0.463456 -0.6702944 0.5120991
0000e0 22 7b 5b be 69 d5 ab 3f 5b 2e 2b bd a6 ad 82 3f
       -0.2143369 1.3424503 -0.041792255 1.0209243
0000f0 a8 8a dd be a2 f3 12 bf 43 52 80 3f ac 49 e9 3f
       -0.4326985 -0.57403004 1.0025104 1.8225608
000100 37 36 98 3f 28 cd df bf 8f a9 fa 3e 63 a7 07 40
       1.1891545 -1.7484484 0.48957488 2.1195915
000110 80 8d bb 3f 83 3f 4b 3f fb 29 c2 3e 4c 67 9c bf
       1.4652557 0.79393786 0.37922654 -1.2219024
000120 48 1a ae bf 04 90 63 3f 77 9a 15 bf f1 bf 0d c0
       -1.360177 0.88891625 -0.5843882 -2.2148402
000130 23 69 f2 3e 04 66 52 bf 7a b8 de 3e fd 0f 7b 3f
       0.47345838 -0.82186913 0.4350012 0.9807127
000140 b1 0c 0b 3e b0 25 7c 3f 87 2a 61 bd 9a ee 80 3f
       0.1357906 0.98495007 -0.054972198 1.0072815
000150 98 7e b2 bf ad 94 5e 3f 8c 85 0c bf 09 a1 23 3f
       -1.3944883 0.8694561 -0.54891276 0.63917595
000160 6a 05 d6 bf cd 27 73 3e 89 4c eb 3e 59 73 47 bf
       -1.6720402 0.23745652 0.4595683 -0.7791038
000170 d4 c3 91 bf f8 d1 4c 3f bf 98 35 bf 7c 86 02 bf
       -1.1387887 0.80007887 -0.709362 -0.50986457
000180 5b d6 be be 41 9e 37 3e 71 f1 b1 bf 63 69 01 be
       -0.37272915 0.17931463 -1.3901807 -0.12637858
000190 88 c2 64 3f f0 3a a2 be ee 8b 5b 3f a4 fc 09 be
       0.8935933 -0.3168559 0.8576039 -0.13475281
0001a0 d8 41 61 3e 4e 07 18 bf fa eb 3c bf e3 12 4a be
       0.21997774 -0.59386146 -0.7379757 -0.19733767
0001b0 0d 42 0a bf 89 d2 9b be 95 6c 1d 3b 6d b0 49 3e
       -0.54007035 -0.30434063 0.0024021019 0.19696207
0001c0 e3 2d d1 3d b1 1e 35 c0 9a b1 68 3f e6 57 8e be
       0.1021383 -2.8299983 0.90896 -0.27801436
0001d0 35 7d e4 3e 1e 09 0d be d9 d3 ad 3e ad 4c 79 3e
       0.44626775 -0.13773009 0.3395069 0.24345656
0001e0 7a 9a a3 bf b2 fc b0 be 92 b1 c8 3f 3f 9c d9 bd
       -1.2781518 -0.3456779 1.567919 -0.10625505
0001f0 23 09 97 3e 5f 81 99 3f 10 30 93 3f 19 86 e8 3f
       0.29499158 1.1992606 1.1499043 1.8165923

network_body._body_endoder.seq_layers.0.bias f4 [128]
000000 00 00 00 00 00 00 00 00 00 00 00 00 00 00 00 00
       0.0 0.0 0.0 0.0
000010 00 00 00 00 00 00 00 00 00 00 00 00 00 00 00 00
       0.0 0.0 0.0 0.0
000020 00 00 00 00 00 00 00 00 00 00 00 00 00 00 00 00
       0.0 0.0 0.0 0.0
000030 00 00 00 00 00 00 00 00 00 00 00 00 00 00 00 00
       0.0 0.0 0.0 0.0
000040 00 00 00 00 00 00 00 00 00 00 00 00 00 00 00 00
       0.0 0.0 0.0 0.0
000050 00 00 00 00 00 00 00 00 00 00 00 00 00 00 00 00
       0.0 0.0 0.0 0.0
000060 00 00 00 00 00 00 00 00 00 00 00 00 00 00 00 00
       0.0 0.0 0.0 0.0
000070 00 00 00 00 00 00 00 00 00 00 00 00 00 00 00 00
       0.0 0.0 0.0 0.0
000080 00 00 00 00 00 00 00 00 00 00 00 00 00 00 00 00
       0.0 0.0 0.0 0.0
000090 00 00 00 00 00 00 00 00 00 00 00 00 00 00 00 00
       0.0 0.0 0.0 0.0
0000a0 00 00 00 00 00 00 00 00 00 00 00 00 00 00 00 00
       0.0 0.0 0.0 0.0
0000b0 00 00 00 00 00 00 00 00 00 00 00 00 00 00 00 00
       0.0 0.0 0.0 0.0
0000c0 00 00 00 00 00 00 00 00 00 00 00 00 00 00 00 00
       0.0 0.0 0.0 0.0
0000d0 00 00 00 00 00 00 00 00 00 00 00 00 00 00 00 00
       0.0 0.0 0.0 0.0
0000e0 00 00 00 00 00 00 00 00 00 00 00 00 00 00 00 00
       0.0 0.0 0.0 0.0
0000f0 00 00 00 00 00 00 00 00 00 00 00 00 00 00 00 00
       0.0 0.0 0.0 0.0
000100 00 00 00 00 00 00 00 00 00 00 00 00 00 00 00 00
       0.0 0.0 0.0 0.0
000110 00 00 00 00 00 00 00 00 00 00 00 00 00 00 00 00
       0.0 0.0 0.0 0.0
000120 00 00 00 00 00 00 00 00 00 00 00 00 00 00 00 00
       0.0 0.0 0.0 0.0
000130 00 00 00 00 00 00 00 00 00 00 00 00 00 00 00 00
       0.0 0.0 0.0 0.0
000140 00 00 00 00 00 00 00 00 00 00 00 00 00 00 00 00
       0.0 0.0 0.0 0.0
000150 00 00 00 00 00 00 00 00 00 00 00 00 00 00 00 00
       0.0 0.0 0.0 0.0
000160 00 00 00 00 00 00 00 00 00 00 00 00 00 00 00 00
       0.0 0.0 0.0 0.0
000170 00 00 00 00 00 00 00 00 00 00 00 00 00 00 00 00
       0.0 0.0 0.0 0.0
000180 00 00 00 00 00 00 00 00 00 00 00 00 00 00 00 00
       0.0 0.0 0.0 0.0
000190 00 00 00 00 00 00 00 00 00 00 00 00 00 00 00 00
       0.0 0.0 0.0 0.0
0001a0 00 00 00 00 00 00 00 00 00 00 00 00 00 00 00 00
       0.0 0.0 0.0 0.0
0001b0 00 00 00 00 00 00 00 00 00 00 00 00 00 00 00 00
       0.0 0.0 0.0 0.0
0001c0 00 00 00 00 00 00 00 00 00 00 00 00 00 00 00 00
       0.0 0.0 0.0 0.0
0001d0 00 00 00 00 00 00 00 00 00 00 00 00 00 00 00 00
       0.0 0.0 0.0 0.0
0001e0 00 00 00 00 00 00 00 00 00 00 00 00 00 00 00 00
       0.0 0.0 0.0 0.0
0001f0 00 00 00 00 00 00 00 00 00 00 00 00 00 00 00 00
       0.0 0.0 0.0 0.0

network_body._body_endoder.seq_layers.2.weight f4 [128, 128]
000000 ab 59 00 3d fd 02 5b bd 4b 4e 12 3d 51 cc e5 3d
       0.031335514 -0.053469647 0.035719197 0.11220611
000010 3b 5b db bd 9e 49 0b ba 83 f9 d6 3a c2 f4 a9 3c
       -0.1071076 -0.0005313399 0.0016401265 0.020746592
000020 4c c0 ec bb 1e b9 5e bd d0 7a a3 3a a7 48 7c 3c
       -0.007225072 -0.05437576 0.0012472514 0.015398181
000030 c8 a1 cf 3d 0b bf fb bd a8 3d 8d 3d e2 9d 05 3e
       0.10138279 -0.12292298 0.068965256 0.13048509
000040 d9 3a eb bd 88 79 7c bd 99 14 d2 bd c2 e4 c0 bc
       -0.11485834 -0.06163934 -0.10257835 -0.02354658
000050 be f7 e4 bd fa 11 7d bd 3c c0 67 3d ff 6d b0 3d
       -0.111800656 -0.061784722 0.056579813 0.0861473
000060 a8 db b5 3d a7 ce 21 3d 6b 1a 8b bd b7 cc b7 3c
       0.08879787 0.03950372 -0.06792148 0.022436483
000070 07 c0 b6 bc 2d 7c 13 3d c3 ae 0e bb 1c ab a4 3d
       -0.022308363 0.036007095 -0.0021771647 0.08040449
000080 0d 74 90 3c ed 41 5c 3d dd 76 0e be ae f8 46 be
       0.017633462 0.05377381 -0.1391253 -0.19430801
000090 b3 62 0d 3d d5 61 d7 3c 50 07 dd bd a9 51 89 3c
       0.034517955 0.026291767 -0.107924104 0.016762571
0000a0 9b 28 97 bd 3c 98 53 bd da 34 21 3e 0c e5 26 bd
       -0.07380792 -0.051658854 0.15742818 -0.04074578
0000b0 f6 4f 31 3e 7c b1 9e bd a1 a0 ed 3c 55 3a 72 bd
       0.17315659 -0.07748696 0.029007258 -0.05913766
0000c0 6c 68 d4 3c 16 d4 de 3d f6 c6 ec bd 27 87 2a 3d
       0.025928698 0.10880296 -0.11561386 0.041632798
0000d0 f2 ad 8a bc 26 e2 8b 3c e7 83 61 3c 01 ac 80 bd
       -0.016928647 0.01707561 0.013764358 -0.06282807
0000e0 cf fd af 3c 2a b0 bd bd 87 8a 0c be c5 33 02 3d
       0.02148333 -0.09262116 -0.13724719 0.031787653
0000f0 8a 6b 7d bd 44 13 3f 3d 49 0e 89 3d 01 61 93 bd
       -0.061870135 0.046649233 0.06692178 -0.071962364
000100 d0 69 24 3e 9b 92 c0 bd f4 91 56 bd a2 9f 3e bd
       0.1605599 -0.09402963 -0.052385285 -0.046538956
000110 05 56 36 3c cc 21 19 be b1 4b d2 bd 36 69 8f bd
       0.011128907 -0.14954299 -0.10268343 -0.07002489
000120 77 a3 93 3d 41 ec 0d 3e ba 40 5e bd 1a 14 d9 ba
       0.07208913 0.13859655 -0.054260947 -0.0016561777
000130 ec 6c 80 bc 30 72 0e 3e c8 f0 3c bd ed 83 15 be
       -0.015676938 0.13910747 -0.046128064 -0.14601107
000140 a2 92 eb bd fb 3c 9f 3d b8 30 f7 bb 3a d3 51 3d
       -0.11502577 0.07775303 -0.0075436495 0.051226832
000150 f7 d2 04 be 0a ed 9c bd 15 f8 89 bc 94 f8 c2 bc
       -0.12971102 -0.07662399 -0.016841928 -0.023800172
000160 11 ed db 3c c6 cf cc 3d 52 56 35 bd 29 14 04 3d
       0.02684644 0.10000567 -0.044271775 0.03224579
000170 89 3f 54 3e f7 a5 e3 bd 63 94 23 3d 6f f8 36 bb
       0.20727362 -0.1111564 0.039936434 -0.0027919074
000180 b5 c8 8d 3d 5b 19 9e bd bf 78 9d bc c9 83 6e bd
       0.069230475 -0.0771968 -0.019222615 -0.05823115
000190 5c ab 4e 3c 9f 8d 3b bd ca a2 58 bd 6f be 37 3e
       0.012614097 -0.045789357 -0.052889623 0.17943738
0001a0 56 1c e0 3b 94 85 bf bd 91 10 25 3c ed e2 9b 3c
       0.0068393154 -0.0935165 0.0100747505 0.019029105
0001b0 86 52 18 3e 99 25 43 bd 41 0d 96 3d de 32 ed bd
       0.1487523 -0.047643278 0.07326747 -0.11581968
0001c0 42 3f 0a bd 53 71 14 bd a2 5a 84 be d9 ce d7 bd
       -0.033751734 -0.036240887 -0.25850397 -0.105375
0001d0 b0 39 3e bc 3e 25 dd 3c 86 e3 81 3c 74 03 81 3c
       -0.011610433 0.026995298 0.015855562 0.015748717
0001e0 f1 c9 0f be 96 02 f2 bd 09 93 6a bd e0 00 e5 3c
       -0.14041878 -0.118168995 -0.05726913 0.027954519
0001f0 02 7b 47 3d c5 02 86 3d b0 b4 b9 bd 68 bd 12 3e
       0.048701294 0.06543497 -0.090676665 0.14330065
000200 16 1f 3a bd 98 e8 4c 3d 58 85 d7 3c 2d 9e d7 bd
       -0.045439802 0.050026506 0.0263087 -0.105282165
000210 dc 44 a6 bd 48 4c 69 3d c7 dc 93 bc d1 f6 67 3c
       -0.08118603 0.056957513 -0.01804961 0.014157967
000220 94 83 d0 bd f8 8f 5e 3c a6 20 39 3c f8 01 a5 bb
       -0.101813465 0.0135841295 0.011299288 -0.005035635
000230 a4 a0 c8 3d 67 ac 75 bd 79 3e fd bd 1a 27 e2 3b
       0.09796265 -0.05997887 -0.12365431 0.006901634
000240 58 cf 16 bd 7f b9 e1 3c 7a 4b 09 bd 45 cb 70 3c
       -0.036818832 0.027554272 -0.033519246 0.014696901
000250 dc ed 41 39 49 d7 47 bb 8d a2 86 3d ad 45 06 3d
       0.00018494524 -0.003049331 0.06573973 0.03278129
000260 d4 08 a5 3d 0d 0e 0d bd 7f 16 bf 3d 52 3d 3f bc
       0.080583245 -0.034437228 0.09330463 -0.011672335
000270 b6 5b bf bd e1 51 66 be e5 9d 59 3d fe 6b cb bd
       -0.09343664 -0.22492172 0.053129096 -0.09932707
000280 6d 2d a6 3d ad 1a a4 bd 82 fe 33 bd b4 66 ca 3c
       0.08114133 -0.080129005 -0.04394389 0.024707176
000290 ca b4 a6 3d 82 4f 8d bd 2a b5 a0 3d 27 78 47 3b
       0.081399515 -0.068999305 0.07847054 0.0030436607
0002a0 81 7d e8 bc d2 9d e6 bb 65 dc c5 3d 6a f1 20 be
       -0.028380157 -0.0070378566 0.096611775 -0.15717092
0002b0 b0 2e a5 bd 92 19 eb bd 1a 43 03 3d be b9 ba 3c
       -0.080655456 -0.114794865 0.032046415 0.022793647
0002c0 4e d7 86 3e e3 9a 98 3d b0 3a 0e bd bb bc 26 bd
       0.2633614 0.07451417 -0.034723938 -0.04070733
0002d0 b3 f3 21 3d fb fb 8f 3d 17 bf b5 3d 92 9d a5 bd
       0.03953905 0.07030483 0.08874338 -0.08086695
0002e0 39 d2 a8 bc aa 7b a2 bd 82 b9 14 be 5b cd d5 3d
       -0.020608054 -0.07933743 -0.1452389 0.10439559
0002f0 ee 31 cb bd b9 23 51 3c fa 00 04 bc 61 df 37 bd
       -0.09921633 0.012764865 -0.008056873 -0.044890765
000300 29 60 4e 3d d7 5e fe bd b4 67 ea bd dc 01 5d 3d
       0.050384674 -0.12420433 -0.11445561 0.05395685
000310 93 40 4a 3a 00 d2 bb bd 68 b3 86 3a 59 f0 66 3d
       0.0007715311 -0.09170914 0.0010276856 0.056381557
000320 14 a2 d1 bd 3f 97 50 3e 30 4d 3f bd a4 f0 40 3d
       -0.10235992 0.20370196 -0.04670447 0.047104493
000330 50 71 6e 3d f5 69 25 3d 9f e7 92 bc 0b 5f c3 3d
       0.058213532 0.04038425 -0.017932711 0.095396124
000340 4c cd c6 bd 0b c2 c0 ba 9b e5 9e 3c 1f a8 97 bd
       -0.09707126 -0.0014706267 0.019396594 -0.074051134
000350 45 a4 cf bd 81 60 9b 3d 76 9e 68 3e 20 43 f1 3d
       -0.10138754 0.07586766 0.22716698 0.11780381
000360 25 64 a9 3b 34 8c 69 bd 62 11 81 bc bc b4 80 bd
       0.005169409 -0.057018474 -0.01575536 -0.06284472
000370 0e 5e 99 bd b8 71 69 bd e5 c6 44 bd bb 30 82 bd
       -0.07488643 -0.056993216 -0.048041243 -0.06356951
000380 b2 b5 7a bd 06 74 aa bc e8 a3 07 bd a0 3f b2 bc
       -0.061208434 -0.020807277 -0.033115298 -0.021758854
000390 c7 3b d8 bc 05 9f 43 3d a4 2a 93 3c 1d 22 30 3d
       -0.026395692 0.047759075 0.017964669 0.043001283
0003a0 da af 66 bc 49 89 f9 bd fc 1b 99 3d 1d ab 1e 3d
       -0.014080012 -0.12184388 0.07476041 0.038737405
0003b0 f5 2c 75 be f0 e2 97 3d c8 25 9c 3d aa 5e 8b bc
       -0.23942931 0.07416332 0.07624394 -0.017012913
0003c0 78 88 32 3e d0 cf 4f 3d 9f 45 88 bc 31 89 79 3c
       0.17434871 0.050735295 -0.01663476 0.015230463
0003d0 1b 3b b8 bd b2 c6 99 bd 73 9e d3 bd d4 05 d1 bc
       -0.089956485 -0.07508601 -0.10332956 -0.025515474
0003e0 6a 18 ff bd 48 a6 93 3d 14 07 e0 bc 72 2b 69 3c
       -0.124558285 0.0720945 -0.027347125 0.01423155
0003f0 92 1c c0 bc 2c 3f eb 3d 90 91 e9 3b 48 ff 81 bc
       -0.023451123 0.114866585 0.007127948 -0.015868798

network_body._body_endoder.seq_layers.2.bias f4 [128]
000000 00 00 00 00 00 00 00 00 00 00 00 00 00 00 00 00
       0.0 0.0 0.0 0.0
000010 00 00 00 00 00 00 00 00 00 00 00 00 00 00 00 00
       0.0 0.0 0.0 0.0
000020 00 00 00 00 00 00 00 00 00 00 00 00 00 00 00 00
       0.0 0.0 0.0 0.0
000030 00 00 00 00 00 00 00 00 00 00 00 00 00 00 00 00
       0.0 0.0 0.0 0.0
000040 00 00 00 00 00 00 00 00 00 00 00 00 00 00 00 00
       0.0 0.0 0.0 0.0
000050 00 00 00 00 00 00 00 00 00 00 00 00 00 00 00 00
       0.0 0.0 0.0 0.0
000060 00 00 00 00 00 00 00 00 00 00 00 00 00 00 00 00
       0.0 0.0 0.0 0.0
000070 00 00 00 00 00 00 00 00 00 00 00 00 00 00 00 00
       0.0 0.0 0.0 0.0
000080 00 00 00 00 00 00 00 00 00 00 00 00 00 00 00 00
       0.0 0.0 0.0 0.0
000090 00 00 00 00 00 00 00 00 00 00 00 00 00 00 00 00
       0.0 0.0 0.0 0.0
0000a0 00 00 00 00 00 00 00 00 00 00 00 00 00 00 00 00
       0.0 0.0 0.0 0.0
0000b0 00 00 00 00 00 00 00 00 00 00 00 00 00 00 00 00
       0.0 0.0 0.0 0.0
0000c0 00 00 00 00 00 00 00 00 00 00 00 00 00 00 00 00
       0.0 0.0 0.0 0.0
0000d0 00 00 00 00 00 00 00 00 00 00 00 00 00 00 00 00
       0.0 0.0 0.0 0.0
0000e0 00 00 00 00 00 00 00 00 00 00 00 00 00 00 00 00
       0.0 0.0 0.0 0.0
0000f0 00 00 00 00 00 00 00 00 00 00 00 00 00 00 00 00
       0.0 0.0 0.0 0.0
000100 00 00 00 00 00 00 00 00 00 00 00 00 00 00 00 00
       0.0 0.0 0.0 0.0
000110 00 00 00 00 00 00 00 00 00 00 00 00 00 00 00 00
       0.0 0.0 0.0 0.0
000120 00 00 00 00 00 00 00 00 00 00 00 00 00 00 00 00
       0.0 0.0 0.0 0.0
000130 00 00 00 00 00 00 00 00 00 00 00 00 00 00 00 00
       0.0 0.0 0.0 0.0
000140 00 00 00 00 00 00 00 00 00 00 00 00 00 00 00 00
       0.0 0.0 0.0 0.0
000150 00 00 00 00 00 00 00 00 00 00 00 00 00 00 00 00
       0.0 0.0 0.0 0.0
000160 00 00 00 00 00 00 00 00 00 00 00 00 00 00 00 00
       0.0 0.0 0.0 0.0
000170 00 00 00 00 00 00 00 00 00 00 00 00 00 00 00 00
       0.0 0.0 0.0 0.0
000180 00 00 00 00 00 00 00 00 00 00 00 00 00 00 00 00
       0.0 0.0 0.0 0.0
000190 00 00 00 00 00 00 00 00 00 00 00 00 00 00 00 00
       0.0 0.0 0.0 0.0
0001a0 00 00 00 00 00 00 00 00 00 00 00 00 00 00 00 00
       0.0 0.0 0.0 0.0
0001b0 00 00 00 00 00 00 00 00 00 00 00 00 00 00 00 00
       0.0 0.0 0.0 0.0
0001c0 00 00 00 00 00 00 00 00 00 00 00 00 00 00 00 00
       0.0 0.0 0.0 0.0
0001d0 00 00 00 00 00 00 00 00 00 00 00 00 00 00 00 00
       0.0 0.0 0.0 0.0
0001e0 00 00 00 00 00 00 00 00 00 00 00 00 00 00 00 00
       0.0 0.0 0.0 0.0
0001f0 00 00 00 00 00 00 00 00 00 00 00 00 00 00 00 00
       0.0 0.0 0.0 0.0

value_heads.value_heads.extrinsic.weight f4 [1, 128]
000000 8a 14 c3 bd c2 27 ef bd 78 f8 f4 bc f6 b4 00 3e
       -0.09525402 -0.11677505 -0.029903635 0.12569031
000010 bc 48 d2 bd e8 53 cc 3c 9c 62 09 3d f4 f7 49 be
       -0.10267779 0.024942353 0.033541307 -0.19723493
000020 50 2e 0f 3c 7c 23 3a bd 94 06 cc 3d 24 a3 35 3e
       0.008739069 -0.045443997 0.09962192 0.17738014
000030 4c 59 04 bd 38 7f 26 3e 0c 99 02 bd c0 85 9d 3b
       -0.032311723 0.16259468 -0.031884238 0.004807204
000040 c0 53 4f 3b 58 c1 1c bd b8 f1 2d be 90 07 6b bc
       0.0031635612 -0.038270324 -0.1698674 -0.014345065
000050 78 2c d9 3d dc da 56 3e 08 12 a6 bd e0 f3 44 3d
       0.10604185 0.20981926 -0.08108908 0.04808414
000060 b0 23 e2 bc 0c 2c 35 be c6 cc 90 bd 46 d8 e8 bd
       -0.027604908 -0.17692584 -0.070703074 -0.11369376
000070 d8 0d d8 3d 64 de 50 be 8c c8 21 3e c4 d5 14 3e
       0.105495155 -0.20397335 0.15799159 0.1453467
000080 e8 9e 4d 3d 78 42 6d 3d 08 55 e0 3c 70 ba 4d 3d
       0.050200373 0.057924718 0.027384296 0.05022663
000090 04 52 cd 3d bc 97 c6 3d 40 a3 d0 3b aa 94 4a 3e
       0.10025409 0.0969691 0.006367117 0.19783273
0000a0 ab 9d c2 bd 00 4b 89 3c a2 16 a4 bd 40 98 65 3d
       -0.09502729 0.016759396 -0.08012129 0.0560534
0000b0 4a a1 35 be 70 96 6e 3d ec 60 10 3e a3 39 1e be
       -0.17737308 0.058248937 0.14099473 -0.15451674
0000c0 a0 86 09 bc ba ad 51 3e 88 e9 53 3e b6 69 48 3e
       -0.0083939135 0.20476428 0.20694554 0.19571576
0000d0 70 6a d2 3d 78 2a 09 3e 29 99 05 be 08 99 cd 3d
       0.102742076 0.13395107 -0.13046707 0.10038954
0000e0 7e 1d cd bd 66 00 0e be c0 ed 86 3c f8 20 d0 bd
       -0.10015391 -0.1386734 0.01647079 -0.10162538
0000f0 1c b4 37 be fe a1 15 3e fc c1 c7 3d f0 4f b2 bc
       -0.179398 0.14612576 0.097537965 -0.021766633
000100 84 d6 17 be 23 ae 51 be 00 4f 48 3c 56 ed 2a be
       -0.14827925 -0.20476584 0.012225866 -0.16692099
000110 60 31 84 bb ee 1e 1c 3e ea 37 da bd bd b6 08 be
       -0.0040342063 0.15246174 -0.10655196 -0.13350959
000120 f2 04 98 bd b8 2a bb 3d 1c 8e c6 3d 00 09 5f 3b
       -0.07422818 0.09139007 0.09695074 0.0034032464
000130 d8 38 af 3d c4 a1 c2 3d 08 95 7b 3d 1c fe 2a 3e
       0.08555764 0.095035106 0.061421424 0.16698498
000140 94 13 e5 3d 56 8e 04 3e 4c d1 bb 3d 18 47 cf bc
       0.11185375 0.12944922 0.091707796 -0.025302455
000150 c0 a9 4a 3e 36 35 8e bd 40 fd 17 3e 34 37 8f 3d
       0.19791317 -0.06943743 0.14842701 0.06992951
000160 7c 25 24 bd ec 93 17 bd 96 ae 01 3e c2 bf 11 be
       -0.04007481 -0.037006304 0.12664255 -0.14233306
000170 80 97 e3 bc 80 6a ad 3b d8 29 c0 3c 00 22 f0 3b
       -0.027782202 0.005292237 0.023457453 0.007328272
000180 da f3 3e be cc 63 88 3d 66 3a 4f 3e c2 01 38 3e
       -0.1864771 0.0665966 0.20237121 0.1796942
000190 61 58 e6 bd d4 33 5a bd f6 5f 5b be 2b 87 32 be
       -0.11247326 -0.053272083 -0.21423325 -0.17434375
0001a0 de 46 b9 bd 98 8c 78 3d 88 10 6b 3d 4b c8 26 be
       -0.0904672 0.060680956 0.057388812 -0.16287343
0001b0 c1 99 06 be 34 6f c0 3d e0 d7 2f be 00 ce c7 3c
       -0.1314459 0.0939621 -0.17172194 0.02439022
0001c0 d4 1f 59 3e 0e bd 48 3e f4 17 10 bd 78 b3 4d bd
       0.21203548 0.19603369 -0.035179093 -0.050219983
0001d0 28 2f 42 be d4 95 ba 3d 34 55 4d 3e 6c 07 d4 3d
       -0.18963301 0.09110609 0.20052034 0.10352978
0001e0 74 60 dd 3d a4 a0 e0 3d f0 a6 13 3d 68 65 ab 3d
       0.108094126 0.1096814 0.036047876 0.08368951
0001f0 68 52 56 3d 6c 39 3c 3e 6c f8 b5 bd d8 37 e4 bc
       0.052324682 0.1838128 -0.08885273 -0.02785866
