Client/results/ppo/MoveToGoal/MoveToGoal-0.pt (torch, 147410 bytes, 12 tensors)

network_body._body_endoder.seq_layers.0.weight f4 [128, 4]
000000 8e c3 9e bf d6 e8 e0 3d b8 59 44 3e 80 94 0f bf
       -1.2403429 0.1098191 0.1917485 -0.5608597
000010 8d 45 4f be ca 08 00 3f d2 00 87 bf aa 2b 1e 3e
       -0.20241375 0.5001341 -1.0547125 0.15446344
000020 b2 35 b1 be c1 e6 85 3f 27 7b cb 3e 1a c7 ce be
       -0.3461128 1.0461046 0.39742395 -0.40386277
000030 f9 7e 19 bf 05 07 a4 be 92 96 3f 3e 4a 53 b3 3e
       -0.5995937 -0.32036605 0.18709782 0.35024482
000040 e6 2e 4c 3e 0e a6 d6 3d 10 0a 3c 3e c6 1f 97 be
       0.19939765 0.10480891 0.18363214 -0.2951643
000050 9d 46 2a bd 3f 46 4f bf 54 26 27 3e db 64 17 be
       -0.04157125 -0.8096656 0.16323215 -0.14784567
000060 d1 89 f9 be be fa dc 3e c8 60 db bd 49 26 e9 3d
       -0.48737958 0.4316005 -0.10711819 0.113842554
000070 7c 3b 96 be 89 ef a0 be 45 2f 81 3e ab eb 16 bf
       -0.29342258 -0.3143275 0.25231376 -0.5895335
000080 5f bb 05 3f 1f 86 40 3c d6 47 17 3e 7f 21 be 3e
       0.5223903 0.011750727 0.14773497 0.3713493
000090 70 4b 0a bd 50 aa ec bd 81 a1 15 3f bf 84 b0 3e
       -0.03376335 -0.11555922 0.5844956 0.34476277
0000a0 b9 5d 79 bd a7 c0 eb 3e 23 8c fc be 6c a3 9c 3f
       -0.060880397 0.4604542 -0.49325666 1.2237372
0000b0 8f 8e 66 bf 01 69 2d 3f af 52 9a 3e c1 32 18 bf
       -0.9006128 0.6773835 0.30141208 -0.59452444
0000c0 86 37 c7 3e 08 da 41 3e 81 15 83 bf 0c a3 01 bf
       0.3890955 0.18930829 -1.0240937 -0.50639415
0000d0 f0 67 c7 be 01 03 15 bf 33 02 ba be 56 43 59 3f
       -0.38946486 -0.5820771 -0.36329803 0.8486837
0000e0 87 d8 91 be 5c b7 d1 be d8 09 44 3f 45 9c d3 bd
       -0.2848551 -0.40960205 0.7657752 -0.103325404
0000f0 b7 50 8c be f8 94 1e be 1f 22 b7 be ca ee 0c bf
       -0.2740533 -0.15486515 -0.3576822 -0.55051863
000100 bc 02 1c 3f 89 4c 09 3e 90 56 51 3e 1f 58 be 3e
       0.6094167 0.13408102 0.20443177 0.37176606
000110 25 b6 c3 3e 6a 67 1f bf 9b 00 b8 bd 9a d5 a9 be
       0.38224903 -0.6226717 -0.089844905 -0.33170778
000120 53 54 0a bf cf 11 04 bf 35 69 12 be 68 a3 cc bd
       -0.5403492 -0.51589674 -0.14297946 -0.09992105
000130 a0 56 4e 3e 5a 06 ec 3d 26 18 e6 3e 0d e5 02 bf
       0.20150232 0.11524649 0.449403 -0.51130754
000140 b2 86 f3 3e 8d 50 b2 bf e0 e5 3d be 62 0c 33 bd
       0.47563702 -1.3930832 -0.18544722 -0.04371298
000150 c9 48 7b bf 1c f4 4d 3e 1e 00 1f bf b8 24 ae 3d
       -0.98157936 0.20112652 -0.62109554 0.08503097
000160 4e 5c 2a 3e ed 3d 12 3f ee 27 e8 3e e2 ef c0 be
       0.16636774 0.5712574 0.45342964 -0.37683016
000170 c8 04 85 3d 2b 13 5e bf b0 3e 67 3f 62 54 2e 3f
       0.064950526 -0.86748 0.9033003 0.6809751
000180 d3 57 24 3e 05 eb 4a be 27 80 2d be fd 40 5d be
       0.16049127 -0.19816215 -0.16943417 -0.21606822
000190 d0 6a 88 be 19 07 87 bf 6b 06 b0 3e fa cc e6 3e
       -0.2664399 -1.0549041 0.34379897 0.4507826
0001a0 a1 fe 00 3f de 86 10 be d3 f7 ff be 13 c4 8c bf
       0.5038853 -0.14113948 -0.49993762 -1.0997337
0001b0 bd 16 57 3e a5 d4 f4 3e da 05 44 bd 16 a6 1c bf
       0.21004768 0.47818485 -0.047857143 -0.6119093
0001c0 89 5f 43 3f 56 bb ab be 66 60 36 3f 54 8f d4 be
       0.7631765 -0.33541363 0.7124084 -0.415156
0001d0 27 b3 dc be 17 72 29 be aa 7e c5 be 53 ce 2e 3e
       -0.43105432 -0.16547428 -0.385732 0.17070894
0001e0 d8 94 59 3e 56 ee 77 3e fc 64 b1 3f 59 4a cb 3d
       0.21248186 0.24212012 1.3858943 0.0992629
0001f0 50 c2 cf 3d 8e 45 93 3f eb 58 a3 be 5d 3f 90 3d
       0.10144484 1.1505601 -0.31903777 0.070433356
000200 ef 0a 2b be 4b 12 1f 3e 15 c0 51 3d ce 26 f8 be
       -0.1670339 0.15534322 0.051208574 -0.48467106
000210 58 3c 89 be bc 4f 41 3e 83 e0 87 bd ce 81 e8 bd
       -0.2680385 0.18878073 -0.06634619 -0.11352883
000220 c7 34 b9 be e9 eb e9 3d e8 42 43 be 05 a8 2c bf
       -0.36173078 0.114219494 -0.19068491 -0.6744388
000230 7a 5d a7 3e c8 d8 14 3e 63 97 e5 3e 2a 92 b7 3d
       0.32688504 0.1453582 0.4484206 0.089634255
000240 34 4a 87 bf 31 34 dc be 7c 6a 3a bd 51 a6 d5 3e
       -1.056952 -0.4300857 -0.045511708 0.41728452
000250 0f 00 07 bf 59 21 87 bf 46 eb 12 be b9 3d d3 be
       -0.52734464 -1.0557052 -0.14347562 -0.41258028
000260 5a 2e b6 3c 64 28 0e bf 1a cd 8c bf ee 42 c8 3d
       0.022238899 -0.5553038 -1.1000092 0.09778391
000270 a2 2b cb bc fa 42 04 be f9 07 1c bf 92 26 32 3f
       -0.02480108 -0.12916175 -0.60949665 0.69590104
000280 fb 19 3c 3d 0b 07 8f 3e 42 09 2f bf b0 d2 01 3f
       0.045923214 0.2793506 -0.683735 0.5071211
000290 68 36 85 bf e6 77 f7 be 20 45 2c 3f 63 d2 d5 3d
       -1.0407228 -0.48333663 0.67292976 0.10440519
0002a0 57 b7 0b bf 62 88 13 3e ca 1f 36 3f 4f 25 2f bf
       -0.5457663 0.14407495 0.71142256 -0.68416303
0002b0 2c 2f d9 be 7c 31 e8 bb d7 ae 9d 3e c3 fc 08 be
       -0.42418802 -0.007085977 0.30797455 -0.13377671
0002c0 9b e3 d4 3e 72 c0 ff 3d 9a 23 dc be 67 55 65 3e
       0.415799 0.12487878 -0.42995912 0.2239586
0002d0 34 48 23 3d 92 ff da bd e4 90 8d be 72 59 b9 3b
       0.03986378 -0.106932774 -0.27649605 0.0056564147
0002e0 0e 70 20 3e 79 69 9f 3d 83 63 8a 3e 26 ca 3c 3e
       0.15667745 0.07783789 0.27029046 0.18436489
0002f0 b9 df b7 3e 60 0f f6 be 9e 28 31 3e 45 26 80 be
       0.35912874 -0.48058605 0.1730065 -0.25029197
000300 43 2c 30 be 01 5f 57 bf 47 8d a0 3f 0d e5 28 be
       -0.17204385 -0.8412934 1.2543114 -0.16493626
000310 41 a1 67 bd d2 42 2a 3f 29 2b 62 3e db 45 69 bd
       -0.056550268 0.6650821 0.22086777 -0.056951385
000320 45 15 2e bf 72 b0 9a bd 0c c9 65 be 51 b1 6e bc
       -0.68001205 -0.075531855 -0.22439975 -0.014568643
000330 0f c7 c4 3e cd d2 13 3f 3a 99 a5 3e 8f 63 e1 be
       0.3843312 0.5774353 0.32343465 -0.4402127
000340 07 40 79 3e 39 29 1a 3f 79 ab 6e 3e 07 de 81 3f
       0.2434083 0.6021915 0.23307599 1.0145882
000350 54 aa 93 3e c8 ce 21 3f 6e 02 dc be ad d7 fd 3e
       0.28840888 0.6320615 -0.42970604 0.4957861
000360 e8 19 18 bf 6b c8 9a be 80 5f 55 3f 9b cf bb be
       -0.5941453 -0.30231032 0.83348846 -0.36681828
000370 2b 41 12 3f e9 eb e7 3e 58 c6 c1 bd 00 bf 81 be
       0.5713069 0.45297173 -0.09461659 -0.25341034
000380 f7 0c 4d 3c ce e9 c2 bd 02 e9 16 bf e1 77 30 3f
       0.012515298 -0.09517251 -0.5894929 0.6893292
000390 20 60 c7 be 77 3f 31 3f 3c f0 29 3f 58 c9 ee 3e
       -0.38940525 0.69237465 0.66382194 0.46637988
0003a0 3e d6 3f bc eb e2 42 bf f3 77 f4 be c1 7c 7b bf
       -0.011708794 -0.761275 -0.47747764 -0.98237234
0003b0 de 0c 76 3e 84 61 c7 3d 7b bb 42 3f 83 d7 30 be
       0.24028346 0.097353965 0.7606732 -0.17269711
0003c0 c9 d6 71 3e d3 b9 63 be d6 47 18 bf 11 2d e8 be
       0.2361709 -0.22238855 -0.5948461 -0.45346883
0003d0 cb 4c 59 bf 75 56 26 bc 05 56 8d be c7 2b 2f 3e
       -0.848828 -0.010152449 -0.2760469 0.17106543
0003e0 0a 5d 9e 3d ca 76 fc 3e d2 5f 38 3e 5e 8a 2b be
       0.077325895 0.4930938 0.18005303 -0.16752002
0003f0 7a 16 26 bf 0b a8 9e 3f ec ad 2a 3f a7 b4 a1 3e
       -0.64878047 1.2395033 0.66671634 0.3158314

network_body._body_endoder.seq_layers.0.bias f4 [128]
000000 00 00 00 00 00 00 00 00 00 00 00 00 00 00 00 00
       0.0 0.0 0.0 0.0
000010 00 00 00 00 00 00 00 00 00 00 00 00 00 00 00 00
       0.0 0.0 0.0 0.0
000020 00 00 00 00 00 00 00 00 00 00 00 00 00 00 00 00
       0.0 0.0 0.0 0.0
000030 00 00 00 00 00 00 00 00 00 00 00 00 00 00 00 00
       0.0 0.0 0.0 0.0
000040 00 00 00 00 00 00 00 00 00 00 00 00 00 00 00 00
       0.0 0.0 0.0 0.0
000050 00 00 00 00 00 00 00 00 00 00 00 00 00 00 00 00
       0.0 0.0 0.0 0.0
000060 00 00 00 00 00 00 00 00 00 00 00 00 00 00 00 00
       0.0 0.0 0.0 0.0
000070 00 00 00 00 00 00 00 00 00 00 00 00 00 00 00 00
       0.0 0.0 0.0 0.0
000080 00 00 00 00 00 00 00 00 00 00 00 00 00 00 00 00
       0.0 0.0 0.0 0.0
000090 00 00 00 00 00 00 00 00 00 00 00 00 00 00 00 00
       0.0 0.0 0.0 0.0
0000a0 00 00 00 00 00 00 00 00 00 00 00 00 00 00 00 00
       0.0 0.0 0.0 0.0
0000b0 00 00 00 00 00 00 00 00 00 00 00 00 00 00 00 00
       0.0 0.0 0.0 0.0
0000c0 00 00 00 00 00 00 00 00 00 00 00 00 00 00 00 00
       0.0 0.0 0.0 0.0
0000d0 00 00 00 00 00 00 00 00 00 00 00 00 00 00 00 00
       0.0 0.0 0.0 0.0
0000e0 00 00 00 00 00 00 00 00 00 00 00 00 00 00 00 00
       0.0 0.0 0.0 0.0
0000f0 00 00 00 00 00 00 00 00 00 00 00 00 00 00 00 00
       0.0 0.0 0.0 0.0
000100 00 00 00 00 00 00 00 00 00 00 00 00 00 00 00 00
       0.0 0.0 0.0 0.0
000110 00 00 00 00 00 00 00 00 00 00 00 00 00 00 00 00
       0.0 0.0 0.0 0.0
000120 00 00 00 00 00 00 00 00 00 00 00 00 00 00 00 00
       0.0 0.0 0.0 0.0
000130 00 00 00 00 00 00 00 00 00 00 00 00 00 00 00 00
       0.0 0.0 0.0 0.0
000140 00 00 00 00 00 00 00 00 00 00 00 00 00 00 00 00
       0.0 0.0 0.0 0.0
000150 00 00 00 00 00 00 00 00 00 00 00 00 00 00 00 00
       0.0 0.0 0.0 0.0
000160 00 00 00 00 00 00 00 00 00 00 00 00 00 00 00 00
       0.0 0.0 0.0 0.0
000170 00 00 00 00 00 00 00 00 00 00 00 00 00 00 00 00
       0.0 0.0 0.0 0.0
000180 00 00 00 00 00 00 00 00 00 00 00 00 00 00 00 00
       0.0 0.0 0.0 0.0
000190 00 00 00 00 00 00 00 00 00 00 00 00 00 00 00 00
       0.0 0.0 0.0 0.0
0001a0 00 00 00 00 00 00 00 00 00 00 00 00 00 00 00 00
       0.0 0.0 0.0 0.0
0001b0 00 00 00 00 00 00 00 00 00 00 00 00 00 00 00 00
       0.0 0.0 0.0 0.0
0001c0 00 00 00 00 00 00 00 00 00 00 00 00 00 00 00 00
       0.0 0.0 0.0 0.0
0001d0 00 00 00 00 00 00 00 00 00 00 00 00 00 00 00 00
       0.0 0.0 0.0 0.0
0001e0 00 00 00 00 00 00 00 00 00 00 00 00 00 00 00 00
       0.0 0.0 0.0 0.0
0001f0 00 00 00 00 00 00 00 00 00 00 00 00 00 00 00 00
       0.0 0.0 0.0 0.0

network_body._body_endoder.seq_layers.2.weight f4 [128, 128]
000000 98 e8 98 3b 55 32 8a bd ae 9f 65 be f3 46 fa bd
       0.004666399 -0.06747881 -0.22424194 -0.12220564
000010 a4 0d f3 bb 07 a9 c0 3d ee d6 77 3e f3 5e 35 3e
       -0.0074173976 0.094072394 0.24203083 0.17712002
000020 fc de a8 bd cd 20 a7 bd 76 d1 55 3d d6 79 fb 3c
       -0.08245656 -0.08160553 0.05220171 0.030697744
000030 f4 11 cd bd c4 b1 1f 3e 65 a1 e8 bb bf 8b 4c 3d
       -0.1001319 0.15595156 -0.007099318 0.04993796
000040 15 15 37 3d 3f b5 95 3d ee 09 8f 3d ee 83 92 3d
       0.04469784 0.073099606 0.06984316 0.0715407
000050 d6 c6 63 bd da 60 c6 bd b8 86 35 3c 40 4e 87 bd
       -0.055609547 -0.09686442 0.011079483 -0.06606722
000060 88 17 8d bd 8a 4d 79 3d 56 80 7e 3c 3e 57 90 3d
       -0.06889254 0.060864963 0.015533527 0.0704789
000070 bd ca 1a 3e ad ec 9b bd 2d 2b 5c 3d 9b 1e b0 bc
       0.15116401 -0.07613502 0.053752113 -0.021498969
000080 46 13 ce 3d 16 be 96 3d 72 68 03 3e 56 25 eb bd
       0.1006227 0.07360475 0.12832811 -0.11481731
000090 da 90 16 bc fd 34 da 3c c6 8e 29 3d 4e f8 9b 3d
       -0.009189809 0.026636595 0.041395925 0.0761572
0000a0 c5 1d b3 bd db 51 ef 3d d9 cc cc bb 7c 06 42 3d
       -0.087459125 0.116855346 -0.0062500057 0.047369465
0000b0 a1 20 1d 3e 5a f0 b9 3d 3e 5d e8 bd 2f 75 06 be
       0.15344478 0.090790465 -0.113459095 -0.1313064
0000c0 07 ba 15 be 43 a1 24 bd 61 a1 8f bb ff cc 19 3e
       -0.14621745 -0.040192854 -0.0043832515 0.15019606
0000d0 57 f2 17 3e 0c 32 13 3c 21 af 93 3d 1c 01 f1 3c
       0.14838539 0.0089841 0.072111376 0.029419474
0000e0 62 60 a1 3d a9 e7 f9 bd 12 00 82 bd 69 22 18 3d
       0.07879712 -0.12202389 -0.0634767 0.03714219
0000f0 64 6e c8 3d 73 58 94 3d 03 30 c7 bd cc 98 26 3d
       0.0978668 0.07243433 -0.097259544 0.040673062
000100 8a 8f 04 3d 4e 3b 7f 3d 87 ed 15 3d 6f 23 14 bd
       0.032363452 0.062312417 0.036603477 -0.036166605
000110 b1 ad d1 3d b3 5f 96 3d 41 f3 d2 3b 63 6c 35 3d
       0.10238207 0.07342472 0.0064376895 0.04429282
000120 dc 85 a4 bc 16 cf 40 3e 9c 41 91 bd a7 93 8c bd
       -0.02008336 0.18828997 -0.07092592 -0.068641
000130 67 2e 1c be 8e 01 d7 bd 52 51 68 3d 65 2b b7 bc
       -0.15252076 -0.104983434 0.056718178 -0.02235956
000140 d3 42 91 bd 28 de 5e bd a4 6f 49 bc 6d 22 fe bd
       -0.07092824 -0.054411083 -0.012294684 -0.1240891
000150 0d 59 bb bd 33 b0 7d 3d bd c8 a0 3d 9a d8 84 3d
       -0.091478445 0.061935615 0.07850788 0.06486626
000160 20 2b 9c ba 4a 98 90 3d c9 98 01 bc 94 fa 3b bd
       -0.0011914708 0.07060297 -0.007909962 -0.045893267
000170 fd fb 0e be d5 26 10 3e c9 c2 38 bb 56 89 3f 3d
       -0.13963313 0.14077313 -0.0028192273 0.046761833
000180 8b cf 3b 3e d3 17 1d 3d cc e3 2b 3d 66 c5 ee bb
       0.1834089 0.0383528 0.04196529 -0.0072867153
000190 a3 60 8f bd a2 e4 33 3c 8b 41 ec bd 75 ee bf bc
       -0.07000854 0.010979803 -0.11535939 -0.023429135
0001a0 6b f1 1b 3d 97 70 b2 bd 96 87 c3 bc 2a a4 14 be
       0.03807203 -0.08712881 -0.023868363 -0.14515749
0001b0 65 19 4d bc 98 d7 00 be 88 bb d6 3d 20 23 8b 3d
       -0.012518262 -0.12582242 0.104849875 0.06793809
0001c0 71 3b 36 bd 60 b9 af bd 27 76 e2 b9 ea a1 a3 3c
       -0.04449028 -0.08580279 -0.0004319411 0.019974668
0001d0 c1 3e 21 be 46 3b 21 3d 90 18 25 3e 83 96 90 3d
       -0.15746595 0.03936317 0.16122651 0.07059958
0001e0 b9 49 9f 3d 06 ab 82 3c 3f e9 f9 3c f3 4b 62 3d
       0.07777733 0.015950691 0.030506728 0.055248212
0001f0 8b 29 7b bd f9 89 82 3c 9f c2 a3 3d 9f 24 63 bc
       -0.061318915 0.015934931 0.079961054 -0.013863712
000200 6d 13 a6 3d 7e 39 65 3e ca a7 9e bd 92 48 0d 3e
       0.08109174 0.22385213 -0.07746847 0.13797215
000210 86 fa c7 3c e9 1b 66 bd 84 ba 5e bc d0 07 7a 3d
       0.024411451 -0.05617896 -0.0135942735 0.061042607
000220 42 7f d0 bd 25 41 b9 3a 40 fb 02 3d a3 ab 80 bd
       -0.101805225 0.0014133794 0.031977892 -0.06282737
000230 a5 ac ba 3c 15 8e 3f 3e ba 36 b4 bd 08 36 01 bc
       0.022787401 0.18706544 -0.08799501 -0.007886417
000240 42 e8 9d 3d 9e 46 4a bd 80 d2 c8 3d 5b 73 ec bc
       0.07710315 -0.049383752 0.09805775 -0.0288636
000250 77 37 f6 bc 30 7e bb bd f5 58 a8 3d 15 f3 57 bd
       -0.030055745 -0.09154928 0.08220092 -0.052722055
000260 a0 b1 54 bd 6d 2a 5e 3d 88 2d 78 bd ee 02 c4 3d
       -0.05192721 0.05423968 -0.060590297 0.09570871
000270 6e ec 44 3d 73 ef 86 3d d4 15 d4 3d 6f 55 cb 3d
       0.04807704 0.0658864 0.10355726 0.099284045
000280 aa 5b c9 3d 0c 6a 67 bd 0c 53 94 3d e8 ba 7b 3d
       0.09831937 -0.05649762 0.072424024 0.061457545
000290 74 13 46 be cb b1 83 bc 37 26 2c be 35 46 c7 bc
       -0.19343358 -0.01607599 -0.16811453 -0.02432547
0002a0 c3 15 ac 3a 63 98 ec bc a4 77 17 be ab 0c df 3c
       0.0013129044 -0.028881257 -0.14791733 0.02722772
0002b0 39 c8 97 3c f5 fc 3c 3d df 2b c7 3d 75 39 9b bd
       0.01852809 0.046139676 0.097251646 -0.075793184
0002c0 19 0e e0 bc cb 14 57 3e 0c ce 59 3d b8 84 1a 3d
       -0.027350472 0.21004026 0.053175017 0.037724227
0002d0 9a 41 52 bc 7a 73 b2 bd f2 cc 97 39 e4 5e 79 3c
       -0.012833023 -0.08713432 0.0002895366 0.015220378
0002e0 1b 3e 0c 3d 34 0c b9 bd f5 e2 56 3d 41 11 84 3d
       0.034238916 -0.09035531 0.052462537 0.064486034
0002f0 33 f9 4a bd 62 2a f1 bd 2f 7f 6a bd c1 1a 59 3c
       -0.04955406 -0.11775662 -0.057250198 0.013251008
000300 d8 7c af 3d ab c3 1b 3d 5f e2 9e bd b3 8c 37 3e
       0.08568734 0.0380284 -0.077580206 0.17924766
000310 53 e9 21 bd 76 02 e3 bb f2 d1 ac 3d a2 84 ce 3d
       -0.039529156 -0.0069277836 0.084384814 0.100838915
000320 34 66 68 3b df a7 f2 bd 59 20 b5 3d 00 d8 f3 3c
       0.0035461308 -0.11848425 0.088440605 0.029766083
000330 4c 69 00 bd 20 bd 25 3d a0 7a 13 bd 91 d1 28 bd
       -0.03135042 0.040463567 -0.036005616 -0.041215483
000340 1e 9f 2d bd 34 d1 f4 3c 93 26 b2 3d f5 d6 6a 3b
       -0.042388074 0.029884912 0.08698764 0.003583369
000350 e0 a0 83 bd 09 cf a2 bd 91 89 8c bc 95 10 92 bb
       -0.06427169 -0.07949645 -0.01715544 -0.004457543
000360 5e 30 62 3d 7a 2a b2 3c ba 25 74 3b 06 37 e0 bd
       0.055221908 0.02174877 0.0037253932 -0.10947995
000370 59 f2 8d 3a 3f 07 d7 3c 45 8c 81 3c 81 f3 bb bb
       0.0010829672 0.026248572 0.015813956 -0.005735815
000380 d7 85 c3 bd 44 df ec 3d 30 71 0b 3e d9 33 b1 bd
       -0.09547012 0.11566022 0.13617396 -0.08652467
000390 7f 60 44 bd 24 2f 07 3d 5d 99 eb 3d 28 5f 2b 3c
       -0.04794359 0.03300394 0.11503861 0.010459699
0003a0 b0 8a 95 bd 40 47 49 bd 0b a4 48 bd c2 7f 03 3e
       -0.07301843 -0.049140215 -0.04898457 0.12841704
0003b0 37 c8 a1 bd 16 e5 0a 3e 7b ce 1e 3e 4c 4e 6b be
       -0.07899516 0.13563952 0.15508454 -0.22979087
0003c0 d1 f6 88 bc 97 c7 86 3c 59 23 d2 3b af 3b a4 3d
       -0.016719254 0.016452594 0.006412905 0.08019196
0003d0 dd 0c a7 3d 2c 4f 42 3e 68 8f 3e 3d 62 2d f9 3d
       0.0815675 0.18975514 0.04652348 0.12166859
0003e0 8a 2c 9c bd 97 3a ee bd 35 86 b8 3c bf ba bf 3d
       -0.07625683 -0.11632269 0.022524932 0.09361791
0003f0 55 e8 98 bb 8e 6c d9 bc 35 28 43 3b 0a a4 d4 3c
       -0.004666368 -0.02654102 0.0029778604 0.025957126

network_body._body_endoder.seq_layers.2.bias f4 [128]
000000 00 00 00 00 00 00 00 00 00 00 00 00 00 00 00 00
       0.0 0.0 0.0 0.0
000010 00 00 00 00 00 00 00 00 00 00 00 00 00 00 00 00
       0.0 0.0 0.0 0.0
000020 00 00 00 00 00 00 00 00 00 00 00 00 00 00 00 00
       0.0 0.0 0.0 0.0
000030 00 00 00 00 00 00 00 00 00 00 00 00 00 00 00 00
       0.0 0.0 0.0 0.0
000040 00 00 00 00 00 00 00 00 00 00 00 00 00 00 00 00
       0.0 0.0 0.0 0.0
000050 00 00 00 00 00 00 00 00 00 00 00 00 00 00 00 00
       0.0 0.0 0.0 0.0
000060 00 00 00 00 00 00 00 00 00 00 00 00 00 00 00 00
       0.0 0.0 0.0 0.0
000070 00 00 00 00 00 00 00 00 00 00 00 00 00 00 00 00
       0.0 0.0 0.0 0.0
000080 00 00 00 00 00 00 00 00 00 00 00 00 00 00 00 00
       0.0 0.0 0.0 0.0
000090 00 00 00 00 00 00 00 00 00 00 00 00 00 00 00 00
       0.0 0.0 0.0 0.0
0000a0 00 00 00 00 00 00 00 00 00 00 00 00 00 00 00 00
       0.0 0.0 0.0 0.0
0000b0 00 00 00 00 00 00 00 00 00 00 00 00 00 00 00 00
       0.0 0.0 0.0 0.0
0000c0 00 00 00 00 00 00 00 00 00 00 00 00 00 00 00 00
       0.0 0.0 0.0 0.0
0000d0 00 00 00 00 00 00 00 00 00 00 00 00 00 00 00 00
       0.0 0.0 0.0 0.0
0000e0 00 00 00 00 00 00 00 00 00 00 00 00 00 00 00 00
       0.0 0.0 0.0 0.0
0000f0 00 00 00 00 00 00 00 00 00 00 00 00 00 00 00 00
       0.0 0.0 0.0 0.0
000100 00 00 00 00 00 00 00 00 00 00 00 00 00 00 00 00
       0.0 0.0 0.0 0.0
000110 00 00 00 00 00 00 00 00 00 00 00 00 00 00 00 00
       0.0 0.0 0.0 0.0
000120 00 00 00 00 00 00 00 00 00 00 00 00 00 00 00 00
       0.0 0.0 0.0 0.0
000130 00 00 00 00 00 00 00 00 00 00 00 00 00 00 00 00
       0.0 0.0 0.0 0.0
000140 00 00 00 00 00 00 00 00 00 00 00 00 00 00 00 00
       0.0 0.0 0.0 0.0
000150 00 00 00 00 00 00 00 00 00 00 00 00 00 00 00 00
       0.0 0.0 0.0 0.0
000160 00 00 00 00 00 00 00 00 00 00 00 00 00 00 00 00
       0.0 0.0 0.0 0.0
000170 00 00 00 00 00 00 00 00 00 00 00 00 00 00 00 00
       0.0 0.0 0.0 0.0
000180 00 00 00 00 00 00 00 00 00 00 00 00 00 00 00 00
       0.0 0.0 0.0 0.0
000190 00 00 00 00 00 00 00 00 00 00 00 00 00 00 00 00
       0.0 0.0 0.0 0.0
0001a0 00 00 00 00 00 00 00 00 00 00 00 00 00 00 00 00
       0.0 0.0 0.0 0.0
0001b0 00 00 00 00 00 00 00 00 00 00 00 00 00 00 00 00
       0.0 0.0 0.0 0.0
0001c0 00 00 00 00 00 00 00 00 00 00 00 00 00 00 00 00
       0.0 0.0 0.0 0.0
0001d0 00 00 00 00 00 00 00 00 00 00 00 00 00 00 00 00
       0.0 0.0 0.0 0.0
0001e0 00 00 00 00 00 00 00 00 00 00 00 00 00 00 00 00
       0.0 0.0 0.0 0.0
0001f0 00 00 00 00 00 00 00 00 00 00 00 00 00 00 00 00
       0.0 0.0 0.0 0.0

action_model._continuous_distribution.log_sigma f4 [1, 2]
000000 00 00 00 00 00 00 00 00
       0.0 0.0

action_model._continuous_distribution.mu.weight f4 [2, 128]
000000 98 d0 ae bb 65 f6 2e 3b bd e0 55 bc 67 37 df 3b
       -0.005334925 0.0026697156 -0.01305407 0.0068120244
000010 a5 f2 98 3b 40 62 41 bc 16 dc 3d 3b cb 3f 25 bd
       0.0046675974 -0.01180321 0.0028970293 -0.04034404
000020 cc f6 22 bb dc f9 3f bd 87 9f 9b 3c 3b 58 95 3a
       -0.002486634 -0.046869144 0.018996967 0.0011394093
000030 2f 59 4e bc 92 d0 25 bd f2 a9 cd bc ab 54 9d bc
       -0.012594505 -0.04048211 -0.02510545 -0.019205412
000040 3a 7c e1 3c 1f c8 a8 bb aa 29 d6 bc cb 84 05 3d
       0.027525056 -0.0051508094 -0.026142914 0.032597344
000050 75 2f 8f bc c7 a8 8a 39 05 91 d8 3b 58 b0 87 3c
       -0.017478684 0.0002644716 0.0066090846 0.01656358
000060 3f 74 73 bc 77 ce 3c 3c 28 da 8a 3c df eb c4 bb
       -0.014859258 0.011523834 0.016949728 -0.0060095633
000070 0c 0e 42 bc 1e 65 06 bc b4 47 04 3c 37 82 27 bb
       -0.011844169 -0.008202819 0.008073736 -0.0025559792
000080 52 04 22 bd 94 e1 48 3c f3 82 da 3a c7 1a 14 bc
       -0.0395549 0.012260813 0.0016671106 -0.009039587
000090 d5 08 2d 3b a2 de 5c 3c 95 b8 41 bd c7 b4 ca bb
       0.002640297 0.013480814 -0.04729517 -0.006186101
0000a0 e2 ca ee 3b 63 52 88 bc ed 28 ae bc 4f d8 8d bc
       0.007287369 -0.016640848 -0.02125975 -0.017315058
0000b0 59 93 9a 3c 19 d2 81 bc 88 07 f6 3a 85 71 2f bc
       0.018869089 -0.015847253 0.0018770555 -0.0107082175
0000c0 95 fd 4b bc 98 93 ff bc 27 30 d3 bc 1d b6 70 bc
       -0.012450595 -0.031198308 -0.025779797 -0.014691857
0000d0 da 2e fc 39 03 7f 0a bd 00 cb e2 bc ca d2 95 3b
       0.00048100093 -0.033812534 -0.027684689 0.004572247
0000e0 25 88 35 3a 83 50 e8 bb d7 f6 72 bc 75 39 19 3d
       0.0006924889 -0.007089676 -0.014829359 0.03740831
0000f0 3b 03 b1 bb 0f 75 a2 bc 80 98 27 3d e7 a5 3f bc
       -0.0054019964 -0.019831209 0.04091692 -0.011697269
000100 37 24 a4 3c 13 f2 11 3c 32 12 cd bc 27 b1 18 3d
       0.0200368 0.008907813 -0.02503309 0.03727832
000110 cd 1b ad 3c 6a 43 6d bc b9 ba a8 3c 1d 38 b7 3b
       0.02113142 -0.014481405 0.020596849 0.005591406
000120 e7 81 39 bc 40 e5 64 3c ef d6 9e bc 28 c9 79 3c
       -0.011322475 0.013970673 -0.019389598 0.015245713
000130 de de a6 bc 03 d4 04 bd ef 6e 42 bc 17 6b 35 bc
       -0.020369943 -0.032428753 -0.011867269 -0.0110728955
000140 21 f5 23 bc 26 b7 01 bc 15 b4 12 3c 4e c5 96 bc
       -0.010007174 -0.007917201 0.008954068 -0.01840463
000150 18 fb 39 3c a2 90 ea 3c 5d d4 8a 3c 9d 8b 82 bc
       0.011351369 0.02863342 0.016946966 -0.015935713
000160 4a 10 99 bc b8 5d 03 3c 0b 18 ce bc 8a 2b e6 3c
       -0.018684525 0.00801795 -0.025157949 0.028096933
000170 85 b8 2c 3b 95 d3 84 bc 48 cd f7 b9 fb 20 72 bc
       0.00263551 -0.016214171 -0.00047264458 -0.014778371
000180 cd 26 47 3c f0 04 64 bc 97 1a 4c 3b cf 90 84 bc
       0.012155247 -0.013917193 0.0031143778 -0.016182331
000190 2f 0c 7b 3c c8 8f 3b 3c 6b 47 b5 3b 7f 35 4d bc
       0.015322729 0.011447854 0.0055321953 -0.0125249615
0001a0 24 e2 4b bc af 55 b2 3a 87 81 b4 bc 03 a0 83 3b
       -0.012444053 0.0013605858 -0.02203442 0.0040168776
0001b0 a3 88 ca 3c 30 da 7c 3c ca 26 fa 3b c0 d4 00 3c
       0.024723357 0.015432879 0.0076340185 0.007863224
0001c0 08 f8 8e 3c 3e 57 1f bc a5 44 64 3c c8 1a 99 3c
       0.017452255 -0.00972539 0.013932382 0.018689528
0001d0 2e 78 23 bc 0a 34 a7 bc b4 54 3a 3c df 80 29 3c
       -0.009977384 -0.020410556 0.011372734 0.010345667
0001e0 33 a1 63 39 8c ee 00 bc a5 26 d6 bb 83 71 1e ba
       0.00021708458 -0.007869374 -0.0065353685 -0.0006044136
0001f0 b1 43 2c 3c c0 20 30 bd 0e a9 ad bc ad 6a 63 3b
       0.010514186 -0.042999983 -0.021198776 0.0034701035
000200 b0 bf e3 3b 47 c3 8a 3c 4e cf 34 3c d0 eb 6f bc
       0.006950341 0.016938819 0.011035753 -0.014643624
000210 76 d2 89 bb 5f 1f 26 3c 55 a2 d8 3c 8c b8 4a 3c
       -0.004205997 0.010139315 0.026444593 0.012373101
000220 eb 69 5b 3b 50 67 54 3c 2b b7 00 bd bd be 80 3c
       0.003347988 0.012964085 -0.031424683 0.015715951
000230 c1 4d c1 bc 7a dc b4 bc 97 41 87 3a 0c d7 a8 3c
       -0.023596646 -0.022077788 0.001031923 0.020610355
000240 b8 23 51 3c 25 27 83 3c 99 35 88 3c 05 cb 9e 3c
       0.012764864 0.016009877 0.01662712 0.019383917
000250 fa 66 b8 3c a3 0f bc 3b f8 5b 55 bb 55 43 32 3c
       0.02251004 0.0057391687 -0.0032556038 0.010880311
000260 9f 40 73 bc 02 a8 60 bc 68 be 7f 3c 82 0b 32 3c
       -0.01484695 -0.013711931 0.015609361 0.0108670015
000270 e4 c9 b0 bc a2 31 b4 bb 49 5b a9 bb 79 52 a4 3c
       -0.021580644 -0.0054990808 -0.0051683527 0.020058857
000280 23 7a 21 bc f3 1f a4 bb f3 57 15 3d b0 13 96 3c
       -0.00985578 -0.0050086915 0.036460828 0.018319935
000290 cd 31 58 3a 29 1c 2a 3c 92 71 64 3b 41 07 38 bc
       0.0008247167 0.0103826905 0.0034857732 -0.011232198
0002a0 91 5d 38 3c 6a ae 5d bc 07 3f a2 bb 75 b9 3e bc
       0.011252777 -0.013530353 -0.004951361 -0.011640896
0002b0 b3 c7 a9 3b 91 cf 0a 3d 42 1d 6d bb 18 6a 58 bb
       0.0051812767 0.033889357 -0.003618077 -0.0033022221
0002c0 9d 83 be bb f2 f0 64 38 e7 de 8b 3c bb 60 1a 3c
       -0.0058140294 5.4583834e-05 0.017074062 0.009422476
0002d0 c8 b1 18 3a 13 f3 2b bb b2 0c 70 3b ac b9 95 3c
       0.00058248313 -0.0026237413 0.003662866 0.018277012
0002e0 cc f2 2c 3c e6 a0 07 bd 17 07 52 bc c2 b1 c8 3b
       0.010555934 -0.03311243 -0.012819073 0.006124706
0002f0 be ab 89 3c 1f d3 b7 bc c2 81 57 bc 12 62 27 3c
       0.016805526 -0.022439538 -0.013153495 0.010216253
000300 b2 98 8a 3c d3 7c 6b bc 03 f2 5c bc 71 ae 28 ba
       0.016918514 -0.014373022 -0.013485434 -0.0006434685
000310 47 90 cd 3c 48 3d 94 3c b5 cb 8c 3c ab 2a b5 3b
       0.02509321 0.018095627 0.017186979 0.005528768
000320 b6 d6 17 ba 1f 55 c5 3b d4 e1 43 bb e7 74 be 3c
       -0.00057921873 0.00602211 -0.0029889243 0.023249103
000330 13 53 d4 bc 4e b3 bf 3c 6c b7 07 bc a2 54 f3 3c
       -0.02591852 0.023400929 -0.008283477 0.029703442
000340 5a f0 00 bc 8a 0e e9 bb 10 74 0d bc 08 79 48 3b
       -0.007869804 -0.007112329 -0.0086336285 0.0030589718
000350 4c 27 c5 bc 9b 4e 4f 3b e5 04 cd 3c e2 86 d4 ba
       -0.02406659 0.0031632546 0.025026748 -0.0016214515
000360 e8 b1 ac bc c2 2f c0 bc 4f b9 60 3c 3b 61 c6 bc
       -0.021080926 -0.023460273 0.013716056 -0.024216285
000370 49 96 c0 3b 2b a8 7b bc ef 0c f6 3c e1 b2 38 bc
       0.0058772904 -0.015359919 0.030035464 -0.011273117
000380 5b 68 95 3c a3 5e 99 3b 0d 2e e1 bc 27 eb be bc
       0.018238237 0.004680471 -0.027487779 -0.023305489
000390 ea 58 53 3c 15 89 93 bb 3f 6c 6a 3c 0b e9 93 3c
       0.012899617 -0.0045024254 0.014308034 0.01805546
0003a0 2a 47 89 bb 3c d7 c8 bb 30 bf d1 3b 22 ac 4d bc
       -0.0041893916 -0.0061291736 0.006400965 -0.012553247
0003b0 cf 90 80 3c 25 63 30 3c 10 28 7b 3c d0 09 f2 3c
       0.01569405 0.010765825 0.015329376 0.029545695
0003c0 07 7e ba 3b de 2f 0e 3d 23 27 df 3c 43 d2 a0 bc
       0.005691293 0.03471362 0.027240342 -0.01963151
0003d0 0b b3 a9 b9 88 7e 05 bc 04 27 43 3c 00 53 26 3b
       -0.0003236759 -0.008147843 0.0119111575 0.0025379062
0003e0 41 23 14 3b 40 58 37 3d 2b a9 a7 3c d3 80 21 3c
       0.002260402 0.044761896 0.020466408 0.009857374
0003f0 46 25 2a bc 27 90 12 bc 68 65 de bc 28 10 09 3d
       -0.010384863 -0.008945501 -0.027147964 0.033462673

action_model._continuous_distribution.mu.bias f4 [2]
000000 00 00 00 00 00 00 00 00
       0.0 0.0

network_body._body_endoder.seq_layers.0.weight f4 [128, 4]
000000 ad f7 1d bf 1a 11 b9 3e d3 44 b9 be 18 6c 7c 3e
       -0.6170605 0.3614586 -0.3618532 0.2465061
000010 b7 5f cb be 99 24 98 bf ee 30 81 3e d1 bf f9 be
       -0.39721462 -1.1886169 0.25232643 -0.48779157
000020 66 07 ed be da f9 1d 3f a1 d0 21 bf 83 c2 09 3e
       -0.46294707 0.6170937 -0.6320897 0.13453107
000030 88 4a 37 3f 7c 01 04 3f 04 c7 8e 3f 84 00 1a 3f
       0.715981 0.51564765 1.1154485 0.60157037
000040 34 10 4c 3e 40 f8 67 be 3d de 1d be 74 c4 67 bf
       0.19928056 -0.22653294 -0.15416808 -0.9053414
000050 cb 09 82 bd 55 9b bd bd 0f bc c8 be 6f b4 0f 3f
       -0.06349524 -0.09258143 -0.39205977 0.56134695
000060 87 88 36 3f 80 8d a8 3d 8c 51 11 bf c5 43 50 bc
       0.71302074 0.08230114 -0.56765056 -0.01271147
000070 b8 74 a9 be 83 7c 0c bf ee 3d 78 be d8 c3 b2 3d
       -0.33096862 -0.5487749 -0.24242374 0.087287605
000080 11 80 f3 be db f1 a3 be 55 dd de 3e b0 12 fe 3e
       -0.47558644 -0.3202046 0.43528238 0.49623632
000090 7d 47 07 bf 4c 83 c0 3f 4a 8e 8e 3e 3e 91 5d bf
       -0.5284346 1.5040069 0.27842933 -0.86549747
0000a0 b6 4f f8 3e c1 0c 0c be 87 43 f8 bc 68 1e 5b 3f
       0.48498315 -0.1367674 -0.030305637 0.8559327
0000b0 d4 c6 ef bd 4d 5b 33 bf 7d 7f 11 bf 2c 95 9d be
       -0.11707845 -0.7006119 -0.56835157 -0.30777872
0000c0 5a 60 0c 3d 70 0d 37 be 56 a4 0c 3f f6 8c d8 be
       0.034271576 -0.1787622 0.54938257 -0.42295045
0000d0 1f 44 14 3f 1f 53 34 3e a2 a8 f3 bc 46 14 1c bf
       0.57916445 0.17609833 -0.029743496 -0.60968435
0000e0 4e 43 26 bf f1 4c 73 bf 6f 9c 04 be bc f8 4a 3f
       -0.6494645 -0.9503928 -0.129503 0.7928579
0000f0 a6 96 36 be 5b be 47 3e 13 2b aa 3e 9b 1e 04 be
       -0.17830905 0.19506209 0.33235988 -0.129023
000100 2d 0d 51 bd 8b 2d 33 3f 04 1d 71 bf 36 b3 b3 be
       -0.051037956 0.6999137 -0.941849 -0.35097665
000110 a7 20 fd be 25 01 38 3f 91 51 84 be 62 a6 6d 3e
       -0.49438974 0.71876746 -0.2584348 0.23208001
000120 c9 4c 31 3e 0e 38 2d 3d 10 9e a0 3e 38 72 69 3f
       0.17314447 0.042289786 0.31370592 0.9118991
000130 1b cb 00 3f ad b5 56 be 8c 0c 70 be ac 90 11 3f
       0.50309914 -0.20967741 -0.23442286 0.56861377
000140 39 6c e2 3d 99 10 3f 3f c6 67 8f 3d 83 a9 fa be
       0.11055798 0.746347 0.07002215 -0.48957452
000150 00 66 8b be dd 84 2c be 1e 50 dc be c7 f7 09 3e
       -0.27226257 -0.16847558 -0.43029875 0.13473426
000160 be 83 4c be 16 4f d6 be cd 0d 0b bc 1b d3 8c 3e
       -0.1997213 -0.41857213 -0.008487177 0.2750481
000170 76 dc 66 be 67 95 0c bf 30 36 69 3f 81 0b 94 be
       -0.22545037 -0.5491547 0.9109831 -0.28915027
000180 ed 1c 91 be 67 2a 82 be 5e 0f b3 be f3 a8 92 be
       -0.2834238 -0.25422975 -0.34972662 -0.28644523
000190 df 46 11 3f f4 6d 3f bf 79 58 10 bf f9 3e cb bd
       0.56748766 -0.7477715 -0.56385 -0.099241205
0001a0 50 fa 5a 3e 01 35 a7 bb 11 92 6e 3f f2 be e3 be
       0.21384549 -0.005102754 0.9319163 -0.44481617
0001b0 54 e7 04 3f 91 37 b9 be b8 54 6e be fc 32 01 3f
       0.5191548 -0.36175206 -0.23274505 0.5046842
0001c0 b8 96 79 3f 63 b8 6a bd be 37 5d bf 41 83 9a 3f
       0.97495604 -0.05730475 -0.8641318 1.2071306
0001d0 c4 43 2d bf 2b ea 57 be 77 c5 88 bf c9 04 bb 3d
       -0.6768153 -0.21085422 -1.0685261 0.09131772
0001e0 f7 ec 9a bd 1e 08 cc be ff de 36 3f 86 c7 cd 3e
       -0.07564729 -0.39849943 0.71434015 0.40191287
0001f0 00 0a b7 3e bc f8 af bf 21 a6 0b 3f 67 e4 04 be
       0.35749817 -1.3747783 0.5455037 -0.12977754
000200 27 5c 01 3f 30 58 07 bf 26 c8 a5 be fc bb 0f bf
       0.5053124 -0.5286894 -0.32379264 -0.56146216
000210 b8 f0 8b be 43 00 01 3f a0 16 fe 3e 18 cd a7 be
       -0.2733209 0.50391024 0.49626637 -0.32773662
000220 ea c8 9e bd 07 9b 5b bf c4 66 b6 3e 6d a3 5d be
       -0.07753165 -0.8578343 0.3562528 -0.21644373
000230 71 27 8b bd 4c e7 85 bd 7d b2 42 bf 0a fe e6 3d
       -0.06794632 -0.06538257 -0.760536 0.11278923
000240 03 7e ff 3e 1c 08 97 be b8 19 5e bf 53 9a ad bb
       0.49900827 -0.29498374 -0.86757994 -0.005297938
000250 67 5b a2 3e 00 ed b0 3e 5e 79 11 3d 46 77 a0 be
       0.3171036 0.34555817 0.035516135 -0.31340998
000260 da 2c 90 bf 35 e5 0f bf d3 35 9b be 97 35 28 bf
       -1.1263688 -0.5620912 -0.30314502 -0.6570677
000270 69 57 e9 3e c9 2c 1b 3f 01 4d b8 bf 7c f6 06 bf
       0.455745 0.6061521 -1.43985 -0.52719855
000280 7a 3b 38 bf 79 5c 37 3f ca 19 ef 3e 58 5a 75 be
       -0.71965754 0.7162548 0.46699363 -0.23960245
000290 1b 71 8a bf 01 ac 6b be 52 ae 96 3e f6 d9 1a 3e
       -1.0815767 -0.23014833 0.2942987 0.15122208
0002a0 6b 07 87 be 2c 0d 43 3f 66 9e 42 bf dc 05 9e 3e
       -0.26372847 0.76191974 -0.76022947 0.30863845
0002b0 a3 e5 a1 3e 7c ea 9c 3d 74 72 a3 be c1 ee c7 bd
       0.3162051 0.07661912 -0.31923258 -0.097623356
0002c0 ce 53 59 bd 6f 9b 9e 3e c3 5e 00 bf f0 e6 d6 be
       -0.053058438 0.3097796 -0.50144595 -0.41973066
0002d0 56 33 4c bd 35 54 59 3e 37 75 d2 3d 5a 9f 27 bf
       -0.049853645 0.21223529 0.10276263 -0.65477526
0002e0 aa 9e 0e bf cc 5f 09 bf 89 76 41 be 22 de f4 3e
       -0.5571085 -0.536618 -0.18892874 0.47825724
0002f0 2d 5e 06 bf 85 e4 36 3f bc c8 84 3f 6a 63 79 3e
       -0.5248745 0.71442443 1.0373759 0.2435433
000300 b0 cb 48 3f f9 b2 bd be d2 30 7c be 66 d4 ab 3e
       0.784358 -0.37050608 -0.24627998 0.33560485
000310 41 dd 56 3d 64 72 ae bf 48 da ae bd 5e 16 10 3f
       0.052457098 -1.3628659 -0.085377276 0.5628413
000320 3d 1d 57 bf 59 b7 f2 3d bd 81 23 bd 00 7f 4c 3f
       -0.8402899 0.11851377 -0.03991865 0.79881287
000330 3a 55 0e 3f cd d3 3f 3e 3d d2 61 bf b9 37 61 3f
       0.55598795 0.1873314 -0.88211423 0.8797565
000340 97 f6 ec 3c 85 a7 f6 be 6e 78 4d be d9 e8 2d 3e
       0.028926177 -0.48174682 -0.20065472 0.16983356
000350 1f e9 f5 be a2 3c 44 3f d5 19 93 bf 8e 21 0e bf
       -0.4802942 0.7665502 -1.1492258 -0.5551995
000360 00 ac ad be 57 f1 5c bd 40 1a 05 bf de 73 50 3f
       -0.33920288 -0.053941097 -0.5199318 0.814268
000370 93 30 4d bf 09 f9 13 bf 6a 46 3c be c6 11 06 bd
       -0.80152243 -0.5780187 -0.18386236 -0.032731794
000380 7d 29 57 bc db 5c ed 3e f1 80 90 be 50 d8 36 3e
       -0.01313245 0.46359906 -0.28223374 0.17855954
000390 dd ae 31 3f 90 f7 25 be 0d 44 08 bf 47 5f 43 3f
       0.69407445 -0.16207719 -0.5322884 0.76317257
0003a0 11 49 a6 be 9c 9f 39 bf ab 22 32 3e 1d 7f 20 3f
       -0.3247762 -0.7250917 0.17396037 0.6269396
0003b0 d4 71 cb bd bd 6e 5a bd da e7 3a be 61 f5 68 be
       -0.0993382 -0.053328265 -0.18252507 -0.22749855
0003c0 bc b7 1a 3c 23 0c 4d bf ac eb ee be e4 6e a4 3e
       0.00944322 -0.80096644 -0.46664178 0.32115853
0003d0 f4 2a 21 3f 94 54 19 3f 77 85 0a 3f 64 3a 17 be
       0.62956166 0.5989468 0.541099 -0.14768368
0003e0 f9 33 a2 3e b3 ef 9a be 07 62 42 3c fc 1e 95 3d
       0.31680277 -0.30261 0.011864192 0.072813004
0003f0 45 8e 98 be 99 80 a4 3e 46 27 71 be b1 53 97 bd
       -0.29796043 0.32129362 -0.23550138 -0.0738901

network_body._body_endoder.seq_layers.0.bias f4 [128]
000000 00 00 00 00 00 00 00 00 00 00 00 00 00 00 00 00
       0.0 0.0 0.0 0.0
000010 00 00 00 00 00 00 00 00 00 00 00 00 00 00 00 00
       0.0 0.0 0.0 0.0
000020 00 00 00 00 00 00 00 00 00 00 00 00 00 00 00 00
       0.0 0.0 0.0 0.0
000030 00 00 00 00 00 00 00 00 00 00 00 00 00 00 00 00
       0.0 0.0 0.0 0.0
000040 00 00 00 00 00 00 00 00 00 00 00 00 00 00 00 00
       0.0 0.0 0.0 0.0
000050 00 00 00 00 00 00 00 00 00 00 00 00 00 00 00 00
       0.0 0.0 0.0 0.0
000060 00 00 00 00 00 00 00 00 00 00 00 00 00 00 00 00
       0.0 0.0 0.0 0.0
000070 00 00 00 00 00 00 00 00 00 00 00 00 00 00 00 00
       0.0 0.0 0.0 0.0
000080 00 00 00 00 00 00 00 00 00 00 00 00 00 00 00 00
       0.0 0.0 0.0 0.0
000090 00 00 00 00 00 00 00 00 00 00 00 00 00 00 00 00
       0.0 0.0 0.0 0.0
0000a0 00 00 00 00 00 00 00 00 00 00 00 00 00 00 00 00
       0.0 0.0 0.0 0.0
0000b0 00 00 00 00 00 00 00 00 00 00 00 00 00 00 00 00
       0.0 0.0 0.0 0.0
0000c0 00 00 00 00 00 00 00 00 00 00 00 00 00 00 00 00
       0.0 0.0 0.0 0.0
0000d0 00 00 00 00 00 00 00 00 00 00 00 00 00 00 00 00
       0.0 0.0 0.0 0.0
0000e0 00 00 00 00 00 00 00 00 00 00 00 00 00 00 00 00
       0.0 0.0 0.0 0.0
0000f0 00 00 00 00 00 00 00 00 00 00 00 00 00 00 00 00
       0.0 0.0 0.0 0.0
000100 00 00 00 00 00 00 00 00 00 00 00 00 00 00 00 00
       0.0 0.0 0.0 0.0
000110 00 00 00 00 00 00 00 00 00 00 00 00 00 00 00 00
       0.0 0.0 0.0 0.0
000120 00 00 00 00 00 00 00 00 00 00 00 00 00 00 00 00
       0.0 0.0 0.0 0.0
000130 00 00 00 00 00 00 00 00 00 00 00 00 00 00 00 00
       0.0 0.0 0.0 0.0
000140 00 00 00 00 00 00 00 00 00 00 00 00 00 00 00 00
       0.0 0.0 0.0 0.0
000150 00 00 00 00 00 00 00 00 00 00 00 00 00 00 00 00
       0.0 0.0 0.0 0.0
000160 00 00 00 00 00 00 00 00 00 00 00 00 00 00 00 00
       0.0 0.0 0.0 0.0
000170 00 00 00 00 00 00 00 00 00 00 00 00 00 00 00 00
       0.0 0.0 0.0 0.0
000180 00 00 00 00 00 00 00 00 00 00 00 00 00 00 00 00
       0.0 0.0 0.0 0.0
000190 00 00 00 00 00 00 00 00 00 00 00 00 00 00 00 00
       0.0 0.0 0.0 0.0
0001a0 00 00 00 00 00 00 00 00 00 00 00 00 00 00 00 00
       0.0 0.0 0.0 0.0
0001b0 00 00 00 00 00 00 00 00 00 00 00 00 00 00 00 00
       0.0 0.0 0.0 0.0
0001c0 00 00 00 00 00 00 00 00 00 00 00 00 00 00 00 00
       0.0 0.0 0.0 0.0
0001d0 00 00 00 00 00 00 00 00 00 00 00 00 00 00 00 00
       0.0 0.0 0.0 0.0
0001e0 00 00 00 00 00 00 00 00 00 00 00 00 00 00 00 00
       0.0 0.0 0.0 0.0
0001f0 00 00 00 00 00 00 00 00 00 00 00 00 00 00 00 00
       0.0 0.0 0.0 0.0

network_body._body_endoder.seq_layers.2.weight f4 [128, 128]
000000 eb b8 71 3b 62 91 f0 bc ee 0b c1 3d e2 c7 05 3d
       0.0036883901 -0.029366199 0.094261035 0.032661326
000010 ba fc 8f 3c 06 bb af 3d ba 7e 3c bd 62 81 45 3d
       0.017576564 0.08580594 -0.046019293 0.048219092
000020 ae 8f f0 bc 2f 1b 15 be cf f7 7b bd 54 68 c0 3c
       -0.029365387 -0.14561151 -0.061515626 0.023487248
000030 87 f5 bf bd 6c a3 00 be f0 c3 e4 3d 51 cb a2 bd
       -0.093730025 -0.1256234 0.111701846 -0.07948936
000040 49 ce aa 3d 18 fa 9a bd f1 f6 f8 bb 0c d5 21 be
       0.08340127 -0.07567233 -0.007597797 -0.15803927
000050 f4 c1 e1 3b 4f 74 34 be 2e db 11 be 58 b2 eb bd
       0.006889576 -0.17622493 -0.14243767 -0.11508626
000060 d0 c8 37 be c4 19 e4 bd 4a 1d f2 3d 58 13 55 3c
       -0.17947698 -0.11137727 0.11821993 0.0130051
000070 c6 40 37 3d a1 19 f8 bb 5b c5 e2 bc 79 da 6a bd
       0.044739507 -0.0075714146 -0.027681997 -0.057337258
000080 cc 08 1e 3d 58 f6 cc 3d 3f e6 13 bd b2 65 39 bc
       0.038582608 0.10007924 -0.03610825 -0.01131575
000090 c5 7c 6d 3e f8 48 90 bd d8 7c 81 bd 24 67 34 3b
       0.23192127 -0.07045168 -0.0632264 0.0027527297
0000a0 85 eb a0 bd b2 78 8f bd b7 fc 1f 3d 41 3c 17 be
       -0.07857422 -0.07005443 0.039059367 -0.14769079
0000b0 34 4f e7 3d b4 38 e2 3d 90 c2 7b bc 37 bb 14 be
       0.11294404 0.110459715 -0.0153662115 -0.14524542
0000c0 fe ce 82 bc 86 5a fc 3b c7 41 9e 3b 81 fe f7 3d
       -0.015967842 0.007701221 0.0048296186 0.1210909
0000d0 47 e4 bd bc f8 45 a9 bc 38 44 c6 3d 64 03 5a 3d
       -0.02318014 -0.020663247 0.096809804 0.05322589
0000e0 8c 2b 39 bd af 49 e1 3d 0b a0 84 bc 7d 5d 8f bd
       -0.045207545 0.11000382 -0.016189596 -0.07000253
0000f0 f5 f1 83 bd e8 4c 8b bd ed c1 60 3d e9 47 3f 3e
       -0.06442634 -0.06801778 0.054872442 0.18679775
000100 6c 30 b6 bb b1 43 9c 3d 80 ab cb bd 41 62 b6 3d
       -0.0055599716 0.076300986 -0.099448204 0.08905459
000110 bd 37 8c 3d 43 2d 8c bc f8 b6 1e bc 97 a6 79 bb
       0.06846569 -0.017111426 -0.009687178 -0.003809368
000120 17 72 84 3c c4 f3 58 bc d4 26 20 3d 56 ef 7e bd
       0.016167684 -0.013241712 0.03909953 -0.062239967
000130 bd 1a 21 be d6 2f b3 bd 2f 04 08 be 12 cb 15 be
       -0.15732856 -0.08749358 -0.13282846 -0.14628246
000140 67 00 91 bd e5 c7 59 bd 99 34 19 be 5c b7 5b 3e
       -0.07080155 -0.05316915 -0.1496147 0.21456665
000150 96 01 b1 bd c5 f0 9d bd 07 bf 54 bc c1 36 42 3d
       -0.086428806 -0.07711939 -0.012984998 0.0474155
000160 9c 95 f6 bc 0a d1 df bd 2d 35 01 3e 6b 77 00 bd
       -0.030100636 -0.10928543 0.12617941 -0.031363886
000170 c1 bb 07 bd 92 70 25 bc 66 84 53 3e 0d 88 c7 3b
       -0.03313804 -0.01009764 0.20655975 0.0060892166
000180 d6 2e ad bd ca c6 0d 3d 43 7d 9a bd 8b 9d 55 bd
       -0.08456199 0.03461341 -0.07543423 -0.052152198
000190 79 60 79 bd 31 59 92 3d 11 b6 41 3e ae bb 1e be
       -0.06088302 0.07145918 0.18917109 -0.15501282
0001a0 f5 73 f7 bc ad 24 36 3e d8 0d 08 3d 6d 96 4b 3d
       -0.03020666 0.17787428 0.033216327 0.049704004
0001b0 6b dc 5d 3d 8e 15 0f 3e 5c a7 41 3d 33 48 09 3e
       0.054165285 0.13973066 0.047278747 0.13406448
0001c0 a3 d5 e9 bc f4 10 9e bb 9c 34 2b 3d a6 ba 97 bd
       -0.028544253 -0.0048237983 0.04179822 -0.07408647
0001d0 bf d6 52 bd 99 9a 2c bd 11 92 41 be 0f b0 95 3d
       -0.05147433 -0.042139623 -0.18903376 0.07308971
0001e0 cb 8e 29 bc cf 4e cd bc 70 76 c5 bc 18 3b 71 3d
       -0.010348986 -0.025061993 -0.024104327 0.058894247
0001f0 3e ed 10 3d 5d ce fd 3d 0c ac b7 bd ec 75 e6 bd
       0.0353825 0.12392876 -0.08968362 -0.112529606
000200 6d f6 09 be 21 42 02 be 47 c1 f9 3d 18 ce 11 be
       -0.1347291 -0.12720539 0.12195068 -0.14238775
000210 3d 91 dd bd 99 25 d7 bc 63 f1 d6 bc bc bc 8b 3b
       -0.10818718 -0.026263045 -0.026238149 0.0042644423
000220 b7 ce 7d bc 64 61 6e 3d 46 fe 27 bd 0b f5 2a 3e
       -0.015491179 0.058198348 -0.04101398 0.16695039
000230 ef 12 07 3d 20 08 2f 3e 1e eb 04 be 25 b7 5d bd
       0.03297704 0.17092943 -0.12980315 -0.05412974
000240 28 28 e5 3b 2f 0b 0f bd b3 3a fb bc 66 9a 24 bb
       0.0069933124 -0.034922775 -0.030667638 -0.0025116443
000250 87 5d 0a 3e 24 62 61 3c 6c d4 50 3d 35 f5 8b bd
       0.1351224 0.013756309 0.05098383 -0.06833879
000260 81 e8 12 3e 22 f6 10 3c de 6e 97 3d 94 e9 3f 3d
       0.14346506 0.008847745 0.07394193 0.046853617
000270 fc a0 9d bd ae 01 51 bd f8 53 bd 3c 75 5b 7a 3c
       -0.07696721 -0.051026992 0.023111328 0.015280594
000280 2f a3 6a 3d 94 01 1f 3e e2 87 28 3e d2 fd 58 be
       0.05728453 0.15527946 0.16458085 -0.21190575
000290 ce db a3 3d c1 ed bf 3d 69 61 c9 3d c7 55 92 bd
       0.08000909 0.0937152 0.09833033 -0.07145267
0002a0 50 57 eb bd 53 e9 8e 3d 10 b9 9c bd 2f 83 c2 bd
       -0.11491263 0.06978097 -0.07652485 -0.094976775
0002b0 c1 bb 8d bd fc 52 31 bd db 73 49 bd 66 4b 44 bd
       -0.06920577 -0.04329203 -0.049182754 -0.047923468
0002c0 bb d5 63 be e3 42 75 3d d3 9a 36 bd 0a dd 43 3e
       -0.222495 0.05987824 -0.044581246 0.19127288
0002d0 1a 3f 0c 3d f6 c4 ae bc c8 8f a3 bc be a3 d0 3d
       0.034239866 -0.021334153 -0.019966021 0.10187481
0002e0 ee c8 ab 3d fd 03 94 3c be d3 c2 bd af a8 a9 bc
       0.08387934 0.018068308 -0.09513043 -0.020710317
0002f0 69 fd 28 3e 43 54 74 3d e2 61 29 bd dc e6 4c 3d
       0.16502918 0.05965067 -0.041353114 0.050024852
000300 c7 58 8b bd af 1c 63 bd 23 4e d6 3d c0 16 27 be
       -0.06804042 -0.055447277 0.10464122 -0.16317272
000310 8d e9 2d 3e 75 88 fe bc a8 81 67 3d 86 7d e3 bc
       0.16983624 -0.031070927 0.056520134 -0.027769815
000320 15 43 0b be ba e1 5e bd 06 28 10 bd 62 5b 0e 3c
       -0.13599809 -0.05441449 -0.03519442 0.00868878
000330 f6 9f ae bd 22 aa fd 3d 64 7c fa bd dd 24 dc bc
       -0.08526604 0.12385966 -0.12230757 -0.026873047
000340 80 5c fb bd 13 82 31 bc 22 87 db 3d 0e 24 8e bd
       -0.12273502 -0.010834235 0.10719134 -0.06940471
000350 5b 4d 8b 3c ac d3 f1 3d 80 88 f5 bc 76 4c c4 38
       0.01700466 0.11807951 -0.029972315 9.36025e-05
000360 33 89 36 be 79 58 cc bd cd e4 b0 3d 30 6d 37 be
       -0.17825775 -0.09977812 0.0863739 -0.17912745
000370 d1 87 0f be c6 08 49 3d af 67 1e bc 23 d8 34 bd
       -0.14016654 0.049080633 -0.009668275 -0.044151437
000380 07 80 26 3d c1 13 f4 bd 9b 95 be bd 6e 7c 69 3d
       0.04064944 -0.1191783 -0.09305879 0.05700343
000390 60 89 58 3d 91 7a c2 bc aa aa 6f bd 07 9c 08 3e
       0.052865386 -0.023740085 -0.058512367 0.1334077
0003a0 c3 38 3d bd 9b 50 82 3d 7d cf 0e bd 37 e4 bb 3d
       -0.04619671 0.063630305 -0.034865845 0.09174388
0003b0 89 3c f2 3d 80 1f 8c bd 8a ea 84 3a ac a2 55 be
       0.118279524 -0.06841946 0.0010140699 -0.20862836
0003c0 3b fb 06 3e 05 f5 3e bd 17 de 70 3d 6e a0 06 3e
       0.13181774 -0.046620388 0.05880555 0.13147137
0003d0 77 ac fd 3c b6 af c9 bd 11 3b cd bc 1f c3 35 be
       0.030966027 -0.09847967 -0.02505258 -0.17750214
0003e0 1b 50 90 3d be be 14 3d 86 e1 4a bd df 9c b6 3c
       0.07046529 0.03631472 -0.049531482 0.022291599
0003f0 32 1f e1 bc 00 1d fd 3d 8c d1 c7 3d d9 e5 9d bc
       -0.027480695 0.12359047 0.09756765 -0.019274639

network_body._body_endoder.seq_layers.2.bias f4 [128]
000000 00 00 00 00 00 00 00 00 00 00 00 00 00 00 00 00
       0.0 0.0 0.0 0.0
000010 00 00 00 00 00 00 00 00 00 00 00 00 00 00 00 00
       0.0 0.0 0.0 0.0
000020 00 00 00 00 00 00 00 00 00 00 00 00 00 00 00 00
       0.0 0.0 0.0 0.0
000030 00 00 00 00 00 00 00 00 00 00 00 00 00 00 00 00
       0.0 0.0 0.0 0.0
000040 00 00 00 00 00 00 00 00 00 00 00 00 00 00 00 00
       0.0 0.0 0.0 0.0
000050 00 00 00 00 00 00 00 00 00 00 00 00 00 00 00 00
       0.0 0.0 0.0 0.0
000060 00 00 00 00 00 00 00 00 00 00 00 00 00 00 00 00
       0.0 0.0 0.0 0.0
000070 00 00 00 00 00 00 00 00 00 00 00 00 00 00 00 00
       0.0 0.0 0.0 0.0
000080 00 00 00 00 00 00 00 00 00 00 00 00 00 00 00 00
       0.0 0.0 0.0 0.0
000090 00 00 00 00 00 00 00 00 00 00 00 00 00 00 00 00
       0.0 0.0 0.0 0.0
0000a0 00 00 00 00 00 00 00 00 00 00 00 00 00 00 00 00
       0.0 0.0 0.0 0.0
0000b0 00 00 00 00 00 00 00 00 00 00 00 00 00 00 00 00
       0.0 0.0 0.0 0.0
0000c0 00 00 00 00 00 00 00 00 00 00 00 00 00 00 00 00
       0.0 0.0 0.0 0.0
0000d0 00 00 00 00 00 00 00 00 00 00 00 00 00 00 00 00
       0.0 0.0 0.0 0.0
0000e0 00 00 00 00 00 00 00 00 00 00 00 00 00 00 00 00
       0.0 0.0 0.0 0.0
0000f0 00 00 00 00 00 00 00 00 00 00 00 00 00 00 00 00
       0.0 0.0 0.0 0.0
000100 00 00 00 00 00 00 00 00 00 00 00 00 00 00 00 00
       0.0 0.0 0.0 0.0
000110 00 00 00 00 00 00 00 00 00 00 00 00 00 00 00 00
       0.0 0.0 0.0 0.0
000120 00 00 00 00 00 00 00 00 00 00 00 00 00 00 00 00
       0.0 0.0 0.0 0.0
000130 00 00 00 00 00 00 00 00 00 00 00 00 00 00 00 00
       0.0 0.0 0.0 0.0
000140 00 00 00 00 00 00 00 00 00 00 00 00 00 00 00 00
       0.0 0.0 0.0 0.0
000150 00 00 00 00 00 00 00 00 00 00 00 00 00 00 00 00
       0.0 0.0 0.0 0.0
000160 00 00 00 00 00 00 00 00 00 00 00 00 00 00 00 00
       0.0 0.0 0.0 0.0
000170 00 00 00 00 00 00 00 00 00 00 00 00 00 00 00 00
       0.0 0.0 0.0 0.0
000180 00 00 00 00 00 00 00 00 00 00 00 00 00 00 00 00
       0.0 0.0 0.0 0.0
000190 00 00 00 00 00 00 00 00 00 00 00 00 00 00 00 00
       0.0 0.0 0.0 0.0
0001a0 00 00 00 00 00 00 00 00 00 00 00 00 00 00 00 00
       0.0 0.0 0.0 0.0
0001b0 00 00 00 00 00 00 00 00 00 00 00 00 00 00 00 00
       0.0 0.0 0.0 0.0
0001c0 00 00 00 00 00 00 00 00 00 00 00 00 00 00 00 00
       0.0 0.0 0.0 0.0
0001d0 00 00 00 00 00 00 00 00 00 00 00 00 00 00 00 00
       0.0 0.0 0.0 0.0
0001e0 00 00 00 00 00 00 00 00 00 00 00 00 00 00 00 00
       0.0 0.0 0.0 0.0
0001f0 00 00 00 00 00 00 00 00 00 00 00 00 00 00 00 00
       0.0 0.0 0.0 0.0

value_heads.value_heads.extrinsic.weight f4 [1, 128]
000000 2c 45 90 bd c6 43 82 bd 60 ff 08 bd 7c 5b d1 3d
       -0.070444435 -0.06360583 -0.03344667 0.102225274
000010 00 50 39 ba 4c ac 7c bd 3f 56 ef bd 8e f6 03 3e
       -0.0007069111 -0.061687753 -0.11686372 0.12887022
000020 9e 49 3b 3e 7e 36 05 3e 54 af b3 3d 70 b0 0d bd
       0.18289801 0.13009068 0.087736756 -0.034592092
000030 65 52 f1 bd c0 ec 0f 3c 70 96 dc 3d 3b 04 50 be
       -0.11783294 0.008784473 0.10770881 -0.20314114
000040 2a 33 12 be 60 fa 17 3c f6 03 a0 bd 50 1e 3d 3d
       -0.1427733 0.009276003 -0.078132555 0.046171486
000050 48 e5 00 bd bc e0 6c bd c8 ce 12 be a0 e2 0d 3d
       -0.03146866 -0.05783151 -0.14336693 0.034639955
000060 6c c1 fe bd f0 56 67 3d 18 fb 5c 3d 7e 0a 19 3e
       -0.12439236 0.056479394 0.0539504 0.14945409
000070 14 d9 50 bd ca df 4b 3e 9e 1e af bd 00 4d dd 3a
       -0.05098827 0.19909588 -0.08550762 0.001688391
000080 60 41 4d be b0 9a 6b 3d b6 ee 1b be da 6a 56 3e
       -0.2004447 0.05752057 -0.1522778 0.20939198
000090 40 ef f2 3b d0 99 51 3d 50 cf 82 3d 00 7f b8 bd
       0.0074137747 0.051172078 0.06387198 -0.09008598
0000a0 20 dc b4 3b e7 67 41 be e1 ad 1d be fa c3 4b 3e
       0.005519405 -0.18887292 -0.15398361 0.19898978
0000b0 84 e2 54 be 20 c3 e4 3b b0 cf 06 3e 10 2d 05 bc
       -0.20789534 0.0069812685 0.13165164 -0.0081284195
0000c0 a0 0d 3b 3e 1e 38 1a be 58 cf 0d 3d 41 7f 48 be
       0.18266916 -0.1506047 0.034621567 -0.19579794
0000d0 2c e4 48 3e 52 8c 20 3e 3c ca 3b be be 1d 35 3e
       0.1961829 0.15678528 -0.18338865 0.17687127
0000e0 05 c7 35 be 20 f0 49 bc 90 08 57 3d e0 2f 70 3c
       -0.17751701 -0.012325317 0.0524984 0.014659852
0000f0 d2 e2 2b be 80 3d 04 bb 5c e9 4e be d5 56 12 be
       -0.16785744 -0.0020178258 -0.20206207 -0.14290936
000100 90 9f e9 bd be 11 5b 3e 8e 6f 0d be 49 82 27 be
       -0.11407387 0.21393487 -0.13812086 -0.16358294
000110 13 29 3b be c0 06 09 bc 48 21 21 3e 88 ed 88 bc
       -0.18277387 -0.008363426 0.15735352 -0.016714826
000120 22 80 0f 3e ba 29 27 3e 54 ba 92 3d c0 76 26 be
       0.14013723 0.16324511 0.071644455 -0.16256237
000130 c2 ce 01 3e 3c 9a 63 bd bc 5b 4f 3e 38 20 06 3e
       0.12676528 -0.05556701 0.20249838 0.13098228
000140 30 5f c1 3d 30 99 9e 3d 34 47 c4 3d 88 67 6a bd
       0.09441984 0.07744062 0.095838934 -0.05722764
000150 c0 2e 34 3d 90 20 3f 3e 20 54 87 3d 38 33 14 3e
       0.043989897 0.18664765 0.066078424 0.14472663
000160 f0 2b f9 bd 40 02 72 bb 5a dc 9e bd 58 d6 86 3c
       -0.121665835 -0.003692761 -0.077568725 0.016459629
000170 b8 b3 22 3d 67 f3 30 be 5d 30 4c be 90 d5 46 3e
       0.039722174 -0.1728035 -0.19940324 0.19417405
000180 5e af 27 be 14 a9 3f bd 46 5c 5c 3e 9b bc 0b be
       -0.16375491 -0.046792105 0.21519575 -0.13646166
000190 e6 83 40 be 86 16 92 bd 1a 25 33 be 88 39 22 bd
       -0.18800315 -0.07133202 -0.17494622 -0.039605647
0001a0 d8 39 91 bc cb b0 2e be 80 ba 74 3b 44 d2 75 bd
       -0.017727777 -0.17059629 0.0037342608 -0.060014978
0001b0 8c e1 b9 3d a0 22 cc 3b e4 eb 2b be 84 7c 03 be
       0.09076223 0.0062297136 -0.16789204 -0.12840468
0001c0 f0 32 59 3e 86 43 06 be ba 14 2a be 10 13 f1 3d
       0.21210837 -0.13111696 -0.16609469 0.11771214
0001d0 28 04 11 bd a0 41 37 be 1c 59 fb bd a0 f9 f1 bb
       -0.035404354 -0.17896128 -0.12272856 -0.007384494
0001e0 a0 7b 5e 3c c5 a7 d9 bd 51 11 4b be ca 77 0e 3e
       0.013579279 -0.106277026 -0.19830824 0.13912883
0001f0 0a 17 10 be 0c 17 d6 bd b1 f3 42 be 60 7b 2e bc
       -0.14071289 -0.104536146 -0.19038273 -0.010649532
