Client/results/ppo/MoveToGoal/MoveToGoal-640.pt (torch, 147458 bytes, 12 tensors)

network_body._body_endoder.seq_layers.0.weight f4 [128, 4]
00000000: 92ba 4b3f e709 303f 1a83 953d f24d 31bb
00000010: c71c 993e 6b5d 36bf 89b0 2f3f 0304 f43e
00000020: 4a32 133c 6da4 85bf 5bb3 21be 83c6 3c3b
00000030: e9c7 283f f78e 87bf 2e3f 87bf 000c 6f3e
00000040: 06fd 943f d7cb b5be a728 f6be 37a9 dd3c
00000050: f788 053f dae1 cdbe fb34 383f cf09 d23d
00000060: 4452 19bf 4cf1 dcbe 28d5 0abf d16d c7be
00000070: a731 7e3e ce78 8a3f d554 4bbf 0c27 b53e
00000080: afde 143f 2ec1 90bd 0ad2 3f3e f590 e4be
00000090: f479 5ebf 7aea dbbe 0a0a 47bd d5b6 b63e
000000a0: f10c 1dbe b938 113f d48b 973e a126 9bb9
000000b0: e5f6 c73e 0ab4 843e 5f22 cc3e 8fde a13e
000000c0: d4ef 063f 7a85 dcbe ebef 96bd e81e b53e
000000d0: 2a56 63bf 82db ae3e 0798 aabe 31fb ec3e
000000e0: 1e44 e0be 1aa7 b13e d992 c03e 0532 1bbf
000000f0: 1f75 0a3d be74 0ebf 327f 10bf 4523 18bf
00000100: c7aa 87bd ae82 cbbe d85a 40bf 450a fabd
00000110: 221d 2cbf 8827 8d3e fbf6 05be 875c 3b3e
00000120: 7bf9 1abe 334b 37bf 5637 b53d e3e2 1c3f
00000130: 482d d1be 1a93 1e3f f0e8 933e bc61 34bf
00000140: c84f 21bf ffba 29be 035d ea3e 9c4e a8bd
00000150: e0f3 94bf c3ef 9a3d 15b4 a9be 71f5 5b3e
00000160: 7fdb b33e 2259 2abe 771a 11be bbe9 f0bd
00000170: 7cf7 713e 4eb7 0ebf 1c91 273f f157 81be
00000180: 6b42 bebe e1d1 3a3e 8a2b 2c3f 4e7f c7be
00000190: 27fb 413f 6c1b 5dbe 3763 ed3e e1dc 293f
000001a0: bda5 1abd 5446 a03e 670c 22be f49f d6bd
000001b0: 667f 263f 0a20 c7bd 4417 7dbe 4baa f1bd
000001c0: 3301 fa3e 7076 823d c4b0 10bf 4467 bb3e
000001d0: 8538 13be 3f60 10be 7c6e 8dbf 7e7a 533e
000001e0: a4d1 26be 3a9e c4bc db1c 083f 0155 573d
000001f0: 21ed cfbd 2822 2e3f 56fb 8c3e 5c43 e2bd
00000200: 43d0 403e d8a6 aabe a59a 12be bb8b ef3e
00000210: 4162 723e bcdc b53d 205f 26be 4bcc 603e
00000220: 1dbe ca3e 5ab9 a13e 25f7 16bf 8b96 de3e
00000230: cfe1 483f ea25 ebbe af01 793e ee4a ad3e
00000240: 34fd c33e 7c4e b1be a5c9 90bc a461 4d3e
00000250: 5b10 3dbf b56b 7f3d 688b de3e c247 12bc
00000260: 3c31 993f 5c1b 1c3f c4b9 963e 98a1 1f3d
00000270: 92cb 2cbf 920e 56bf 98c9 3e3e 1e44 05bd
00000280: a781 26be 209a f3be 76d5 4f3f 53e9 95be
00000290: aef6 c8be 139d 2f3f 8804 afbf c2f6 27be
000002a0: b827 a3bc 8b61 6bbe f6aa 46bd ceeb 22bf
000002b0: 64bc 2a3e 0c44 02be c22a 86bf d105 f9bd
000002c0: 8c43 a0bd 524b 6dbe 9e4d 92bd 5078 0cbe
000002d0: 798c 47be 17c1 5c3e 30f0 c63c 6d2c 583f
000002e0: b7c6 f4be ecc8 d23e cd91 eabd db1e 173e
000002f0: c9f9 84bf e69d 593f be16 573f a9c0 66bf
00000300: c7e1 6fbf bc87 c4be a42d 673e bfe2 1abf
00000310: 40d6 263f e7b2 ddbe f5bc 873e 394a 45be
00000320: 10c5 97be b0f1 943e aca4 a2bd 1601 213f
00000330: c7bb 09bd bb4c dbbe 2277 8e3e e6ac 563f
00000340: c029 a3be 6b74 123c 4413 f53e c74a bfbe
00000350: b592 c6be 8e2c bcbe 1065 c23e fe52 0c3f
00000360: b31a 133e e4c5 23bf 884f 873e 8e5b 013e
00000370: d182 e9bd 4010 cb3e 7736 25be 2017 a13e
00000380: 81f9 023f 024c 7d3e 0785 983c 6835 923d
00000390: cb36 07bf c05e 823e 5748 b4bd e783 f03c
000003a0: d679 45bf b218 60be f137 a4be fb36 b5be
000003b0: b458 a83e acb1 3d3f 95ec 313e 67cb 123f
000003c0: 0c83 a2be 7311 883e 914c e83e 9ecb 8f3c
000003d0: 4a34 3ebd 6f09 3fbe 31ec 9ebe 129a 56bf
000003e0: e370 4fbf 830a 13bd 1703 e63e 1a36 aebe
000003f0: 0b4e 39bd 8f81 5c3f 904d 74be 5c34 5b3f
0.7958156 0.6876511 0.07300396 -0.0027054516 0.29904768 -0.71236295 0.68628746 0.4765931
0.008984158 -1.0440804 -0.15791075 0.0028804846 0.6593004 -1.0590504 -1.0566156 0.23344421
1.1639717 -0.3550708 -0.4807789 0.027058227 0.52162117 -0.40211374 0.7195584 0.10255777
-0.5989115 -0.43152845 -0.542315 -0.3895097 0.24823628 1.0818117 -0.7942632 0.35381353
0.5815229 -0.07068096 0.18732467 -0.44641843 -0.86904836 -0.4295233 -0.04859356 0.35686365
-0.15336968 0.56727177 0.29598868 -0.00029592685 0.39055553 0.2591861 0.39869973 0.3161511
0.527097 -0.43070585 -0.073699795 0.35375142 -0.8880335 0.34151846 -0.33319113 0.46285394
-0.4380197 0.346978 0.37612036 -0.606232 0.0338031 -0.55646884 -0.56444085 -0.5942882
-0.0662437 -0.39748138 -0.75138617 -0.1220899 -0.67231953 0.27569222 -0.13082497 0.18297015
-0.15134232 -0.7159912 0.08848445 0.612837 -0.4085486 0.6194321 0.28888655 -0.7046163
-0.6301236 -0.1657524 0.45774087 -0.082181185 -1.1636925 0.07565262 -0.33145204 0.21480347
0.351284 -0.16635564 -0.14170252 -0.117633305 0.23629564 -0.5574845 0.65455794 -0.25262406
-0.37160048 0.18244125 0.67253935 -0.38964313 0.75773853 -0.21592492 0.46364757 0.6635266
-0.037755717 0.31303656 -0.15825044 -0.104797274 0.65038145 -0.09722908 -0.24715906 -0.11800059
0.4882904 0.063702464 -0.5651972 0.36602223 -0.14377029 -0.14099215 -1.1049342 0.20652196
-0.16290909 -0.02400123 0.5316903 0.0525713 -0.101526506 0.6802087 0.27535504 -0.11048004
0.18829446 -0.33330417 -0.14316805 0.46786293 0.23670293 0.08879992 -0.16247225 0.21952932
0.3959817 0.31586725 -0.5897086 0.4347423 0.78469557 -0.45927364 0.24317048 0.3384623
0.38279116 -0.3463019 -0.017674277 0.20056778 -0.7385308 0.062358577 0.43465734 -0.008928241
1.196815 0.6097925 0.29438603 0.038972467 -0.67498124 -0.8361598 0.1863159 -0.032535665
-0.16260396 -0.47578526 0.8118509 -0.29279575 -0.39250702 0.6859905 -1.3673258 -0.16402724
-0.0199164 -0.22986428 -0.048502885 -0.6364106 0.16673428 -0.1272127 -1.0481799 -0.121593125
-0.078253835 -0.23173264 -0.071437106 -0.1371777 -0.1948718 0.21558033 0.024284452 0.8444279
-0.47807857 0.41168916 -0.114535905 0.14757864 -1.0388728 0.8500656 0.84019077 -0.90137726
-0.93703884 -0.38384807 0.22576004 -0.6050224 0.6517067 -0.43300554 0.2651135 -0.19266595
-0.29642534 0.29090643 -0.07941565 0.6289228 -0.033626344 -0.42831978 0.27825266 0.8385757
-0.3186779 0.008938889 0.4786626 -0.37361738 -0.38783804 -0.36752743 0.3796773 0.54814136
0.14365654 -0.6397383 0.26427865 0.12632582 -0.114019044 0.39660835 -0.16134058 0.31462955
0.5116196 0.24736026 0.01861812 0.07139093 -0.5281798 0.25462914 -0.0880286 0.029359771
-0.7713903 -0.2188442 -0.3207393 -0.3539351 0.32880175 0.7409923 0.17375405 0.5734162
-0.31740606 0.26575813 0.45370916 0.017553147 -0.046436585 -0.18655942 -0.31039575 -0.8382884
-0.81031626 -0.035898697 0.44924232 -0.3402565 -0.045240443 0.8613519 -0.23857713 0.8562677

network_body._body_endoder.seq_layers.0.bias f4 [128]
00000000: 0000 0000 0000 0000 0000 0000 0000 0000
00000010: 0000 0000 0000 0000 0000 0000 0000 0000
00000020: 0000 0000 0000 0000 0000 0000 0000 0000
00000030: 0000 0000 0000 0000 0000 0000 0000 0000
00000040: 0000 0000 0000 0000 0000 0000 0000 0000
00000050: 0000 0000 0000 0000 0000 0000 0000 0000
00000060: 0000 0000 0000 0000 0000 0000 0000 0000
00000070: 0000 0000 0000 0000 0000 0000 0000 0000
00000080: 0000 0000 0000 0000 0000 0000 0000 0000
00000090: 0000 0000 0000 0000 0000 0000 0000 0000
000000a0: 0000 0000 0000 0000 0000 0000 0000 0000
000000b0: 0000 0000 0000 0000 0000 0000 0000 0000
000000c0: 0000 0000 0000 0000 0000 0000 0000 0000
000000d0: 0000 0000 0000 0000 0000 0000 0000 0000
000000e0: 0000 0000 0000 0000 0000 0000 0000 0000
000000f0: 0000 0000 0000 0000 0000 0000 0000 0000
00000100: 0000 0000 0000 0000 0000 0000 0000 0000
00000110: 0000 0000 0000 0000 0000 0000 0000 0000
00000120: 0000 0000 0000 0000 0000 0000 0000 0000
00000130: 0000 0000 0000 0000 0000 0000 0000 0000
00000140: 0000 0000 0000 0000 0000 0000 0000 0000
00000150: 0000 0000 0000 0000 0000 0000 0000 0000
00000160: 0000 0000 0000 0000 0000 0000 0000 0000
00000170: 0000 0000 0000 0000 0000 0000 0000 0000
00000180: 0000 0000 0000 0000 0000 0000 0000 0000
00000190: 0000 0000 0000 0000 0000 0000 0000 0000
000001a0: 0000 0000 0000 0000 0000 0000 0000 0000
000001b0: 0000 0000 0000 0000 0000 0000 0000 0000
000001c0: 0000 0000 0000 0000 0000 0000 0000 0000
000001d0: 0000 0000 0000 0000 0000 0000 0000 0000
000001e0: 0000 0000 0000 0000 0000 0000 0000 0000
000001f0: 0000 0000 0000 0000 0000 0000 0000 0000
0.0 0.0 0.0 0.0 0.0 0.0 0.0 0.0
0.0 0.0 0.0 0.0 0.0 0.0 0.0 0.0
0.0 0.0 0.0 0.0 0.0 0.0 0.0 0.0
0.0 0.0 0.0 0.0 0.0 0.0 0.0 0.0
0.0 0.0 0.0 0.0 0.0 0.0 0.0 0.0
0.0 0.0 0.0 0.0 0.0 0.0 0.0 0.0
0.0 0.0 0.0 0.0 0.0 0.0 0.0 0.0
0.0 0.0 0.0 0.0 0.0 0.0 0.0 0.0
0.0 0.0 0.0 0.0 0.0 0.0 0.0 0.0
0.0 0.0 0.0 0.0 0.0 0.0 0.0 0.0
0.0 0.0 0.0 0.0 0.0 0.0 0.0 0.0
0.0 0.0 0.0 0.0 0.0 0.0 0.0 0.0
0.0 0.0 0.0 0.0 0.0 0.0 0.0 0.0
0.0 0.0 0.0 0.0 0.0 0.0 0.0 0.0
0.0 0.0 0.0 0.0 0.0 0.0 0.0 0.0
0.0 0.0 0.0 0.0 0.0 0.0 0.0 0.0

network_body._body_endoder.seq_layers.2.weight f4 [128, 128]
00000000: 4023 983d 04c5 46bd a340 ffbd 9fc6 80bd
00000010: 205f 433d 8b3a 92bc 2b79 043e 38e0 cfbb
00000020: 5167 afbb 6a8d 73bc 2c5c a7bd c243 1e3e
00000030: 5cb4 133e 85e6 1abd 249d 50be 7ec8 593d
00000040: ad4e d63c 5d35 f4bd ccdb 65bb 78c7 20be
00000050: 60eb 18bd f9c9 75bc 65bf 80bd 76a5 5fbd
00000060: 48b5 46bd 6e65 1f3e 2d28 52bd c76b 8d3b
00000070: 12ed bc3b bc6d 37bd 941f 403e 3ff2 e5bc
00000080: 2966 1ebd 071b f03d 10d0 1cbc 2577 913c
00000090: e939 9cbd bd77 dabd 81b5 8fbd a902 8cbd
000000a0: 85fe babc 7c73 483d bce6 07be c86d 9c3d
000000b0: 9750 903d 84a0 b93d d92e f6bc 4d8b 60bd
000000c0: 7e09 fd3d 54a9 b4bd 5792 74bd 3520 01be
000000d0: 2b53 46bd 5ce2 f9bd c3f1 c83c cae2 a2bc
000000e0: a8fa 18bd d6bc 49bd 7353 df3d 8fa4 aabb
000000f0: 9e3d 18be 1226 d1bd 9bf9 68be d582 73bd
00000100: 9107 23bb 18e6 763e 7423 fbbc 0769 113e
00000110: 885f 923c 196f 8cbc 5d9f a53c b197 91bc
00000120: d404 dd3d 432f ac3d 1cea 523c f5f6 9d3d
00000130: bd4e 12be 2ee2 11bd bbc9 f2bd d378 083e
00000140: 8d3c 3bbd b92e 123e 7706 bebd bcf2 20bd
00000150: 4c10 bb3c 5faa 87bd 6eb9 a2bc 0363 89bd
00000160: 8817 533d 5981 79bd 2034 3d3d 8c74 513d
00000170: b873 1abb 6000 043e a1bf c53d 8ee9 af3c
00000180: dc75 9dbc a93f b83d 8339 dcbc 260d 533d
00000190: 7310 10bd 7697 b83d 4243 4f3a 4e4b edbc
000001a0: dc2a 6a3c 7f0b 94bc 72f6 173e e005 6fbc
000001b0: 6e6a 99bd d91b d93d eb68 0abe 420e a73d
000001c0: 7bb0 f8bc a048 b43d 78af 42bc 9d83 063e
000001d0: 4f05 3d3c d5ff 0d3d 123c 1bbe 47e3 fab9
000001e0: 9652 d2bc f7e9 933b 2d79 a93d 6615 aabd
000001f0: b9a3 bc3d e7a1 ea3d 2394 a33d 6303 01bd
00000200: 24fa 37be 243f 05bd 306a 3cbd 668c 613c
00000210: f060 5a3d 972f 973d 4d06 7bbc 87d0 db3c
00000220: 001e fcbd 72e2 f83d e218 9abd 764a 873c
00000230: 9c00 06be 5a99 1e3e d6eb 60bc ab35 21bd
00000240: 58de e5bb d60c 513d 41a7 ba3d f453 f33c
00000250: 351e 183d 509c cabd 8df0 e23b d2e4 23bd
00000260: 6129 e83d 5133 e2bd 5e2d e53d 8187 5c3d
00000270: 48f6 c93d 2074 b9bd 147f 333d 75b7 3bbd
00000280: da87 8fbd f4ee f4bd fd67 c4bc d210 99bd
00000290: cbe0 4cbc 77b5 a33d 8685 193e 3c93 9e3c
000002a0: 2385 183d 69ce e6bd e793 9c3d 2c63 893d
000002b0: cec5 6a3d 305e 403d 7fe1 273e 5a31 b2bd
000002c0: 7b7d 15be bac8 9139 b240 013e b803 e8bd
000002d0: 72aa 373e 6195 0abe 978a 08be 8d10 c6bd
000002e0: 0c05 5b3d d43b c6bc cf49 063d f54e 75bd
000002f0: 0b25 8ebd 934f 7dbc 6089 8fbc 3b30 af3c
00000300: b157 b83d ba96 e4bd e9ea 763c 1545 f1bb
00000310: 401c 4d3c 63e5 01bc 939c 613c 9eae 213c
00000320: 509e 003e e480 283e e75e 983d 85ce ccbc
00000330: 30fd a53d 13e7 35be 8008 abbd 4010 fc3d
00000340: 7397 553e 4a31 1ebd 50b5 52bd 8a53 d0bd
00000350: 23fb ee3d dbfa fd3d 1a17 04bc 581b 9a3d
00000360: dcd3 023e bb2a 94bc bd20 a03d d744 ccbb
00000370: 0376 663d 2063 b2bb fd9f 32bd 8516 83bd
00000380: ab42 06bd d3f0 413d d31b 6c3d 0277 8a3c
00000390: c887 473d 525c 39bd 0644 c43d bc48 8e3b
000003a0: 9513 233c 0c96 393e 7d8c 743d a759 72be
000003b0: 9a6c 94bd e526 c53d 1f98 f4bd 1a4d e3bc
000003c0: 3a18 873d b2de fc3d 728f e63c 0417 b2bd
000003d0: c37c 3dbe f08e 30bc 35cc e53d d805 9e3c
000003e0: 7eb8 c5bd abcd c8bb f3e0 e23c 3f33 5a3d
000003f0: 5427 70bc 4a5c 753c 9802 553e 57f8 53bd
0.074285984 -0.048527732 -0.124635 -0.06287884 0.04769814 -0.017850181 0.12936847 -0.0063438676
-0.0053528924 -0.014865259 -0.08171877 0.15455535 0.1442427 -0.037817497 -0.20372444 0.05316972
0.026160562 -0.11924241 -0.0035073636 -0.15701091 -0.037333846 -0.015001767 -0.062865056 -0.054601155
-0.048512727 0.15566036 -0.051307846 0.0043158266 0.0057655657 -0.044782385 0.18762046 -0.028069614
-0.038671646 0.11723905 -0.00957109 0.017757008 -0.07628233 -0.106673695 -0.07017041 -0.06836445
-0.022826442 0.04893826 -0.13271612 0.076381266 0.07046621 0.09063819 -0.030051636 -0.054820348
0.12355326 -0.08821359 -0.059709873 -0.12609942 -0.04841916 -0.12201378 0.024529343 -0.019883532
-0.03734842 -0.049252354 0.109045886 -0.005207605 -0.14867255 -0.102123395 -0.22751467 -0.059450943
-0.0024876336 0.24111211 -0.030656554 0.14200221 0.017867818 -0.01714282 0.020217592 -0.017772527
0.107919365 0.08407452 0.012873199 0.07713119 -0.14287849 -0.035616092 -0.11854883 0.13327341
-0.045712043 0.14275636 -0.09278577 -0.03929399 0.02283492 -0.066242926 -0.01986381 -0.06708338
0.051536113 -0.06091437 0.04619229 0.05113654 -0.002356751 0.12890768 0.09655691 0.021473672
-0.019221239 0.08996517 -0.026882892 0.05152621 -0.035171937 0.09013264 0.00079064455 -0.028966572
0.014292445 -0.018071888 0.14840105 -0.014588803 -0.07491003 0.10601015 -0.13516586 0.08157016
-0.03035759 0.088029146 -0.011882655 0.13136144 0.01153691 0.03466781 -0.15159634 -0.0004785305
-0.025674146 0.004513975 0.082750656 -0.08304863 0.09210915 0.11456662 0.07987239 -0.03149737
-0.17966515 -0.03253092 -0.045999706 0.013766384 0.053315103 0.07382124 -0.015321326 0.026832832
-0.123104095 0.12152566 -0.07524277 0.016514998 -0.1308617 0.15488186 -0.013728103 -0.039357822
-0.007015031 0.051037632 0.091139324 0.029703118 0.037138183 -0.098930955 0.0069256485 -0.040013142
0.113360174 -0.11044944 0.11190294 0.053840164 0.098614275 -0.09055352 0.043822363 -0.045829255
-0.070083335 -0.11959639 -0.023975367 -0.07473911 -0.012504767 0.07993596 0.14992341 0.019357316
0.037236344 -0.11269838 0.07645398 0.06708369 0.057317548 0.046964824 0.16394614 -0.08700819
-0.14598648 0.00027806108 0.12622336 -0.11328834 0.17936113 -0.13533546 -0.13334118 -0.096711256
0.05347161 -0.02419845 0.032785233 -0.059889752 -0.06940659 -0.0154608665 -0.01752156 0.021385303
0.09001101 -0.11161561 0.015070655 -0.0073629715 0.012518942 -0.007928225 0.01377024 0.009868292
0.12560391 0.16455418 0.07439976 -0.02500082 0.08104932 -0.17763929 -0.083512306 0.12307787
0.20858555 -0.038621224 -0.051442444 -0.10172184 0.11668994 0.124013625 -0.0080621485 0.07524747
0.1277613 -0.018086782 0.07818744 -0.0062337923 0.05626489 -0.0054439455 -0.043609608 -0.0640078
-0.032778423 0.04734881 0.057643723 0.01690245 0.048713475 -0.04525406 0.09583287 0.0043421667
0.009953399 0.18123645 0.059704293 -0.23667012 -0.072472766 0.09626559 -0.11943077 -0.027746726
0.06596418 0.12347163 0.028144572 -0.08695796 -0.18504624 -0.010776266 0.1122059 0.019289896
-0.0965433 -0.006128033 0.027695155 0.05327153 -0.014657814 0.014975617 0.2080177 -0.051750507

network_body._body_endoder.seq_layers.2.bias f4 [128]
00000000: 0000 0000 0000 0000 0000 0000 0000 0000
00000010: 0000 0000 0000 0000 0000 0000 0000 0000
00000020: 0000 0000 0000 0000 0000 0000 0000 0000
00000030: 0000 0000 0000 0000 0000 0000 0000 0000
00000040: 0000 0000 0000 0000 0000 0000 0000 0000
00000050: 0000 0000 0000 0000 0000 0000 0000 0000
00000060: 0000 0000 0000 0000 0000 0000 0000 0000
00000070: 0000 0000 0000 0000 0000 0000 0000 0000
00000080: 0000 0000 0000 0000 0000 0000 0000 0000
00000090: 0000 0000 0000 0000 0000 0000 0000 0000
000000a0: 0000 0000 0000 0000 0000 0000 0000 0000
000000b0: 0000 0000 0000 0000 0000 0000 0000 0000
000000c0: 0000 0000 0000 0000 0000 0000 0000 0000
000000d0: 0000 0000 0000 0000 0000 0000 0000 0000
000000e0: 0000 0000 0000 0000 0000 0000 0000 0000
000000f0: 0000 0000 0000 0000 0000 0000 0000 0000
00000100: 0000 0000 0000 0000 0000 0000 0000 0000
00000110: 0000 0000 0000 0000 0000 0000 0000 0000
00000120: 0000 0000 0000 0000 0000 0000 0000 0000
00000130: 0000 0000 0000 0000 0000 0000 0000 0000
00000140: 0000 0000 0000 0000 0000 0000 0000 0000
00000150: 0000 0000 0000 0000 0000 0000 0000 0000
00000160: 0000 0000 0000 0000 0000 0000 0000 0000
00000170: 0000 0000 0000 0000 0000 0000 0000 0000
00000180: 0000 0000 0000 0000 0000 0000 0000 0000
00000190: 0000 0000 0000 0000 0000 0000 0000 0000
000001a0: 0000 0000 0000 0000 0000 0000 0000 0000
000001b0: 0000 0000 0000 0000 0000 0000 0000 0000
000001c0: 0000 0000 0000 0000 0000 0000 0000 0000
000001d0: 0000 0000 0000 0000 0000 0000 0000 0000
000001e0: 0000 0000 0000 0000 0000 0000 0000 0000
000001f0: 0000 0000 0000 0000 0000 0000 0000 0000
0.0 0.0 0.0 0.0 0.0 0.0 0.0 0.0
0.0 0.0 0.0 0.0 0.0 0.0 0.0 0.0
0.0 0.0 0.0 0.0 0.0 0.0 0.0 0.0
0.0 0.0 0.0 0.0 0.0 0.0 0.0 0.0
0.0 0.0 0.0 0.0 0.0 0.0 0.0 0.0
0.0 0.0 0.0 0.0 0.0 0.0 0.0 0.0
0.0 0.0 0.0 0.0 0.0 0.0 0.0 0.0
0.0 0.0 0.0 0.0 0.0 0.0 0.0 0.0
0.0 0.0 0.0 0.0 0.0 0.0 0.0 0.0
0.0 0.0 0.0 0.0 0.0 0.0 0.0 0.0
0.0 0.0 0.0 0.0 0.0 0.0 0.0 0.0
0.0 0.0 0.0 0.0 0.0 0.0 0.0 0.0
0.0 0.0 0.0 0.0 0.0 0.0 0.0 0.0
0.0 0.0 0.0 0.0 0.0 0.0 0.0 0.0
0.0 0.0 0.0 0.0 0.0 0.0 0.0 0.0
0.0 0.0 0.0 0.0 0.0 0.0 0.0 0.0

action_model._continuous_distribution.log_sigma f4 [1, 2]
00000000: 0000 0000 0000 0000
0.0 0.0

action_model._continuous_distribution.mu.weight f4 [2, 128]
00000000: e400 27bb 69a7 39bc ad54 71bc 95db a03c
00000010: dc0e 17bd 0ae7 c53b 8cbb 11bc 987c 1e3d
00000020: 0b7f 1a3c c845 9dbc 4ebf 9b3c 6bdb 08bc
00000030: 44df 193b 0bea 37b9 5ad1 8abb 7b00 83bc
00000040: f754 133b 7c48 1dbb 4ae6 293c db1a f33b
00000050: 83be 803b edf2 633b 9744 d23c 9fd0 9bbb
00000060: 7f79 fcbc edc8 43bb 3a8e e83b 1b27 103a
00000070: a2a5 5dbc ef4c 593c 6067 fc3a fa3e 373c
00000080: ddea 5dba ea58 6abc e3ee d0bc a0e3 e3bc
00000090: 9f59 14bc ab69 61bc e87b 1f3c 49ea 86bd
000000a0: 77ae bebc b34f 48bc 43ba 98bc 7deb ffbb
000000b0: b2c1 8cbc 783a 2b3b cfe2 31bd 6d6a 2cbb
000000c0: 95e3 61bb 1b94 d03c 8a87 593c 1733 a03c
000000d0: 3aa7 6d3c 469f 033d 124d acbb cd3c 72bc
000000e0: 939e 473a 6aeb 613c 4802 0dbc cf16 b2bc
000000f0: 17c2 ffbb b343 eebc 03d4 24bb 2aaf 153c
00000100: 9bd5 133c 1767 ba3b 5851 713c 2732 1abb
00000110: 83be 993c 3563 f7bb d391 11bc ea53 79bc
00000120: 060e a5bc fdcd 0abd 4ff8 aa3c f3ac 8c3c
00000130: 7002 2e3c 6dd1 ad3c d748 5dbc 90e1 cd3b
00000140: 5e37 1a3c da01 98bc 2fd3 0b3c a4c6 10bc
00000150: 8d3c 1ebc 7707 d63c 4fe6 2bbc a5f4 433a
00000160: 9feb a8bc e52c eb3b 6db6 89bb 9d03 f939
00000170: 4f25 6ebb ed33 d13c ef5e 563c b436 2bbc
00000180: 3992 14bc 6265 ce3c 431d 48bb 4a25 f6bc
00000190: 6070 5e3c d86b 37bc 0f1a d93b 53e9 793c
000001a0: 7d49 04bd cd2c 8dbc fb8b 01bc 506a 5ebc
000001b0: 9fb1 2bbd df9d 893b efa3 5b3c dc3c 35bd
000001c0: e5e2 d0ba 60f2 0a3b 7fa1 f33c 908e 423c
000001d0: 7744 0cbc 9427 bb3b 3fd4 efbc 38d5 d6bc
000001e0: 657f e3bb cba5 a03c 0b06 f9bb 3f23 94bb
000001f0: baa1 0fbc 4fff 05bc 8578 bcbc e02b f73b
00000200: b21b 753c f155 82bc bf9b 793c fa33 803c
00000210: 05b3 8fbc a74c 37bb 17ac 443c 8693 c93c
00000220: 4b23 d6bb e821 5f3c 13e5 c43c a411 ac3b
00000230: 170b 82bc d2a2 f93c 3bc8 2c3c 4ef0 033c
00000240: e018 f8bb 3452 8e3c 77cb 893b d0bd e1ba
00000250: c861 133c ba5f eabb f3a8 08bc 0023 01bc
00000260: 6520 02bd e7c7 d8bb 192f 3bbc 460d 8bbc
00000270: be15 32bc 2a05 e8bb 34d2 32bc f115 833c
00000280: b4ca 213d 3b07 8e3c f8f6 9a3a e3c8 8a3b
00000290: af42 0ebc 5f0c 443c 970a 92bc 3bef fd3c
000002a0: cb75 1dbc 9a81 72bc a374 4c3c 8b75 303b
000002b0: 4b16 973c 8338 b8bc 00f0 d23b 3da6 a33c
000002c0: d277 e8bc 9290 2e3c c54a db3c 4383 663c
000002d0: 427f ca3b 98f7 33bb ea4e f33c 3ba5 83bc
000002e0: e6e1 2a3c 7bf1 fe3c 29a7 973b 73dc 54bc
000002f0: 0cb7 aa3a f2a4 92bc 75eb 5fbb fbfd 53bc
00000300: 0f8f ed39 8803 803b c3ff a7bb a721 ebbc
00000310: 1567 4f3c 8a9f 853c d738 c63a 433a f63c
00000320: e2c5 703c c341 1cbd d351 edbc b90f 043b
00000330: b84b 423b dd16 fcbc daf1 d6bc 3feb 23bb
00000340: 5e41 88bc 1393 2c3a 96f8 bdbb a682 8bb9
00000350: 98cf 0a3c 235d f73b 7226 7abc a7e3 87bc
00000360: c24e cf3b d2f5 8f3a 4d6a 31bb 5f0e 2cbc
00000370: 807e babb b136 be3b 104b 79bb 1f9c 903c
00000380: 7bc9 b33b 7589 61bb 2b14 9f3c 2b97 76bb
00000390: bfd7 56bc 2ed5 90bc 654f b63c fae7 7d3c
000003a0: ca9d 2dbc bb92 953c 38e2 89bc b052 5cbb
000003b0: 99bd cabb 174d 5dbc 1fed 1cbd df7a de3c
000003c0: 369c a2bb b3a5 7fbc 7498 493c 463e b7bc
000003d0: f6ad 36bd 5e28 91bb 07f0 b8bc 9db9 65bb
000003e0: a645 b83c 1b89 b6ba 0360 0dbc b38a 57bc
000003f0: fb71 16bc 410d bfbc 5789 8c3c 7726 0dbb
-0.0025482709 -0.011331418 -0.014729661 0.019635955 -0.036879405 0.006039505 -0.008894812 0.03869304
0.0094297035 -0.019198313 0.01901212 -0.008353095 0.0023479024 -0.00017539428 -0.0042363824 -0.01599144
0.0022481063 -0.0023999503 0.010369847 0.007418973 0.0039289608 0.0034782246 0.025667472 -0.004755094
-0.030819653 -0.00298744 0.007097033 0.0005498991 -0.0135282595 0.013262971 0.0019256882 0.011184448
-0.00084654783 -0.014303425 -0.025504535 -0.027818501 -0.00905457 -0.013758103 0.009734131 -0.06587655
-0.02327655 -0.012226033 -0.018643504 -0.007810055 -0.017182205 0.002612738 -0.043429192 -0.0026308552
-0.0034467925 0.025461247 0.013276944 0.019555612 0.014505202 0.032134317 -0.005258211 -0.014785004
0.0007614877 0.013789037 -0.008606501 -0.021739392 -0.0078051197 -0.029085016 -0.0025150783 0.009136001
0.0090230955 0.005688559 0.0147288665 -0.0023528428 0.0187676 -0.007549668 -0.008884865 -0.015217761
-0.020148288 -0.033887852 0.020870356 0.017172312 0.010620698 0.021218026 -0.013506136 0.0062829927
0.009412615 -0.01855557 0.008534237 -0.008836422 -0.009657991 0.026126606 -0.010491922 0.00074751145
-0.020620165 0.0071769827 -0.004202655 0.00047495673 -0.0036338156 0.025537455 0.013084157 -0.010450054
-0.009068065 0.025194827 -0.003053502 -0.030047078 0.013576597 -0.011195146 0.006625421 0.015253383
-0.032296646 -0.017233277 -0.007906909 -0.013575152 -0.04191744 0.004199728 0.013405784 -0.044247493
-0.001593676 0.0021201596 0.029740093 0.01187481 -0.008561245 0.005711505 -0.029276012 -0.026224717
-0.006942677 0.019610306 -0.0075995973 -0.004520803 -0.008766586 -0.008178546 -0.023006687 0.007543072
0.014960216 -0.01591012 0.015234887 0.015649784 -0.017541418 -0.0027969272 0.01200392 0.024606477
-0.006534969 0.013618924 0.024035012 0.0052511264 -0.015874429 0.030473147 0.010545786 0.008052899
-0.0075713247 0.017373182 0.004205163 -0.0017222706 0.008995481 -0.007152525 -0.008341062 -0.00788188
-0.031769175 -0.006615627 -0.011424803 -0.016974103 -0.010869442 -0.0070806937 -0.010914374 0.016001673
0.039499953 0.017337432 0.001182287 0.0042353733 -0.008682891 0.01196584 -0.017827315 0.030997863
-0.009610604 -0.014801407 0.01247898 0.002692553 0.018443247 -0.022487884 0.0064373016 0.01997673
-0.028377447 0.010654585 0.026769051 0.014069381 0.006179721 -0.002746081 0.029700715 -0.016069999
0.010429835 0.031121006 0.0046280813 -0.012992012 0.0013024523 -0.017900918 -0.0034167443 -0.012938972
0.0004531075 0.003906671 -0.0051269247 -0.02870257 0.012658854 0.016311426 0.0015123141 0.030057078
0.014695616 -0.038148653 -0.02896968 0.0020150973 0.0029647183 -0.03077262 -0.02623837 -0.0025012044
-0.016632732 0.0006583195 -0.005797456 -0.00026609487 0.008472346 0.0075489446 -0.015267955 -0.016588045
0.0063265273 0.0010983294 -0.0027071417 -0.010501473 -0.0056913495 0.0058048596 -0.0038039126 0.01765257
0.005486665 -0.0034414206 0.019418797 -0.0037626724 -0.013112961 -0.017679777 0.022254655 0.015497202
-0.010596702 0.018258443 -0.016831502 -0.0033618622 -0.0061871526 -0.013507149 -0.038312074 0.027158199
-0.0049624695 -0.015603471 0.012304414 -0.022368561 -0.044599496 -0.004429861 -0.022575391 -0.003505326
0.022494148 -0.0013926359 -0.008628848 -0.013155627 -0.0091824485 -0.02332175 0.017155332 -0.002153782

action_model._continuous_distribution.mu.bias f4 [2]
00000000: 0000 0000 0000 0000
0.0 0.0

network_body._body_endoder.seq_layers.0.weight f4 [128, 4]
00000000: 3061 3e3e b983 2cbe ebc8 a2be f090 f1be
00000010: 6c4a b73e c202 783f ef2a 763e f4c1 7e3f
00000020: e3e6 333f 53b3 583f 99ed dabe a662 663e
00000030: 51d2 423d b913 1dbe 71ec 9ebd 037f b7bd
00000040: 93d8 8a3e c6d0 babf 29d2 753e 38ab 463f
00000050: b1dd 17be 6362 f9be 6c87 8c3e b3d6 fb3e
00000060: eb8f 91be 61d1 0d3f 19b3 09bf f689 7cbd
00000070: d88b 69be c503 4f3f e2c7 4ebf bf2d 113e
00000080: 3b7d 2ebd a6f0 f13e 6651 3a3f 3a2a 93bf
00000090: 0b33 ca3f 4eba 63be 75ff 4d3f f908 c0be
000000a0: d01c c1bd 9174 0b3f 5b00 313e 40f8 c6be
000000b0: e4fe a4be b541 d5be 7f52 0b3f e088 88bd
000000c0: 466f 48be 73ba 37bf 91f9 d13e d214 d0be
000000d0: 7db1 433e d2ef 95bf dc9c 0cbf 1bd0 493f
000000e0: 0c85 ddbe 5d4d 093f 8177 ae3e 7079 afbe
000000f0: b2c5 b2be 36fa 00bf 5c8e b13e d15d 303f
00000100: 3ee3 50be a3fc 8abf 1b54 1b3f 69c5 863e
00000110: a934 833b 942e 24bf 164a 593e ee41 04bc
00000120: 7460 d1be 5e16 d63e 6ffe 85bd 0ef3 023f
00000130: 5a4e 22be 3049 b63c 3672 95be f710 963e
00000140: 153a 1ebf ed9d 983e f8f1 b33e f897 e03e
00000150: bc58 7e3e 7317 2b3d 8214 3c3f 3ed5 04bf
00000160: 3a69 d5be e77c 0f3f c39d 16bf e14a 7d3f
00000170: ae6f 13bf 45f3 b5bd c6ea 9bbd 482a a7be
00000180: deb0 eebb e134 703f d594 61be 5fb4 05bf
00000190: bcba 28be 12e4 49bf e0ac b23c 0bb0 a1be
000001a0: 86a9 c63e aae3 2c3f 5515 15bf e829 c2be
000001b0: 3c12 97bd ccae 823e 2441 bc3e 85e8 abbe
000001c0: 1379 9ebf 8016 a03e 6111 753e 75ce 14be
000001d0: a9f1 0a3e 8205 a33d f31d 17be 90f2 a03c
000001e0: 3c90 a23e 4b94 5c3e bae4 cebe aba8 853f
000001f0: cf66 f53e e7da 6d3c ab6d 76be fa9c c83e
00000200: 710b a53e d07f 1ebf d823 ba3e d3d8 3d3d
00000210: bbb2 dcbe ac40 c13e bc37 6a3f ba33 733e
00000220: 083c 87be 4d1e 49bf c8bc 733f 43ab c6be
00000230: c2ff 2b3f a39d 68bf 237d 7c3f fdd7 7e3e
00000240: 00fc b6be b6a1 0e3e 74fe 5d3c 15af 423f
00000250: d413 9ebe b4a4 dfbd 9b5e 8a3e 7d8b d83d
00000260: a3a2 0abf c09f 9bbe e3b2 46bd 82fd 60bf
00000270: aeda 193f d7df 7ebe 40a3 a8be 35ab 93bd
00000280: ffc6 193d 0a23 6b3f ebfd 47bd 98ab 56be
00000290: 8a18 44bf 19f8 753e fd2a 00bd 52ef 60be
000002a0: fa7c 7abf e69a cd3e 81e8 8d3e fc25 093f
000002b0: 400a 303e ad57 613e 8454 c63d 3266 1b3f
000002c0: 0a07 e2be dc91 3f3f 4d9f e2b9 73f1 3abf
000002d0: ec52 c9be 37d0 d53e 2827 0a3c eb89 31bf
000002e0: 11f1 ddbe b919 c1be eda1 b8bd 02fb 73bf
000002f0: 6b5b 123f 0ff9 e03d eee0 2fbf 2cd5 d1bc
00000300: c5a9 ecbd 7c93 263e c30a 04bd 4a60 d63e
00000310: 8b0d 93be 9f35 8ebf c159 57be 1573 b53e
00000320: 6700 343e d995 3c3f 43d7 373e 2dc1 f63e
00000330: 6ddc a13e 3753 993e 9bdf b63d ad22 0c3f
00000340: ddd7 0fbf 6804 073f feac 0f3e b37b 8d3e
00000350: 816a c23e 7793 1cbe 351a 4bbe 639e 4fbf
00000360: 011a 4c3e a6da c13d d6eb 083f 2525 c0bd
00000370: 02db 843d 4f45 c5be ab9e 54bf 7ac2 a83e
00000380: 8b59 103f 2699 28bf 3810 eb3e 4edc 22bf
00000390: 8790 a23e bd97 803e 2de8 5abf c572 abbe
000003a0: 83fa 11be 5d81 a1be c021 d7be c78e cf3e
000003b0: 7e2b b0be b6d8 87be ea06 20bf 0018 b23e
000003c0: dcc0 1c3e 4f8e 80be b3e1 1ebe 0644 a7be
000003d0: 9e0f 313e 3ec0 5c3e 9b1f e93e 7274 cabe
000003e0: bfec 433e 616a a63f 261c d5be 7054 7dbe
000003f0: cbdc ec3e 2656 5b3e 97c8 003e 3ea7 14bf
0.18591762 -0.16847123 -0.31793913 -0.4718089 0.35798967 0.9687921 0.24039815 0.995147
0.7027418 0.8464863 -0.42759398 0.22498569 0.047563855 -0.15339555 -0.07759941 -0.089597724
0.27118358 -1.4594963 0.24005951 0.7760501 -0.14830662 -0.48707876 0.2744707 0.4918724
-0.28430113 0.5539761 -0.53788906 -0.061655007 -0.22807252 0.80865127 -0.80773747 0.14177607
-0.042599898 0.47253913 0.72780454 -1.1497262 1.5796827 -0.22239038 0.8046792 -0.37506846
-0.09429324 0.5447474 0.17285292 -0.38861275 -0.32225716 -0.41651693 0.54422754 -0.06666732
-0.19573697 -0.71768874 0.41010717 -0.40640885 0.19110675 -1.1713812 -0.5492685 0.7883317
-0.4326557 0.5363367 0.3407555 -0.34272337 -0.34916455 -0.5038179 0.34678924 0.6889315
-0.20399186 -1.0858349 0.6067521 0.26322487 0.0040040803 -0.6413357 0.21219668 -0.0080723595
-0.408939 0.4181394 -0.0654267 0.5115212 -0.15850201 0.022251695 -0.291887 0.29309818
-0.61807376 0.29807988 0.35145545 0.43865943 0.24838537 0.04177041 0.7346879 -0.5188788
-0.41681844 0.5604996 -0.58834475 0.9894238 -0.57592285 -0.088842906 -0.07613139 -0.32649446
-0.007284268 0.93830687 -0.22029431 -0.5222835 -0.16477484 -0.7886363 0.021810949 -0.31579623
0.3880121 0.6753489 -0.58235675 -0.37922597 -0.07376525 0.25523984 0.36768448 -0.33575836
-1.2380699 0.31267166 0.23932411 -0.14531882 0.13568749 0.07960035 -0.14757518 0.019646913
0.31750667 0.21540944 -0.4040888 1.0442098 0.4793 0.014517522 -0.24065273 0.39182264
0.32235292 -0.61913776 0.36355472 0.046349358 -0.4310511 0.37744653 0.91491294 0.23750201
-0.26412988 -0.7856186 0.9520993 -0.38802537 0.6718713 -0.90865535 0.98628443 0.2488708
-0.35739136 0.13928875 0.013549436 0.76048404 -0.30874503 -0.109200865 0.27025303 0.1057348
-0.54154414 -0.30395317 -0.048510443 -0.8788682 0.60099304 -0.24890076 -0.3293705 -0.072103895
0.037543293 0.9185034 -0.04882614 -0.20963895 -0.76599944 0.24020423 -0.031290997 -0.21966293
-0.9784695 0.4015724 0.2771645 0.53573585 0.1719141 0.22006102 0.09684089 0.6070281
-0.44145995 0.7483194 -0.00043224767 -0.7302467 -0.39321077 0.41760418 0.008432187 -0.6935107
-0.43347982 -0.37714937 -0.0901526 -0.9530488 0.5717074 0.10985004 -0.6870259 -0.025614344
-0.115558185 0.16267198 -0.032236826 0.41870338 -0.2872127 -1.1110114 -0.21030332 0.35439363
0.17578278 0.7366615 0.1795321 0.48194256 0.31613484 0.299463 0.08929368 0.5474041
-0.56188756 0.527411 0.14030835 0.27633438 0.3797188 -0.15290628 -0.19834216 -0.81101054
0.19931795 0.09465532 0.5348486 -0.09382085 0.06487085 -0.3852944 -0.8305461 0.32960874
0.5638663 -0.65858686 0.4591081 -0.6361741 0.3175089 0.25115767 -0.8551052 -0.33486
-0.14255719 -0.3154401 -0.42017937 0.40538618 -0.34408182 -0.26532525 -0.6251055 0.34783936
0.15307945 -0.25108573 -0.15515785 -0.32669085 0.17291114 0.2155771 0.45531926 -0.39541966
0.1913328 1.3001214 -0.41623038 -0.24739242 0.46262202 0.21419582 0.12576519 -0.5806769

network_body._body_endoder.seq_layers.0.bias f4 [128]
00000000: 0000 0000 0000 0000 0000 0000 0000 0000
00000010: 0000 0000 0000 0000 0000 0000 0000 0000
00000020: 0000 0000 0000 0000 0000 0000 0000 0000
00000030: 0000 0000 0000 0000 0000 0000 0000 0000
00000040: 0000 0000 0000 0000 0000 0000 0000 0000
00000050: 0000 0000 0000 0000 0000 0000 0000 0000
00000060: 0000 0000 0000 0000 0000 0000 0000 0000
00000070: 0000 0000 0000 0000 0000 0000 0000 0000
00000080: 0000 0000 0000 0000 0000 0000 0000 0000
00000090: 0000 0000 0000 0000 0000 0000 0000 0000
000000a0: 0000 0000 0000 0000 0000 0000 0000 0000
000000b0: 0000 0000 0000 0000 0000 0000 0000 0000
000000c0: 0000 0000 0000 0000 0000 0000 0000 0000
000000d0: 0000 0000 0000 0000 0000 0000 0000 0000
000000e0: 0000 0000 0000 0000 0000 0000 0000 0000
000000f0: 0000 0000 0000 0000 0000 0000 0000 0000
00000100: 0000 0000 0000 0000 0000 0000 0000 0000
00000110: 0000 0000 0000 0000 0000 0000 0000 0000
00000120: 0000 0000 0000 0000 0000 0000 0000 0000
00000130: 0000 0000 0000 0000 0000 0000 0000 0000
00000140: 0000 0000 0000 0000 0000 0000 0000 0000
00000150: 0000 0000 0000 0000 0000 0000 0000 0000
00000160: 0000 0000 0000 0000 0000 0000 0000 0000
00000170: 0000 0000 0000 0000 0000 0000 0000 0000
00000180: 0000 0000 0000 0000 0000 0000 0000 0000
00000190: 0000 0000 0000 0000 0000 0000 0000 0000
000001a0: 0000 0000 0000 0000 0000 0000 0000 0000
000001b0: 0000 0000 0000 0000 0000 0000 0000 0000
000001c0: 0000 0000 0000 0000 0000 0000 0000 0000
000001d0: 0000 0000 0000 0000 0000 0000 0000 0000
000001e0: 0000 0000 0000 0000 0000 0000 0000 0000
000001f0: 0000 0000 0000 0000 0000 0000 0000 0000
0.0 0.0 0.0 0.0 0.0 0.0 0.0 0.0
0.0 0.0 0.0 0.0 0.0 0.0 0.0 0.0
0.0 0.0 0.0 0.0 0.0 0.0 0.0 0.0
0.0 0.0 0.0 0.0 0.0 0.0 0.0 0.0
0.0 0.0 0.0 0.0 0.0 0.0 0.0 0.0
0.0 0.0 0.0 0.0 0.0 0.0 0.0 0.0
0.0 0.0 0.0 0.0 0.0 0.0 0.0 0.0
0.0 0.0 0.0 0.0 0.0 0.0 0.0 0.0
0.0 0.0 0.0 0.0 0.0 0.0 0.0 0.0
0.0 0.0 0.0 0.0 0.0 0.0 0.0 0.0
0.0 0.0 0.0 0.0 0.0 0.0 0.0 0.0
0.0 0.0 0.0 0.0 0.0 0.0 0.0 0.0
0.0 0.0 0.0 0.0 0.0 0.0 0.0 0.0
0.0 0.0 0.0 0.0 0.0 0.0 0.0 0.0
0.0 0.0 0.0 0.0 0.0 0.0 0.0 0.0
0.0 0.0 0.0 0.0 0.0 0.0 0.0 0.0

network_body._body_endoder.seq_layers.2.weight f4 [128, 128]
00000000: 1e0c c5bd 57ee 813d 6531 a9bd fdbf a9bc
00000010: 8597 76bd 459c 21be b430 a7bd 353c 593d
00000020: d972 eb3d 9ef6 2e3b f7a6 ebbd f42d 9a3d
00000030: 72cc 20bb 6b69 9abd 5deb 21bc 586c 3ebd
00000040: 803b d33d f8e6 a33d 0894 d9bd 329e e3bd
00000050: 07d2 a33c 6d9a b1bd 0cb7 4a3d 4621 fbbd
00000060: f451 3fbd f4a4 b6bc e4c7 19be d9af 9a3d
00000070: b823 0dbd 0d57 a4bc 0d44 9ebc 7b4e 06bd
00000080: deb9 49bd e39b 34bd d7e5 2f3c 697e debd
00000090: 9e02 54bc 1b1a 16bd 9eaa 05be e789 50bc
000000a0: f6f2 e7bd 09cf 603c 854b 073e fe97 7fbd
000000b0: f8b0 33be 36ad 96bd 05fc a6bd db8e 5cbd
000000c0: bf00 8dbc 5865 933d f17c ba3c e0fa 3dbe
000000d0: 3d80 9fbd c0a7 bb3d 66c0 043d 3912 e6bc
000000e0: 0d33 1bbe 4993 9d3d bf50 31bd 6dba c83d
000000f0: 8f32 f3bd b6c5 9abd 8fea fabc 90b7 7a3e
00000100: 8a60 d3ba 125e e8bd a56e cebd a915 163d
00000110: 13f2 28bd 2f90 26bd 7b8b 0bbd ff3c 863c
00000120: 8ed8 fbbd 6ff3 003d f6a1 333d b510 043e
00000130: ed3c c3bd 59ab 24bd 0ab9 9d3b e088 3d3e
00000140: c410 763c b990 7cbb c755 a3bb 6a79 d5bc
00000150: adde 6bbd e3ef f2bc 897b 863d e697 b23d
00000160: a10c 8abd 6c18 293d 44fe fb3b b67b 5b3d
00000170: 8376 87bd 4a65 af3b 5263 1abd 91e1 353d
00000180: cd22 2ebe a55b c53c 554a e5bd 73c0 953d
00000190: 8ffd 483d 7bc7 c8bd 91f7 32be 082a fb3d
000001a0: b6f3 173e c9d6 78bc 659d ea3c 9559 c6bd
000001b0: 1949 8b3d bd4f 3ebd 01b2 b8bc 6696 333e
000001c0: 7ca1 093e bdfb 7f3d 494f b9bd a3ba d73d
000001d0: c689 023c e2d5 cbbd 5e90 81bd fea4 32bd
000001e0: 143e 4c3d 5720 1b3e 64a2 f13d 6f87 74bd
000001f0: 6ecc bfbb 7909 d63c d192 ecbb 449d 363b
00000200: c3a0 84bd a885 28bd f007 cf3d c1e4 9bbc
00000210: 784f 0d3e a0cf d0bd 3b11 1fbe 125a 94bd
00000220: c1df 80bd ef53 acbd 7b01 763c 411c 81bd
00000230: b24a 91bd ebf6 1dbd 768d 80bd a962 d0bd
00000240: de83 0b3e 70ce 0abe 45b6 12be 0344 b13d
00000250: 800d c9bd 63ff 113e e699 f03d 46ad 963d
00000260: d15d 163c 5648 96bd d594 a23b 441f f2bd
00000270: 454a 3bbc 1197 133d 27b8 babc 6fdb 0cbe
00000280: 205a 10bd 7ed8 603d f4bb 973c aa30 723d
00000290: 396f a1bc 4ffc dfba cf8f a9bd 6f95 45bd
000002a0: 02cc f5bb 8e6d 653c cfd3 c03c 190a b13d
000002b0: 184c 3d3d 7ce3 bb3d 458e b3ba 126f 5e3d
000002c0: 7f98 c43c 751b 17be 7c94 d93d e217 9a3d
000002d0: e4a0 d7bc b8f6 bbbd dc40 f73d 7a30 6abd
000002e0: 8104 a33c fe3b 5c3c b2bb 27bc 7ed0 63bd
000002f0: 4928 be3c 9e77 e63d 8f4a 0abd 9436 ebbd
00000300: 50c6 1fbd 1ac8 3b3d f64d d1bc 5f1f 463d
00000310: b4e5 cabd 5d6e 823d 52e5 c5bc 6bbb 12bc
00000320: 1cfc 0fbe 9b80 c8bc 9805 15bc 936b c5bc
00000330: 0745 1a3e a2f3 d1bd 6237 413e be7e 12be
00000340: 87d3 8a3d 2c3d 263e cbfc 963d 38de 89bd
00000350: e4ea f3bd a7cd e23d 1ab9 773e fda5 8b3d
00000360: 69fc 8a3c 1393 bebb 3e21 04bd 22d7 a7bd
00000370: 10f5 adbd e90c 1a3e 4d76 ebbc 61cb e63c
00000380: ee1c 703e 3ec8 de3c d4aa acbd 2236 213e
00000390: 9d4c f8bd b3eb 193d 8a3c b43c cb47 903d
000003a0: e45e 283e 7b81 80be f74e 0ebd 35f9 ce3b
000003b0: 5603 f1bc b712 06bc 629f bf3d 48c6 44bd
000003c0: 6c21 273e b50b b5bd def2 7f3d f7c6 c7bc
000003d0: c976 b23d 2423 973d f08f c6bd 1269 8dbd
000003e0: fdc0 33bd 93de 683d 4b50 9b3b 0400 cabd
000003f0: 344f b43c 321c 173e 2ef9 a5bc 0466 1bbd
-0.09621452 0.06344288 -0.082613744 -0.02072143 -0.060203094 -0.15782268 -0.08163586 0.053035934
0.11496515 0.0026697288 -0.115064554 0.07528296 -0.0024535921 -0.07539638 -0.009882775 -0.046490043
0.10314083 0.08003038 -0.10623938 -0.11114158 0.01999761 -0.086720325 0.049490973 -0.12262206
-0.046709016 -0.022295453 -0.15017658 0.075530715 -0.034457892 -0.02006104 -0.019319559 -0.03278969
-0.049249522 -0.044093978 0.01073595 -0.108639546 -0.012940077 -0.03664599 -0.13053367 -0.012728191
-0.11325638 0.013721236 0.13212402 -0.06240081 -0.17547977 -0.07357256 -0.08153538 -0.053847175
-0.01721227 0.07197064 0.022764655 -0.18552732 -0.077881314 0.09162855 0.032410048 -0.028084861
-0.15156193 0.07694108 -0.043289896 0.09801183 -0.11874878 -0.075572416 -0.030629424 0.24484086
-0.0016126793 -0.113460675 -0.100796975 0.03664175 -0.041246485 -0.040664848 -0.034068566 0.016386507
-0.12297164 0.031482156 0.04385563 0.12896998 -0.09533105 -0.040202472 0.004813318 0.18509245
0.015018646 -0.003853841 -0.0049845907 -0.026058871 -0.057585407 -0.029655403 0.06566531 0.087203786
-0.0674069 0.041283056 0.007690223 0.053584777 -0.06614401 0.005352651 -0.037692375 0.04440457
-0.17005463 0.024091551 -0.11195818 0.073120974 0.049069937 -0.09803673 -0.17477252 0.12263876
0.14839062 -0.0151879275 0.028639505 -0.09685055 0.06801052 -0.046462763 -0.022545816 0.17537841
0.13440508 0.062495936 -0.090483256 0.10533645 0.007967418 -0.09952904 -0.06326364 -0.04361438
0.04986389 0.15149055 0.11798552 -0.059699472 -0.0058532273 0.026127564 -0.0072196503 0.0027864734
-0.06475975 -0.04114309 0.10108936 -0.019029977 0.13799846 -0.10195851 -0.15533917 -0.07243742
-0.06292678 -0.084144466 0.015015001 -0.06304217 -0.07094325 -0.038565557 -0.062769815 -0.10175068
0.13624522 -0.13555312 -0.14327343 0.0865555 -0.09817028 0.14257579 0.11748104 0.07357268
0.009177641 -0.07338016 0.00496159 -0.1182237 -0.011431281 0.03603274 -0.022792889 -0.13755582
-0.0352422 0.054893963 0.01852224 0.05912844 -0.019706355 -0.0017088744 -0.082793824 -0.048238214
-0.0075011263 0.014003171 0.023538498 0.08644504 0.046215147 0.091742486 -0.0013699016 0.054305144
0.023998497 -0.14756568 0.10624024 0.075240865 -0.026321836 -0.09177917 0.12072918 -0.057175137
0.019899609 0.013442038 -0.010237621 -0.055618756 0.023212569 0.11253284 -0.03376251 -0.11485019
-0.039007485 0.04584513 -0.02554987 0.04836976 -0.09907094 0.063687064 -0.0241572 -0.008955817
-0.14061016 -0.024475386 -0.009095572 -0.024099147 0.15065394 -0.102515474 0.18868783 -0.14306161
0.06778627 0.16234273 0.07372435 -0.06731838 -0.11910036 0.11074381 0.24191704 0.06818769
0.016966062 -0.0058158725 -0.032258265 -0.0819533 -0.084940076 0.15043987 -0.028742934 0.02817315
0.23448536 0.027195092 -0.084310204 0.15743306 -0.12123988 0.037578296 0.022001524 0.070449434
0.16442448 -0.25098786 -0.034743275 0.006316329 -0.029420536 -0.008183173 0.09356572 -0.04804066
0.16321343 -0.088401236 0.062487476 -0.024386866 0.08714063 0.073797494 -0.09695423 -0.06904806
-0.04388522 0.05685289 0.0047397963 -0.09863284 0.022010423 0.1475685 -0.02026042 -0.037939087

network_body._body_endoder.seq_layers.2.bias f4 [128]
00000000: 0000 0000 0000 0000 0000 0000 0000 0000
00000010: 0000 0000 0000 0000 0000 0000 0000 0000
00000020: 0000 0000 0000 0000 0000 0000 0000 0000
00000030: 0000 0000 0000 0000 0000 0000 0000 0000
00000040: 0000 0000 0000 0000 0000 0000 0000 0000
00000050: 0000 0000 0000 0000 0000 0000 0000 0000
00000060: 0000 0000 0000 0000 0000 0000 0000 0000
00000070: 0000 0000 0000 0000 0000 0000 0000 0000
00000080: 0000 0000 0000 0000 0000 0000 0000 0000
00000090: 0000 0000 0000 0000 0000 0000 0000 0000
000000a0: 0000 0000 0000 0000 0000 0000 0000 0000
000000b0: 0000 0000 0000 0000 0000 0000 0000 0000
000000c0: 0000 0000 0000 0000 0000 0000 0000 0000
000000d0: 0000 0000 0000 0000 0000 0000 0000 0000
000000e0: 0000 0000 0000 0000 0000 0000 0000 0000
000000f0: 0000 0000 0000 0000 0000 0000 0000 0000
00000100: 0000 0000 0000 0000 0000 0000 0000 0000
00000110: 0000 0000 0000 0000 0000 0000 0000 0000
00000120: 0000 0000 0000 0000 0000 0000 0000 0000
00000130: 0000 0000 0000 0000 0000 0000 0000 0000
00000140: 0000 0000 0000 0000 0000 0000 0000 0000
00000150: 0000 0000 0000 0000 0000 0000 0000 0000
00000160: 0000 0000 0000 0000 0000 0000 0000 0000
00000170: 0000 0000 0000 0000 0000 0000 0000 0000
00000180: 0000 0000 0000 0000 0000 0000 0000 0000
00000190: 0000 0000 0000 0000 0000 0000 0000 0000
000001a0: 0000 0000 0000 0000 0000 0000 0000 0000
000001b0: 0000 0000 0000 0000 0000 0000 0000 0000
000001c0: 0000 0000 0000 0000 0000 0000 0000 0000
000001d0: 0000 0000 0000 0000 0000 0000 0000 0000
000001e0: 0000 0000 0000 0000 0000 0000 0000 0000
000001f0: 0000 0000 0000 0000 0000 0000 0000 0000
0.0 0.0 0.0 0.0 0.0 0.0 0.0 0.0
0.0 0.0 0.0 0.0 0.0 0.0 0.0 0.0
0.0 0.0 0.0 0.0 0.0 0.0 0.0 0.0
0.0 0.0 0.0 0.0 0.0 0.0 0.0 0.0
0.0 0.0 0.0 0.0 0.0 0.0 0.0 0.0
0.0 0.0 0.0 0.0 0.0 0.0 0.0 0.0
0.0 0.0 0.0 0.0 0.0 0.0 0.0 0.0
0.0 0.0 0.0 0.0 0.0 0.0 0.0 0.0
0.0 0.0 0.0 0.0 0.0 0.0 0.0 0.0
0.0 0.0 0.0 0.0 0.0 0.0 0.0 0.0
0.0 0.0 0.0 0.0 0.0 0.0 0.0 0.0
0.0 0.0 0.0 0.0 0.0 0.0 0.0 0.0
0.0 0.0 0.0 0.0 0.0 0.0 0.0 0.0
0.0 0.0 0.0 0.0 0.0 0.0 0.0 0.0
0.0 0.0 0.0 0.0 0.0 0.0 0.0 0.0
0.0 0.0 0.0 0.0 0.0 0.0 0.0 0.0

value_heads.value_heads.extrinsic.weight f4 [1, 128]
00000000: 4267 c6bd 76f6 2d3e 78c4 c1bc 84f6 d03d
00000010: ecc6 d73d 50af b53d e3f4 bdbd a8e2 34be
00000020: ee35 303e 3c0e e0bd c43b 1f3e f0b7 2d3e
00000030: c42c 12be c08b 11bb 8099 cdbc 082d 1abe
00000040: fa41 bbbd 7b2f 36be d212 23be aa78 39be
00000050: 507a 15bd 2c41 803d c08d 91bd 78c1 0a3e
00000060: f509 52be 2c4a 513e 1388 55be 3cde c4bd
00000070: 7894 913c 6839 1a3e b670 f3bd 304b fd3d
00000080: 30a9 563d 5061 083d 08f5 873d 624a 083e
00000090: 042b 7fbd f05c 0fbd 65ea bebd ec79 fb3d
000000a0: 5238 b6bd 70a3 3b3d 04ba c43d f05d 563e
000000b0: 58a8 3fbe acfc 03be be45 293e 58b8 52bd
000000c0: f822 3bbe 2037 4e3c 16c8 92bd 68ba 52be
000000d0: a047 d6bc ffb7 22be 2897 4a3d b01c 2fbe
000000e0: 50c3 223d a0ec b13b f3c3 1cbe 3030 4a3e
000000f0: f8e5 c73d 5cda a73d 9085 b8bd 57fc f1bd
00000100: 3fd8 e0bd 2058 7dbd 080d 38be 3195 28be
00000110: 0bb5 cfbd 407e 6dbb 4542 2dbe e0b8 d23d
00000120: b098 38bd 2210 37be 0002 d3bb 4c31 403e
00000130: 2cf0 58bd 3c33 27be c4a3 24be cc72 083e
00000140: 78b5 593d b42a 0bbe 37db 02be ceb7 4d3e
00000150: ca44 1c3e 7471 14bd 8a9e 3bbe 4449 de3d
00000160: 4aa5 b0bd 76b8 4a3e 52f9 323e 94bc 53bd
00000170: bcbe 01bd 64cf 49be c2d7 513e 768e 35be
00000180: d69a 28be 3caf c1bd 3f6b 3dbe 4aac 203e
00000190: 6843 883d 980b 283d 7805 263e 2cb2 e03d
000001a0: c806 533d f800 7e3d 10f5 0d3d ea2d 15be
000001b0: 3c22 953d d0c9 34bc 33de 59be ef2e 41be
000001c0: 5887 583d b2fc 1e3e a85f b6bd c886 cd3d
000001d0: 4692 3c3e 74e9 523e 22f0 0a3e 6898 1f3e
000001e0: f264 243e fd62 cbbd 6347 27be 3032 97bc
000001f0: d6af 073e a08b 093e 50d2 db3d ce43 53be
-0.096876636 0.16988549 -0.023653254 0.10203269 0.10535988 0.08871329 -0.09275224 -0.17664587
0.17208073 -0.10940215 0.15550143 0.16964698 -0.14274889 -0.0022208542 -0.025097609 -0.1505624
-0.091434434 -0.1779155 -0.15925148 -0.18112436 -0.0364936 0.062624305 -0.07107115 0.13550365
-0.20511611 0.2043845 -0.2085269 -0.096127 0.01777099 0.15060961 -0.11886732 0.123678565
0.052407444 0.03329593 0.06638533 0.13309625 -0.062296882 -0.03500074 -0.09322051 0.12279114
-0.08897461 0.045810163 0.09605792 0.20934272 -0.18716562 -0.12889355 0.16530511 -0.051445335
-0.18275058 0.012586385 -0.071670696 -0.20578921 -0.0261572 -0.15890501 0.04946056 -0.17100787
0.039737046 0.005429819 -0.15309124 0.19744945 0.0976066 0.081959456 -0.0900985 -0.11815708
-0.10978746 -0.06185162 -0.17973721 -0.16463162 -0.10141953 -0.003623858 -0.16919811 0.10289168
-0.04506749 -0.17877248 -0.0064394474 0.18768805 -0.05296342 -0.16328138 -0.16078097 0.13325042
0.053151578 -0.13590509 -0.12778936 0.20089647 0.15260616 -0.03624101 -0.18322197 0.10853818
-0.086252764 0.19796929 0.1747792 -0.051693514 -0.03167604 -0.1970802 0.20492461 -0.17730126
-0.16465315 -0.094572514 -0.18497942 0.15690723 0.06653482 0.04102668 0.16213024 0.109714836
0.05152014 0.062012643 0.034657538 -0.14568296 0.0728192 -0.011034444 -0.21276169 -0.1886556
0.05286345 0.15526083 -0.08904964 0.10035473 0.18415174 0.20596868 0.13568166 0.15585482
0.16054133 -0.0993099 -0.16335826 -0.018456548 0.1325067 0.13432169 0.10733473 -0.20631334
