Client/results/ppo/MoveToGoal/MoveToGoal-512.onnx (onnx, 73585 bytes, 6 tensors)

network_body._body_endoder.seq_layers.0.weight f4 [128, 4]
00000000: 9220 ff3e 3954 4ebf 5b49 a9be e41a 29be
00000010: 68dd bc3d 9038 fbbd 765a 443e ca00 f4be
00000020: bcab 66be 4646 cb3e 51ab 8ebe ddd9 843e
00000030: a8d2 9d3e 9d38 c2bf 3186 0fbf 862d 61be
00000040: 640b 7fbe ef49 f33d acfb 343e eb76 19bf
00000050: 485e 293d d23a 22bf 5e42 203d 8fec aebe
00000060: c69f 83be 7602 223f eb38 ecbe cc42 9abd
00000070: b03c dd3e 5cdc 36bf 1f95 a3be 61e9 39bd
00000080: b3d7 a3be 5f86 04be 0369 23bf 1514 813e
00000090: eb96 3abe f7c3 643e a844 9dbe 2686 623d
000000a0: 637f b3ba 85f9 6e3d 1b4d 83bf f62c 4bbe
000000b0: f704 1e3f 14e1 573f f398 633e 2cda b23e
000000c0: 88a4 afbe 9a54 52be 09d0 9f3f ca7c b8be
000000d0: 92c2 8abc 5777 f03d 32c3 c63c 3871 50bd
000000e0: 27ba 413e e5c1 d5be ab20 bf3e 700f cc3e
000000f0: 5072 01bf ec59 41bf b860 1a3d efff d3be
00000100: 6578 87bf ed99 eabe d539 533f 69f9 323e
00000110: db9a a4be 3829 b8bd 02c5 a7be c299 b73e
00000120: 6833 02bf 2e3a 253e 8a53 0f3f 7749 693e
00000130: 91d2 92be 7383 5bbe 0f54 9a3c cc51 edbc
00000140: 4c0c 22bf 8645 243e dfa9 29bf 3b27 913e
00000150: fcb0 ebbe a0bc 6c3f fed0 a0be bc92 813f
00000160: c154 f8be 03ba ddbe 80ad 283f 61d4 3f3e
00000170: 2d01 3abf 05cf 673f dfe4 01bf 4911 d03c
00000180: 3ae1 073c 8852 82be de04 efbc 5c1b 013f
00000190: 1ed6 4a3c 7836 c8be 95f2 d83d 80fd 89bf
000001a0: b7fd 123f f7e6 573f b3ac 063e 3795 4fbe
000001b0: 7d60 d6bc 2acb 0f3f 1dd3 4e3b c3b2 abbe
000001c0: 0f7b 3a3f 6de2 d1be c504 f83e c83c 94be
000001d0: 67da b6be 1b8f c6bd 39ac 7cbe 67e6 3ebf
000001e0: c866 a0be 21d2 34bd bab7 2ebc 0736 683e
000001f0: a442 7dbe 2c22 2d3d de76 c03e 12b9 f43d
00000200: 22bb 8a3e cb36 0d3f 91f7 40bf b070 773f
00000210: 1d82 01bf f878 013f 6ae9 c5be f97c 0cbe
00000220: 78fe b4be 6de9 a8be 921d ba3d fcaf 16bf
00000230: a95b 1cbf bff7 133f 0f10 833e 02ea 54bf
00000240: e25c b73e 80cd fcbe d09c 953f 1929 a1be
00000250: caeb 263f c334 6f3f a5c7 e6be 727c 10bf
00000260: 4e38 dabe c59c 05bf 8eba 01bf d63e 883e
00000270: b941 3c3e 65ef af3e 9441 3b3e da1c f2bd
00000280: da0f 063f 47d8 5b3f b53c f0be f715 2bbf
00000290: 18d9 f53e 7c89 263f 101c b63b 1984 fcbd
000002a0: ba10 39bf 9eac 983e ad54 e43e da4d df3c
000002b0: 30e1 303e cda7 0dbc a313 8a3e 5824 153f
000002c0: 4ee8 3a3f 8f7a b4be b962 4cbd 2bd3 68bd
000002d0: 96b4 37be 01d4 d43e ce97 3a3c bbad a9bf
000002e0: a6c6 a43e 67e2 61bf 409d 883e 2b15 aabd
000002f0: 4aec 9b3f af89 67be 3d05 9c3f 5638 8c3e
00000300: 8179 013f 2010 8e3d 7460 96be 2249 29bf
00000310: 82dc bbbe 9d69 a63e eb52 e73e f3f8 9b3b
00000320: 7bfd 4abf fd00 26bf 2983 043f c5ac 84bf
00000330: 6701 963e 4e8c 7a3d 728e bf3e 7e74 a4bd
00000340: 8b71 b8be eb85 b9be 28b4 013e 521e f7be
00000350: a6a1 8bbe baac 8fbf 0e40 1ebc 0212 f03e
00000360: 517e 76be d37e 86be b3af 9a3e 974e 653f
00000370: aa46 083c 9d55 e13e c356 07bf 0f95 1c3f
00000380: ade6 c6be c1b2 263f 1525 94bd b831 e1be
00000390: b0f5 1ebf 1b47 7a3e 19d2 a8be 532a 593f
000003a0: 6923 81be 8fba 133f 8ee0 d6be 8729 78be
000003b0: 8351 6c3e 4659 d33d 7aa6 533e b95c 08bf
000003c0: d0c7 463f c549 b0bf a853 c9be caba cfbf
000003d0: abb8 a7be 0a44 41bf 576d 38bf 8958 40be
000003e0: bd13 933e 9c64 42be 9247 833e f20a d0be
000003f0: c3ef 533f da70 723f aa12 9bbe 916d f33e
0.49829537 -0.80597264 -0.33063778 -0.16514164 0.092219174 -0.12266648 0.19175133 -0.47656852
-0.22526449 0.39702052 -0.2786508 0.25947466 0.3082478 -1.5173527 -0.56064135 -0.21990022
-0.24906689 0.11879336 0.1767413 -0.5994708 0.04134968 -0.63371 0.039125793 -0.34164855
-0.25707835 0.63285005 -0.46137175 -0.07532272 0.43210363 -0.7142999 -0.31949708 -0.045388583
-0.32000503 -0.12941884 -0.6383211 0.25210634 -0.18221633 0.2234038 -0.30716443 0.055303715
-0.001369458 0.05834343 -1.0257906 -0.1984137 0.61726326 0.84327817 0.22226314 0.34932077
-0.34305215 -0.20540085 1.2485362 -0.36032706 -0.016938481 0.11741512 0.024262998 -0.050889224
0.18918668 -0.41749492 0.3732961 0.39855528 -0.5056505 -0.75527835 0.037689894 -0.414062
-1.0583616 -0.4582056 0.8251012 0.17477955 -0.32149395 -0.08992237 -0.32767493 0.35859495
-0.5085969 0.16135475 0.55986845 0.22781931 -0.28676274 -0.21436863 0.01883891 -0.028969668
-0.63300014 0.16042146 -0.6627483 0.28350243 -0.46033466 0.9247532 -0.31409448 1.0122905
-0.48502162 -0.43305978 0.6588974 0.1873336 -0.72658044 0.9055026 -0.50739855 0.025398867
0.008293444 -0.2545359 -0.029177126 0.5043237 0.012380151 -0.39104056 0.10593144 -1.0780487
0.5741839 0.843368 0.13151817 -0.20271765 -0.026169056 0.5616938 0.0031558939 -0.33534822
0.7284402 -0.40993062 0.4844114 -0.28952622 -0.35713503 -0.09695264 -0.24675073 -0.74570316
-0.31328416 -0.044145707 -0.010663921 0.2267686 -0.24732453 0.042268917 0.37590688 0.11949362
0.27095896 0.5516173 -0.75377756 0.9665632 -0.5058916 0.5057521 -0.38654643 -0.13719548
-0.35350394 -0.3299059 0.09087671 -0.5886228 -0.6107736 0.57799906 0.2559819 -0.8316957
0.3581305 -0.49375534 1.168848 -0.31476668 0.65203536 0.93439883 -0.45074192 -0.5643989
-0.42621082 -0.52192336 -0.50675285 0.2661044 0.18384446 0.3436233 0.18286735 -0.11821909
0.5236794 0.8587689 -0.46921316 -0.6683039 0.48017192 0.65053535 0.0055575445 -0.12329883
-0.7229115 0.29819196 0.44595852 0.027258802 0.17273402 -0.008645964 0.26968107 0.5825858
0.7301072 -0.35249755 -0.049898837 -0.05684201 -0.17939982 0.41567996 0.011388732 -1.3256143
0.32182807 -0.8823609 0.26682472 -0.08304819 1.2181485 -0.22611116 1.2189099 0.2738673
0.50576025 0.06936669 -0.29370463 -0.66127217 -0.36691672 0.32502452 0.4518045 0.0047599017
-0.7929303 -0.6484526 0.51762635 -1.0365225 0.29297945 0.06116896 0.37413365 -0.080300316
-0.36024126 -0.36234984 0.1266638 -0.4826532 -0.27271765 -1.1224587 -0.0096588265 0.4688874
-0.24071623 -0.26268634 0.30212173 0.89573044 0.008317629 0.4401063 -0.5286676 0.61164945
-0.38847867 0.65116507 -0.07233635 -0.43983245 -0.6209364 0.24441187 -0.32972792 0.84830207
-0.25222328 0.5770654 -0.41968197 -0.24234591 0.23077969 0.10319762 0.20668975 -0.53266484
0.7764864 -1.3772513 -0.39321637 -1.6228878 -0.32758078 -0.75494444 -0.7204184 -0.18783773
0.28725997 -0.18983692 0.2564054 -0.4063335 0.8278772 0.9470345 -0.30287677 0.4754453

network_body._body_endoder.seq_layers.0.bias f4 [128]
00000000: 0000 0000 0000 0000 0000 0000 0000 0000
00000010: 0000 0000 0000 0000 0000 0000 0000 0000
00000020: 0000 0000 0000 0000 0000 0000 0000 0000
00000030: 0000 0000 0000 0000 0000 0000 0000 0000
00000040: 0000 0000 0000 0000 0000 0000 0000 0000
00000050: 0000 0000 0000 0000 0000 0000 0000 0000
00000060: 0000 0000 0000 0000 0000 0000 0000 0000
00000070: 0000 0000 0000 0000 0000 0000 0000 0000
00000080: 0000 0000 0000 0000 0000 0000 0000 0000
00000090: 0000 0000 0000 0000 0000 0000 0000 0000
000000a0: 0000 0000 0000 0000 0000 0000 0000 0000
000000b0: 0000 0000 0000 0000 0000 0000 0000 0000
000000c0: 0000 0000 0000 0000 0000 0000 0000 0000
000000d0: 0000 0000 0000 0000 0000 0000 0000 0000
000000e0: 0000 0000 0000 0000 0000 0000 0000 0000
000000f0: 0000 0000 0000 0000 0000 0000 0000 0000
00000100: 0000 0000 0000 0000 0000 0000 0000 0000
00000110: 0000 0000 0000 0000 0000 0000 0000 0000
00000120: 0000 0000 0000 0000 0000 0000 0000 0000
00000130: 0000 0000 0000 0000 0000 0000 0000 0000
00000140: 0000 0000 0000 0000 0000 0000 0000 0000
00000150: 0000 0000 0000 0000 0000 0000 0000 0000
00000160: 0000 0000 0000 0000 0000 0000 0000 0000
00000170: 0000 0000 0000 0000 0000 0000 0000 0000
00000180: 0000 0000 0000 0000 0000 0000 0000 0000
00000190: 0000 0000 0000 0000 0000 0000 0000 0000
000001a0: 0000 0000 0000 0000 0000 0000 0000 0000
000001b0: 0000 0000 0000 0000 0000 0000 0000 0000
000001c0: 0000 0000 0000 0000 0000 0000 0000 0000
000001d0: 0000 0000 0000 0000 0000 0000 0000 0000
000001e0: 0000 0000 0000 0000 0000 0000 0000 0000
000001f0: 0000 0000 0000 0000 0000 0000 0000 0000
0.0 0.0 0.0 0.0 0.0 0.0 0.0 0.0
0.0 0.0 0.0 0.0 0.0 0.0 0.0 0.0
0.0 0.0 0.0 0.0 0.0 0.0 0.0 0.0
0.0 0.0 0.0 0.0 0.0 0.0 0.0 0.0
0.0 0.0 0.0 0.0 0.0 0.0 0.0 0.0
0.0 0.0 0.0 0.0 0.0 0.0 0.0 0.0
0.0 0.0 0.0 0.0 0.0 0.0 0.0 0.0
0.0 0.0 0.0 0.0 0.0 0.0 0.0 0.0
0.0 0.0 0.0 0.0 0.0 0.0 0.0 0.0
0.0 0.0 0.0 0.0 0.0 0.0 0.0 0.0
0.0 0.0 0.0 0.0 0.0 0.0 0.0 0.0
0.0 0.0 0.0 0.0 0.0 0.0 0.0 0.0
0.0 0.0 0.0 0.0 0.0 0.0 0.0 0.0
0.0 0.0 0.0 0.0 0.0 0.0 0.0 0.0
0.0 0.0 0.0 0.0 0.0 0.0 0.0 0.0
0.0 0.0 0.0 0.0 0.0 0.0 0.0 0.0

network_body._body_endoder.seq_layers.2.weight f4 [128, 128]
00000000: 7f8a a73b 06e0 0abd ba62 d33d 1264 bfbd
00000010: 4256 8bbc 2e61 303d 2220 49be 1cd0 ea3d
00000020: b8b3 05bc 8068 3ebd 3b0f 8abd 086b ea3d
00000030: 9c50 9cbc e341 dbbd b23b f73c 6c31 23ba
00000040: 76b8 653c 48dc 813d b874 1c3d e245 83bc
00000050: 9dc9 243d fea4 e9bd 6fae 843d 0d2f 8a3d
00000060: 6056 fabd 2374 bdbd 3059 373d ec7d 573e
00000070: f900 caba ff1f c6bc 258e 86bc e0af dabd
00000080: b80e 9c3d db12 96bd 9723 afbc bf49 3d3e
00000090: ac62 fd3c d55a 803d f763 063d d929 4bbd
000000a0: c457 19bd f5fc 803d 4c75 74bc c2d6 d1bd
000000b0: 5796 07bd 395b cebd c5a5 bcbc 4e2d e13c
000000c0: cf84 573e e361 02be c94a 893d 719b b8bd
000000d0: b0b5 143c 9c9c 78be 5145 0d3c e500 463d
000000e0: c18e 983c a6f4 91bd 153a bb3d 283c 31bd
000000f0: 54df a73c 380f 0abd ef6c 16be d3f6 ce3d
00000100: 1541 333e 31da 27bd dda5 9c3c 26cf 47be
00000110: 7180 2a3e 8c34 0b3d 512c 633c 6b3d 563c
00000120: b79b 133b 47c7 f7bd ee89 b83d 20b8 f3bd
00000130: bd65 0bbe 8cc3 a6bb 3dee 05be 0a1d a4bc
00000140: fc43 273e d1e1 bebd 8464 0f3e 6120 753c
00000150: 5164 f4bd 4c0f 0c3d 12db 88bd c899 ed3c
00000160: 1a7d 8b3d 20df 9ebc 3c42 543d 2b1a 46bc
00000170: a537 d9bb e177 d33d 0856 d5bd 009d f7bc
00000180: 457a cc3d 57bb 093e f204 673d c6f5 c93d
00000190: 3dbd 5dbd 0337 373d 56ad 293e 86a5 4b3d
000001a0: 3d63 05bd 93c5 f63c 48f6 febd 7b9c d2ba
000001b0: 6ead b8bd adaa acbd 9afe 563d 3003 c93d
000001c0: 6d2e 9fbd a885 623c 5d54 1f3e c123 163d
000001d0: 2b5a e03b 80f0 9abb 5902 b03d 724d bbbd
000001e0: 9beb 833d b7f0 87bd f37b 05bd 5a59 f63d
000001f0: 2fba 0f3e 922c 26be e541 983d 0b0b 4c3e
00000200: ee48 1cbd d79f 39bd 13c2 f4bd 3f88 40be
00000210: 6d6a a03d 589c ff3c d3eb 34be 2329 64bd
00000220: af59 d43d a6c7 673d fcb9 9e3c 81d9 25be
00000230: c15a 8e3d 2520 8dba 4e72 cc3c 0b36 753d
00000240: 443a fcbc 79ed b83c fb07 703d de9d 363d
00000250: 5978 243d 05fa 583d 1c43 983e a3bb ac3d
00000260: e3b2 5ebe e34e 17be d204 d4bd 9b8b 98bd
00000270: e791 29be 4f2b 363c cf94 64bd a90c dc3d
00000280: ce97 45be 6aaa ff3d 8c3c d03d 34a0 87bd
00000290: 839f f03d 6011 e1bd 22a1 b13c 1cf5 3d3d
000002a0: 1da4 debc b5e4 fabd d6a6 203e 4c5a 9c3c
000002b0: 7b78 42be d0a6 a23c 6bc6 2a3d 951e c9ba
000002c0: 4bd8 053e a7e4 473c 3ecc 5d3c 5b0b 3c3c
000002d0: 1b1a 023e 1d79 1cbc 5d71 313d a3cd d6bc
000002e0: 2006 ddbd b5f5 063e 0cc8 563d 3a28 6bbd
000002f0: f768 1fbd 0786 20be 5e0d ebbd 6423 3d3c
00000300: 9233 253e 9e9c 9abd 1a16 12bd 61ea 3b3d
00000310: dfa5 bbbd b64d ca3d b855 f3bc 92ec 07be
00000320: 3b9f f1bb c9cd 9dba a238 85bd 82c5 c23d
00000330: 1bad 653d ae8a c53b 145c debd 5bdb 283e
00000340: 7422 973c 6d21 d5bd 85e9 8f3d 04f5 52be
00000350: 01c7 fa3d d686 1cbe 97fb 8abd 73c5 d23c
00000360: 3e64 02bd 8b4d efbd bd40 4b3d aa48 563d
00000370: 4f52 113d e7d8 9dbc 2115 383a 3ee6 303d
00000380: d6c5 f6bc 6757 8c3d 72ba 623d a706 9a3b
00000390: 8c3d 33bd 53c7 443d d8c7 6bbb f698 b63c
000003a0: b9cd de3d 7965 aabd 9d86 3e3e 372f dd3d
000003b0: e421 723d 8b69 813c b33b 85bd 6713 41be
000003c0: e79c 8d3d dc83 b1bd a00e fcbd 5163 bc3a
000003d0: 32dc a9bd feed b5bb d8fc 96bd 3a31 08bc
000003e0: c498 0bbd 421a 103d 6e92 d8bd fa49 84bd
000003f0: d855 c5bd f531 31bd 7fab bdbd 6841 46bd
0.0051129456 -0.03390505 0.10321565 -0.09345259 -0.017008904 0.043061428 -0.19641164 0.11465475
-0.008160524 -0.046486378 -0.06741186 0.11446196 -0.019081406 -0.10705926 0.030179832 -0.0006225321
0.01402103 0.063408434 0.03819725 -0.016024534 0.040231336 -0.11408423 0.06478583 0.067472555
-0.12223506 -0.09250667 0.04476279 0.21044129 -0.0015411667 -0.024185179 -0.016425202 -0.10678077
0.07619995 -0.07327815 -0.021379275 0.18485163 0.03093084 0.06267325 0.032810178 -0.049600456
-0.037437215 0.06298248 -0.014920544 -0.1024604 -0.03310236 -0.10075993 -0.023028264 0.027487423
0.21046756 -0.12732653 0.06703717 -0.09014023 0.009076521 -0.24278492 0.008622483 0.048340697
0.018622758 -0.07126741 0.09141938 -0.04327026 0.020492233 -0.03370592 -0.14689992 0.10105672
0.17505296 -0.040979568 0.019122059 -0.19512615 0.16650559 0.03398566 0.013865546 0.013076167
0.0022523233 -0.12098556 0.09010683 -0.119003534 -0.13613029 -0.005089229 -0.13079162 -0.020033378
0.16334528 -0.09320415 0.14003187 0.014961333 -0.11933196 0.034194276 -0.06682409 0.029003993
0.068109706 -0.019393504 0.05182098 -0.0120912 -0.006628948 0.103255995 -0.104168 -0.03022623
0.099842586 0.1345037 0.0564012 0.09861331 -0.05413555 0.044730198 0.16570029 0.049718402
-0.032565344 0.030123508 -0.12449318 -0.0016068363 -0.09017454 -0.08430991 0.0524889 0.09815061
-0.07772527 0.013825811 0.15559526 0.03665519 0.0068466864 -0.004728377 0.08594198 -0.09145631
0.064414226 -0.066377096 -0.03258891 0.12028761 0.14035867 -0.1622794 0.074344434 0.19926088
-0.03815549 -0.04531845 -0.11951079 -0.18801974 0.07832799 0.03120248 -0.17668085 -0.055703294
0.10368668 0.056586884 0.019375794 -0.16196252 0.06950904 -0.0010767026 0.024956848 0.059865993
-0.030789502 0.022574173 0.05860136 0.044584148 0.040153835 0.052972812 0.297387 0.08434226
-0.21747927 -0.14776187 -0.10352482 -0.07448503 -0.16559564 0.011118724 -0.055805977 0.10744602
-0.1929619 0.12483676 0.101677984 -0.06622353 0.117491744 -0.10989642 0.02168328 0.046376333
-0.027177865 -0.12250654 0.15688643 0.019086026 -0.18991272 0.019854933 0.041693132 -0.0015344197
0.1307079 0.012200511 0.013537465 0.011477317 0.12705271 -0.00955036 0.043321002 -0.026221102
-0.10792184 0.13179667 0.052436873 -0.05741141 -0.03891846 -0.15676127 -0.11477159 0.011544082
0.16132954 -0.075494036 -0.03566561 0.045877818 -0.09162497 0.098781034 -0.02970396 -0.13273838
-0.007373718 -0.0012039478 -0.065049425 0.09510328 0.05607329 0.006028495 -0.10857406 0.16489927
0.018449046 -0.10406766 0.07026962 -0.20601279 0.12244988 -0.15285811 -0.06786268 0.025728917
-0.03183388 -0.11684712 0.049622286 0.05231539 0.035478886 -0.019268466 0.00070221914 0.043188326
-0.030123632 0.06852608 0.05535359 0.0047005 -0.043759868 0.048041653 -0.003597727 0.022289734
0.10879082 -0.083201356 0.18606038 0.10800021 0.059114352 0.015797397 -0.06505527 -0.18855058
0.06914692 -0.08667728 -0.12307477 0.001437286 -0.08293952 -0.0055520525 -0.07372445 -0.008312518
-0.034081236 0.03518129 -0.10574804 -0.064594224 -0.09635514 -0.043260533 -0.09261226 -0.04840222

action_model._continuous_distribution.log_sigma f4 [1, 2]
00000000: 0000 0000 0000 0000
0.0 0.0

action_model._continuous_distribution.mu.weight f4 [2, 128]
00000000: 2b15 ba3c 202e de38 6bde 6a3c ed2a 50bc
00000010: 987e 29bb e7d9 fd3b 2206 0dbc 5646 4bbc
00000020: ffc2 553c 4024 07bd 1814 0e3c 385d d63c
00000030: 43af e53c 3163 aebc f28b 053c 8ace 523c
00000040: 8b06 0d3c 2ffc 03bd 73d3 8ebc 8c15 08bc
00000050: 9350 11bb 2b4d dbbc 0762 113a bfb1 76bc
00000060: dbdf 88bc c6d3 b7ba 780a 803c 06a1 a33c
00000070: b1ce 3bba c364 643c f360 09bd 1046 80bc
00000080: 5370 acba 6281 79bc 4460 b83b 7d14 73bc
00000090: 5f4c 0b3c ebc8 143b 7340 873c 1796 af3b
000000a0: 9595 7dbc 434a f73c 22f5 a0bc 6814 003b
000000b0: 0a83 dfba 6dbf 023c 8712 f3bc 5ab3 58bc
000000c0: 1bab f0bc 22fe f4ba 274d 9a3a 1778 a5bc
000000d0: 0303 03bd 7b71 133b db13 793c d771 563c
000000e0: 5f57 acbc 1e9c 0e3c 95d2 5e3b 26ec a1bb
000000f0: bab4 f9bc f55f 9dbc 48b5 7fbc 8b65 3a3b
00000100: 1f0a a7bc 3bc1 95bb cfb1 203c 9392 3a3c
00000110: d2ee c63c 4e98 af3a 5316 30bb ff23 8cbc
00000120: b844 66bb abea 2abc 4caa a43c b792 11bc
00000130: 439d a0bc d5d5 813b 85c8 7d3a b2a6 acbc
00000140: 63b5 17bd 73ed de3c 4646 44bc a845 59bb
00000150: ad28 6d3c 63f9 7cbc 7d8d e6ba e0d4 35bd
00000160: dbfc 25bc 7ae9 60bc 6708 9c3c 0b1c a4bc
00000170: 5fdb 8cbb b887 a23c 3a59 8f3b 01aa 423c
00000180: ea82 663c 921c 43bc 2fa0 48bc 7c2a 84bc
00000190: 1403 0c3d 16f7 1b3c 4fd4 8d3c 8b5a febb
000001a0: f7fe 40bc e75f 653c 7003 7ebc ec3f 27bc
000001b0: 526c 12bd 2b4c 06bd 932f 1abd 70cf 76bc
000001c0: 1f40 b33c 4ff8 0dbc c76f df3c b57f b03c
000001d0: ced7 b0bc 0307 b6bc 4f99 2cbc 9ba9 973c
000001e0: da9b a53c 8f1d 8b3b e2b9 5bbc 431c 9dbc
000001f0: b743 bc3c 8d20 f5bc ea1c 7dbc 3d94 ce3c
00000200: e3f1 473d cf1d 1f3c b780 a5bc ec29 0ebc
00000210: afc0 cd3a 5aa8 b9bc b0f9 6fbc 639f c7ba
00000220: 8a7d fe3b ce5e 30bc 8b72 413c 26f2 32bb
00000230: 6b64 363c 3754 153d f87b f0bb dd77 ec3c
00000240: a03d 03bc 54af 813b cf42 bebc 801f 22bd
00000250: 1e3a 0bbc 6b77 fabc d761 85bb e336 a13b
00000260: 60fd 02bc e58d 9ebc d36b 813c 6502 e4bc
00000270: d48a b8bc 2351 42ba fde1 2dbc 303d 6abb
00000280: 7c1e 80ba 4565 e13b 71af adba 5d6f efbb
00000290: 30f6 5d3b cf4e a6bc 0f8e cd3b 0733 913c
000002a0: f7eb 1b3d 139b b03c e3ac 90bc 5b61 f13b
000002b0: 1aab 0c3d 738a 15bb a45c 0f3d e3b2 ac3c
000002c0: 8ae6 d6bb 5be8 f2bc 38da b8bc 92f9 ccbc
000002d0: 901b c73b 58ee e6bb 3f8e 74bc d24e d33c
000002e0: 888e 1e3c a4a7 8c3b e784 9dbb 2a53 e23c
000002f0: e888 6539 85d7 fabb faf5 003a 8f36 3ebd
00000300: 9033 18bd 1d74 6a3a 7e10 8639 c9d6 b9bc
00000310: c5fb 1fbc f161 143c badf dd3b 8af9 cebc
00000320: 0fdc bf3c f6a2 323a a7f6 a1bc b712 673b
00000330: 05d2 623c 8ebe 0f3c 37fb a53a 4651 03bd
00000340: 239f 70bb 153c f8ba 5281 8ebc fc89 21bc
00000350: f330 283d 82ec f93b ef0f 273c 07bc 1cbc
00000360: cbb9 80bb 3dba 413c e597 edbb c7d8 a8bc
00000370: 9031 25bb 8014 ccbc cb79 603c f836 933c
00000380: abe1 e2bc 1393 7cbb 4ac3 723c ff39 3a3b
00000390: 246a 4c3c 1ffa 743c d773 1dbc 4782 28bb
000003a0: 80f9 373c fbec 93bb 686e 5f3d 2394 c2bb
000003b0: 57da ccbc 271b d03c e000 4bbc b314 c9bb
000003c0: 6408 963c e556 3f3c a845 29bc d610 1e3d
000003d0: 7f53 bbbb b2e6 5cbc e774 c53c 66b8 193c
000003e0: f50b 5abc 88d3 1f3c e8bc 4abc 2055 a03c
000003f0: faa8 92bc 4539 e2b9 9c2a 21b9 2bd2 62bc
0.022715172 0.00010594376 0.014335255 -0.012705547 -0.002586281 0.0077469232 -0.008607419 -0.012406906
0.013046979 -0.032993555 0.008671783 0.026167497 0.028037673 -0.021287533 0.008151041 0.012866626
0.008607517 -0.032222923 -0.017434811 -0.008305918 -0.002217327 -0.026770195 0.0005545918 -0.015057026
-0.016708305 -0.0014024905 0.015629992 0.019974243 -0.00071642833 0.013940039 -0.033539724 -0.015658408
-0.0013156034 -0.015228601 0.00562671 -0.014836428 0.008502095 0.0022702764 0.016510224 0.0053584683
-0.015477558 0.030186778 -0.019648138 0.0019543413 -0.0017052602 0.00798021 -0.02967192 -0.0132263545
-0.029378464 -0.001869146 0.0011772261 -0.020198865 -0.031985294 0.002249806 0.015202488 0.013088665
-0.021037756 0.008704213 0.0034000028 -0.004941481 -0.030481685 -0.019210795 -0.015607186 0.0028441872
-0.020390568 -0.004570154 0.009808018 0.011387485 0.0242838 0.0013396831 -0.0026868775 -0.017107008
-0.0035136174 -0.010431926 0.020100735 -0.008885077 -0.019606238 0.0039622583 0.0009681064 -0.02107558
-0.03703822 0.027212834 -0.011979645 -0.003315309 0.01447503 -0.015440318 -0.0017589774 -0.044392467
-0.010131086 -0.01372754 0.019046975 -0.020032903 -0.004298612 0.019840106 0.0043746503 0.011881352
0.014069298 -0.011908667 -0.012245222 -0.01613354 0.034182623 0.009519359 0.01731315 -0.0077622584
-0.011779538 0.013999916 -0.015503749 -0.010208111 -0.035747834 -0.032787483 -0.037643027 -0.015064105
0.021881161 -0.008665158 0.02727498 0.02154527 -0.021587279 -0.02222014 -0.0105345985 0.018513491
0.020215917 0.004245467 -0.013411017 -0.019178515 0.022981508 -0.029922748 -0.015448788 0.02521717
0.048814666 0.009711697 -0.020202978 -0.008676987 0.0015697683 -0.022663284 -0.0146469325 -0.0015229996
0.0077664303 -0.010764791 0.011807094 -0.0027304976 0.01113234 0.036457267 -0.007338997 0.028865749
-0.008010298 0.0039576683 -0.023225216 -0.039580822 -0.008497743 -0.030574521 -0.0040705013 0.004919873
-0.00799498 -0.01935477 0.015798485 -0.027833173 -0.022527136 -0.0007412603 -0.010612962 -0.0035742037
-0.000977471 0.0068785273 -0.0013251138 -0.0073069767 0.0033868663 -0.02030125 0.006273038 0.017724527
0.03806683 0.02155832 -0.017660564 0.007366342 0.034342863 -0.0022818118 0.03500046 0.021081394
-0.006558244 -0.029651811 -0.022564992 -0.025021348 0.0060762838 -0.0070474558 -0.014926492 0.02579442
0.009677537 0.0042924453 -0.004807103 0.027627546 0.00021890143 -0.0076550865 0.0004919466 -0.04643875
-0.03715855 0.0008943694 0.0002557076 -0.022685425 -0.009764616 0.009056554 0.006771055 -0.025265474
0.023420362 0.0006814444 -0.019770933 0.0035258958 0.013844018 0.008773459 0.0012663369 -0.03205993
-0.0036715947 -0.0018938804 -0.01739565 -0.009859558 0.041062307 0.007627071 0.01019667 -0.009566314
-0.0039283982 0.011824188 -0.0072507733 -0.02061118 -0.0025206544 -0.024912119 0.013700913 0.017970547
-0.027695497 -0.0038539812 0.014817068 0.0028415916 0.012476478 0.014952212 -0.009610138 -0.0025712417
0.011228919 -0.0045143343 0.05454865 -0.0059380694 -0.025006456 0.025403572 -0.012390345 -0.0061365007
0.018314548 0.011678432 -0.010331549 0.038590275 -0.0057167406 -0.013482736 0.024103595 0.009382343
-0.013308515 0.009755023 -0.01237414 0.01957184 -0.01790284 -0.00043148748 -0.0001537003 -0.013844053

action_model._continuous_distribution.mu.bias f4 [2]
00000000: 0000 0000 0000 0000
0.0 0.0
