Client/results/ppo/MoveToGoal/MoveToGoal-320.pt (torch, 147458 bytes, 12 tensors)

network_body._body_endoder.seq_layers.0.weight f4 [128, 4]
00000000: bfc1 c2be 460b ccbd 89e3 60be 596f 4bbe
00000010: 4b4b d73e 608a 433f 78c8 39be 6b8a a63f
00000020: ca4b 13be 5afb c8be 5f17 a4be cae3 21bf
00000030: 84e9 29bf 4aba e7be c176 1bbf b141 d63c
00000040: ab39 0a3f b108 713e 9a56 acbe 878c 56be
00000050: 8ff4 983a 9f1a 03bf dd88 c8be 38f0 b03e
00000060: 6d99 bf3d a35f 2f3e 6f82 a03e 3e43 0c3f
00000070: 2d5e 073f 15c8 5f3f e87e 8fbd 1d1e cabc
00000080: 288f 56be 0349 6e3d f7f5 aebe 83c0 e33e
00000090: e353 86bf 9945 973e 6e18 6d3e 2d4f 6c3e
000000a0: 4a5f 11bf 729d 04bf c6a9 7bbf b0e3 083e
000000b0: bbf7 a93e 7080 a2be 5c25 fa3e dd8a 643d
000000c0: 06ca 3ebc e11d 5ebe 1b31 cd3e d7c6 fc3d
000000d0: 7264 c9be 9653 7d3f 1e2e 3bbe 67d0 9fbe
000000e0: 8384 803d 8c61 773e f24c 84bf 336d 203f
000000f0: 6b40 42bf f3fc c23e 3c1b b1be aa79 683e
00000100: 23e6 49be ec2f b23e 3b7d 803e 6b4d aa3e
00000110: eb6c eebe d1e6 b13e a2b9 0c3e cdd0 323f
00000120: d906 313f 146b 9fbe 372e bd3d c0a7 93be
00000130: 5405 7cbe 245e 733f 818d a3bd c12f 82be
00000140: 6fc4 5abf b479 4f3d cc94 cdbd 6186 62bf
00000150: d0dd f2be dd19 e83c bc2e 6b3e f8a9 0b3f
00000160: b046 2ebe df78 2d3f 0a4e 95bc 4786 b13e
00000170: da08 48be 2f80 da3e ded3 203e c577 3a3e
00000180: 4cd2 afbe 453e edbc 4cf0 123f 0299 1ebe
00000190: 19bb 953e 4fe6 033f 25cd aa3e 2b15 b4be
000001a0: fb26 143f 7798 bd3d 3dc6 efbd d1b0 c0bd
000001b0: f337 edbc 4402 643f dfe9 6dbf af86 a13d
000001c0: 9bf2 533e a704 773e 0468 86bf 9188 14bf
000001d0: cccc 0f3f 9a80 303d 80af 26bf 4a22 2e3e
000001e0: 7148 e33c 62e6 2c3f cd52 113f 9483 343e
000001f0: fbfa 2e3f 1989 1abf fe38 2d3d 2265 3a3f
00000200: e289 d9be 6741 23bf 6706 94be d0f9 793f
00000210: cd13 11bf fd80 9dbc 0bf7 853e 6373 cbbd
00000220: 9611 c3be dc26 553e 1330 e63d 2939 473e
00000230: a2f1 4b3f ec9c 7d3e 33ed ebbd e821 043d
00000240: 35cb 93bd ebf5 a23e 105c e63e 2e1e cb3e
00000250: 8f6c 033f 7293 1ebe 873c 07bf f649 e63e
00000260: d8eb b0be fe7d e0be 9c7c b9be 0520 90be
00000270: 034e f63e 7e4f 8e3e 2c4c 0b3f 2c06 613d
00000280: d23a e03c 4309 72be d846 6ebf 4821 ac3e
00000290: fc67 96be 414c d13e 5ec3 c43b bba1 7b3d
000002a0: f971 d4bd 502f 54be 5eb5 83bf 9743 39bf
000002b0: 058b 973f 6068 2fbe 7225 b1be 50b3 5c3d
000002c0: 343b b03d 9caf 1f3f 2fb7 ab3d 5778 873c
000002d0: 9284 c8be 1f15 29be 8889 a8be aba1 a23e
000002e0: f135 0a3f 385f 88be 7c07 cc3e 3c45 a63b
000002f0: fc9e dcbd 0f39 e6bd 43c5 02be 7722 32bf
00000300: c377 84be 1a01 883f 3c9f ff3e c611 b3be
00000310: 3222 1abe 6497 833d 8fff eb3e a1db 3cbf
00000320: 30b0 933b 24c2 d4be f205 d03d 0275 073e
00000330: 985c ab3e 546c 82be 1de0 383f 3e13 2bbe
00000340: e7f6 c63e 71e5 e8be 38e2 e93e afb1 23bf
00000350: a6c5 1e3e 7ad5 513d 9638 093d 674e fabd
00000360: 916f fc3e a371 f83e d59c 153e a860 b13d
00000370: 09eb 023e 32c9 67bf 4f8c a63e 61ea 853f
00000380: b6e6 403f eac6 c0bd cb33 0fbd 1297 243f
00000390: df3b 26bf f4e6 71bc 528c e5be fa57 6d3d
000003a0: b44e 17bf d49e a83e 05ff 3ebe 8694 ae3d
000003b0: d9d4 7b3e 6094 26be 6015 efbe 1fa8 0bbf
000003c0: 5196 f03e a568 2c3e 9e7a c03e e650 0b3f
000003d0: 81e3 0cbd 45e0 af3e 8ac2 a2bd 76de 73bd
000003e0: bc63 053e fbd9 bfbe 4199 debe db8c a33e
000003f0: 7a3b 473e 4f6c f1be ebc8 e23e 3d15 84be
-0.38038442 -0.09963088 -0.21961798 -0.19866695 0.4204963 0.7638302 -0.18142879 1.3010992
-0.1438438 -0.39254266 -0.3204908 -0.63238204 -0.6637194 -0.45259315 -0.6072808 0.026154371
0.53994244 0.23538472 -0.33659822 -0.20952044 0.0011669564 -0.51212496 -0.39166918 0.34558272
0.093554355 0.17126326 0.31349513 0.54790103 0.52878076 0.87414676 -0.07006627 -0.024672562
-0.20953047 0.0581751 -0.3417203 0.44482812 -1.049435 0.29545286 0.2315385 0.23077078
-0.56786025 -0.5180274 -0.9830593 0.13368106 0.33196816 -0.31738615 0.48856628 0.055796493
-0.011644846 -0.21691085 0.40076527 0.12342613 -0.39334446 0.98955667 -0.18279311 -0.31213686
0.062752746 0.24158305 -1.0335982 0.62666625 -0.75879544 0.3808361 -0.3459109 0.22702661
-0.19716696 0.34802186 0.25095543 0.3326219 -0.46567473 0.3474641 0.13742688 0.69849855
0.69151074 -0.31136382 0.092373304 -0.2883892 -0.24611408 0.9506552 -0.07985974 -0.25427058
-0.85455984 0.050653175 -0.100381464 -0.88486296 -0.47434855 0.028332645 0.22967046 0.54556227
-0.17019153 0.6776256 -0.018225688 0.34672758 -0.19534627 0.4267592 0.15705821 0.18209751
-0.3434013 -0.028960356 0.57397914 -0.15488055 0.29244307 0.515233 0.33359638 -0.351724
0.5787198 0.09257596 -0.11707733 -0.09408725 -0.028957343 0.8906596 -0.92934984 0.07887017
0.20698015 0.24122868 -1.0500493 -0.58020884 0.5617187 0.043091394 -0.6511154 0.17005268
0.027744504 0.67539036 0.5676697 0.17628318 0.68351716 -0.60365444 0.04229068 0.72810566
-0.4248801 -0.6377167 -0.28911135 0.9764681 -0.5667084 -0.019226545 0.2616504 -0.09934118
-0.38099355 0.20815605 0.11239638 0.19455399 0.7966558 0.24766892 -0.115198515 0.032258898
-0.07216493 0.31828246 0.44992113 0.39671463 0.5133752 -0.15485933 -0.5282673 0.44978303
-0.34554935 -0.43846124 -0.36227882 -0.2814943 0.48106393 0.27795023 0.54413104 0.054937527
0.027371798 -0.23636346 -0.9307685 0.33619142 -0.2937621 0.4087849 0.006004735 0.061433535
-0.10373301 -0.20721173 -1.0289724 -0.7236876 1.18393 -0.1712966 -0.3459888 0.053881943
0.08605042 0.62377334 0.08384549 0.016536875 -0.39163643 -0.16511963 -0.32917428 0.31763968
0.5398856 -0.26635146 0.3984946 0.0050741713 -0.10772511 -0.11241352 -0.12770562 -0.6958384
-0.2587262 1.0625336 0.49926174 -0.34974498 -0.15052107 0.0642536 0.46093413 -0.7377263
0.004507087 -0.41554368 0.10157384 0.13228229 0.3346908 -0.25473273 0.7221697 -0.16706559
0.38860247 -0.4548755 0.45680404 -0.63943 0.15505084 0.051228978 0.03350123 -0.12221985
0.49303868 0.48524198 0.14610608 0.08661014 0.12784971 -0.90541375 0.32528922 1.0462152
0.75352037 -0.0941294 -0.034961503 0.64293015 -0.64935106 -0.014764536 -0.44833618 0.05794523
-0.59104466 0.32933676 -0.1865197 0.08524422 0.24592914 -0.16267538 -0.46695995 -0.5455341
0.46989682 0.16836794 0.3759355 0.54420316 -0.034396652 0.34350792 -0.07947262 -0.059538327
0.13026327 -0.37470993 -0.43476298 0.31943402 0.19456282 -0.47152945 0.44293913 -0.25797454

network_body._body_endoder.seq_layers.0.bias f4 [128]
00000000: 0000 0000 0000 0000 0000 0000 0000 0000
00000010: 0000 0000 0000 0000 0000 0000 0000 0000
00000020: 0000 0000 0000 0000 0000 0000 0000 0000
00000030: 0000 0000 0000 0000 0000 0000 0000 0000
00000040: 0000 0000 0000 0000 0000 0000 0000 0000
00000050: 0000 0000 0000 0000 0000 0000 0000 0000
00000060: 0000 0000 0000 0000 0000 0000 0000 0000
00000070: 0000 0000 0000 0000 0000 0000 0000 0000
00000080: 0000 0000 0000 0000 0000 0000 0000 0000
00000090: 0000 0000 0000 0000 0000 0000 0000 0000
000000a0: 0000 0000 0000 0000 0000 0000 0000 0000
000000b0: 0000 0000 0000 0000 0000 0000 0000 0000
000000c0: 0000 0000 0000 0000 0000 0000 0000 0000
000000d0: 0000 0000 0000 0000 0000 0000 0000 0000
000000e0: 0000 0000 0000 0000 0000 0000 0000 0000
000000f0: 0000 0000 0000 0000 0000 0000 0000 0000
00000100: 0000 0000 0000 0000 0000 0000 0000 0000
00000110: 0000 0000 0000 0000 0000 0000 0000 0000
00000120: 0000 0000 0000 0000 0000 0000 0000 0000
00000130: 0000 0000 0000 0000 0000 0000 0000 0000
00000140: 0000 0000 0000 0000 0000 0000 0000 0000
00000150: 0000 0000 0000 0000 0000 0000 0000 0000
00000160: 0000 0000 0000 0000 0000 0000 0000 0000
00000170: 0000 0000 0000 0000 0000 0000 0000 0000
00000180: 0000 0000 0000 0000 0000 0000 0000 0000
00000190: 0000 0000 0000 0000 0000 0000 0000 0000
000001a0: 0000 0000 0000 0000 0000 0000 0000 0000
000001b0: 0000 0000 0000 0000 0000 0000 0000 0000
000001c0: 0000 0000 0000 0000 0000 0000 0000 0000
000001d0: 0000 0000 0000 0000 0000 0000 0000 0000
000001e0: 0000 0000 0000 0000 0000 0000 0000 0000
000001f0: 0000 0000 0000 0000 0000 0000 0000 0000
0.0 0.0 0.0 0.0 0.0 0.0 0.0 0.0
0.0 0.0 0.0 0.0 0.0 0.0 0.0 0.0
0.0 0.0 0.0 0.0 0.0 0.0 0.0 0.0
0.0 0.0 0.0 0.0 0.0 0.0 0.0 0.0
0.0 0.0 0.0 0.0 0.0 0.0 0.0 0.0
0.0 0.0 0.0 0.0 0.0 0.0 0.0 0.0
0.0 0.0 0.0 0.0 0.0 0.0 0.0 0.0
0.0 0.0 0.0 0.0 0.0 0.0 0.0 0.0
0.0 0.0 0.0 0.0 0.0 0.0 0.0 0.0
0.0 0.0 0.0 0.0 0.0 0.0 0.0 0.0
0.0 0.0 0.0 0.0 0.0 0.0 0.0 0.0
0.0 0.0 0.0 0.0 0.0 0.0 0.0 0.0
0.0 0.0 0.0 0.0 0.0 0.0 0.0 0.0
0.0 0.0 0.0 0.0 0.0 0.0 0.0 0.0
0.0 0.0 0.0 0.0 0.0 0.0 0.0 0.0
0.0 0.0 0.0 0.0 0.0 0.0 0.0 0.0

network_body._body_endoder.seq_layers.2.weight f4 [128, 128]
00000000: ea15 253d a177 acbc 2603 a2bd 8f9c 50bc
00000010: e887 5abd dcc3 20bd 3a4b 263e a931 7ebc
00000020: ebf9 abbd c4a3 ea3b 156d 3cbb f650 093d
00000030: f86d 913c 33e4 e8bd 89d9 493d 2e49 5e3d
00000040: 8fa7 30bc 159d 5c3c d1e0 f6bd 80b1 0a3e
00000050: d472 003e dac1 853c dbe0 d13c 605b 0cbe
00000060: 5800 173d 187a 113d c7dc e3bd 5233 20be
00000070: 6160 c2bc 88b2 c5bb 1296 8cbd 68b4 debd
00000080: 4262 d6ba 0883 4abc c26d cbbd 5126 d2bd
00000090: 99b3 f0bc 774a 1b3e 2475 403b 1aef 90bd
000000a0: 0f23 9b3c a11b 593b e904 7ebe 4582 1e3e
000000b0: c8fe 88bc 6985 f3bd 87b3 573c 50ed 083e
000000c0: 8c93 2bbd cd65 1dbd 0efc 433d 94f1 533d
000000d0: 3e53 ba3d 67a1 233e fedd 783d 4bf2 b7bc
000000e0: 22c6 043e 12f7 c13c 60da 363e 1ff7 173d
000000f0: 3e2f 69bc 8cd1 663e 75e6 2c3d 9660 2abe
00000100: a48b 8dbd f942 cd3d b043 c43c aaee 89bd
00000110: 0e94 f0bd c90f 66bd 4e31 f73d 9311 58bc
00000120: 8441 e73c 326b a8bc e963 b2bc 6eb7 29be
00000130: 6eb9 ecbc 65c0 813b c398 83bd d559 a33c
00000140: a8de d43d d891 643d 3599 c2bd f585 d7bd
00000150: ff10 a1bd e5e8 d63c 5e04 653e 7adf d9bc
00000160: 26f0 683d 757f b6bd 6eff 463d 4c13 04be
00000170: 15ac c13c 2887 2f3d 45e7 f53b 1c0d 74bd
00000180: c070 653d cb99 a93d 6100 01bd 9b70 dc3b
00000190: 3bb6 cb3d da29 9e3d 3b46 1b3d f6b1 d3bd
000001a0: 959b 45bd 121c 0dbe e3da 03be 96d9 533d
000001b0: 2f75 013e 2ffe 0d3e 35af cb3c 6f84 3dbc
000001c0: 5365 2dbc a73e 523d c4e0 0c3d f478 c93d
000001d0: 962b a83c 3013 fa3c 1e62 40bc 8f1a e73d
000001e0: 61a8 1bbd 7802 473d d2fd 533d 3041 b2bd
000001f0: df67 efbd 3a06 253e f094 6b3e 05b1 1b3d
00000200: 5617 42bb 97b2 a03d d532 6a3d d5e7 b03c
00000210: 5e94 8a3d ddd4 a4bd d1b3 983d 55c2 18be
00000220: 3882 4e3c 999d 88bd d403 25be fc68 dd3d
00000230: 570e 603e 8372 c23d 8678 1b3e 1fff d8bc
00000240: 74b2 d9bb 0e3b 073e 6d38 f0bd fba3 f2bd
00000250: 27d3 c43c 41f9 813d 9183 a13d f560 0abd
00000260: 05b4 8b3d 3c11 e1bd c184 c9bd 0468 21be
00000270: 5569 873c 1a39 3cbd 8236 003e 870d 253c
00000280: 52e0 a4bd 8fe7 58bb 9983 82bd 10f4 a6bd
00000290: 87b6 883d 0af8 a43d 53e7 773d 93ed 6abd
000002a0: 275a d2bd e4e7 aebd aa73 623d 7ef4 5e3d
000002b0: a1db 08bd 481a 973c 8085 373d 9408 47be
000002c0: 8fd8 05bc 430d 08be da6f 133e 5307 453b
000002d0: ec0d f33d 3aec 1c3e ed9b 513e 4032 2dbe
000002e0: 6772 733d 8d49 5dbe 1091 fd3c be0c debc
000002f0: 4120 203d 3345 6dbc cdfe 71bd de09 e2bc
00000300: d6d5 e33d 7770 4dbd 133b ef37 5fe4 043d
00000310: e631 7ebd a02e 4e3e dcda 92bc 7f36 9e3d
00000320: a401 323d c067 a3bc e23d 63bd a98c d6bc
00000330: 5091 d0bd 643f 433b 15fb 07be 84f6 f6bc
00000340: 7b21 afbd 528a 3e3d 273d c9bb 7e6d 383c
00000350: 18df 953b e821 a2bd d20e 473d c7e0 303d
00000360: ab5c 9fbd 97ed e73c 47b4 ed3d f9cf ca3d
00000370: e6a6 6f3d 22b7 0dbd 7d14 adbd c7cb 34bd
00000380: 6118 47be 45f3 993d 9c58 5dbe 9318 05bd
00000390: 34d1 c8bd 212f 22be dc4d a8bd 32b7 253d
000003a0: 7ede 86bd f9e7 83bd b3fd 903d 06e7 293d
000003b0: 47c5 2cbd 669a 1d3d d923 e43d 6217 2d3e
000003c0: 079b f63d a3dd febc 2709 ec3c 2290 b23b
000003d0: 7e8e c7bc 4c0c 473d cdfd 8bbd 2ee7 09be
000003e0: 54aa 35bd bb11 02be 0ebe 6bbd e73a 5b3a
000003f0: 7028 f03d 08b6 40be fe66 a4bd e09c 0f3e
0.040304102 -0.021053137 -0.07910757 -0.012732639 -0.053352267 -0.039249286 0.16239634 -0.01551477
-0.083972774 0.0071606357 -0.0028751541 0.033524476 0.017752632 -0.113716505 0.049279723 0.05426901
-0.010782137 0.013465186 -0.12054599 0.13544273 0.12543803 0.016327787 0.025619915 -0.13706732
0.036865562 0.03551683 -0.11126094 -0.15644577 -0.023727598 -0.0060332455 -0.06864561 -0.108742535
-0.0016356187 -0.012360342 -0.09933044 -0.102612145 -0.029382514 0.15165125 0.0029366696 -0.07076855
0.018937616 0.003312804 -0.2480656 0.15479381 -0.016723052 -0.1189068 0.013165361 0.13371778
-0.04188876 -0.038427163 0.0478478 0.05174406 0.090979084 0.15979539 0.060758583 -0.022454401
0.12966207 0.023677383 0.17856741 0.037100907 -0.014232455 0.22540873 0.04221197 -0.16638407
-0.069114 0.1002254 0.023958057 -0.06734975 -0.11746989 -0.056167398 0.12069951 -0.013187784
0.028229482 -0.020558927 -0.021776156 -0.16573879 -0.028897014 0.003959703 -0.06425621 0.019940296
0.10394031 0.05580315 -0.09501878 -0.10523597 -0.0786457 0.0262341 0.22364947 -0.02659582
0.05686965 -0.08911029 0.04858344 -0.12897986 0.023641625 0.042853504 0.007504376 -0.059582815
0.05601573 0.08281287 -0.031494502 0.006727291 0.09946867 0.07722826 0.037908774 -0.10336678
-0.048244078 -0.13780239 -0.12876467 0.051721178 0.12642358 0.13866495 0.024863819 -0.011567219
-0.01058324 0.05132928 0.03439404 0.09837523 0.020528596 0.030526727 -0.011742143 0.112843625
-0.038002376 0.04858634 0.051755734 -0.0870384 -0.11689734 0.16115656 0.23006034 0.038010616
-0.002961596 0.07846563 0.057177383 0.021594921 0.0676658 -0.08048413 0.07456172 -0.14917882
0.012604289 -0.06670684 -0.16114742 0.1081104 0.2188047 0.094944976 0.15182695 -0.026488839
-0.0066435877 0.13206121 -0.11729512 -0.11847683 0.024026467 0.063463695 0.078864224 -0.03378387
0.068214454 -0.10989615 -0.09839774 -0.15762335 0.016529718 -0.045952894 0.12520793 0.010074026
-0.08050598 -0.0033097004 -0.063727565 -0.0815202 0.06675439 0.08055122 0.060523342 -0.057355475
-0.102711014 -0.085403234 0.055286087 0.054432385 -0.03341258 0.018445149 0.04480505 -0.19436866
-0.008169307 -0.13286309 0.14398137 0.003006418 0.1186789 0.15324488 0.20469637 -0.169137
0.059435274 -0.21610089 0.03095296 -0.027105685 0.03909326 -0.01448183 -0.059080888 -0.027592596
0.1112477 -0.050156083 2.8518529e-05 0.032444354 -0.062059306 0.20134974 -0.017926626 0.07725238
0.043458596 -0.019946933 -0.055478938 -0.026190119 -0.10183966 0.0029792422 -0.13279374 -0.030146845
-0.08551308 0.04651863 -0.006141323 0.011256574 0.004573714 -0.07916623 0.048598118 0.043183114
-0.07781347 0.028311534 0.11606651 0.09902949 0.058508776 -0.034598477 -0.084511735 -0.04413965
-0.19442894 0.07517103 -0.21615833 -0.03249414 -0.09805527 -0.15838291 -0.082179755 0.04045791
-0.06585406 -0.0644073 0.07079639 0.041480087 -0.042180326 0.038477324 0.1113965 0.16903451
0.12041288 -0.031111544 0.028812958 0.005449311 -0.024359938 0.04859571 -0.06835518 -0.13467094
-0.04435189 -0.12702076 -0.057554297 0.0008362964 0.11726463 -0.1881944 -0.08027457 0.14024687

network_body._body_endoder.seq_layers.2.bias f4 [128]
00000000: 0000 0000 0000 0000 0000 0000 0000 0000
00000010: 0000 0000 0000 0000 0000 0000 0000 0000
00000020: 0000 0000 0000 0000 0000 0000 0000 0000
00000030: 0000 0000 0000 0000 0000 0000 0000 0000
00000040: 0000 0000 0000 0000 0000 0000 0000 0000
00000050: 0000 0000 0000 0000 0000 0000 0000 0000
00000060: 0000 0000 0000 0000 0000 0000 0000 0000
00000070: 0000 0000 0000 0000 0000 0000 0000 0000
00000080: 0000 0000 0000 0000 0000 0000 0000 0000
00000090: 0000 0000 0000 0000 0000 0000 0000 0000
000000a0: 0000 0000 0000 0000 0000 0000 0000 0000
000000b0: 0000 0000 0000 0000 0000 0000 0000 0000
000000c0: 0000 0000 0000 0000 0000 0000 0000 0000
000000d0: 0000 0000 0000 0000 0000 0000 0000 0000
000000e0: 0000 0000 0000 0000 0000 0000 0000 0000
000000f0: 0000 0000 0000 0000 0000 0000 0000 0000
00000100: 0000 0000 0000 0000 0000 0000 0000 0000
00000110: 0000 0000 0000 0000 0000 0000 0000 0000
00000120: 0000 0000 0000 0000 0000 0000 0000 0000
00000130: 0000 0000 0000 0000 0000 0000 0000 0000
00000140: 0000 0000 0000 0000 0000 0000 0000 0000
00000150: 0000 0000 0000 0000 0000 0000 0000 0000
00000160: 0000 0000 0000 0000 0000 0000 0000 0000
00000170: 0000 0000 0000 0000 0000 0000 0000 0000
00000180: 0000 0000 0000 0000 0000 0000 0000 0000
00000190: 0000 0000 0000 0000 0000 0000 0000 0000
000001a0: 0000 0000 0000 0000 0000 0000 0000 0000
000001b0: 0000 0000 0000 0000 0000 0000 0000 0000
000001c0: 0000 0000 0000 0000 0000 0000 0000 0000
000001d0: 0000 0000 0000 0000 0000 0000 0000 0000
000001e0: 0000 0000 0000 0000 0000 0000 0000 0000
000001f0: 0000 0000 0000 0000 0000 0000 0000 0000
0.0 0.0 0.0 0.0 0.0 0.0 0.0 0.0
0.0 0.0 0.0 0.0 0.0 0.0 0.0 0.0
0.0 0.0 0.0 0.0 0.0 0.0 0.0 0.0
0.0 0.0 0.0 0.0 0.0 0.0 0.0 0.0
0.0 0.0 0.0 0.0 0.0 0.0 0.0 0.0
0.0 0.0 0.0 0.0 0.0 0.0 0.0 0.0
0.0 0.0 0.0 0.0 0.0 0.0 0.0 0.0
0.0 0.0 0.0 0.0 0.0 0.0 0.0 0.0
0.0 0.0 0.0 0.0 0.0 0.0 0.0 0.0
0.0 0.0 0.0 0.0 0.0 0.0 0.0 0.0
0.0 0.0 0.0 0.0 0.0 0.0 0.0 0.0
0.0 0.0 0.0 0.0 0.0 0.0 0.0 0.0
0.0 0.0 0.0 0.0 0.0 0.0 0.0 0.0
0.0 0.0 0.0 0.0 0.0 0.0 0.0 0.0
0.0 0.0 0.0 0.0 0.0 0.0 0.0 0.0
0.0 0.0 0.0 0.0 0.0 0.0 0.0 0.0

action_model._continuous_distribution.log_sigma f4 [1, 2]
00000000: 0000 0000 0000 0000
0.0 0.0

action_model._continuous_distribution.mu.weight f4 [2, 128]
00000000: 3588 1fbd bbd0 13bc 1e5c 2c3c 7368 ccbb
00000010: 2e80 04bb 665b 1bbc a9dc 9c3c c410 abbc
00000020: 814f 9d3c d572 a4bc 2b37 daba 3381 8a3b
00000030: 7b2a cc3b b24e 223c 9142 0ebc aff0 60ba
00000040: e298 5f3c 7cb2 223c 6ae5 0bbc d26f af3c
00000050: ac30 14bb 3bfe 243d cf6c 013b efe6 e4bc
00000060: 585f 733c 1ae1 9dbc b2a7 94bc 0b81 9eba
00000070: 77c5 783c 2a55 aebc 2772 66bb 4b3b 99bb
00000080: de26 b1bc f7b3 8f3b 3b8b c3ba 35a7 ef3c
00000090: 24f3 9dba 52a4 34ba 068b 133c 9ac5 e53b
000000a0: 3528 f5bb 84d4 20bc c4b4 ba3b a631 9abc
000000b0: 9dfe 5b39 770b 883c 9162 3cbc 3a61 573c
000000c0: 3011 e03b 5066 83bc 550a 9dbc 946d 88ba
000000d0: 38db b5bc 77fc a7ba a7b2 c7bc 6de1 f33a
000000e0: 452e 06bb 1ffc fc3c 0b43 c43b 20a5 69bc
000000f0: 7daf d03b 89f4 943c 7963 213c 0b78 c6bc
00000100: 1629 23ba f3a5 ae3b a392 363c 84e6 1c3c
00000110: 1dfa 053d f26e 3bbb 6b3d c9bc 285f aebc
00000120: 0f0d 873a 8859 8fbc de2f a43b 6d09 533c
00000130: f09c 823c 5615 93bc 2f10 853c f316 bebc
00000140: 7da9 823c 3069 b2bc 633a 4cbd 4ebd 90bb
00000150: 1385 3cbc 6ba1 143c 7d62 ec3c 7ef5 9abb
00000160: 1787 6c3b 61c9 c6bb bfd4 af3c 481e 75bc
00000170: 7bc0 a0b9 bc06 1b3c 9210 56bd 90a2 1abc
00000180: b158 c1bc 2aa1 913b 38d2 f7bb 47a7 de3b
00000190: 9eb5 03bd 5fc4 16bd c4f6 313a 3ed2 43bb
000001a0: c9d5 b0bb 6b99 4fbc eddf efbb 58f8 6bbb
000001b0: f826 66bb bbf4 6bbc 6a4d dfbc b79c 6f3c
000001c0: 9085 06bd 815e b53a 36ee a2bb 1a5a 80bb
000001d0: 8a2c 843c 00e1 b2bb f1a6 07bb 333b c3bc
000001e0: b737 0fbc b422 363c 0dd3 f8b8 42b4 133b
000001f0: b3ed cd3c 8150 c2bb d93c 063c 2e2a 883a
00000200: 92aa cf3c 070d 8f3b 9843 313c 87aa 4c3b
00000210: ad49 073b 3f2d 823c d55a d43c 574d 29bc
00000220: eabe e0bb 4d2e a23c 2b5e 77b8 c18f 093c
00000230: 02dc 7e3c d936 1cbc 6fd5 abbc c8ee 703c
00000240: 6217 a7bc ab8a e03c a682 a33c e060 e63c
00000250: 8377 7e3c 4d28 f2bc 4030 84bc a589 693c
00000260: dfb2 dbb9 08fb e83a ef3c 86ba ad5a 0fbc
00000270: 1566 99ba 85c1 03ba 8fbb ba3c 7910 b83b
00000280: 419d a4ba 0c11 b4ba c4aa 093d ebff 02bc
00000290: 7d2a fd3c eb01 2d3c df7c 32bc e975 bb3a
000002a0: f0de 46bd 5877 26bc 47ab 7a37 5bea 46bc
000002b0: 6042 eb3a 5b5f 83bc a686 06bd 12b1 d0bc
000002c0: a825 863c 7244 45bc f93e 3bbc 8b04 e53b
000002d0: 581a 013c d49c b23c 74f4 2ebd 489d f83c
000002e0: 3379 213c 1b52 363b e53d 2ebc 831c b9bc
000002f0: 3e41 10bb 727e 103c 66ba 4a3c 91d1 8c3b
00000300: e327 9d3c 954c 813c bb06 373d dbd8 b8bc
00000310: 339f e63c ce63 263c fa09 383c cb36 2ebc
00000320: 78fa f2bc 487f fe3b bb6d 95bc 5b13 c83c
00000330: bf54 82bc effd 1bbd df74 db3c 987d 11bc
00000340: f5b9 c3bc ac91 2a3c 9352 9eba b24c eeba
00000350: a887 e63b 4370 5e3c 9e3a 9abc d631 37bd
00000360: d5f7 1c3c b02a 763c 2ea4 1aba 87c2 1fbc
00000370: 28ca 723b b7fa 963c 1fff a13c 2835 61bc
00000380: 11de 9dbc 6699 423b 7016 56bc 3d82 5f3c
00000390: 0fb6 d33c 7203 ecbb 786e 243b 994d 8dbc
000003a0: 67f1 2ebc 9ad1 14bd 4bca 3bbc fa20 be3c
000003b0: 60d0 bebb 808f 463c a3a0 3e3c 8498 c93c
000003c0: 767c 9cb9 5791 2abb 1018 5bbc 5d0d 6cbc
000003d0: 051f 4e3c 0077 31bb 9a7d 643c 1b50 ba3b
000003e0: 6ea2 293c f60e a4bc 1fd2 80bb 77f4 8a3c
000003f0: db4a 18bc 8423 1ebc 40ac 423b 005d f4bc
-0.038948257 -0.009021933 0.010520009 -0.0062380373 -0.0020218003 -0.00948224 0.019148188 -0.020882018
0.01920295 -0.020074287 -0.0016648521 0.0042268275 0.00623065 0.009906458 -0.008682863 -0.00085807865
0.01364729 0.009930249 -0.008538583 0.021415625 -0.0022612019 0.040281516 0.0019748693 -0.027942149
0.014854275 -0.019272376 -0.01814637 -0.0012092901 0.015183798 -0.021280844 -0.0035163255 -0.0046762577
-0.021624979 0.004385467 -0.0014918813 0.029254535 -0.0012050611 -0.0006890941 0.009005314 0.0070120813
-0.0074815997 -0.009816293 0.0056978185 -0.018822502 0.00020980318 0.01660703 -0.011498109 0.013145739
0.0068379864 -0.016039997 -0.019169966 -0.0010408633 -0.022199258 -0.0012816329 -0.02437718 0.0018606611
-0.0020474356 0.03088194 0.0059894375 -0.01426056 0.006368576 0.01818301 0.009850376 -0.024227163
-0.0006224079 0.0053298413 0.011143359 0.009576444 0.03270923 -0.0028600064 -0.02456542 -0.021285608
0.0010303574 -0.017498747 0.005010589 0.012880665 0.015943974 -0.01795451 0.016243069 -0.023204302
0.015949959 -0.021778673 -0.04986037 -0.004417098 -0.011506337 0.009071688 0.028855557 -0.004728972
0.0036091262 -0.0060664867 0.02146375 -0.014960833 -0.00030660987 0.009462055 -0.052261896 -0.009438172
-0.023601862 0.004444261 -0.007562902 0.0067948434 -0.032155626 -0.036808368 0.0006788785 -0.0029879953
-0.005396579 -0.012670855 -0.007320395 -0.0036006179 -0.0035118442 -0.01440161 -0.027258594 0.014624766
-0.03284222 0.0013837368 -0.0049722446 -0.003916991 0.01613452 -0.005458951 -0.002069887 -0.02383194
-0.008741311 0.011116672 -0.00011864873 0.0022537862 0.025137758 -0.005930007 0.008193218 0.0010388547
0.025349889 0.0043655667 0.010819338 0.0031229572 0.002064328 0.015890716 0.025922218 -0.010333381
-0.006858696 0.019797469 -5.897709e-05 0.00839609 0.015555384 -0.009534561 -0.020975797 0.014705367
-0.020396892 0.027409872 0.019959759 0.028122365 0.0155314235 -0.029560233 -0.016136289 0.014254008
-0.00041904204 0.0017775008 -0.0010241548 -0.008749646 -0.0011703396 -0.000502609 0.022794513 0.005617198
-0.0012559072 -0.001373799 0.03361012 -0.007995586 0.030904049 0.010559539 -0.010894029 0.0014302108
-0.048552454 -0.01016029 1.494104e-05 -0.012140836 0.0017948858 -0.01603668 -0.032843255 -0.025475059
0.016375378 -0.012040244 -0.011428588 0.006989067 0.007879816 0.021803297 -0.042713597 0.030348435
0.009855556 0.0027819935 -0.010634874 -0.022596603 -0.0022011544 0.008819209 0.012373542 0.004297443
0.019184059 0.015783587 0.044684153 -0.022564342 0.028152084 0.010155631 0.011232847 -0.010633181
-0.029660448 0.007766638 -0.0182408 0.024423292 -0.01590955 -0.038083967 0.026789127 -0.008880042
-0.023892382 0.010410707 -0.0012079052 -0.0018180816 0.0070352145 0.01357657 -0.018826779 -0.04472526
0.009580572 0.015024826 -0.00058990985 -0.009750969 0.0037046764 0.018430097 0.019774972 -0.013745584
-0.019270929 0.0029693483 -0.013066873 0.013641891 0.025843648 -0.007202559 0.0025090259 -0.017248916
-0.010677672 -0.036332704 -0.011461805 0.023209084 -0.00582318 0.012119174 0.0116349785 0.024608858
-0.0002984737 -0.002602657 -0.013372436 -0.014407483 0.012580638 -0.0027078986 0.013945961 0.005685819
0.010353668 -0.020026665 -0.0039312984 0.016962273 -0.009295191 -0.009652022 0.002970472 -0.029829502

action_model._continuous_distribution.mu.bias f4 [2]
00000000: 0000 0000 0000 0000
0.0 0.0

network_body._body_endoder.seq_layers.0.weight f4 [128, 4]
00000000: 4433 68bd 4e31 19ba 2732 4ebf c374 283f
00000010: 99fc 993e 0664 f5be 5d8f 103d eed7 883c
00000020: 4805 a2be 9d08 c0bd cc4e f13e 1344 763b
00000030: 8b3f 073f c6e6 b4bc 5a14 763e 0e18 03bf
00000040: f770 c2bd 9620 08be 6073 03bf fece 30bf
00000050: d836 f63e 4d45 a1be 6087 a4be b1f9 9f3e
00000060: 2fb4 87bc 412f ab3d 9e3f 6bbe bde3 ba3d
00000070: 00ef d03e ece5 a2be 29c6 a8be 8fa1 103d
00000080: eabb 10bf 34d6 b13e 6043 dfbe cf0d 5b3d
00000090: f2e0 b5be fb67 0c3e f265 dcbd f0ec 84be
000000a0: 1e21 b6be 9d31 20bd 99d8 dbbe b26a 75bf
000000b0: 6be7 a23e 64fc 10bf a1ff 3bbf dec6 e1be
000000c0: da61 073f 544a 0fbe 91c4 42be 06fc 5ebe
000000d0: 0007 91bd 6bca 7b3d b505 8d3e 4928 e93e
000000e0: d0d6 9d3e 6188 963f 075e 3a3f abf7 21bf
000000f0: f4a0 193c 3926 e43e 9e29 31bf af7f f53e
00000100: 77c7 48be fb39 493e 420e 4a3d ced5 b43e
00000110: 33f5 ff3d 581f 2f3f d2e8 28bf d748 14be
00000120: 28db 203f c099 65be 001a 123e 8740 3abe
00000130: b7a6 29bf 5998 b2bf d2f8 8fbf 60f1 69be
00000140: 4a8e 1a3f 3741 92be 157a 83be 7596 da3e
00000150: a6b8 9abe 0125 08be d7c5 db3e 0fac 1f3f
00000160: 62a6 b1bb a759 d43d 5793 043f 80ff 2d3e
00000170: 8374 53be e4a7 f23e 8974 00bf 5791 aebd
00000180: 4a88 2c3f 71c0 283e b056 483f efb3 febd
00000190: 14d5 323e 4dc3 fcbe 2a31 813d a5d2 083e
000001a0: 587c faba 1735 08bf 7b72 063f c8a5 343f
000001b0: 4401 11bf 69ce 20be aa1c dcbe b1b7 d4bd
000001c0: 7b48 c5be 5b18 d1be c2f7 52be ab2e 4f3e
000001d0: 77f4 493d f7c9 883d 1c58 9fbf 5dd0 df3d
000001e0: 0197 3e3f 6305 9bbe e555 95be 3801 27be
000001f0: 44ef 3bbf e835 973e d22c 05be 9bf7 693e
00000200: 1e16 0abe 9acc eebe d9a6 553e 7756 eebe
00000210: 6c98 be3e 2226 05bf 5ab0 99bf f44b 8a3e
00000220: 1d54 5b3f 6ea5 b53d 9838 d63e 9ca8 373e
00000230: 0c92 41bf cfce 42bf 166b 1d3e 79e8 8c3f
00000240: aa95 c2be 16b9 86bf dc48 853b 2306 3abe
00000250: 8826 09be d26b d4bf 9b68 1dbe 89b4 2f3e
00000260: ac65 363f f3ee 0e3e 8c71 983d da36 433e
00000270: 7035 d73e 7e2b 713e c153 033f fe05 ecbd
00000280: e8d9 443e 8f87 5bbf 39a9 99be e3c1 483f
00000290: 7bb8 8fbe 1c1a 3a3d 20ad 2bbf 5b3c abbe
000002a0: c697 813d fa87 ea3e 926f afbf d34f 723e
000002b0: bdb4 763e dabc 63bf ae6b 09bf 0dbd 543e
000002c0: 5a45 e13e 074d d0be 0dcf 073e 1e6d 943f
000002d0: 9f8b 01bf 1d8a 3a3e 350b 52bf 8f03 633e
000002e0: 2d97 563e 092a 1fbe 3ac9 373e 1da9 003f
000002f0: dfaa 06bd 5f7f 0a3f bac3 c0bd 034c 5b3f
00000300: 5057 9fbe 6816 99be 4e7b e63e 6717 23bf
00000310: 0bda 36bf 9081 053e 6448 4a3e a9b3 e7be
00000320: 0dbd b83d 80d3 96be 368b 663e 7e66 2ebe
00000330: a964 79be 71af f7be 3940 99be 2409 d9bd
00000340: d1dd b63e 2da2 cf3e 87a0 07bf 5bdb 69bf
00000350: be8b ad3d b371 7c3f f943 e53e fe2b 583f
00000360: b520 6b3e 3d8c f0be fd84 48bf 7569 23bf
00000370: 449c 2bbe 03cf 363f 320d 52be c487 03be
00000380: 1157 fabe f860 20bf 9df7 0abf d79d e9be
00000390: 14a7 8ebe bc25 d8bd 0769 6e3f e86f c9be
000003a0: 2c8a 0a3f 3925 45bd 43e7 5bbe cd58 21be
000003b0: d022 aabf 4483 523e e63f be3e e096 273f
000003c0: 702b 4cbf d670 903e e508 763d 2fea 6c3e
000003d0: 56a9 9cbf d1f8 2b3f 738a ab3d 25bf 52bf
000003e0: 7de0 d1be c3ab 233e da80 56be 7a24 91bd
000003f0: 0561 5dbe 3e13 97be 5ce0 d4bd 0a4b a33d
-0.056689516 -0.0005843834 -0.80545276 0.65803164 0.3007553 -0.47927874 0.035292972 0.016704526
-0.31644654 -0.09376643 0.4713043 0.0037577196 0.52831334 -0.022082698 0.24031201 -0.5120858
-0.094942026 -0.1329368 -0.51347923 -0.69065845 0.48088717 -0.31498185 -0.32134533 0.31245187
-0.01656541 0.08358622 -0.22973487 0.09125469 0.40807343 -0.3181604 -0.32963684 0.035310324
-0.56536734 0.34733737 -0.4360609 0.053479966 -0.35523182 0.1371154 -0.10761632 -0.2596202
-0.3557214 -0.039109815 -0.42938688 -0.9586593 0.31817183 -0.5663512 -0.73436934 -0.44097036
0.52883685 -0.13993198 -0.19020297 -0.21775827 -0.07081413 0.061472338 0.27543417 0.45538548
0.3082795 1.176037 0.72799724 -0.63268536 0.009376753 0.44560412 -0.6920413 0.47948977
-0.1960734 0.19651024 0.049330004 0.3531937 0.1249794 0.684072 -0.65980256 -0.14480911
0.62834406 -0.22421932 0.1426773 -0.18188678 -0.6627001 -1.3952743 -1.1247809 -0.22845984
0.60373366 -0.2856538 -0.2567908 0.42692915 -0.30219 -0.13295366 0.42924377 0.62371916
-0.0054214457 0.10368662 0.5178732 0.16991997 -0.20649914 0.47393715 -0.5017782 -0.08523815
0.6739546 0.1647966 0.78257275 -0.12436663 0.17464095 -0.49367753 0.063082054 0.13361605
-0.0019110544 -0.5320601 0.52518433 0.7056546 -0.56642556 -0.15703739 -0.4299062 -0.10386599
-0.3853186 -0.40838894 -0.20602325 0.20232646 0.049305405 0.06679147 -1.2448764 0.10928414
0.74449164 -0.30277547 -0.29167095 -0.16309059 -0.73411965 0.29533315 -0.13005379 0.2284836
-0.13485 -0.46640474 0.20864429 -0.46550342 0.37225664 -0.5201131 -1.2006943 0.27011073
0.8567522 0.08869444 0.41840053 0.17935413 -0.75613475 -0.76096815 0.15372881 1.1008445
-0.3800481 -1.0525234 0.0040675234 -0.18166403 -0.13393605 -1.6595404 -0.15371935 0.17158712
0.7124889 0.1395834 0.07443532 0.19063893 0.42032957 0.23551747 0.51299673 -0.115245804
0.1922375 -0.8575372 -0.3001192 0.7842085 -0.28070435 0.045435056 -0.6706104 -0.33444485
0.063277766 0.45806867 -1.3705924 0.23663263 0.24092384 -0.8896004 -0.5367993 0.20775242
0.43998224 -0.40683767 0.13262577 1.15958 -0.5060367 0.18216749 -0.8204835 0.22169326
0.20956106 -0.15543379 0.17947856 0.50258046 -0.0328778 0.541006 -0.09412332 0.8566286
-0.31121302 -0.29899907 0.4501595 -0.63707584 -0.7142646 0.13037705 0.19754177 -0.45254257
0.090204336 -0.29458237 0.22514042 -0.17031285 -0.24354805 -0.4837604 -0.2993181 -0.105974466
0.35716107 0.40553418 -0.5297932 -0.91350335 0.08473919 0.9861099 0.44778422 0.84442127
0.22961695 -0.46981993 -0.78327924 -0.6383279 -0.1675883 0.71409625 -0.20512846 -0.12844759
-0.4889455 -0.6264796 -0.5428408 -0.45628235 -0.27861845 -0.10554072 0.9312901 -0.3934319
0.54117084 -0.0481312 -0.21474938 -0.15756531 -1.3291874 0.20557886 0.37158126 0.6546459
-0.7975378 0.28211087 0.060067076 0.23136209 -1.2239177 0.6717654 0.083760165 -0.82322913
-0.40991583 0.1598349 -0.2094759 -0.070870355 -0.21619041 -0.29506868 -0.10394356 0.07973297

network_body._body_endoder.seq_layers.0.bias f4 [128]
00000000: 0000 0000 0000 0000 0000 0000 0000 0000
00000010: 0000 0000 0000 0000 0000 0000 0000 0000
00000020: 0000 0000 0000 0000 0000 0000 0000 0000
00000030: 0000 0000 0000 0000 0000 0000 0000 0000
00000040: 0000 0000 0000 0000 0000 0000 0000 0000
00000050: 0000 0000 0000 0000 0000 0000 0000 0000
00000060: 0000 0000 0000 0000 0000 0000 0000 0000
00000070: 0000 0000 0000 0000 0000 0000 0000 0000
00000080: 0000 0000 0000 0000 0000 0000 0000 0000
00000090: 0000 0000 0000 0000 0000 0000 0000 0000
000000a0: 0000 0000 0000 0000 0000 0000 0000 0000
000000b0: 0000 0000 0000 0000 0000 0000 0000 0000
000000c0: 0000 0000 0000 0000 0000 0000 0000 0000
000000d0: 0000 0000 0000 0000 0000 0000 0000 0000
000000e0: 0000 0000 0000 0000 0000 0000 0000 0000
000000f0: 0000 0000 0000 0000 0000 0000 0000 0000
00000100: 0000 0000 0000 0000 0000 0000 0000 0000
00000110: 0000 0000 0000 0000 0000 0000 0000 0000
00000120: 0000 0000 0000 0000 0000 0000 0000 0000
00000130: 0000 0000 0000 0000 0000 0000 0000 0000
00000140: 0000 0000 0000 0000 0000 0000 0000 0000
00000150: 0000 0000 0000 0000 0000 0000 0000 0000
00000160: 0000 0000 0000 0000 0000 0000 0000 0000
00000170: 0000 0000 0000 0000 0000 0000 0000 0000
00000180: 0000 0000 0000 0000 0000 0000 0000 0000
00000190: 0000 0000 0000 0000 0000 0000 0000 0000
000001a0: 0000 0000 0000 0000 0000 0000 0000 0000
000001b0: 0000 0000 0000 0000 0000 0000 0000 0000
000001c0: 0000 0000 0000 0000 0000 0000 0000 0000
000001d0: 0000 0000 0000 0000 0000 0000 0000 0000
000001e0: 0000 0000 0000 0000 0000 0000 0000 0000
000001f0: 0000 0000 0000 0000 0000 0000 0000 0000
0.0 0.0 0.0 0.0 0.0 0.0 0.0 0.0
0.0 0.0 0.0 0.0 0.0 0.0 0.0 0.0
0.0 0.0 0.0 0.0 0.0 0.0 0.0 0.0
0.0 0.0 0.0 0.0 0.0 0.0 0.0 0.0
0.0 0.0 0.0 0.0 0.0 0.0 0.0 0.0
0.0 0.0 0.0 0.0 0.0 0.0 0.0 0.0
0.0 0.0 0.0 0.0 0.0 0.0 0.0 0.0
0.0 0.0 0.0 0.0 0.0 0.0 0.0 0.0
0.0 0.0 0.0 0.0 0.0 0.0 0.0 0.0
0.0 0.0 0.0 0.0 0.0 0.0 0.0 0.0
0.0 0.0 0.0 0.0 0.0 0.0 0.0 0.0
0.0 0.0 0.0 0.0 0.0 0.0 0.0 0.0
0.0 0.0 0.0 0.0 0.0 0.0 0.0 0.0
0.0 0.0 0.0 0.0 0.0 0.0 0.0 0.0
0.0 0.0 0.0 0.0 0.0 0.0 0.0 0.0
0.0 0.0 0.0 0.0 0.0 0.0 0.0 0.0

network_body._body_endoder.seq_layers.2.weight f4 [128, 128]
00000000: 8058 943d 9b04 5ebd bd32 ee3c f2b9 c1bd
00000010: 5834 363d 48b6 12bd cc24 cfbc 4800 09bd
00000020: e044 6dbc 2890 503d 4cc8 12bd 4dfd 003e
00000030: d68c 283b 4151 293e 38a6 c1bd f660 01bd
00000040: 7ca3 efbc fb23 4a3e 1f39 9e3d 7d48 f43c
00000050: 7bf9 eebd 3d7d c3bc 3b50 bd3c 25b1 afbc
00000060: 78e7 a6bc 7be5 8fbd 1a24 543d 18a0 bfbd
00000070: d1e5 21be f955 d8bd 7b19 02bd 7d8b 4cbc
00000080: 3037 e33d 6a88 b53d bbca cebb 8134 983d
00000090: 2faa e93c a668 6a3d f6bf a3bd cdca 05be
000000a0: bd80 02bd f632 b73b 4c8c ea3c cc3a 193e
000000b0: 95b3 f7bd 4543 b63d ae5c b73d 17ef 07bd
000000c0: 612d fdbd ab38 133e c3e8 313e 07b0 993c
000000d0: dbea 68bd 8916 8f3d 3981 333d 398c 9ebd
000000e0: 863f b13c b20f 4dbd 57f4 90bd fef5 6cbd
000000f0: e6c5 9e3d deb2 acbd bdc6 3a3e ada9 02bd
00000100: 3081 583d 0552 9dbd b0ea 4ebc f2b7 0cbd
00000110: ec59 68bb 3d70 c1bd 88bb 083d 442b f9bd
00000120: c27f 3e3c 8b47 083d 55f1 b2bd 5679 c0bd
00000130: 3f2b c5be d846 f73c f919 803e b972 ef3c
00000140: d53b 26be e95a f83d 9454 a03d 2037 8a3c
00000150: eb1e dc3d ce99 09be b98c a2bd b508 b33b
00000160: 9840 e0bc a145 ea3d e6e7 b83d 0363 88bd
00000170: 94fa a33c 1c03 8abd 07d3 5fbd 18ba a7bd
00000180: 6986 19be 3ff9 03bd d465 13bd 365f 0cbd
00000190: 7d10 4bbd 32bb d83d 024a 083e 7d4a 04bd
000001a0: d6f9 81bd 9be4 bdbd 92c6 adbd e135 b6bd
000001b0: b17a 13bd 308f 283d 6219 85bd b3cc 663c
000001c0: 6c0d 8cbd 6886 7d3c 4095 18be f93d 4cbd
000001d0: 900a 38bc 4ca5 0bbe 4c74 393d 1b45 833c
000001e0: 4155 883d 4e51 c6bc a02b efbd bd98 68bd
000001f0: f7e9 cd3d 96b8 93bd a699 43be b8bd 0ebc
00000200: 1c68 463e 7755 56bd 780d 003d 354e 043e
00000210: 1033 9abb 262b 263d 50e4 dfbd 94e2 7bbd
00000220: ac4e 34bd f34b 4ebd 4e26 e0bc d293 86bd
00000230: 2ad2 a2bd 44aa 0d3d 830d edbd 3142 5cbd
00000240: b111 29bd 95ff cabd 1226 7a3e 1ba5 a6bc
00000250: dc74 ea3c 1f69 ccbd 8684 64bc 21e8 dc3c
00000260: b85b 30bd d192 6e3d d285 17bd dafa dcbc
00000270: d42c c0bd 8b8b d1bc 6ea8 c9bd faea ae3b
00000280: 5206 a83d 539a 1dbd a68f e53c 264b 8c3d
00000290: 2a74 d03c 4c97 98bd 6528 1e3e 36dd 933d
000002a0: 4058 f23c 3967 b73c c16f c73c b291 91bd
000002b0: 65fe 8cbc 7cc7 123e ed72 90bc 2891 113d
000002c0: f79f 47bd 745b 98bb a665 9d3c 9da2 d0bd
000002d0: 5552 8e3d 79ae cbbd 99e6 c0bc b77e f53d
000002e0: f8d5 ce3d 3e18 25be 5a6f 053e cdac 92bd
000002f0: b671 253d fcee 5dbd 886f 24be 19a8 e0bc
00000300: 19e3 013e e20f c03c 3a98 4c3d d224 5ebb
00000310: cd04 383d ad73 e7bd 1f09 873d 75f2 efbd
00000320: 08c2 3bbb e146 51bd ef4d fabb 260d 5dbd
00000330: 9727 afbd b107 d73d 0202 4f3c 699a 743c
00000340: ce01 5d3e bc42 e6bd 96ea 28be a666 c4bd
00000350: 6c66 033e ce57 4d3d c820 dd39 da2e 5e3d
00000360: f37b c13c 38d7 143e f800 cdbc 451d 333e
00000370: 5e4c 48bd c795 1ebc 3de3 33be 3478 71bc
00000380: 691c b8bd 3bf8 863d ee7f b03c ad83 b63c
00000390: 24ec f2bd 3d9f 2abd 0034 a9bd e576 7a3c
000003a0: d6c0 95bd 9eeb 9abd b44f ef3c 6693 8ebc
000003b0: c56a 78bd e168 5fbc 6c09 c0bb 45b8 123d
000003c0: a024 5cbc d8f2 e6bb 1452 abbb 24d7 c3bd
000003d0: 29d2 ac3b aeb8 bfbc 68fa 8f3d cb5c 02be
000003e0: ba95 a13c 0bc7 c43d 6e71 dabd 675b 083d
000003f0: 71f0 67bd 9148 453d 7505 a63c 7737 85bd
0.072434425 -0.05420361 0.029076928 -0.094592944 0.044483513 -0.03581837 -0.0252861 -0.033447534
-0.014481753 0.050918728 -0.03583555 0.12596627 0.002571871 0.16534902 -0.09455532 -0.03158661
-0.02925276 0.19740288 0.07725739 0.029819721 -0.116686784 -0.02386343 0.023109546 -0.021446774
-0.020374045 -0.07026192 0.05179224 -0.09356707 -0.15810324 -0.10563273 -0.03176258 -0.0124844285
0.110945106 0.088639095 -0.0063107884 0.07431889 0.028523533 0.057228707 -0.07995598 -0.13065644
-0.031861056 0.005590792 0.028631352 0.14963835 -0.120947994 0.088995494 0.08953224 -0.033187
-0.12362171 0.14377086 0.17373948 0.018760694 -0.0568646 0.0698672 0.04382441 -0.07741589
0.021636736 -0.050063796 -0.07077854 -0.057851784 0.0775259 -0.08432554 0.18239875 -0.031900097
0.052857578 -0.076816596 -0.012629196 -0.03435511 -0.0035453988 -0.09445236 0.03338197 -0.121664554
0.0116271395 0.033271354 -0.08737437 -0.09398143 -0.38509557 0.030185148 0.25019816 0.029229509
-0.16233762 0.12126715 0.07828632 0.016871989 0.10748085 -0.13437578 -0.07936997 0.0054636844
-0.02737455 0.11439062 0.09028606 -0.0665951 0.020016946 -0.06738874 -0.05464461 -0.081897914
-0.1499268 -0.03222012 -0.035985783 -0.034270488 -0.04957627 0.1058258 0.13309482 -0.0322976
-0.063464805 -0.09272119 -0.0848514 -0.08896995 -0.03600568 0.04115218 -0.06498982 0.01408689
-0.068384975 0.0154739395 -0.14900684 -0.04986379 -0.011232987 -0.13637275 0.045276925 0.016024163
0.06656886 -0.024208691 -0.11678243 -0.056786288 0.10054391 -0.07212941 -0.19101581 -0.008712225
0.19375652 -0.0523276 0.031262845 0.12920459 -0.004705794 0.040568493 -0.10932219 -0.06149538
-0.04402034 -0.0503654 -0.027362015 -0.06571163 -0.07950242 0.034586206 -0.11574843 -0.053774063
-0.041276637 -0.0991203 0.24428585 -0.0203424 0.028620176 -0.09980988 -0.013947612 0.026966156
-0.04305622 0.058245484 -0.036992855 -0.026975084 -0.0938355 -0.025579235 -0.098465785 0.00533807
0.082043305 -0.038477253 0.028022598 0.06850271 0.025446016 -0.074507326 0.15445097 0.07219927
0.029583097 0.022388088 0.02434528 -0.07107867 -0.017211149 0.1433391 -0.017632926 0.035538822
-0.04873654 -0.004649574 0.019213509 -0.10187266 0.06949297 -0.099453874 -0.023547458 0.119870596
0.10099405 -0.16122529 0.13030759 -0.071618654 0.040391646 -0.05418299 -0.16058171 -0.027423905
0.12684287 0.023445074 0.049949862 -0.0033896458 0.044926453 -0.1130136 0.065935366 -0.11716167
-0.0028649587 -0.051092986 -0.007638685 -0.053967617 -0.08552473 0.10499514 0.012634756 0.014929392
0.2158272 -0.11243197 -0.16495737 -0.09589891 0.1283204 0.050132565 0.0004217683 0.0542439
0.023618674 0.14535224 -0.025024876 0.17491634 -0.048900954 -0.009679264 -0.17567153 -0.014738131
-0.08989794 0.06590315 0.021545377 0.022279585 -0.118614465 -0.041655768 -0.08261871 0.015287136
-0.07312171 -0.07564472 0.02921281 -0.01740427 -0.0606487 -0.013635845 -0.005860498 0.035820264
-0.013436466 -0.007047992 -0.0052282903 -0.09562519 0.0052740765 -0.023403492 0.07030183 -0.1273071
0.019724716 0.09608277 -0.10666166 0.033290293 -0.056625787 0.048164908 0.020266274 -0.0650472

network_body._body_endoder.seq_layers.2.bias f4 [128]
00000000: 0000 0000 0000 0000 0000 0000 0000 0000
00000010: 0000 0000 0000 0000 0000 0000 0000 0000
00000020: 0000 0000 0000 0000 0000 0000 0000 0000
00000030: 0000 0000 0000 0000 0000 0000 0000 0000
00000040: 0000 0000 0000 0000 0000 0000 0000 0000
00000050: 0000 0000 0000 0000 0000 0000 0000 0000
00000060: 0000 0000 0000 0000 0000 0000 0000 0000
00000070: 0000 0000 0000 0000 0000 0000 0000 0000
00000080: 0000 0000 0000 0000 0000 0000 0000 0000
00000090: 0000 0000 0000 0000 0000 0000 0000 0000
000000a0: 0000 0000 0000 0000 0000 0000 0000 0000
000000b0: 0000 0000 0000 0000 0000 0000 0000 0000
000000c0: 0000 0000 0000 0000 0000 0000 0000 0000
000000d0: 0000 0000 0000 0000 0000 0000 0000 0000
000000e0: 0000 0000 0000 0000 0000 0000 0000 0000
000000f0: 0000 0000 0000 0000 0000 0000 0000 0000
00000100: 0000 0000 0000 0000 0000 0000 0000 0000
00000110: 0000 0000 0000 0000 0000 0000 0000 0000
00000120: 0000 0000 0000 0000 0000 0000 0000 0000
00000130: 0000 0000 0000 0000 0000 0000 0000 0000
00000140: 0000 0000 0000 0000 0000 0000 0000 0000
00000150: 0000 0000 0000 0000 0000 0000 0000 0000
00000160: 0000 0000 0000 0000 0000 0000 0000 0000
00000170: 0000 0000 0000 0000 0000 0000 0000 0000
00000180: 0000 0000 0000 0000 0000 0000 0000 0000
00000190: 0000 0000 0000 0000 0000 0000 0000 0000
000001a0: 0000 0000 0000 0000 0000 0000 0000 0000
000001b0: 0000 0000 0000 0000 0000 0000 0000 0000
000001c0: 0000 0000 0000 0000 0000 0000 0000 0000
000001d0: 0000 0000 0000 0000 0000 0000 0000 0000
000001e0: 0000 0000 0000 0000 0000 0000 0000 0000
000001f0: 0000 0000 0000 0000 0000 0000 0000 0000
0.0 0.0 0.0 0.0 0.0 0.0 0.0 0.0
0.0 0.0 0.0 0.0 0.0 0.0 0.0 0.0
0.0 0.0 0.0 0.0 0.0 0.0 0.0 0.0
0.0 0.0 0.0 0.0 0.0 0.0 0.0 0.0
0.0 0.0 0.0 0.0 0.0 0.0 0.0 0.0
0.0 0.0 0.0 0.0 0.0 0.0 0.0 0.0
0.0 0.0 0.0 0.0 0.0 0.0 0.0 0.0
0.0 0.0 0.0 0.0 0.0 0.0 0.0 0.0
0.0 0.0 0.0 0.0 0.0 0.0 0.0 0.0
0.0 0.0 0.0 0.0 0.0 0.0 0.0 0.0
0.0 0.0 0.0 0.0 0.0 0.0 0.0 0.0
0.0 0.0 0.0 0.0 0.0 0.0 0.0 0.0
0.0 0.0 0.0 0.0 0.0 0.0 0.0 0.0
0.0 0.0 0.0 0.0 0.0 0.0 0.0 0.0
0.0 0.0 0.0 0.0 0.0 0.0 0.0 0.0
0.0 0.0 0.0 0.0 0.0 0.0 0.0 0.0

value_heads.value_heads.extrinsic.weight f4 [1, 128]
00000000: 8eb0 553e f4cd 6fbd c00e cd3d 0396 3fbe
00000010: dda8 debd 6733 d9bd 6d81 3cbe 4c47 d33d
00000020: 9c96 973d cb7b 04be b8ca 953d f066 4d3e
00000030: 423e 29be 85ef 56be 44e0 aabd 90f1 ee3d
00000040: d357 d4bd 56d5 23be f848 6d3d 0cae df3d
00000050: b8a5 7f3d 9691 82bd 5e46 093e ddb0 43be
00000060: a8ae 6a3d 3ce7 4f3e 006d 9d3c 9c65 443e
00000070: 5f45 50be 9c50 39be 1365 17be 982d 67bd
00000080: 7899 fe3c 523a 1f3e e05b cabd e8e4 afbd
00000090: c463 d13d a07e 533c e660 2cbe 3848 4dbd
000000a0: 080e aa3d c88c 91bd e287 82bd b4d7 b23d
000000b0: cd09 52be 540f afbd 4886 e63c 58cb c23d
000000c0: 0c33 32be a8d4 ff3d 3019 ae3d 0c26 573e
000000d0: 28c5 03be 58b4 45be 2805 f93d 9ec3 363e
000000e0: 1816 ab3d f443 1cbe 748b 2ebd 989c acbd
000000f0: 94c5 13bd 207e 493d 4c5c 38bd 46e7 fbbd
00000100: 680c a7bd c00d 4e3c 30e0 32bd 38b8 353e
00000110: b4a4 103e 48fe 373d 3014 733d 18dc 283e
00000120: 8ad1 1d3e 94db 913d 3468 37bd c419 44bd
00000130: 121e 173e f57d 1bbe 7014 4dbc 1a38 8fbd
00000140: c018 9fbd 7249 573e f69b 4e3e 20cc 063e
00000150: 527a 05be f0c1 973d 8c31 c73d 5c44 283e
00000160: 6805 8f3d e812 0dbe f091 193e fa28 423e
00000170: 405a b7bc a05f 5c3d 13e6 e8bd 45e8 29be
00000180: 5055 533c d041 0b3e 562e 5a3e 0167 4fbe
00000190: 7c42 e83d 3815 4b3e 9c90 ff3d f81e e33d
000001a0: 0afb 173e 80a6 d4bd 1cda 08be 2c96 05be
000001b0: 302c 1f3e 5cb3 963d e270 adbd c8a3 05bd
000001c0: 678b 46be 58ed 67bd 3ccc 97bd dd15 babd
000001d0: 8c9a 0cbd f026 ac3d 57c9 23be 387c adbd
000001e0: 345d df3d f0fa 993d 34a8 043e dcd8 68bd
000001f0: 5a59 4d3e a00d 303e 98db 163d 79d9 00be
0.20868132 -0.05854602 0.10012579 -0.18709569 -0.10872052 -0.10605507 -0.18408747 0.10316333
0.07401773 -0.12937848 0.07314056 0.20058799 -0.16527656 -0.20989807 -0.083435565 0.11667168
-0.10368314 -0.1599935 0.057930917 0.10921869 0.0624139 -0.063754246 0.13405749 -0.19110437
0.05729547 0.20303053 0.019217014 0.19179386 -0.20338963 -0.18097156 -0.1478465 -0.056439966
0.031079039 0.15549591 -0.09880805 -0.08588582 0.10224107 0.012908608 -0.16833839 -0.0501177
0.083034575 -0.0710693 -0.06373574 0.08732548 -0.20511551 -0.085478455 0.028140202 0.09511441
-0.17402285 0.12491733 0.08500898 0.21010607 -0.12868178 -0.19307077 0.121591866 0.1784806
0.083538234 -0.15260297 -0.04261346 -0.084283054 -0.036077097 0.049192548 -0.045009896 -0.12299971
-0.08156663 0.01257652 -0.043670833 0.17746055 0.1412533 0.044920236 0.059345424 0.16490209
0.15411964 0.07121959 -0.04477711 -0.047876135 0.14757565 -0.15184768 -0.01251708 -0.069931224
-0.077683926 0.21024111 0.20176682 0.13163805 -0.13034943 0.074100375 0.09726247 0.16432327
0.06983453 -0.13776743 0.14997077 0.18960944 -0.022381902 0.053802133 -0.11372008 -0.1659251
0.012898758 0.13599324 0.21306738 -0.20254137 0.11340806 0.19832313 0.12478754 0.11089891
0.14841858 -0.1038332 -0.13364452 -0.13045567 0.155442 0.07358429 -0.08468796 -0.032626897
-0.19389115 -0.056622833 -0.074120015 -0.09086201 -0.034327075 0.08405864 -0.15994774 -0.084709585
0.10906449 0.07518566 0.1295479 -0.05684744 0.20053616 0.17192698 0.036830515 -0.12582959
