Client/results/ppo/MoveToGoal/MoveToGoal-320.onnx (onnx, 73585 bytes, 6 tensors)

network_body._body_endoder.seq_layers.0.weight f4 [128, 4]
-0.38038442 -0.09963088 -0.21961798 -0.19866695 0.4204963 0.7638302 -0.18142879 1.3010992
-0.1438438 -0.39254266 -0.3204908 -0.63238204 -0.6637194 -0.45259315 -0.6072808 0.026154371
0.53994244 0.23538472 -0.33659822 -0.20952044 0.0011669564 -0.51212496 -0.39166918 0.34558272
0.093554355 0.17126326 0.31349513 0.54790103 0.52878076 0.87414676 -0.07006627 -0.024672562
-0.20953047 0.0581751 -0.3417203 0.44482812 -1.049435 0.29545286 0.2315385 0.23077078
-0.56786025 -0.5180274 -0.9830593 0.13368106 0.33196816 -0.31738615 0.48856628 0.055796493
-0.011644846 -0.21691085 0.40076527 0.12342613 -0.39334446 0.98955667 -0.18279311 -0.31213686
0.062752746 0.24158305 -1.0335982 0.62666625 -0.75879544 0.3808361 -0.3459109 0.22702661
-0.19716696 0.34802186 0.25095543 0.3326219 -0.46567473 0.3474641 0.13742688 0.69849855
0.69151074 -0.31136382 0.092373304 -0.2883892 -0.24611408 0.9506552 -0.07985974 -0.25427058
-0.85455984 0.050653175 -0.100381464 -0.88486296 -0.47434855 0.028332645 0.22967046 0.54556227
-0.17019153 0.6776256 -0.018225688 0.34672758 -0.19534627 0.4267592 0.15705821 0.18209751
-0.3434013 -0.028960356 0.57397914 -0.15488055 0.29244307 0.515233 0.33359638 -0.351724
0.5787198 0.09257596 -0.11707733 -0.09408725 -0.028957343 0.8906596 -0.92934984 0.07887017
0.20698015 0.24122868 -1.0500493 -0.58020884 0.5617187 0.043091394 -0.6511154 0.17005268
0.027744504 0.67539036 0.5676697 0.17628318 0.68351716 -0.60365444 0.04229068 0.72810566
-0.4248801 -0.6377167 -0.28911135 0.9764681 -0.5667084 -0.019226545 0.2616504 -0.09934118
-0.38099355 0.20815605 0.11239638 0.19455399 0.7966558 0.24766892 -0.115198515 0.032258898
-0.07216493 0.31828246 0.44992113 0.39671463 0.5133752 -0.15485933 -0.5282673 0.44978303
-0.34554935 -0.43846124 -0.36227882 -0.2814943 0.48106393 0.27795023 0.54413104 0.054937527
0.027371798 -0.23636346 -0.9307685 0.33619142 -0.2937621 0.4087849 0.006004735 0.061433535
-0.10373301 -0.20721173 -1.0289724 -0.7236876 1.18393 -0.1712966 -0.3459888 0.053881943
0.08605042 0.62377334 0.08384549 0.016536875 -0.39163643 -0.16511963 -0.32917428 0.31763968
0.5398856 -0.26635146 0.3984946 0.0050741713 -0.10772511 -0.11241352 -0.12770562 -0.6958384
-0.2587262 1.0625336 0.49926174 -0.34974498 -0.15052107 0.0642536 0.46093413 -0.7377263
0.004507087 -0.41554368 0.10157384 0.13228229 0.3346908 -0.25473273 0.7221697 -0.16706559
0.38860247 -0.4548755 0.45680404 -0.63943 0.15505084 0.051228978 0.03350123 -0.12221985
0.49303868 0.48524198 0.14610608 0.08661014 0.12784971 -0.90541375 0.32528922 1.0462152
0.75352037 -0.0941294 -0.034961503 0.64293015 -0.64935106 -0.014764536 -0.44833618 0.05794523
-0.59104466 0.32933676 -0.1865197 0.08524422 0.24592914 -0.16267538 -0.46695995 -0.5455341
0.46989682 0.16836794 0.3759355 0.54420316 -0.034396652 0.34350792 -0.07947262 -0.059538327
0.13026327 -0.37470993 -0.43476298 0.31943402 0.19456282 -0.47152945 0.44293913 -0.25797454
00000000: bfc1 c2be 460b ccbd 89e3 60be 596f 4bbe
00000010: 4b4b d73e 608a 433f 78c8 39be 6b8a a63f
00000020: ca4b 13be 5afb c8be 5f17 a4be cae3 21bf
00000030: 84e9 29bf 4aba e7be c176 1bbf b141 d63c
00000040: ab39 0a3f b108 713e 9a56 acbe 878c 56be
00000050: 8ff4 983a 9f1a 03bf dd88 c8be 38f0 b03e
00000060: 6d99 bf3d a35f 2f3e 6f82 a03e 3e43 0c3f
00000070: 2d5e 073f 15c8 5f3f e87e 8fbd 1d1e cabc
00000080: 288f 56be 0349 6e3d f7f5 aebe 83c0 e33e
00000090: e353 86bf 9945 973e 6e18 6d3e 2d4f 6c3e
000000a0: 4a5f 11bf 729d 04bf c6a9 7bbf b0e3 083e
000000b0: bbf7 a93e 7080 a2be 5c25 fa3e dd8a 643d
000000c0: 06ca 3ebc e11d 5ebe 1b31 cd3e d7c6 fc3d
000000d0: 7264 c9be 9653 7d3f 1e2e 3bbe 67d0 9fbe
000000e0: 8384 803d 8c61 773e f24c 84bf 336d 203f
000000f0: 6b40 42bf f3fc c23e 3c1b b1be aa79 683e
00000100: 23e6 49be ec2f b23e 3b7d 803e 6b4d aa3e
00000110: eb6c eebe d1e6 b13e a2b9 0c3e cdd0 323f
00000120: d906 313f 146b 9fbe 372e bd3d c0a7 93be
00000130: 5405 7cbe 245e 733f 818d a3bd c12f 82be
00000140: 6fc4 5abf b479 4f3d cc94 cdbd 6186 62bf
00000150: d0dd f2be dd19 e83c bc2e 6b3e f8a9 0b3f
00000160: b046 2ebe df78 2d3f 0a4e 95bc 4786 b13e
00000170: da08 48be 2f80 da3e ded3 203e c577 3a3e
00000180: 4cd2 afbe 453e edbc 4cf0 123f 0299 1ebe
00000190: 19bb 953e 4fe6 033f 25cd aa3e 2b15 b4be
000001a0: fb26 143f 7798 bd3d 3dc6 efbd d1b0 c0bd
000001b0: f337 edbc 4402 643f dfe9 6dbf af86 a13d
000001c0: 9bf2 533e a704 773e 0468 86bf 9188 14bf
000001d0: cccc 0f3f 9a80 303d 80af 26bf 4a22 2e3e
000001e0: 7148 e33c 62e6 2c3f cd52 113f 9483 343e
000001f0: fbfa 2e3f 1989 1abf fe38 2d3d 2265 3a3f
00000200: e289 d9be 6741 23bf 6706 94be d0f9 793f
00000210: cd13 11bf fd80 9dbc 0bf7 853e 6373 cbbd
00000220: 9611 c3be dc26 553e 1330 e63d 2939 473e
00000230: a2f1 4b3f ec9c 7d3e 33ed ebbd e821 043d
00000240: 35cb 93bd ebf5 a23e 105c e63e 2e1e cb3e
00000250: 8f6c 033f 7293 1ebe 873c 07bf f649 e63e
00000260: d8eb b0be fe7d e0be 9c7c b9be 0520 90be
00000270: 034e f63e 7e4f 8e3e 2c4c 0b3f 2c06 613d
00000280: d23a e03c 4309 72be d846 6ebf 4821 ac3e
00000290: fc67 96be 414c d13e 5ec3 c43b bba1 7b3d
000002a0: f971 d4bd 502f 54be 5eb5 83bf 9743 39bf
000002b0: 058b 973f 6068 2fbe 7225 b1be 50b3 5c3d
000002c0: 343b b03d 9caf 1f3f 2fb7 ab3d 5778 873c
000002d0: 9284 c8be 1f15 29be 8889 a8be aba1 a23e
000002e0: f135 0a3f 385f 88be 7c07 cc3e 3c45 a63b
000002f0: fc9e dcbd 0f39 e6bd 43c5 02be 7722 32bf
00000300: c377 84be 1a01 883f 3c9f ff3e c611 b3be
00000310: 3222 1abe 6497 833d 8fff eb3e a1db 3cbf
00000320: 30b0 933b 24c2 d4be f205 d03d 0275 073e
00000330: 985c ab3e 546c 82be 1de0 383f 3e13 2bbe
00000340: e7f6 c63e 71e5 e8be 38e2 e93e afb1 23bf
00000350: a6c5 1e3e 7ad5 513d 9638 093d 674e fabd
00000360: 916f fc3e a371 f83e d59c 153e a860 b13d
00000370: 09eb 023e 32c9 67bf 4f8c a63e 61ea 853f
00000380: b6e6 403f eac6 c0bd cb33 0fbd 1297 243f
00000390: df3b 26bf f4e6 71bc 528c e5be fa57 6d3d
000003a0: b44e 17bf d49e a83e 05ff 3ebe 8694 ae3d
000003b0: d9d4 7b3e 6094 26be 6015 efbe 1fa8 0bbf
000003c0: 5196 f03e a568 2c3e 9e7a c03e e650 0b3f
000003d0: 81e3 0cbd 45e0 af3e 8ac2 a2bd 76de 73bd
000003e0: bc63 053e fbd9 bfbe 4199 debe db8c a33e
000003f0: 7a3b 473e 4f6c f1be ebc8 e23e 3d15 84be

network_body._body_endoder.seq_layers.0.bias f4 [128]
0.0 0.0 0.0 0.0 0.0 0.0 0.0 0.0
0.0 0.0 0.0 0.0 0.0 0.0 0.0 0.0
0.0 0.0 0.0 0.0 0.0 0.0 0.0 0.0
0.0 0.0 0.0 0.0 0.0 0.0 0.0 0.0
0.0 0.0 0.0 0.0 0.0 0.0 0.0 0.0
0.0 0.0 0.0 0.0 0.0 0.0 0.0 0.0
0.0 0.0 0.0 0.0 0.0 0.0 0.0 0.0
0.0 0.0 0.0 0.0 0.0 0.0 0.0 0.0
0.0 0.0 0.0 0.0 0.0 0.0 0.0 0.0
0.0 0.0 0.0 0.0 0.0 0.0 0.0 0.0
0.0 0.0 0.0 0.0 0.0 0.0 0.0 0.0
0.0 0.0 0.0 0.0 0.0 0.0 0.0 0.0
0.0 0.0 0.0 0.0 0.0 0.0 0.0 0.0
0.0 0.0 0.0 0.0 0.0 0.0 0.0 0.0
0.0 0.0 0.0 0.0 0.0 0.0 0.0 0.0
0.0 0.0 0.0 0.0 0.0 0.0 0.0 0.0
00000000: 0000 0000 0000 0000 0000 0000 0000 0000
00000010: 0000 0000 0000 0000 0000 0000 0000 0000
00000020: 0000 0000 0000 0000 0000 0000 0000 0000
00000030: 0000 0000 0000 0000 0000 0000 0000 0000
00000040: 0000 0000 0000 0000 0000 0000 0000 0000
00000050: 0000 0000 0000 0000 0000 0000 0000 0000
00000060: 0000 0000 0000 0000 0000 0000 0000 0000
00000070: 0000 0000 0000 0000 0000 0000 0000 0000
00000080: 0000 0000 0000 0000 0000 0000 0000 0000
00000090: 0000 0000 0000 0000 0000 0000 0000 0000
000000a0: 0000 0000 0000 0000 0000 0000 0000 0000
000000b0: 0000 0000 0000 0000 0000 0000 0000 0000
000000c0: 0000 0000 0000 0000 0000 0000 0000 0000
000000d0: 0000 0000 0000 0000 0000 0000 0000 0000
000000e0: 0000 0000 0000 0000 0000 0000 0000 0000
000000f0: 0000 0000 0000 0000 0000 0000 0000 0000
00000100: 0000 0000 0000 0000 0000 0000 0000 0000
00000110: 0000 0000 0000 0000 0000 0000 0000 0000
00000120: 0000 0000 0000 0000 0000 0000 0000 0000
00000130: 0000 0000 0000 0000 0000 0000 0000 0000
00000140: 0000 0000 0000 0000 0000 0000 0000 0000
00000150: 0000 0000 0000 0000 0000 0000 0000 0000
00000160: 0000 0000 0000 0000 0000 0000 0000 0000
00000170: 0000 0000 0000 0000 0000 0000 0000 0000
00000180: 0000 0000 0000 0000 0000 0000 0000 0000
00000190: 0000 0000 0000 0000 0000 0000 0000 0000
000001a0: 0000 0000 0000 0000 0000 0000 0000 0000
000001b0: 0000 0000 0000 0000 0000 0000 0000 0000
000001c0: 0000 0000 0000 0000 0000 0000 0000 0000
000001d0: 0000 0000 0000 0000 0000 0000 0000 0000
000001e0: 0000 0000 0000 0000 0000 0000 0000 0000
000001f0: 0000 0000 0000 0000 0000 0000 0000 0000

network_body._body_endoder.seq_layers.2.weight f4 [128, 128]
0.040304102 -0.021053137 -0.07910757 -0.012732639 -0.053352267 -0.039249286 0.16239634 -0.01551477
-0.083972774 0.0071606357 -0.0028751541 0.033524476 0.017752632 -0.113716505 0.049279723 0.05426901
-0.010782137 0.013465186 -0.12054599 0.13544273 0.12543803 0.016327787 0.025619915 -0.13706732
0.036865562 0.03551683 -0.11126094 -0.15644577 -0.023727598 -0.0060332455 -0.06864561 -0.108742535
-0.0016356187 -0.012360342 -0.09933044 -0.102612145 -0.029382514 0.15165125 0.0029366696 -0.07076855
0.018937616 0.003312804 -0.2480656 0.15479381 -0.016723052 -0.1189068 0.013165361 0.13371778
-0.04188876 -0.038427163 0.0478478 0.05174406 0.090979084 0.15979539 0.060758583 -0.022454401
0.12966207 0.023677383 0.17856741 0.037100907 -0.014232455 0.22540873 0.04221197 -0.16638407
-0.069114 0.1002254 0.023958057 -0.06734975 -0.11746989 -0.056167398 0.12069951 -0.013187784
0.028229482 -0.020558927 -0.021776156 -0.16573879 -0.028897014 0.003959703 -0.06425621 0.019940296
0.10394031 0.05580315 -0.09501878 -0.10523597 -0.0786457 0.0262341 0.22364947 -0.02659582
0.05686965 -0.08911029 0.04858344 -0.12897986 0.023641625 0.042853504 0.007504376 -0.059582815
0.05601573 0.08281287 -0.031494502 0.006727291 0.09946867 0.07722826 0.037908774 -0.10336678
-0.048244078 -0.13780239 -0.12876467 0.051721178 0.12642358 0.13866495 0.024863819 -0.011567219
-0.01058324 0.05132928 0.03439404 0.09837523 0.020528596 0.030526727 -0.011742143 0.112843625
-0.038002376 0.04858634 0.051755734 -0.0870384 -0.11689734 0.16115656 0.23006034 0.038010616
-0.002961596 0.07846563 0.057177383 0.021594921 0.0676658 -0.08048413 0.07456172 -0.14917882
0.012604289 -0.06670684 -0.16114742 0.1081104 0.2188047 0.094944976 0.15182695 -0.026488839
-0.0066435877 0.13206121 -0.11729512 -0.11847683 0.024026467 0.063463695 0.078864224 -0.03378387
0.068214454 -0.10989615 -0.09839774 -0.15762335 0.016529718 -0.045952894 0.12520793 0.010074026
-0.08050598 -0.0033097004 -0.063727565 -0.0815202 0.06675439 0.08055122 0.060523342 -0.057355475
-0.102711014 -0.085403234 0.055286087 0.054432385 -0.03341258 0.018445149 0.04480505 -0.19436866
-0.008169307 -0.13286309 0.14398137 0.003006418 0.1186789 0.15324488 0.20469637 -0.169137
0.059435274 -0.21610089 0.03095296 -0.027105685 0.03909326 -0.01448183 -0.059080888 -0.027592596
0.1112477 -0.050156083 2.8518529e-05 0.032444354 -0.062059306 0.20134974 -0.017926626 0.07725238
0.043458596 -0.019946933 -0.055478938 -0.026190119 -0.10183966 0.0029792422 -0.13279374 -0.030146845
-0.08551308 0.04651863 -0.006141323 0.011256574 0.004573714 -0.07916623 0.048598118 0.043183114
-0.07781347 0.028311534 0.11606651 0.09902949 0.058508776 -0.034598477 -0.084511735 -0.04413965
-0.19442894 0.07517103 -0.21615833 -0.03249414 -0.09805527 -0.15838291 -0.082179755 0.04045791
-0.06585406 -0.0644073 0.07079639 0.041480087 -0.042180326 0.038477324 0.1113965 0.16903451
0.12041288 -0.031111544 0.028812958 0.005449311 -0.024359938 0.04859571 -0.06835518 -0.13467094
-0.04435189 -0.12702076 -0.057554297 0.0008362964 0.11726463 -0.1881944 -0.08027457 0.14024687
00000000: ea15 253d a177 acbc 2603 a2bd 8f9c 50bc
00000010: e887 5abd dcc3 20bd 3a4b 263e a931 7ebc
00000020: ebf9 abbd c4a3 ea3b 156d 3cbb f650 093d
00000030: f86d 913c 33e4 e8bd 89d9 493d 2e49 5e3d
00000040: 8fa7 30bc 159d 5c3c d1e0 f6bd 80b1 0a3e
00000050: d472 003e dac1 853c dbe0 d13c 605b 0cbe
00000060: 5800 173d 187a 113d c7dc e3bd 5233 20be
00000070: 6160 c2bc 88b2 c5bb 1296 8cbd 68b4 debd
00000080: 4262 d6ba 0883 4abc c26d cbbd 5126 d2bd
00000090: 99b3 f0bc 774a 1b3e 2475 403b 1aef 90bd
000000a0: 0f23 9b3c a11b 593b e904 7ebe 4582 1e3e
000000b0: c8fe 88bc 6985 f3bd 87b3 573c 50ed 083e
000000c0: 8c93 2bbd cd65 1dbd 0efc 433d 94f1 533d
000000d0: 3e53 ba3d 67a1 233e fedd 783d 4bf2 b7bc
000000e0: 22c6 043e 12f7 c13c 60da 363e 1ff7 173d
000000f0: 3e2f 69bc 8cd1 663e 75e6 2c3d 9660 2abe
00000100: a48b 8dbd f942 cd3d b043 c43c aaee 89bd
00000110: 0e94 f0bd c90f 66bd 4e31 f73d 9311 58bc
00000120: 8441 e73c 326b a8bc e963 b2bc 6eb7 29be
00000130: 6eb9 ecbc 65c0 813b c398 83bd d559 a33c
00000140: a8de d43d d891 643d 3599 c2bd f585 d7bd
00000150: ff10 a1bd e5e8 d63c 5e04 653e 7adf d9bc
00000160: 26f0 683d 757f b6bd 6eff 463d 4c13 04be
00000170: 15ac c13c 2887 2f3d 45e7 f53b 1c0d 74bd
00000180: c070 653d cb99 a93d 6100 01bd 9b70 dc3b
00000190: 3bb6 cb3d da29 9e3d 3b46 1b3d f6b1 d3bd
000001a0: 959b 45bd 121c 0dbe e3da 03be 96d9 533d
000001b0: 2f75 013e 2ffe 0d3e 35af cb3c 6f84 3dbc
000001c0: 5365 2dbc a73e 523d c4e0 0c3d f478 c93d
000001d0: 962b a83c 3013 fa3c 1e62 40bc 8f1a e73d
000001e0: 61a8 1bbd 7802 473d d2fd 533d 3041 b2bd
000001f0: df67 efbd 3a06 253e f094 6b3e 05b1 1b3d
00000200: 5617 42bb 97b2 a03d d532 6a3d d5e7 b03c
00000210: 5e94 8a3d ddd4 a4bd d1b3 983d 55c2 18be
00000220: 3882 4e3c 999d 88bd d403 25be fc68 dd3d
00000230: 570e 603e 8372 c23d 8678 1b3e 1fff d8bc
00000240: 74b2 d9bb 0e3b 073e 6d38 f0bd fba3 f2bd
00000250: 27d3 c43c 41f9 813d 9183 a13d f560 0abd
00000260: 05b4 8b3d 3c11 e1bd c184 c9bd 0468 21be
00000270: 5569 873c 1a39 3cbd 8236 003e 870d 253c
00000280: 52e0 a4bd 8fe7 58bb 9983 82bd 10f4 a6bd
00000290: 87b6 883d 0af8 a43d 53e7 773d 93ed 6abd
000002a0: 275a d2bd e4e7 aebd aa73 623d 7ef4 5e3d
000002b0: a1db 08bd 481a 973c 8085 373d 9408 47be
000002c0: 8fd8 05bc 430d 08be da6f 133e 5307 453b
000002d0: ec0d f33d 3aec 1c3e ed9b 513e 4032 2dbe
000002e0: 6772 733d 8d49 5dbe 1091 fd3c be0c debc
000002f0: 4120 203d 3345 6dbc cdfe 71bd de09 e2bc
00000300: d6d5 e33d 7770 4dbd 133b ef37 5fe4 043d
00000310: e631 7ebd a02e 4e3e dcda 92bc 7f36 9e3d
00000320: a401 323d c067 a3bc e23d 63bd a98c d6bc
00000330: 5091 d0bd 643f 433b 15fb 07be 84f6 f6bc
00000340: 7b21 afbd 528a 3e3d 273d c9bb 7e6d 383c
00000350: 18df 953b e821 a2bd d20e 473d c7e0 303d
00000360: ab5c 9fbd 97ed e73c 47b4 ed3d f9cf ca3d
00000370: e6a6 6f3d 22b7 0dbd 7d14 adbd c7cb 34bd
00000380: 6118 47be 45f3 993d 9c58 5dbe 9318 05bd
00000390: 34d1 c8bd 212f 22be dc4d a8bd 32b7 253d
000003a0: 7ede 86bd f9e7 83bd b3fd 903d 06e7 293d
000003b0: 47c5 2cbd 669a 1d3d d923 e43d 6217 2d3e
000003c0: 079b f63d a3dd febc 2709 ec3c 2290 b23b
000003d0: 7e8e c7bc 4c0c 473d cdfd 8bbd 2ee7 09be
000003e0: 54aa 35bd bb11 02be 0ebe 6bbd e73a 5b3a
000003f0: 7028 f03d 08b6 40be fe66 a4bd e09c 0f3e

action_model._continuous_distribution.log_sigma f4 [1, 2]
0.0 0.0
00000000: 0000 0000 0000 0000

action_model._continuous_distribution.mu.weight f4 [2, 128]
-0.038948257 -0.009021933 0.010520009 -0.0062380373 -0.0020218003 -0.00948224 0.019148188 -0.020882018
0.01920295 -0.020074287 -0.0016648521 0.0042268275 0.00623065 0.009906458 -0.008682863 -0.00085807865
0.01364729 0.009930249 -0.008538583 0.021415625 -0.0022612019 0.040281516 0.0019748693 -0.027942149
0.014854275 -0.019272376 -0.01814637 -0.0012092901 0.015183798 -0.021280844 -0.0035163255 -0.0046762577
-0.021624979 0.004385467 -0.0014918813 0.029254535 -0.0012050611 -0.0006890941 0.009005314 0.0070120813
-0.0074815997 -0.009816293 0.0056978185 -0.018822502 0.00020980318 0.01660703 -0.011498109 0.013145739
0.0068379864 -0.016039997 -0.019169966 -0.0010408633 -0.022199258 -0.0012816329 -0.02437718 0.0018606611
-0.0020474356 0.03088194 0.0059894375 -0.01426056 0.006368576 0.01818301 0.009850376 -0.024227163
-0.0006224079 0.0053298413 0.011143359 0.009576444 0.03270923 -0.0028600064 -0.02456542 -0.021285608
0.0010303574 -0.017498747 0.005010589 0.012880665 0.015943974 -0.01795451 0.016243069 -0.023204302
0.015949959 -0.021778673 -0.04986037 -0.004417098 -0.011506337 0.009071688 0.028855557 -0.004728972
0.0036091262 -0.0060664867 0.02146375 -0.014960833 -0.00030660987 0.009462055 -0.052261896 -0.009438172
-0.023601862 0.004444261 -0.007562902 0.0067948434 -0.032155626 -0.036808368 0.0006788785 -0.0029879953
-0.005396579 -0.012670855 -0.007320395 -0.0036006179 -0.0035118442 -0.01440161 -0.027258594 0.014624766
-0.03284222 0.0013837368 -0.0049722446 -0.003916991 0.01613452 -0.005458951 -0.002069887 -0.02383194
-0.008741311 0.011116672 -0.00011864873 0.0022537862 0.025137758 -0.005930007 0.008193218 0.0010388547
0.025349889 0.0043655667 0.010819338 0.0031229572 0.002064328 0.015890716 0.025922218 -0.010333381
-0.006858696 0.019797469 -5.897709e-05 0.00839609 0.015555384 -0.009534561 -0.020975797 0.014705367
-0.020396892 0.027409872 0.019959759 0.028122365 0.0155314235 -0.029560233 -0.016136289 0.014254008
-0.00041904204 0.0017775008 -0.0010241548 -0.008749646 -0.0011703396 -0.000502609 0.022794513 0.005617198
-0.0012559072 -0.001373799 0.03361012 -0.007995586 0.030904049 0.010559539 -0.010894029 0.0014302108
-0.048552454 -0.01016029 1.494104e-05 -0.012140836 0.0017948858 -0.01603668 -0.032843255 -0.025475059
0.016375378 -0.012040244 -0.011428588 0.006989067 0.007879816 0.021803297 -0.042713597 0.030348435
0.009855556 0.0027819935 -0.010634874 -0.022596603 -0.0022011544 0.008819209 0.012373542 0.004297443
0.019184059 0.015783587 0.044684153 -0.022564342 0.028152084 0.010155631 0.011232847 -0.010633181
-0.029660448 0.007766638 -0.0182408 0.024423292 -0.01590955 -0.038083967 0.026789127 -0.008880042
-0.023892382 0.010410707 -0.0012079052 -0.0018180816 0.0070352145 0.01357657 -0.018826779 -0.04472526
0.009580572 0.015024826 -0.00058990985 -0.009750969 0.0037046764 0.018430097 0.019774972 -0.013745584
-0.019270929 0.0029693483 -0.013066873 0.013641891 0.025843648 -0.007202559 0.0025090259 -0.017248916
-0.010677672 -0.036332704 -0.011461805 0.023209084 -0.00582318 0.012119174 0.0116349785 0.024608858
-0.0002984737 -0.002602657 -0.013372436 -0.014407483 0.012580638 -0.0027078986 0.013945961 0.005685819
0.010353668 -0.020026665 -0.0039312984 0.016962273 -0.009295191 -0.009652022 0.002970472 -0.029829502
00000000: 3588 1fbd bbd0 13bc 1e5c 2c3c 7368 ccbb
00000010: 2e80 04bb 665b 1bbc a9dc 9c3c c410 abbc
00000020: 814f 9d3c d572 a4bc 2b37 daba 3381 8a3b
00000030: 7b2a cc3b b24e 223c 9142 0ebc aff0 60ba
00000040: e298 5f3c 7cb2 223c 6ae5 0bbc d26f af3c
00000050: ac30 14bb 3bfe 243d cf6c 013b efe6 e4bc
00000060: 585f 733c 1ae1 9dbc b2a7 94bc 0b81 9eba
00000070: 77c5 783c 2a55 aebc 2772 66bb 4b3b 99bb
00000080: de26 b1bc f7b3 8f3b 3b8b c3ba 35a7 ef3c
00000090: 24f3 9dba 52a4 34ba 068b 133c 9ac5 e53b
000000a0: 3528 f5bb 84d4 20bc c4b4 ba3b a631 9abc
000000b0: 9dfe 5b39 770b 883c 9162 3cbc 3a61 573c
000000c0: 3011 e03b 5066 83bc 550a 9dbc 946d 88ba
000000d0: 38db b5bc 77fc a7ba a7b2 c7bc 6de1 f33a
000000e0: 452e 06bb 1ffc fc3c 0b43 c43b 20a5 69bc
000000f0: 7daf d03b 89f4 943c 7963 213c 0b78 c6bc
00000100: 1629 23ba f3a5 ae3b a392 363c 84e6 1c3c
00000110: 1dfa 053d f26e 3bbb 6b3d c9bc 285f aebc
00000120: 0f0d 873a 8859 8fbc de2f a43b 6d09 533c
00000130: f09c 823c 5615 93bc 2f10 853c f316 bebc
00000140: 7da9 823c 3069 b2bc 633a 4cbd 4ebd 90bb
00000150: 1385 3cbc 6ba1 143c 7d62 ec3c 7ef5 9abb
00000160: 1787 6c3b 61c9 c6bb bfd4 af3c 481e 75bc
00000170: 7bc0 a0b9 bc06 1b3c 9210 56bd 90a2 1abc
00000180: b158 c1bc 2aa1 913b 38d2 f7bb 47a7 de3b
00000190: 9eb5 03bd 5fc4 16bd c4f6 313a 3ed2 43bb
000001a0: c9d5 b0bb 6b99 4fbc eddf efbb 58f8 6bbb
000001b0: f826 66bb bbf4 6bbc 6a4d dfbc b79c 6f3c
000001c0: 9085 06bd 815e b53a 36ee a2bb 1a5a 80bb
000001d0: 8a2c 843c 00e1 b2bb f1a6 07bb 333b c3bc
000001e0: b737 0fbc b422 363c 0dd3 f8b8 42b4 133b
000001f0: b3ed cd3c 8150 c2bb d93c 063c 2e2a 883a
00000200: 92aa cf3c 070d 8f3b 9843 313c 87aa 4c3b
00000210: ad49 073b 3f2d 823c d55a d43c 574d 29bc
00000220: eabe e0bb 4d2e a23c 2b5e 77b8 c18f 093c
00000230: 02dc 7e3c d936 1cbc 6fd5 abbc c8ee 703c
00000240: 6217 a7bc ab8a e03c a682 a33c e060 e63c
00000250: 8377 7e3c 4d28 f2bc 4030 84bc a589 693c
00000260: dfb2 dbb9 08fb e83a ef3c 86ba ad5a 0fbc
00000270: 1566 99ba 85c1 03ba 8fbb ba3c 7910 b83b
00000280: 419d a4ba 0c11 b4ba c4aa 093d ebff 02bc
00000290: 7d2a fd3c eb01 2d3c df7c 32bc e975 bb3a
000002a0: f0de 46bd 5877 26bc 47ab 7a37 5bea 46bc
000002b0: 6042 eb3a 5b5f 83bc a686 06bd 12b1 d0bc
000002c0: a825 863c 7244 45bc f93e 3bbc 8b04 e53b
000002d0: 581a 013c d49c b23c 74f4 2ebd 489d f83c
000002e0: 3379 213c 1b52 363b e53d 2ebc 831c b9bc
000002f0: 3e41 10bb 727e 103c 66ba 4a3c 91d1 8c3b
00000300: e327 9d3c 954c 813c bb06 373d dbd8 b8bc
00000310: 339f e63c ce63 263c fa09 383c cb36 2ebc
00000320: 78fa f2bc 487f fe3b bb6d 95bc 5b13 c83c
00000330: bf54 82bc effd 1bbd df74 db3c 987d 11bc
00000340: f5b9 c3bc ac91 2a3c 9352 9eba b24c eeba
00000350: a887 e63b 4370 5e3c 9e3a 9abc d631 37bd
00000360: d5f7 1c3c b02a 763c 2ea4 1aba 87c2 1fbc
00000370: 28ca 723b b7fa 963c 1fff a13c 2835 61bc
00000380: 11de 9dbc 6699 423b 7016 56bc 3d82 5f3c
00000390: 0fb6 d33c 7203 ecbb 786e 243b 994d 8dbc
000003a0: 67f1 2ebc 9ad1 14bd 4bca 3bbc fa20 be3c
000003b0: 60d0 bebb 808f 463c a3a0 3e3c 8498 c93c
000003c0: 767c 9cb9 5791 2abb 1018 5bbc 5d0d 6cbc
000003d0: 051f 4e3c 0077 31bb 9a7d 643c 1b50 ba3b
000003e0: 6ea2 293c f60e a4bc 1fd2 80bb 77f4 8a3c
000003f0: db4a 18bc 8423 1ebc 40ac 423b 005d f4bc

action_model._continuous_distribution.mu.bias f4 [2]
0.0 0.0
00000000: 0000 0000 0000 0000
