Client/results/ppo/MoveToGoal/MoveToGoal-512.pt (torch, 147458 bytes, 12 tensors)

network_body._body_endoder.seq_layers.0.weight f4 [128, 4]
000000 92 20 ff 3e 39 54 4e bf 5b 49 a9 be e4 1a 29 be
       0.49829537 -0.80597264 -0.33063778 -0.16514164
000010 68 dd bc 3d 90 38 fb bd 76 5a 44 3e ca 00 f4 be
       0.092219174 -0.12266648 0.19175133 -0.47656852
000020 bc ab 66 be 46 46 cb 3e 51 ab 8e be dd d9 84 3e
       -0.22526449 0.39702052 -0.2786508 0.25947466
000030 a8 d2 9d 3e 9d 38 c2 bf 31 86 0f bf 86 2d 61 be
       0.3082478 -1.5173527 -0.56064135 -0.21990022
000040 64 0b 7f be ef 49 f3 3d ac fb 34 3e eb 76 19 bf
       -0.24906689 0.11879336 0.1767413 -0.5994708
000050 48 5e 29 3d d2 3a 22 bf 5e 42 20 3d 8f ec ae be
       0.04134968 -0.63371 0.039125793 -0.34164855
000060 c6 9f 83 be 76 02 22 3f eb 38 ec be cc 42 9a bd
       -0.25707835 0.63285005 -0.46137175 -0.07532272
000070 b0 3c dd 3e 5c dc 36 bf 1f 95 a3 be 61 e9 39 bd
       0.43210363 -0.7142999 -0.31949708 -0.045388583
000080 b3 d7 a3 be 5f 86 04 be 03 69 23 bf 15 14 81 3e
       -0.32000503 -0.12941884 -0.6383211 0.25210634
000090 eb 96 3a be f7 c3 64 3e a8 44 9d be 26 86 62 3d
       -0.18221633 0.2234038 -0.30716443 0.055303715
0000a0 63 7f b3 ba 85 f9 6e 3d 1b 4d 83 bf f6 2c 4b be
       -0.001369458 0.05834343 -1.0257906 -0.1984137
0000b0 f7 04 1e 3f 14 e1 57 3f f3 98 63 3e 2c da b2 3e
       0.61726326 0.84327817 0.22226314 0.34932077
0000c0 88 a4 af be 9a 54 52 be 09 d0 9f 3f ca 7c b8 be
       -0.34305215 -0.20540085 1.2485362 -0.36032706
0000d0 92 c2 8a bc 57 77 f0 3d 32 c3 c6 3c 38 71 50 bd
       -0.016938481 0.11741512 0.024262998 -0.050889224
0000e0 27 ba 41 3e e5 c1 d5 be ab 20 bf 3e 70 0f cc 3e
       0.18918668 -0.41749492 0.3732961 0.39855528
0000f0 50 72 01 bf ec 59 41 bf b8 60 1a 3d ef ff d3 be
       -0.5056505 -0.75527835 0.037689894 -0.414062
000100 65 78 87 bf ed 99 ea be d5 39 53 3f 69 f9 32 3e
       -1.0583616 -0.4582056 0.8251012 0.17477955
000110 db 9a a4 be 38 29 b8 bd 02 c5 a7 be c2 99 b7 3e
       -0.32149395 -0.08992237 -0.32767493 0.35859495
000120 68 33 02 bf 2e 3a 25 3e 8a 53 0f 3f 77 49 69 3e
       -0.5085969 0.16135475 0.55986845 0.22781931
000130 91 d2 92 be 73 83 5b be 0f 54 9a 3c cc 51 ed bc
       -0.28676274 -0.21436863 0.01883891 -0.028969668
000140 4c 0c 22 bf 86 45 24 3e df a9 29 bf 3b 27 91 3e
       -0.63300014 0.16042146 -0.6627483 0.28350243
000150 fc b0 eb be a0 bc 6c 3f fe d0 a0 be bc 92 81 3f
       -0.46033466 0.9247532 -0.31409448 1.0122905
000160 c1 54 f8 be 03 ba dd be 80 ad 28 3f 61 d4 3f 3e
       -0.48502162 -0.43305978 0.6588974 0.1873336
000170 2d 01 3a bf 05 cf 67 3f df e4 01 bf 49 11 d0 3c
       -0.72658044 0.9055026 -0.50739855 0.025398867
000180 3a e1 07 3c 88 52 82 be de 04 ef bc 5c 1b 01 3f
       0.008293444 -0.2545359 -0.029177126 0.5043237
000190 1e d6 4a 3c 78 36 c8 be 95 f2 d8 3d 80 fd 89 bf
       0.012380151 -0.39104056 0.10593144 -1.0780487
0001a0 b7 fd 12 3f f7 e6 57 3f b3 ac 06 3e 37 95 4f be
       0.5741839 0.843368 0.13151817 -0.20271765
0001b0 7d 60 d6 bc 2a cb 0f 3f 1d d3 4e 3b c3 b2 ab be
       -0.026169056 0.5616938 0.0031558939 -0.33534822
0001c0 0f 7b 3a 3f 6d e2 d1 be c5 04 f8 3e c8 3c 94 be
       0.7284402 -0.40993062 0.4844114 -0.28952622
0001d0 67 da b6 be 1b 8f c6 bd 39 ac 7c be 67 e6 3e bf
       -0.35713503 -0.09695264 -0.24675073 -0.74570316
0001e0 c8 66 a0 be 21 d2 34 bd ba b7 2e bc 07 36 68 3e
       -0.31328416 -0.044145707 -0.010663921 0.2267686
0001f0 a4 42 7d be 2c 22 2d 3d de 76 c0 3e 12 b9 f4 3d
       -0.24732453 0.042268917 0.37590688 0.11949362
000200 22 bb 8a 3e cb 36 0d 3f 91 f7 40 bf b0 70 77 3f
       0.27095896 0.5516173 -0.75377756 0.9665632
000210 1d 82 01 bf f8 78 01 3f 6a e9 c5 be f9 7c 0c be
       -0.5058916 0.5057521 -0.38654643 -0.13719548
000220 78 fe b4 be 6d e9 a8 be 92 1d ba 3d fc af 16 bf
       -0.35350394 -0.3299059 0.09087671 -0.5886228
000230 a9 5b 1c bf bf f7 13 3f 0f 10 83 3e 02 ea 54 bf
       -0.6107736 0.57799906 0.2559819 -0.8316957
000240 e2 5c b7 3e 80 cd fc be d0 9c 95 3f 19 29 a1 be
       0.3581305 -0.49375534 1.168848 -0.31476668
000250 ca eb 26 3f c3 34 6f 3f a5 c7 e6 be 72 7c 10 bf
       0.65203536 0.93439883 -0.45074192 -0.5643989
000260 4e 38 da be c5 9c 05 bf 8e ba 01 bf d6 3e 88 3e
       -0.42621082 -0.52192336 -0.50675285 0.2661044
000270 b9 41 3c 3e 65 ef af 3e 94 41 3b 3e da 1c f2 bd
       0.18384446 0.3436233 0.18286735 -0.11821909
000280 da 0f 06 3f 47 d8 5b 3f b5 3c f0 be f7 15 2b bf
       0.5236794 0.8587689 -0.46921316 -0.6683039
000290 18 d9 f5 3e 7c 89 26 3f 10 1c b6 3b 19 84 fc bd
       0.48017192 0.65053535 0.0055575445 -0.12329883
0002a0 ba 10 39 bf 9e ac 98 3e ad 54 e4 3e da 4d df 3c
       -0.7229115 0.29819196 0.44595852 0.027258802
0002b0 30 e1 30 3e cd a7 0d bc a3 13 8a 3e 58 24 15 3f
       0.17273402 -0.008645964 0.26968107 0.5825858
0002c0 4e e8 3a 3f 8f 7a b4 be b9 62 4c bd 2b d3 68 bd
       0.7301072 -0.35249755 -0.049898837 -0.05684201
0002d0 96 b4 37 be 01 d4 d4 3e ce 97 3a 3c bb ad a9 bf
       -0.17939982 0.41567996 0.011388732 -1.3256143
0002e0 a6 c6 a4 3e 67 e2 61 bf 40 9d 88 3e 2b 15 aa bd
       0.32182807 -0.8823609 0.26682472 -0.08304819
0002f0 4a ec 9b 3f af 89 67 be 3d 05 9c 3f 56 38 8c 3e
       1.2181485 -0.22611116 1.2189099 0.2738673
000300 81 79 01 3f 20 10 8e 3d 74 60 96 be 22 49 29 bf
       0.50576025 0.06936669 -0.29370463 -0.66127217
000310 82 dc bb be 9d 69 a6 3e eb 52 e7 3e f3 f8 9b 3b
       -0.36691672 0.32502452 0.4518045 0.0047599017
000320 7b fd 4a bf fd 00 26 bf 29 83 04 3f c5 ac 84 bf
       -0.7929303 -0.6484526 0.51762635 -1.0365225
000330 67 01 96 3e 4e 8c 7a 3d 72 8e bf 3e 7e 74 a4 bd
       0.29297945 0.06116896 0.37413365 -0.080300316
000340 8b 71 b8 be eb 85 b9 be 28 b4 01 3e 52 1e f7 be
       -0.36024126 -0.36234984 0.1266638 -0.4826532
000350 a6 a1 8b be ba ac 8f bf 0e 40 1e bc 02 12 f0 3e
       -0.27271765 -1.1224587 -0.0096588265 0.4688874
000360 51 7e 76 be d3 7e 86 be b3 af 9a 3e 97 4e 65 3f
       -0.24071623 -0.26268634 0.30212173 0.89573044
000370 aa 46 08 3c 9d 55 e1 3e c3 56 07 bf 0f 95 1c 3f
       0.008317629 0.4401063 -0.5286676 0.61164945
000380 ad e6 c6 be c1 b2 26 3f 15 25 94 bd b8 31 e1 be
       -0.38847867 0.65116507 -0.07233635 -0.43983245
000390 b0 f5 1e bf 1b 47 7a 3e 19 d2 a8 be 53 2a 59 3f
       -0.6209364 0.24441187 -0.32972792 0.84830207
0003a0 69 23 81 be 8f ba 13 3f 8e e0 d6 be 87 29 78 be
       -0.25222328 0.5770654 -0.41968197 -0.24234591
0003b0 83 51 6c 3e 46 59 d3 3d 7a a6 53 3e b9 5c 08 bf
       0.23077969 0.10319762 0.20668975 -0.53266484
0003c0 d0 c7 46 3f c5 49 b0 bf a8 53 c9 be ca ba cf bf
       0.7764864 -1.3772513 -0.39321637 -1.6228878
0003d0 ab b8 a7 be 0a 44 41 bf 57 6d 38 bf 89 58 40 be
       -0.32758078 -0.75494444 -0.7204184 -0.18783773
0003e0 bd 13 93 3e 9c 64 42 be 92 47 83 3e f2 0a d0 be
       0.28725997 -0.18983692 0.2564054 -0.4063335
0003f0 c3 ef 53 3f da 70 72 3f aa 12 9b be 91 6d f3 3e
       0.8278772 0.9470345 -0.30287677 0.4754453

network_body._body_endoder.seq_layers.0.bias f4 [128]
000000 00 00 00 00 00 00 00 00 00 00 00 00 00 00 00 00
       0.0 0.0 0.0 0.0
000010 00 00 00 00 00 00 00 00 00 00 00 00 00 00 00 00
       0.0 0.0 0.0 0.0
000020 00 00 00 00 00 00 00 00 00 00 00 00 00 00 00 00
       0.0 0.0 0.0 0.0
000030 00 00 00 00 00 00 00 00 00 00 00 00 00 00 00 00
       0.0 0.0 0.0 0.0
000040 00 00 00 00 00 00 00 00 00 00 00 00 00 00 00 00
       0.0 0.0 0.0 0.0
000050 00 00 00 00 00 00 00 00 00 00 00 00 00 00 00 00
       0.0 0.0 0.0 0.0
000060 00 00 00 00 00 00 00 00 00 00 00 00 00 00 00 00
       0.0 0.0 0.0 0.0
000070 00 00 00 00 00 00 00 00 00 00 00 00 00 00 00 00
       0.0 0.0 0.0 0.0
000080 00 00 00 00 00 00 00 00 00 00 00 00 00 00 00 00
       0.0 0.0 0.0 0.0
000090 00 00 00 00 00 00 00 00 00 00 00 00 00 00 00 00
       0.0 0.0 0.0 0.0
0000a0 00 00 00 00 00 00 00 00 00 00 00 00 00 00 00 00
       0.0 0.0 0.0 0.0
0000b0 00 00 00 00 00 00 00 00 00 00 00 00 00 00 00 00
       0.0 0.0 0.0 0.0
0000c0 00 00 00 00 00 00 00 00 00 00 00 00 00 00 00 00
       0.0 0.0 0.0 0.0
0000d0 00 00 00 00 00 00 00 00 00 00 00 00 00 00 00 00
       0.0 0.0 0.0 0.0
0000e0 00 00 00 00 00 00 00 00 00 00 00 00 00 00 00 00
       0.0 0.0 0.0 0.0
0000f0 00 00 00 00 00 00 00 00 00 00 00 00 00 00 00 00
       0.0 0.0 0.0 0.0
000100 00 00 00 00 00 00 00 00 00 00 00 00 00 00 00 00
       0.0 0.0 0.0 0.0
000110 00 00 00 00 00 00 00 00 00 00 00 00 00 00 00 00
       0.0 0.0 0.0 0.0
000120 00 00 00 00 00 00 00 00 00 00 00 00 00 00 00 00
       0.0 0.0 0.0 0.0
000130 00 00 00 00 00 00 00 00 00 00 00 00 00 00 00 00
       0.0 0.0 0.0 0.0
000140 00 00 00 00 00 00 00 00 00 00 00 00 00 00 00 00
       0.0 0.0 0.0 0.0
000150 00 00 00 00 00 00 00 00 00 00 00 00 00 00 00 00
       0.0 0.0 0.0 0.0
000160 00 00 00 00 00 00 00 00 00 00 00 00 00 00 00 00
       0.0 0.0 0.0 0.0
000170 00 00 00 00 00 00 00 00 00 00 00 00 00 00 00 00
       0.0 0.0 0.0 0.0
000180 00 00 00 00 00 00 00 00 00 00 00 00 00 00 00 00
       0.0 0.0 0.0 0.0
000190 00 00 00 00 00 00 00 00 00 00 00 00 00 00 00 00
       0.0 0.0 0.0 0.0
0001a0 00 00 00 00 00 00 00 00 00 00 00 00 00 00 00 00
       0.0 0.0 0.0 0.0
0001b0 00 00 00 00 00 00 00 00 00 00 00 00 00 00 00 00
       0.0 0.0 0.0 0.0
0001c0 00 00 00 00 00 00 00 00 00 00 00 00 00 00 00 00
       0.0 0.0 0.0 0.0
0001d0 00 00 00 00 00 00 00 00 00 00 00 00 00 00 00 00
       0.0 0.0 0.0 0.0
0001e0 00 00 00 00 00 00 00 00 00 00 00 00 00 00 00 00
       0.0 0.0 0.0 0.0
0001f0 00 00 00 00 00 00 00 00 00 00 00 00 00 00 00 00
       0.0 0.0 0.0 0.0

network_body._body_endoder.seq_layers.2.weight f4 [128, 128]
000000 7f 8a a7 3b 06 e0 0a bd ba 62 d3 3d 12 64 bf bd
       0.0051129456 -0.03390505 0.10321565 -0.09345259
000010 42 56 8b bc 2e 61 30 3d 22 20 49 be 1c d0 ea 3d
       -0.017008904 0.043061428 -0.19641164 0.11465475
000020 b8 b3 05 bc 80 68 3e bd 3b 0f 8a bd 08 6b ea 3d
       -0.008160524 -0.046486378 -0.06741186 0.11446196
000030 9c 50 9c bc e3 41 db bd b2 3b f7 3c 6c 31 23 ba
       -0.019081406 -0.10705926 0.030179832 -0.0006225321
000040 76 b8 65 3c 48 dc 81 3d b8 74 1c 3d e2 45 83 bc
       0.01402103 0.063408434 0.03819725 -0.016024534
000050 9d c9 24 3d fe a4 e9 bd 6f ae 84 3d 0d 2f 8a 3d
       0.040231336 -0.11408423 0.06478583 0.067472555
000060 60 56 fa bd 23 74 bd bd 30 59 37 3d ec 7d 57 3e
       -0.12223506 -0.09250667 0.04476279 0.21044129
000070 f9 00 ca ba ff 1f c6 bc 25 8e 86 bc e0 af da bd
       -0.0015411667 -0.024185179 -0.016425202 -0.10678077
000080 b8 0e 9c 3d db 12 96 bd 97 23 af bc bf 49 3d 3e
       0.07619995 -0.07327815 -0.021379275 0.18485163
000090 ac 62 fd 3c d5 5a 80 3d f7 63 06 3d d9 29 4b bd
       0.03093084 0.06267325 0.032810178 -0.049600456
0000a0 c4 57 19 bd f5 fc 80 3d 4c 75 74 bc c2 d6 d1 bd
       -0.037437215 0.06298248 -0.014920544 -0.1024604
0000b0 57 96 07 bd 39 5b ce bd c5 a5 bc bc 4e 2d e1 3c
       -0.03310236 -0.10075993 -0.023028264 0.027487423
0000c0 cf 84 57 3e e3 61 02 be c9 4a 89 3d 71 9b b8 bd
       0.21046756 -0.12732653 0.06703717 -0.09014023
0000d0 b0 b5 14 3c 9c 9c 78 be 51 45 0d 3c e5 00 46 3d
       0.009076521 -0.24278492 0.008622483 0.048340697
0000e0 c1 8e 98 3c a6 f4 91 bd 15 3a bb 3d 28 3c 31 bd
       0.018622758 -0.07126741 0.09141938 -0.04327026
0000f0 54 df a7 3c 38 0f 0a bd ef 6c 16 be d3 f6 ce 3d
       0.020492233 -0.03370592 -0.14689992 0.10105672
000100 15 41 33 3e 31 da 27 bd dd a5 9c 3c 26 cf 47 be
       0.17505296 -0.040979568 0.019122059 -0.19512615
000110 71 80 2a 3e 8c 34 0b 3d 51 2c 63 3c 6b 3d 56 3c
       0.16650559 0.03398566 0.013865546 0.013076167
000120 b7 9b 13 3b 47 c7 f7 bd ee 89 b8 3d 20 b8 f3 bd
       0.0022523233 -0.12098556 0.09010683 -0.119003534
000130 bd 65 0b be 8c c3 a6 bb 3d ee 05 be 0a 1d a4 bc
       -0.13613029 -0.005089229 -0.13079162 -0.020033378
000140 fc 43 27 3e d1 e1 be bd 84 64 0f 3e 61 20 75 3c
       0.16334528 -0.09320415 0.14003187 0.014961333
000150 51 64 f4 bd 4c 0f 0c 3d 12 db 88 bd c8 99 ed 3c
       -0.11933196 0.034194276 -0.06682409 0.029003993
000160 1a 7d 8b 3d 20 df 9e bc 3c 42 54 3d 2b 1a 46 bc
       0.068109706 -0.019393504 0.05182098 -0.0120912
000170 a5 37 d9 bb e1 77 d3 3d 08 56 d5 bd 00 9d f7 bc
       -0.006628948 0.103255995 -0.104168 -0.03022623
000180 45 7a cc 3d 57 bb 09 3e f2 04 67 3d c6 f5 c9 3d
       0.099842586 0.1345037 0.0564012 0.09861331
000190 3d bd 5d bd 03 37 37 3d 56 ad 29 3e 86 a5 4b 3d
       -0.05413555 0.044730198 0.16570029 0.049718402
0001a0 3d 63 05 bd 93 c5 f6 3c 48 f6 fe bd 7b 9c d2 ba
       -0.032565344 0.030123508 -0.12449318 -0.0016068363
0001b0 6e ad b8 bd ad aa ac bd 9a fe 56 3d 30 03 c9 3d
       -0.09017454 -0.08430991 0.0524889 0.09815061
0001c0 6d 2e 9f bd a8 85 62 3c 5d 54 1f 3e c1 23 16 3d
       -0.07772527 0.013825811 0.15559526 0.03665519
0001d0 2b 5a e0 3b 80 f0 9a bb 59 02 b0 3d 72 4d bb bd
       0.0068466864 -0.004728377 0.08594198 -0.09145631
0001e0 9b eb 83 3d b7 f0 87 bd f3 7b 05 bd 5a 59 f6 3d
       0.064414226 -0.066377096 -0.03258891 0.12028761
0001f0 2f ba 0f 3e 92 2c 26 be e5 41 98 3d 0b 0b 4c 3e
       0.14035867 -0.1622794 0.074344434 0.19926088
000200 ee 48 1c bd d7 9f 39 bd 13 c2 f4 bd 3f 88 40 be
       -0.03815549 -0.04531845 -0.11951079 -0.18801974
000210 6d 6a a0 3d 58 9c ff 3c d3 eb 34 be 23 29 64 bd
       0.07832799 0.03120248 -0.17668085 -0.055703294
000220 af 59 d4 3d a6 c7 67 3d fc b9 9e 3c 81 d9 25 be
       0.10368668 0.056586884 0.019375794 -0.16196252
000230 c1 5a 8e 3d 25 20 8d ba 4e 72 cc 3c 0b 36 75 3d
       0.06950904 -0.0010767026 0.024956848 0.059865993
000240 44 3a fc bc 79 ed b8 3c fb 07 70 3d de 9d 36 3d
       -0.030789502 0.022574173 0.05860136 0.044584148
000250 59 78 24 3d 05 fa 58 3d 1c 43 98 3e a3 bb ac 3d
       0.040153835 0.052972812 0.297387 0.08434226
000260 e3 b2 5e be e3 4e 17 be d2 04 d4 bd 9b 8b 98 bd
       -0.21747927 -0.14776187 -0.10352482 -0.07448503
000270 e7 91 29 be 4f 2b 36 3c cf 94 64 bd a9 0c dc 3d
       -0.16559564 0.011118724 -0.055805977 0.10744602
000280 ce 97 45 be 6a aa ff 3d 8c 3c d0 3d 34 a0 87 bd
       -0.1929619 0.12483676 0.101677984 -0.06622353
000290 83 9f f0 3d 60 11 e1 bd 22 a1 b1 3c 1c f5 3d 3d
       0.117491744 -0.10989642 0.02168328 0.046376333
0002a0 1d a4 de bc b5 e4 fa bd d6 a6 20 3e 4c 5a 9c 3c
       -0.027177865 -0.12250654 0.15688643 0.019086026
0002b0 7b 78 42 be d0 a6 a2 3c 6b c6 2a 3d 95 1e c9 ba
       -0.18991272 0.019854933 0.041693132 -0.0015344197
0002c0 4b d8 05 3e a7 e4 47 3c 3e cc 5d 3c 5b 0b 3c 3c
       0.1307079 0.012200511 0.013537465 0.011477317
0002d0 1b 1a 02 3e 1d 79 1c bc 5d 71 31 3d a3 cd d6 bc
       0.12705271 -0.00955036 0.043321002 -0.026221102
0002e0 20 06 dd bd b5 f5 06 3e 0c c8 56 3d 3a 28 6b bd
       -0.10792184 0.13179667 0.052436873 -0.05741141
0002f0 f7 68 1f bd 07 86 20 be 5e 0d eb bd 64 23 3d 3c
       -0.03891846 -0.15676127 -0.11477159 0.011544082
000300 92 33 25 3e 9e 9c 9a bd 1a 16 12 bd 61 ea 3b 3d
       0.16132954 -0.075494036 -0.03566561 0.045877818
000310 df a5 bb bd b6 4d ca 3d b8 55 f3 bc 92 ec 07 be
       -0.09162497 0.098781034 -0.02970396 -0.13273838
000320 3b 9f f1 bb c9 cd 9d ba a2 38 85 bd 82 c5 c2 3d
       -0.007373718 -0.0012039478 -0.065049425 0.09510328
000330 1b ad 65 3d ae 8a c5 3b 14 5c de bd 5b db 28 3e
       0.05607329 0.006028495 -0.10857406 0.16489927
000340 74 22 97 3c 6d 21 d5 bd 85 e9 8f 3d 04 f5 52 be
       0.018449046 -0.10406766 0.07026962 -0.20601279
000350 01 c7 fa 3d d6 86 1c be 97 fb 8a bd 73 c5 d2 3c
       0.12244988 -0.15285811 -0.06786268 0.025728917
000360 3e 64 02 bd 8b 4d ef bd bd 40 4b 3d aa 48 56 3d
       -0.03183388 -0.11684712 0.049622286 0.05231539
000370 4f 52 11 3d e7 d8 9d bc 21 15 38 3a 3e e6 30 3d
       0.035478886 -0.019268466 0.00070221914 0.043188326
000380 d6 c5 f6 bc 67 57 8c 3d 72 ba 62 3d a7 06 9a 3b
       -0.030123632 0.06852608 0.05535359 0.0047005
000390 8c 3d 33 bd 53 c7 44 3d d8 c7 6b bb f6 98 b6 3c
       -0.043759868 0.048041653 -0.003597727 0.022289734
0003a0 b9 cd de 3d 79 65 aa bd 9d 86 3e 3e 37 2f dd 3d
       0.10879082 -0.083201356 0.18606038 0.10800021
0003b0 e4 21 72 3d 8b 69 81 3c b3 3b 85 bd 67 13 41 be
       0.059114352 0.015797397 -0.06505527 -0.18855058
0003c0 e7 9c 8d 3d dc 83 b1 bd a0 0e fc bd 51 63 bc 3a
       0.06914692 -0.08667728 -0.12307477 0.001437286
0003d0 32 dc a9 bd fe ed b5 bb d8 fc 96 bd 3a 31 08 bc
       -0.08293952 -0.0055520525 -0.07372445 -0.008312518
0003e0 c4 98 0b bd 42 1a 10 3d 6e 92 d8 bd fa 49 84 bd
       -0.034081236 0.03518129 -0.10574804 -0.064594224
0003f0 d8 55 c5 bd f5 31 31 bd 7f ab bd bd 68 41 46 bd
       -0.09635514 -0.043260533 -0.09261226 -0.04840222

network_body._body_endoder.seq_layers.2.bias f4 [128]
000000 00 00 00 00 00 00 00 00 00 00 00 00 00 00 00 00
       0.0 0.0 0.0 0.0
000010 00 00 00 00 00 00 00 00 00 00 00 00 00 00 00 00
       0.0 0.0 0.0 0.0
000020 00 00 00 00 00 00 00 00 00 00 00 00 00 00 00 00
       0.0 0.0 0.0 0.0
000030 00 00 00 00 00 00 00 00 00 00 00 00 00 00 00 00
       0.0 0.0 0.0 0.0
000040 00 00 00 00 00 00 00 00 00 00 00 00 00 00 00 00
       0.0 0.0 0.0 0.0
000050 00 00 00 00 00 00 00 00 00 00 00 00 00 00 00 00
       0.0 0.0 0.0 0.0
000060 00 00 00 00 00 00 00 00 00 00 00 00 00 00 00 00
       0.0 0.0 0.0 0.0
000070 00 00 00 00 00 00 00 00 00 00 00 00 00 00 00 00
       0.0 0.0 0.0 0.0
000080 00 00 00 00 00 00 00 00 00 00 00 00 00 00 00 00
       0.0 0.0 0.0 0.0
000090 00 00 00 00 00 00 00 00 00 00 00 00 00 00 00 00
       0.0 0.0 0.0 0.0
0000a0 00 00 00 00 00 00 00 00 00 00 00 00 00 00 00 00
       0.0 0.0 0.0 0.0
0000b0 00 00 00 00 00 00 00 00 00 00 00 00 00 00 00 00
       0.0 0.0 0.0 0.0
0000c0 00 00 00 00 00 00 00 00 00 00 00 00 00 00 00 00
       0.0 0.0 0.0 0.0
0000d0 00 00 00 00 00 00 00 00 00 00 00 00 00 00 00 00
       0.0 0.0 0.0 0.0
0000e0 00 00 00 00 00 00 00 00 00 00 00 00 00 00 00 00
       0.0 0.0 0.0 0.0
0000f0 00 00 00 00 00 00 00 00 00 00 00 00 00 00 00 00
       0.0 0.0 0.0 0.0
000100 00 00 00 00 00 00 00 00 00 00 00 00 00 00 00 00
       0.0 0.0 0.0 0.0
000110 00 00 00 00 00 00 00 00 00 00 00 00 00 00 00 00
       0.0 0.0 0.0 0.0
000120 00 00 00 00 00 00 00 00 00 00 00 00 00 00 00 00
       0.0 0.0 0.0 0.0
000130 00 00 00 00 00 00 00 00 00 00 00 00 00 00 00 00
       0.0 0.0 0.0 0.0
000140 00 00 00 00 00 00 00 00 00 00 00 00 00 00 00 00
       0.0 0.0 0.0 0.0
000150 00 00 00 00 00 00 00 00 00 00 00 00 00 00 00 00
       0.0 0.0 0.0 0.0
000160 00 00 00 00 00 00 00 00 00 00 00 00 00 00 00 00
       0.0 0.0 0.0 0.0
000170 00 00 00 00 00 00 00 00 00 00 00 00 00 00 00 00
       0.0 0.0 0.0 0.0
000180 00 00 00 00 00 00 00 00 00 00 00 00 00 00 00 00
       0.0 0.0 0.0 0.0
000190 00 00 00 00 00 00 00 00 00 00 00 00 00 00 00 00
       0.0 0.0 0.0 0.0
0001a0 00 00 00 00 00 00 00 00 00 00 00 00 00 00 00 00
       0.0 0.0 0.0 0.0
0001b0 00 00 00 00 00 00 00 00 00 00 00 00 00 00 00 00
       0.0 0.0 0.0 0.0
0001c0 00 00 00 00 00 00 00 00 00 00 00 00 00 00 00 00
       0.0 0.0 0.0 0.0
0001d0 00 00 00 00 00 00 00 00 00 00 00 00 00 00 00 00
       0.0 0.0 0.0 0.0
0001e0 00 00 00 00 00 00 00 00 00 00 00 00 00 00 00 00
       0.0 0.0 0.0 0.0
0001f0 00 00 00 00 00 00 00 00 00 00 00 00 00 00 00 00
       0.0 0.0 0.0 0.0

action_model._continuous_distribution.log_sigma f4 [1, 2]
000000 00 00 00 00 00 00 00 00
       0.0 0.0

action_model._continuous_distribution.mu.weight f4 [2, 128]
000000 2b 15 ba 3c 20 2e de 38 6b de 6a 3c ed 2a 50 bc
       0.022715172 0.00010594376 0.014335255 -0.012705547
000010 98 7e 29 bb e7 d9 fd 3b 22 06 0d bc 56 46 4b bc
       -0.002586281 0.0077469232 -0.008607419 -0.012406906
000020 ff c2 55 3c 40 24 07 bd 18 14 0e 3c 38 5d d6 3c
       0.013046979 -0.032993555 0.008671783 0.026167497
000030 43 af e5 3c 31 63 ae bc f2 8b 05 3c 8a ce 52 3c
       0.028037673 -0.021287533 0.008151041 0.012866626
000040 8b 06 0d 3c 2f fc 03 bd 73 d3 8e bc 8c 15 08 bc
       0.008607517 -0.032222923 -0.017434811 -0.008305918
000050 93 50 11 bb 2b 4d db bc 07 62 11 3a bf b1 76 bc
       -0.002217327 -0.026770195 0.0005545918 -0.015057026
000060 db df 88 bc c6 d3 b7 ba 78 0a 80 3c 06 a1 a3 3c
       -0.016708305 -0.0014024905 0.015629992 0.019974243
000070 b1 ce 3b ba c3 64 64 3c f3 60 09 bd 10 46 80 bc
       -0.00071642833 0.013940039 -0.033539724 -0.015658408
000080 53 70 ac ba 62 81 79 bc 44 60 b8 3b 7d 14 73 bc
       -0.0013156034 -0.015228601 0.00562671 -0.014836428
000090 5f 4c 0b 3c eb c8 14 3b 73 40 87 3c 17 96 af 3b
       0.008502095 0.0022702764 0.016510224 0.0053584683
0000a0 95 95 7d bc 43 4a f7 3c 22 f5 a0 bc 68 14 00 3b
       -0.015477558 0.030186778 -0.019648138 0.0019543413
0000b0 0a 83 df ba 6d bf 02 3c 87 12 f3 bc 5a b3 58 bc
       -0.0017052602 0.00798021 -0.02967192 -0.0132263545
0000c0 1b ab f0 bc 22 fe f4 ba 27 4d 9a 3a 17 78 a5 bc
       -0.029378464 -0.001869146 0.0011772261 -0.020198865
0000d0 03 03 03 bd 7b 71 13 3b db 13 79 3c d7 71 56 3c
       -0.031985294 0.002249806 0.015202488 0.013088665
0000e0 5f 57 ac bc 1e 9c 0e 3c 95 d2 5e 3b 26 ec a1 bb
       -0.021037756 0.008704213 0.0034000028 -0.004941481
0000f0 ba b4 f9 bc f5 5f 9d bc 48 b5 7f bc 8b 65 3a 3b
       -0.030481685 -0.019210795 -0.015607186 0.0028441872
000100 1f 0a a7 bc 3b c1 95 bb cf b1 20 3c 93 92 3a 3c
       -0.020390568 -0.004570154 0.009808018 0.011387485
000110 d2 ee c6 3c 4e 98 af 3a 53 16 30 bb ff 23 8c bc
       0.0242838 0.0013396831 -0.0026868775 -0.017107008
000120 b8 44 66 bb ab ea 2a bc 4c aa a4 3c b7 92 11 bc
       -0.0035136174 -0.010431926 0.020100735 -0.008885077
000130 43 9d a0 bc d5 d5 81 3b 85 c8 7d 3a b2 a6 ac bc
       -0.019606238 0.0039622583 0.0009681064 -0.02107558
000140 63 b5 17 bd 73 ed de 3c 46 46 44 bc a8 45 59 bb
       -0.03703822 0.027212834 -0.011979645 -0.003315309
000150 ad 28 6d 3c 63 f9 7c bc 7d 8d e6 ba e0 d4 35 bd
       0.01447503 -0.015440318 -0.0017589774 -0.044392467
000160 db fc 25 bc 7a e9 60 bc 67 08 9c 3c 0b 1c a4 bc
       -0.010131086 -0.01372754 0.019046975 -0.020032903
000170 5f db 8c bb b8 87 a2 3c 3a 59 8f 3b 01 aa 42 3c
       -0.004298612 0.019840106 0.0043746503 0.011881352
000180 ea 82 66 3c 92 1c 43 bc 2f a0 48 bc 7c 2a 84 bc
       0.014069298 -0.011908667 -0.012245222 -0.01613354
000190 14 03 0c 3d 16 f7 1b 3c 4f d4 8d 3c 8b 5a fe bb
       0.034182623 0.009519359 0.01731315 -0.0077622584
0001a0 f7 fe 40 bc e7 5f 65 3c 70 03 7e bc ec 3f 27 bc
       -0.011779538 0.013999916 -0.015503749 -0.010208111
0001b0 52 6c 12 bd 2b 4c 06 bd 93 2f 1a bd 70 cf 76 bc
       -0.035747834 -0.032787483 -0.037643027 -0.015064105
0001c0 1f 40 b3 3c 4f f8 0d bc c7 6f df 3c b5 7f b0 3c
       0.021881161 -0.008665158 0.02727498 0.02154527
0001d0 ce d7 b0 bc 03 07 b6 bc 4f 99 2c bc 9b a9 97 3c
       -0.021587279 -0.02222014 -0.0105345985 0.018513491
0001e0 da 9b a5 3c 8f 1d 8b 3b e2 b9 5b bc 43 1c 9d bc
       0.020215917 0.004245467 -0.013411017 -0.019178515
0001f0 b7 43 bc 3c 8d 20 f5 bc ea 1c 7d bc 3d 94 ce 3c
       0.022981508 -0.029922748 -0.015448788 0.02521717
000200 e3 f1 47 3d cf 1d 1f 3c b7 80 a5 bc ec 29 0e bc
       0.048814666 0.009711697 -0.020202978 -0.008676987
000210 af c0 cd 3a 5a a8 b9 bc b0 f9 6f bc 63 9f c7 ba
       0.0015697683 -0.022663284 -0.0146469325 -0.0015229996
000220 8a 7d fe 3b ce 5e 30 bc 8b 72 41 3c 26 f2 32 bb
       0.0077664303 -0.010764791 0.011807094 -0.0027304976
000230 6b 64 36 3c 37 54 15 3d f8 7b f0 bb dd 77 ec 3c
       0.01113234 0.036457267 -0.007338997 0.028865749
000240 a0 3d 03 bc 54 af 81 3b cf 42 be bc 80 1f 22 bd
       -0.008010298 0.0039576683 -0.023225216 -0.039580822
000250 1e 3a 0b bc 6b 77 fa bc d7 61 85 bb e3 36 a1 3b
       -0.008497743 -0.030574521 -0.0040705013 0.004919873
000260 60 fd 02 bc e5 8d 9e bc d3 6b 81 3c 65 02 e4 bc
       -0.00799498 -0.01935477 0.015798485 -0.027833173
000270 d4 8a b8 bc 23 51 42 ba fd e1 2d bc 30 3d 6a bb
       -0.022527136 -0.0007412603 -0.010612962 -0.0035742037
000280 7c 1e 80 ba 45 65 e1 3b 71 af ad ba 5d 6f ef bb
       -0.000977471 0.0068785273 -0.0013251138 -0.0073069767
000290 30 f6 5d 3b cf 4e a6 bc 0f 8e cd 3b 07 33 91 3c
       0.0033868663 -0.02030125 0.006273038 0.017724527
0002a0 f7 eb 1b 3d 13 9b b0 3c e3 ac 90 bc 5b 61 f1 3b
       0.03806683 0.02155832 -0.017660564 0.007366342
0002b0 1a ab 0c 3d 73 8a 15 bb a4 5c 0f 3d e3 b2 ac 3c
       0.034342863 -0.0022818118 0.03500046 0.021081394
0002c0 8a e6 d6 bb 5b e8 f2 bc 38 da b8 bc 92 f9 cc bc
       -0.006558244 -0.029651811 -0.022564992 -0.025021348
0002d0 90 1b c7 3b 58 ee e6 bb 3f 8e 74 bc d2 4e d3 3c
       0.0060762838 -0.0070474558 -0.014926492 0.02579442
0002e0 88 8e 1e 3c a4 a7 8c 3b e7 84 9d bb 2a 53 e2 3c
       0.009677537 0.0042924453 -0.004807103 0.027627546
0002f0 e8 88 65 39 85 d7 fa bb fa f5 00 3a 8f 36 3e bd
       0.00021890143 -0.0076550865 0.0004919466 -0.04643875
000300 90 33 18 bd 1d 74 6a 3a 7e 10 86 39 c9 d6 b9 bc
       -0.03715855 0.0008943694 0.0002557076 -0.022685425
000310 c5 fb 1f bc f1 61 14 3c ba df dd 3b 8a f9 ce bc
       -0.009764616 0.009056554 0.006771055 -0.025265474
000320 0f dc bf 3c f6 a2 32 3a a7 f6 a1 bc b7 12 67 3b
       0.023420362 0.0006814444 -0.019770933 0.0035258958
000330 05 d2 62 3c 8e be 0f 3c 37 fb a5 3a 46 51 03 bd
       0.013844018 0.008773459 0.0012663369 -0.03205993
000340 23 9f 70 bb 15 3c f8 ba 52 81 8e bc fc 89 21 bc
       -0.0036715947 -0.0018938804 -0.01739565 -0.009859558
000350 f3 30 28 3d 82 ec f9 3b ef 0f 27 3c 07 bc 1c bc
       0.041062307 0.007627071 0.01019667 -0.009566314
000360 cb b9 80 bb 3d ba 41 3c e5 97 ed bb c7 d8 a8 bc
       -0.0039283982 0.011824188 -0.0072507733 -0.02061118
000370 90 31 25 bb 80 14 cc bc cb 79 60 3c f8 36 93 3c
       -0.0025206544 -0.024912119 0.013700913 0.017970547
000380 ab e1 e2 bc 13 93 7c bb 4a c3 72 3c ff 39 3a 3b
       -0.027695497 -0.0038539812 0.014817068 0.0028415916
000390 24 6a 4c 3c 1f fa 74 3c d7 73 1d bc 47 82 28 bb
       0.012476478 0.014952212 -0.009610138 -0.0025712417
0003a0 80 f9 37 3c fb ec 93 bb 68 6e 5f 3d 23 94 c2 bb
       0.011228919 -0.0045143343 0.05454865 -0.0059380694
0003b0 57 da cc bc 27 1b d0 3c e0 00 4b bc b3 14 c9 bb
       -0.025006456 0.025403572 -0.012390345 -0.0061365007
0003c0 64 08 96 3c e5 56 3f 3c a8 45 29 bc d6 10 1e 3d
       0.018314548 0.011678432 -0.010331549 0.038590275
0003d0 7f 53 bb bb b2 e6 5c bc e7 74 c5 3c 66 b8 19 3c
       -0.0057167406 -0.013482736 0.024103595 0.009382343
0003e0 f5 0b 5a bc 88 d3 1f 3c e8 bc 4a bc 20 55 a0 3c
       -0.013308515 0.009755023 -0.01237414 0.01957184
0003f0 fa a8 92 bc 45 39 e2 b9 9c 2a 21 b9 2b d2 62 bc
       -0.01790284 -0.00043148748 -0.0001537003 -0.013844053

action_model._continuous_distribution.mu.bias f4 [2]
000000 00 00 00 00 00 00 00 00
       0.0 0.0

network_body._body_endoder.seq_layers.0.weight f4 [128, 4]
000000 a9 c6 a2 3e 89 66 21 3f cc b1 14 bf 06 90 75 3f
       0.3179219 0.6304708 -0.58083797 0.9592289
000010 bb 83 85 3e d4 f6 be 3e 5a 23 2d 3f b7 74 11 bf
       0.26077065 0.3729769 0.6763207 -0.5681872
000020 d4 17 a6 3e ee ef 0c bf d5 fa b6 3e aa 58 0e 3f
       0.32440054 -0.55053604 0.35738245 0.5560404
000030 07 d1 c2 be 9c 27 bd be 14 e8 46 be 70 7a 31 bf
       -0.380501 -0.36944282 -0.19424468 -0.6932745
000040 75 41 d0 3c 52 71 a8 3e f1 84 87 be e4 c6 87 3e
       0.025421837 0.32898957 -0.26468614 0.2651893
000050 15 b8 b4 bd 35 87 5b be 24 e1 46 3e 5a b3 e6 3e
       -0.08824173 -0.21438296 0.19421822 0.4505871
000060 9d 26 16 be 49 cc 44 be 9a c3 9a 3c 78 7c cc 3e
       -0.14663167 -0.19218554 0.018892098 0.39938712
000070 e1 c9 15 3f 54 bc 92 be 3f 59 b4 bd 63 d3 90 bd
       0.5851117 -0.28659308 -0.08806085 -0.07071569
000080 88 47 fd bc 17 28 5b bf b5 b1 2f bf 65 27 31 3e
       -0.030917898 -0.8560805 -0.68630534 0.17300184
000090 02 4e c9 be fd 94 a2 3c 7a 58 28 bf db 46 32 3e
       -0.39317328 0.019846434 -0.65760005 0.17409842
0000a0 fd aa 24 3e 1a 9d 1a be 92 84 00 bf 32 d4 db be
       0.16080852 -0.15098992 -0.50202286 -0.4293533
0000b0 08 92 01 3f 35 db 74 3c 95 54 7c 3f b5 1e 87 be
       0.5061345 0.014944841 0.9856656 -0.26390615
0000c0 56 4e ba 3e 71 82 05 be 96 af 59 3e d4 04 a1 3e
       0.3638789 -0.1303804 0.21258387 0.31448996
0000d0 78 02 38 bf 14 37 86 3e e7 db fe 3e b9 b4 08 be
       -0.71878767 0.26213896 0.49777147 -0.1335019
0000e0 03 36 ac be a2 3e ca bd 64 6c 25 3e 6f f6 36 be
       -0.33634958 -0.098752275 0.16154629 -0.17867444
0000f0 2a db 9d bf 26 90 ee be 29 c3 13 3f f3 6c f5 be
       -1.2332509 -0.46594352 0.57719666 -0.47934684
000100 14 77 33 3f 98 71 38 3f 46 e2 ca 3d e6 40 d1 3e
       0.70103574 0.7204833 0.099064395 0.40869826
000110 42 b3 1a 3f 18 25 07 be 33 aa 55 3e 16 90 a0 be
       0.60429776 -0.13197744 0.20865707 -0.3135993
000120 ea 95 6f 3f 4d ad e0 3e 9a 04 4c 3f 6c 1b ce be
       0.93588126 0.43882218 0.7969452 -0.40255296
000130 2a 26 0b 3f 5a bc b6 be aa 7f 53 be 50 3e 0c bf
       0.5435511 -0.35690576 -0.20654169 -0.5478258
000140 fe da 87 3e e2 73 38 3f b5 34 ca 3e 54 e5 87 3e
       0.26534265 0.72051823 0.39493337 0.2654215
000150 04 60 e6 bd 99 5d b4 bd f1 60 e2 be 05 9d 5c 3e
       -0.11248782 -0.08806915 -0.44214585 0.21544273
000160 c5 33 46 bf fa a5 be bd 8f 88 e4 3e 22 94 18 bf
       -0.77422744 -0.09309001 0.44635436 -0.5960103
000170 9e 37 37 3f c5 aa b5 be 0f ce 43 bf 05 0d 73 3f
       0.7156924 -0.3548185 -0.76486295 0.9494174
000180 85 86 67 bd 31 c5 f3 3d cf 13 1d be c3 71 db bd
       -0.056524772 0.11902846 -0.15339588 -0.10715058
000190 d6 65 da 3e 8b 2b db be d7 01 2b 3f e2 fa 6e bd
       0.4265582 -0.42806658 0.6679968 -0.05834473
0001a0 f6 17 53 3e cc 95 e2 3e 96 bb c6 be 15 bb 32 3f
       0.20614609 0.4425491 -0.38814992 0.69816715
0001b0 53 1d d6 be fb 2e de 3e 53 81 e2 bd 72 f3 32 3e
       -0.41819248 0.43395218 -0.11059823 0.1747568
0001c0 f1 0c 5f bf fa 94 6c be 54 49 5f 3f d7 19 1b be
       -0.8712912 -0.23103705 0.87221265 -0.15146576
0001d0 ed bf 62 bf 67 09 38 3e 15 cd e1 3e 5c 6f b0 bd
       -0.88574106 0.17972337 0.44101778 -0.0861499
0001e0 d2 44 3f 3c d5 58 6b bf 98 3f df be 28 dc 35 bf
       0.011674123 -0.9193242 -0.43603206 -0.71039057
0001f0 d8 f2 a0 be ad 0e 9f bf b2 7e 66 be 57 0d f8 be
       -0.31435275 -1.2426354 -0.22509268 -0.48447677
000200 a8 45 81 bf 40 4a dd 3e 23 1d 2b 3f 46 5b a9 3d
       -1.0099382 0.4322071 0.66841334 0.08269362
000210 da 97 d7 be 19 b9 12 3f e8 86 a2 bc e5 13 83 be
       -0.4210804 0.57313687 -0.019839719 -0.25601116
000220 7f 33 bc be 6d e6 d7 3e 98 17 34 3e a0 1a 22 3e
       -0.36758038 0.42167988 0.17587125 0.15830469
000230 62 d6 72 be be 99 47 bf 71 02 8c 3f db e1 64 3d
       -0.23714593 -0.77968967 1.0938245 0.055879455
000240 cf 85 6f 3e 19 9d d9 3d 90 ae 49 3f e3 32 17 3f
       0.23390888 0.10625667 0.78781986 0.5906202
000250 90 6d 24 3f 4b ce cc 3d 03 1a 5e 3d 18 97 6a bf
       0.6422968 0.10000285 0.054224025 -0.916368
000260 17 02 bf bd 10 8d bc be 0d b9 ff 3e e4 19 65 bf
       -0.093265705 -0.36826372 0.4994587 -0.8949263
000270 bc f8 5c 3f 87 d9 fe be 6c 9a 61 3f f0 a9 4e 3e
       0.8631704 -0.49775335 0.88126254 0.20182014
000280 1c b4 f6 3e 74 6d 0a be cd cd 58 3f 5d fa 87 bf
       0.48184288 -0.13518316 0.8468903 -1.062328
000290 8b 59 44 bf 4d 84 27 bf 2e 2f a9 bd 57 57 ae 3f
       -0.7669913 -0.6543625 -0.08260952 1.3620404
0002a0 f1 d0 79 be 29 13 96 be 06 0a 5a bf 2a e7 97 be
       -0.24396111 -0.29311493 -0.85171545 -0.29668552
0002b0 63 e7 e7 3d ce ce 9f 3f 81 2f 7d 3e b7 9a ef bd
       0.113234304 1.2484987 0.24725153 -0.116994314
0002c0 ec 00 99 be 72 58 14 bf e3 5a 3c 3f f8 ec 9f 3e
       -0.29883516 -0.57947457 0.7357618 0.3123548
0002d0 12 8f aa be c9 ce 95 be 29 10 08 be ad 3f 77 bf
       -0.3331228 -0.29259327 -0.13287415 -0.96581537
0002e0 23 c2 7e bd e3 b7 97 be c8 d2 0d be 58 df 1d bf
       -0.062196862 -0.29632482 -0.13849938 -0.6166892
0002f0 9d 5b 49 be 32 5b 2b bf 23 09 02 3f 55 02 f3 be
       -0.19663854 -0.6693603 0.5079519 -0.47462717
000300 09 cc 9d 3e 0a db 34 3d 41 48 15 bf 90 3a 14 3f
       0.3081973 0.044154204 -0.58313376 0.5790186
000310 2d f1 28 bf fe 93 10 bd 11 b0 b9 3e de 0b fc be
       -0.65993005 -0.035297386 0.3626714 -0.49227804
000320 b8 38 db 3e d3 0f 14 3e 2f 66 63 3d 2c 77 ff 3e
       0.4281671 0.14459161 0.05551737 0.49895608
000330 48 d9 c6 bd 41 fd 87 be 04 ee 15 3e 56 0b 0e be
       -0.09709412 -0.26560405 0.14641577 -0.13871512
000340 02 89 28 3e d5 a3 af 3e 8d 2d 08 3f 56 f1 ef be
       0.16458514 0.3430468 0.53194505 -0.46863812
000350 50 61 2a be b4 26 22 bc d7 0f 94 3d 84 17 7c 3e
       -0.16638684 -0.009896923 0.07229584 0.24618345
000360 eb 8f 22 3f bd 04 81 be 31 55 18 bf 2b 93 17 3f
       0.6350085 -0.25198928 -0.5950499 0.59208935
000370 d2 28 56 3e cf 7b b6 be b1 1c 41 3f aa 99 57 3f
       0.20914009 -0.35641333 0.75434405 0.8421885
000380 a8 7e 8b be 6a 61 21 be 3e 41 bd 3e 30 0e fa 3e
       -0.2724507 -0.15759817 0.36963838 0.4883895
000390 98 cb 10 3f 5f c2 92 be fb 2f 44 3e 23 6a c0 bd
       0.5656066 -0.28663918 0.19158928 -0.09395244
0003a0 a2 22 29 3e 8d 37 43 3d 9a 7a 14 bc 95 85 0c be
       0.16517118 0.0476604 -0.009062434 -0.13722833
0003b0 27 68 98 3e fa 4a 5e 3f 63 08 4a 3f f3 e2 66 3f
       0.29766962 0.86833155 0.7891905 0.9019005
0003c0 7d 39 29 be 20 df 93 3e 51 90 af be 5e d1 c8 3e
       -0.16525836 0.28881168 -0.34289792 0.39222234
0003d0 ad 69 f3 3e 2c 83 74 be 0f a9 05 bf 31 ee 55 bf
       0.47541562 -0.23878163 -0.5221109 -0.83566576
0003e0 d7 d2 bd 3d e3 3a 52 bf 86 e4 10 bf 44 e9 16 be
       0.0926873 -0.82121104 -0.565987 -0.14737421
0003f0 93 1f ff 3d 7c 9b ce bd e6 9d 7a 3e 80 76 66 3f
       0.12457194 -0.1008825 0.24474296 0.90024567

network_body._body_endoder.seq_layers.0.bias f4 [128]
000000 00 00 00 00 00 00 00 00 00 00 00 00 00 00 00 00
       0.0 0.0 0.0 0.0
000010 00 00 00 00 00 00 00 00 00 00 00 00 00 00 00 00
       0.0 0.0 0.0 0.0
000020 00 00 00 00 00 00 00 00 00 00 00 00 00 00 00 00
       0.0 0.0 0.0 0.0
000030 00 00 00 00 00 00 00 00 00 00 00 00 00 00 00 00
       0.0 0.0 0.0 0.0
000040 00 00 00 00 00 00 00 00 00 00 00 00 00 00 00 00
       0.0 0.0 0.0 0.0
000050 00 00 00 00 00 00 00 00 00 00 00 00 00 00 00 00
       0.0 0.0 0.0 0.0
000060 00 00 00 00 00 00 00 00 00 00 00 00 00 00 00 00
       0.0 0.0 0.0 0.0
000070 00 00 00 00 00 00 00 00 00 00 00 00 00 00 00 00
       0.0 0.0 0.0 0.0
000080 00 00 00 00 00 00 00 00 00 00 00 00 00 00 00 00
       0.0 0.0 0.0 0.0
000090 00 00 00 00 00 00 00 00 00 00 00 00 00 00 00 00
       0.0 0.0 0.0 0.0
0000a0 00 00 00 00 00 00 00 00 00 00 00 00 00 00 00 00
       0.0 0.0 0.0 0.0
0000b0 00 00 00 00 00 00 00 00 00 00 00 00 00 00 00 00
       0.0 0.0 0.0 0.0
0000c0 00 00 00 00 00 00 00 00 00 00 00 00 00 00 00 00
       0.0 0.0 0.0 0.0
0000d0 00 00 00 00 00 00 00 00 00 00 00 00 00 00 00 00
       0.0 0.0 0.0 0.0
0000e0 00 00 00 00 00 00 00 00 00 00 00 00 00 00 00 00
       0.0 0.0 0.0 0.0
0000f0 00 00 00 00 00 00 00 00 00 00 00 00 00 00 00 00
       0.0 0.0 0.0 0.0
000100 00 00 00 00 00 00 00 00 00 00 00 00 00 00 00 00
       0.0 0.0 0.0 0.0
000110 00 00 00 00 00 00 00 00 00 00 00 00 00 00 00 00
       0.0 0.0 0.0 0.0
000120 00 00 00 00 00 00 00 00 00 00 00 00 00 00 00 00
       0.0 0.0 0.0 0.0
000130 00 00 00 00 00 00 00 00 00 00 00 00 00 00 00 00
       0.0 0.0 0.0 0.0
000140 00 00 00 00 00 00 00 00 00 00 00 00 00 00 00 00
       0.0 0.0 0.0 0.0
000150 00 00 00 00 00 00 00 00 00 00 00 00 00 00 00 00
       0.0 0.0 0.0 0.0
000160 00 00 00 00 00 00 00 00 00 00 00 00 00 00 00 00
       0.0 0.0 0.0 0.0
000170 00 00 00 00 00 00 00 00 00 00 00 00 00 00 00 00
       0.0 0.0 0.0 0.0
000180 00 00 00 00 00 00 00 00 00 00 00 00 00 00 00 00
       0.0 0.0 0.0 0.0
000190 00 00 00 00 00 00 00 00 00 00 00 00 00 00 00 00
       0.0 0.0 0.0 0.0
0001a0 00 00 00 00 00 00 00 00 00 00 00 00 00 00 00 00
       0.0 0.0 0.0 0.0
0001b0 00 00 00 00 00 00 00 00 00 00 00 00 00 00 00 00
       0.0 0.0 0.0 0.0
0001c0 00 00 00 00 00 00 00 00 00 00 00 00 00 00 00 00
       0.0 0.0 0.0 0.0
0001d0 00 00 00 00 00 00 00 00 00 00 00 00 00 00 00 00
       0.0 0.0 0.0 0.0
0001e0 00 00 00 00 00 00 00 00 00 00 00 00 00 00 00 00
       0.0 0.0 0.0 0.0
0001f0 00 00 00 00 00 00 00 00 00 00 00 00 00 00 00 00
       0.0 0.0 0.0 0.0

network_body._body_endoder.seq_layers.2.weight f4 [128, 128]
000000 5b 49 ad 3d 77 bc a1 3d ea 6d 42 bb 8f 87 a1 bd
       0.08461257 0.07897275 -0.0029667565 -0.07887184
000010 06 d5 6b 3d a2 8a 37 3d d3 b3 7c bd 41 c7 1a bc
       0.0575762 0.044809945 -0.06169493 -0.00944692
000020 48 38 44 bd 28 82 39 bd 04 94 d7 3d f9 2a ca 3c
       -0.047905236 -0.045290142 0.105262786 0.024678694
000030 c5 93 f5 bd 2d db dd 3d 95 17 1c bd c1 12 16 3c
       -0.119910754 0.1083282 -0.038108427 0.009159745
000040 53 3e 26 bd 82 51 41 bc 68 1c 21 3d 2d c5 1d 3e
       -0.04058678 -0.011799218 0.03933373 0.15407248
000050 4e b5 c8 3d 66 e3 f0 3d 08 b2 b6 bc af c3 45 38
       0.09800206 0.11762123 -0.022301689 4.7150705e-05
000060 8d e9 1e 3d 96 a8 28 3d eb 0b d7 bc 40 70 e5 bd
       0.03879695 0.0411764 -0.0262508 -0.112030506
000070 28 3e 0c bd 74 99 80 bd cb 2a c0 bc 5d db f9 bc
       -0.034238964 -0.06279269 -0.023457905 -0.030500108
000080 a7 79 a5 bd aa 30 e3 bd d7 cf a7 bd d0 5d c7 3c
       -0.08079844 -0.11093266 -0.08193939 0.024336725
000090 5d 20 19 3d 92 14 9f 3d 8f df 11 3d 9f 8d e4 bd
       0.03738438 0.07767595 0.035613593 -0.111598246
0000a0 f3 13 8d 3d 55 c2 6a 3e 66 ec 53 3d 13 94 e9 bd
       0.06888571 0.22925694 0.05173912 -0.11405196
0000b0 1d 77 aa bc d2 38 06 3e 48 e9 01 3e ba 54 60 3d
       -0.02080875 0.13107613 0.12686646 0.0547683
0000c0 d3 db 90 3d 1c 65 0c bc 0a 03 19 3e 2a e3 07 be
       0.07073178 -0.008569028 0.14942566 -0.1327025
0000d0 64 ff e7 3b 8a a2 32 bd 2f f7 ce 3d 46 de d6 3d
       0.0070800055 -0.04361204 0.1010574 0.10491614
0000e0 ae 8c b7 3d f4 ce 95 bc a2 02 01 be 94 5c 7b 3d
       0.089623794 -0.01828716 -0.1259866 0.061367586
0000f0 87 3c b1 bc 4e 3f 56 3d 6e 06 87 3d 92 66 9e bc
       -0.021635307 0.052306466 0.06593023 -0.019336019
000100 88 20 2d bc 12 70 cd bd 73 97 60 3d 30 9e 98 3d
       -0.010566838 -0.10031141 0.054831933 0.07452047
000110 be 92 09 3e cf ac 97 3d 58 48 c4 bd 37 48 ba 3d
       0.13434884 0.074060075 -0.09584111 0.09095805
000120 ee 29 89 bd 64 b2 16 bd 13 30 98 3d 0f d5 16 bb
       -0.066974506 -0.03679122 0.074310444 -0.0023015176
000130 a5 b4 fd 3c 8a 37 80 3d 32 14 b5 3d ac 99 8f 3d
       0.030969927 0.06260593 0.088417426 0.070117325
000140 cc f2 02 be 63 21 c6 3c dd 16 0c be f3 92 44 3d
       -0.12787932 0.024185842 -0.13680597 0.047991704
000150 93 09 68 bd 94 e1 71 3d ee a6 1f 3d d3 78 45 bd
       -0.056649756 0.05905302 0.038977556 -0.04821093
000160 1e f8 80 bc cb bd 4c be 44 40 4e 3d 34 5f 1c 3c
       -0.015743311 -0.19994275 0.050354257 0.009544183
000170 dc e0 d7 3d ce 5a 91 3d 43 d5 c3 3d 27 41 2e bc
       0.105409354 0.07097398 0.09562161 -0.010635651
000180 6b cd 83 bd 3f 3e 4a bd a1 8c b1 bc f0 18 dc bd
       -0.06435665 -0.04937577 -0.021673502 -0.10746944
000190 3c 92 9e bc ba bb ba bd 9b 9f 59 3e 61 40 73 bd
       -0.01935684 -0.09117837 0.21252291 -0.05938757
0001a0 a9 f4 40 3d de 59 9a bc 13 db 43 3d cf 88 74 bd
       0.047108326 -0.01884168 0.047816347 -0.059700783
0001b0 d2 f2 1b 3d 80 93 38 bd c0 06 13 3b 51 03 a5 3d
       0.03807337 -0.045062542 0.0022434443 0.08057273
0001c0 9d 1b 6b bd 57 a3 08 3e 9b 09 ae 3d b6 d1 d4 bd
       -0.05739938 0.13343559 0.08497926 -0.10391562
0001d0 a9 a2 d5 bd de 2d 2a bd a6 f5 5f be 03 86 fe 3c
       -0.104314156 -0.04154765 -0.21871051 0.031069761
0001e0 40 39 fa bc 63 e5 9c bc 43 56 73 bd 45 7e 83 bd
       -0.030544877 -0.019152349 -0.059408437 -0.064205684
0001f0 2d 24 14 3e ee ca 56 3d 2c 32 bf 3b 1c 6f 71 bd
       0.14466925 0.052439623 0.0058348384 -0.058943853
000200 b5 41 5e 3e 96 06 02 bd 88 63 09 bd 0d 7b f2 3d
       0.21704753 -0.031744562 -0.033542186 0.11839876
000210 5e f4 54 3d 36 c5 2f 3e 7e 06 55 3e 3c cf 39 be
       0.05199086 0.17165074 0.20803258 -0.1814546
000220 4c 6a 48 3d b2 43 96 3d f0 5b 55 bd 10 b1 e0 bc
       0.048929498 0.073371306 -0.05208963 -0.02742818
000230 e0 48 ea 3c 6c 0a ef bc 39 77 8a be 9b 61 c4 bd
       0.028599203 -0.029179774 -0.27044085 -0.09588929
000240 23 4f e1 3d 36 2c 11 be 73 1a 46 bd 96 09 0c be
       0.11001422 -0.14177021 -0.048365068 -0.13675532
000250 83 53 4a bc 0e e0 52 ba 11 68 b3 bc 64 83 55 3d
       -0.012349012 -0.0008044251 -0.021900209 0.052127257
000260 58 f3 07 be 07 4e 04 bd f6 82 91 bc 23 d5 6e bc
       -0.13276422 -0.032300975 -0.017762642 -0.014577183
000270 6b 0c 44 be 30 f9 4c 3d c0 b0 13 bd a2 f9 07 3e
       -0.19145362 0.05004233 -0.036057234 0.13278821
000280 41 60 e1 3c 74 8a 33 bb 6b a8 8b bc 07 82 bd 3c
       0.027511718 -0.0027395757 -0.017048081 0.023133291
000290 e2 1c 40 3c 91 2b 65 3e 20 96 aa b9 ec 8e 8b bd
       0.011725636 0.223799 -0.0003253678 -0.068143696
0002a0 21 7e 99 3d 96 b2 a6 3d 41 a1 5b be 97 d9 4d 3d
       0.0749476 0.08139531 -0.21448232 0.050256338
0002b0 c4 19 fa 3d 47 af a3 bd ed f6 d8 3b b6 4f ab 3d
       0.12211946 -0.07992416 0.0066212327 0.08364813
0002c0 7e 4c 11 3e 05 0f 07 3c 39 fa 55 bc df d8 b6 bd
       0.14189336 0.008243327 -0.013060146 -0.08928084
0002d0 13 20 89 3d a0 24 2e 3d 4a e4 37 3d ba d3 95 bc
       0.06695571 0.042515397 0.044895448 -0.018289436
0002e0 d2 b5 f2 3c 94 b1 a8 bb 9a 00 c3 3d 1c 78 52 3c
       0.029627714 -0.005148122 0.09521599 0.012846019
0002f0 c3 59 6f bd 9f 0e 20 be 83 4e 13 3d a9 46 8f 3c
       -0.058435213 -0.15630578 0.035963546 0.017489748
000300 8d bc 2a 3e be cb 01 bd 4e f8 0b 3d e1 17 c0 3c
       0.16673489 -0.031688444 0.03417235 0.023448886
000310 31 c2 1d be 54 18 9e bd 38 89 be bd 02 69 02 3d
       -0.1540611 -0.07719484 -0.09303516 0.031838425
000320 e4 0f cf 3c 1b 19 db 3c 72 93 d8 bc a0 a1 08 be
       0.025276132 0.02674537 -0.026437495 -0.13342905
000330 8a f7 8d 3d 52 eb 20 3d 03 d5 57 bd 90 d1 8d bc
       0.0693198 0.03928692 -0.05269338 -0.017311841
000340 44 bb 0d 3e 8c d4 36 bd cf 35 ea 3d 7a 38 a6 3c
       0.13840967 -0.044636294 0.114360444 0.020290602
000350 68 32 97 3c 55 49 16 be a9 cd ee 3b fc 82 b8 3b
       0.018456653 -0.14676411 0.0072877 0.005630849
000360 97 ba e0 3d 9f c4 49 bd 09 96 56 3d f6 a7 88 bd
       0.10973089 -0.049259778 0.05238918 -0.06672661
000370 6a fa 11 3d 74 70 05 3e 79 4a f6 bd 1c 4a 00 3e
       0.035639204 0.13031179 -0.12025923 0.1252827
000380 25 72 30 3d 47 13 32 3d 1b 04 a2 bd 0c de dd 3d
       0.043077607 0.043475416 -0.07910939 0.10833368
000390 5d 38 c9 3d 95 eb 0e be 62 1b 83 bd fa c5 81 bd
       0.098252036 -0.13957055 -0.06401707 -0.06336589
0003a0 1f 88 49 be f3 b8 c1 3d 27 19 02 bd e4 2c fc 3d
       -0.19680832 0.094591044 -0.03176227 0.1231325
0003b0 ee d5 2e be bf 7f 88 3c c0 d4 e3 3c 45 f5 6f 3d
       -0.17073795 0.016662477 0.027811408 0.058583517
0003c0 c6 67 ef 3d 3d 9b 51 bd 6a 85 28 be 2d cf 1b 3d
       0.11689715 -0.051173437 -0.16457143 0.038039375
0003d0 6d e3 53 bc 98 f3 91 bd 8a 24 38 3e b3 db 9a 3d
       -0.0129326405 -0.0712654 0.17982689 0.075614356
0003e0 c0 50 06 bd 91 20 36 bc 24 08 52 3e 16 b8 dc 3d
       -0.032791853 -0.011116163 0.20510918 0.10777299
0003f0 06 a7 eb 3d c4 ff 71 bc ea 32 ce 3d 71 a2 15 3e
       0.115064666 -0.014770452 0.10068305 0.14612748

network_body._body_endoder.seq_layers.2.bias f4 [128]
000000 00 00 00 00 00 00 00 00 00 00 00 00 00 00 00 00
       0.0 0.0 0.0 0.0
000010 00 00 00 00 00 00 00 00 00 00 00 00 00 00 00 00
       0.0 0.0 0.0 0.0
000020 00 00 00 00 00 00 00 00 00 00 00 00 00 00 00 00
       0.0 0.0 0.0 0.0
000030 00 00 00 00 00 00 00 00 00 00 00 00 00 00 00 00
       0.0 0.0 0.0 0.0
000040 00 00 00 00 00 00 00 00 00 00 00 00 00 00 00 00
       0.0 0.0 0.0 0.0
000050 00 00 00 00 00 00 00 00 00 00 00 00 00 00 00 00
       0.0 0.0 0.0 0.0
000060 00 00 00 00 00 00 00 00 00 00 00 00 00 00 00 00
       0.0 0.0 0.0 0.0
000070 00 00 00 00 00 00 00 00 00 00 00 00 00 00 00 00
       0.0 0.0 0.0 0.0
000080 00 00 00 00 00 00 00 00 00 00 00 00 00 00 00 00
       0.0 0.0 0.0 0.0
000090 00 00 00 00 00 00 00 00 00 00 00 00 00 00 00 00
       0.0 0.0 0.0 0.0
0000a0 00 00 00 00 00 00 00 00 00 00 00 00 00 00 00 00
       0.0 0.0 0.0 0.0
0000b0 00 00 00 00 00 00 00 00 00 00 00 00 00 00 00 00
       0.0 0.0 0.0 0.0
0000c0 00 00 00 00 00 00 00 00 00 00 00 00 00 00 00 00
       0.0 0.0 0.0 0.0
0000d0 00 00 00 00 00 00 00 00 00 00 00 00 00 00 00 00
       0.0 0.0 0.0 0.0
0000e0 00 00 00 00 00 00 00 00 00 00 00 00 00 00 00 00
       0.0 0.0 0.0 0.0
0000f0 00 00 00 00 00 00 00 00 00 00 00 00 00 00 00 00
       0.0 0.0 0.0 0.0
000100 00 00 00 00 00 00 00 00 00 00 00 00 00 00 00 00
       0.0 0.0 0.0 0.0
000110 00 00 00 00 00 00 00 00 00 00 00 00 00 00 00 00
       0.0 0.0 0.0 0.0
000120 00 00 00 00 00 00 00 00 00 00 00 00 00 00 00 00
       0.0 0.0 0.0 0.0
000130 00 00 00 00 00 00 00 00 00 00 00 00 00 00 00 00
       0.0 0.0 0.0 0.0
000140 00 00 00 00 00 00 00 00 00 00 00 00 00 00 00 00
       0.0 0.0 0.0 0.0
000150 00 00 00 00 00 00 00 00 00 00 00 00 00 00 00 00
       0.0 0.0 0.0 0.0
000160 00 00 00 00 00 00 00 00 00 00 00 00 00 00 00 00
       0.0 0.0 0.0 0.0
000170 00 00 00 00 00 00 00 00 00 00 00 00 00 00 00 00
       0.0 0.0 0.0 0.0
000180 00 00 00 00 00 00 00 00 00 00 00 00 00 00 00 00
       0.0 0.0 0.0 0.0
000190 00 00 00 00 00 00 00 00 00 00 00 00 00 00 00 00
       0.0 0.0 0.0 0.0
0001a0 00 00 00 00 00 00 00 00 00 00 00 00 00 00 00 00
       0.0 0.0 0.0 0.0
0001b0 00 00 00 00 00 00 00 00 00 00 00 00 00 00 00 00
       0.0 0.0 0.0 0.0
0001c0 00 00 00 00 00 00 00 00 00 00 00 00 00 00 00 00
       0.0 0.0 0.0 0.0
0001d0 00 00 00 00 00 00 00 00 00 00 00 00 00 00 00 00
       0.0 0.0 0.0 0.0
0001e0 00 00 00 00 00 00 00 00 00 00 00 00 00 00 00 00
       0.0 0.0 0.0 0.0
0001f0 00 00 00 00 00 00 00 00 00 00 00 00 00 00 00 00
       0.0 0.0 0.0 0.0

value_heads.value_heads.extrinsic.weight f4 [1, 128]
000000 a4 1f f4 3d 74 63 0a bd 50 91 e9 3c ec d9 aa 3d
       0.119200975 -0.033786252 0.028511673 0.083423465
000010 c8 bb 69 bd 04 2a e0 3d 80 93 71 bd 44 e8 8d bd
       -0.057063848 0.10945514 -0.058978558 -0.06929067
000020 40 11 b2 bb 4a 67 57 3e d0 0c f2 3d de 90 55 be
       -0.0054341853 0.21035495 0.1181885 -0.20856044
000030 48 83 b2 3d 96 dd bf bd c4 ff 11 3e e8 3c 40 bd
       0.08716446 -0.09368436 0.14257723 -0.046933085
000040 f8 d7 84 3c 8a e7 15 be 70 11 68 bd cc 45 c6 3d
       0.016216263 -0.14639106 -0.056657255 0.096812814
000050 78 a1 4c 3e 28 0b 2e be 22 e1 1c be 00 d4 c3 ba
       0.1998347 -0.16996443 -0.15320256 -0.00149405
000060 cc 89 38 be d8 e8 0c be 9a a4 59 3e 3b ba 3f be
       -0.18021315 -0.13760698 0.21254197 -0.18723385
000070 8e 99 ac bd e4 d1 93 bd 5c ec 1a bd 56 05 15 be
       -0.08427726 -0.07217768 -0.037823066 -0.14552817
000080 3a e9 cb bd da 3e 3b be c8 df 4d be 50 a2 9d 3c
       -0.09956594 -0.18285695 -0.20104897 0.019242436
000090 48 5e 3f 3e 08 58 5f bd d2 7b 2d 3e f8 37 2e 3e
       0.18688309 -0.054527313 0.16941765 0.17013538
0000a0 04 35 6a bd 98 e7 9d 3d 2e 59 41 3e c8 86 d8 3d
       -0.057179466 0.077101886 0.18881676 0.105725825
0000b0 16 77 c8 bd 6c 17 b7 3d 68 17 b7 bd 00 b7 a0 bd
       -0.09788339 0.08940014 -0.08940011 -0.078474045
0000c0 bc a3 7b bd 46 f4 44 be f4 27 22 bd e0 09 b4 3c
       -0.061435446 -0.19233808 -0.039588884 0.021977365
0000d0 20 83 6e 3c 68 5c 88 bd f4 8f eb 3d 7c e9 1c 3e
       0.01455763 -0.0665825 0.11502066 0.15323442
0000e0 f8 69 33 be 60 32 9f 3d 15 1e 15 be f4 72 f5 bd
       -0.17520893 0.0777328 -0.14562257 -0.11984816
0000f0 5a d5 a4 bd f8 19 c8 3d 1e c6 16 be 04 23 38 be
       -0.08048506 0.09770578 -0.14724013 -0.17982107
000100 80 cf 0c 3e b0 47 a0 3d b4 73 4c be 44 fb 05 bd
       0.1375103 0.07826173 -0.19966012 -0.03271033
000110 22 a8 4d 3e 82 cd 0e 3e f8 2b a9 3d b8 d2 1e bd
       0.20083669 0.13945583 0.082603395 -0.038775176
000120 fa a8 44 3e 78 68 a9 bc 48 80 d3 3d 91 c2 0c be
       0.19205084 -0.020679697 0.10327202 -0.13746096
000130 ec 3c 2c be c6 71 c0 bd 14 1b a0 3d c4 ae c8 3d
       -0.16820115 -0.093967006 0.07817665 0.09798959
000140 30 c0 9f bd 20 d4 9f bb 70 0c 15 3d 18 91 1e be
       -0.07800329 -0.004877582 0.036388814 -0.15485036
000150 30 02 c9 bc 27 ea 51 be 72 cf 12 3e 40 1c 1a be
       -0.024537176 -0.20499478 0.14336947 -0.15049839
000160 ec 3b 91 bd 16 b9 4d 3e 52 5d ae bd a0 f8 d4 3c
       -0.07091507 0.20090136 -0.08513893 0.02599746
000170 9e 9b fb bd 66 f3 d7 bd 54 b4 92 3d f4 e6 8f bd
       -0.12285541 -0.105444714 0.07163301 -0.07026473
000180 68 b7 2c bd b0 2f de 3c 40 e1 68 bb 20 88 5a bd
       -0.042167097 0.027122349 -0.003553465 -0.053352475
000190 85 a3 48 be 70 b9 d3 3d 98 59 aa bd 90 b2 6b bd
       -0.19593628 0.10338104 -0.0831787 -0.057543337
0001a0 95 9d f3 bd e5 10 38 be 50 24 2e be 24 a5 4a be
       -0.11895291 -0.17975195 -0.1700604 -0.19789559
0001b0 98 72 ad 3d 98 08 fe 3d 6e d6 34 3e 98 20 17 be
       0.08469123 0.12403983 0.17659923 -0.14758527
0001c0 b0 55 b4 bd 00 3d 8b bd 08 c4 a4 bc 63 3f 22 be
       -0.08805406 -0.06798744 -0.020113006 -0.15844493
0001d0 b8 73 47 3e 28 32 32 3d fa 0a 1b 3e e7 fc 46 be
       0.19477737 0.043504864 0.15140906 -0.19432412
0001e0 7e 8b 10 be 84 93 20 3e 68 ef d9 3d 48 e1 a9 3c
       -0.14115712 0.15681273 0.10641366 0.020737305
0001f0 84 11 c8 3d b3 92 35 be 93 27 12 be 28 3e d3 3d
       0.09768966 -0.17731743 -0.14272909 0.1031459
