Client/results/ppo/MoveToGoal/MoveToGoal-64.pt (torch, 147434 bytes, 12 tensors)

network_body._body_endoder.seq_layers.0.weight f4 [128, 4]
0	0xbe1f7673	-0.15572529
1	0x3f505ea5	0.81394416
2	0xbf029981	-0.5101548
3	0xbc7a5b60	-0.015280575
4	0x3f073912	0.5282146
5	0x3f0cd409	0.5501104
6	0xbeb3db12	-0.35128075
7	0x3f726445	0.9468425
8	0x3eda8189	0.42676952
9	0xbec32ac6	-0.3811857
10	0xbf388358	-0.72075415
11	0xbd74e8a9	-0.059792195
12	0xbf11d1a4	-0.5696051
13	0x3ccb83d2	0.02484313
14	0xbf401e9c	-0.75046706
15	0xbf7c93d4	-0.9866307
16	0x3e1febab	0.15617244
17	0xbef5d52b	-0.48014197
18	0xbf3192a0	-0.69364357
19	0xbe60f26c	-0.21967477
20	0x3e4c53c7	0.19953834
21	0xbef9634e	-0.48708576
22	0xbe99a6d5	-0.30010095
23	0x3dfff5dc	0.12498066
24	0xbe0960b7	-0.134158
25	0xbe3a4e69	-0.18193974
26	0xbf76ce47	-0.96408504
27	0xbe8b18ea	-0.27167445
28	0x3b522e3a	0.003207101
29	0xbdb47047	-0.08810478
30	0xbd021a8f	-0.03176361
31	0xbf035ec3	-0.5131647
32	0x3f26d36e	0.65166366
33	0xbf41e090	-0.7573328
34	0x3dbf654a	0.09345491
35	0x3e556880	0.20840645
36	0x3c38ecd4	0.011286933
37	0x3dc4d2ae	0.096104965
38	0x3e486c51	0.1957257
39	0x3e0917e3	0.13388018
40	0x3e35e4a0	0.17762995
41	0xbf2faae8	-0.6862016
42	0x3da0d919	0.07853908
43	0xbc16658d	-0.009179485
44	0x3e0c5a6d	0.1370637
45	0x3d6ebe7b	0.058287125
46	0x3d572f9c	0.05253564
47	0x3e867a8d	0.26265374
48	0x3f47641e	0.7788714
49	0xbe67f3c0	-0.22651577
50	0x3eb69e21	0.35667518
51	0xbe99e5fa	-0.3005827
52	0x3f6a8ae7	0.916182
53	0x3b1e536e	0.0024158615
54	0xbe3c6dee	-0.1840131
55	0x3f4d195b	0.80116814
56	0x3bc0fe3c	0.005889682
57	0x3e6e58a0	0.23275995
58	0x3e9767d1	0.29571393
59	0xbe60042b	-0.2187659
60	0x3f9aceaa	1.2094319
61	0xbf1aa974	-0.60414815
62	0x3f2705b0	0.65243053
63	0x3f204556	0.626058
64	0xbeb7bf88	-0.35888314
65	0x3eaef848	0.341738
66	0x3e5e8730	0.21731257
67	0x3e161e7f	0.14660071
68	0x3d9c056a	0.0761822
69	0xbf3c1886	-0.7347492
70	0xbf00f6e5	-0.5037673
71	0xbef449ac	-0.47712457
72	0x3ede3682	0.4340096
73	0xbde62004	-0.11236575
74	0xbdc97269	-0.09836275
75	0xbef518e1	-0.47870544
76	0xbf0545aa	-0.52059424
77	0x3e6d1314	0.23151809
78	0x3b7b901a	0.0038385452
79	0x3f34169e	0.7034701
80	0xbef26b51	-0.473475
81	0xbb8649ad	-0.0040981383
82	0x3deb83b6	0.11499731
83	0xbceb403a	-0.028717149
84	0xbf7424b4	-0.95368505
85	0xbd89404f	-0.06701719
86	0xbf28d45b	-0.6594903
87	0xbeecd22f	-0.46254107
88	0xbf34edd7	-0.70675415
89	0xbf7861b1	-0.97024065
90	0x3e8df656	0.27727002
91	0xbe227669	-0.15865482
92	0x3be0591c	0.00684656
93	0x3cd1c8d8	0.025608465
94	0x3ea1cf17	0.3160331
95	0xbdd08f07	-0.1018353
96	0x3e456034	0.1927498
97	0x3d92f77c	0.0717611
98	0x3ed72b50	0.42025232
99	0xbf3547bf	-0.708126
100	0x3e8d648c	0.27615774
101	0xbde46c1f	-0.11153435
102	0x3cef4891	0.029209407
103	0x3f81cfdf	1.0141562
104	0x3e527104	0.20550925
105	0x3c9d10ea	0.019173104
106	0xbe0d8e34	-0.13823777
107	0x3eff3918	0.49848247
108	0xbdfc9bdf	-0.123344176
109	0x3f0f8422	0.56060994
110	0xbf403da4	-0.75094056
111	0x3ed71e49	0.42015293
112	0xbf1fab86	-0.623711
113	0xbea3071f	-0.3184137
114	0xbf290acf	-0.6603212
115	0x3ebfc68b	0.37456164
116	0xbe9cf2e5	-0.30654064
117	0xbf147106	-0.5798496
118	0xbec92c67	-0.3929169
119	0x3efa7cc2	0.48923308
120	0xbf7a1df8	-0.9770198
121	0xbe3560f3	-0.17712764
122	0x3f10b660	0.5652828
123	0xbf7ef715	-0.9959577
124	0xbe27f4c2	-0.16401961
125	0xbf0f92eb	-0.56083554
126	0x3c0ed20d	0.008717072
127	0x3cc00e7b	0.023444405
128	0xbdc60cad	-0.096703865
129	0x3e16cd6b	0.14726798
130	0xbf03394c	-0.51259303
131	0xbf2f56cd	-0.6849182
132	0x3db1fe8e	0.086911306
133	0xbea94f8e	-0.33068508
134	0x3f33146e	0.6995305
135	0x3dbf8477	0.093514375
136	0x3e6d03e1	0.23146011
137	0xbec92976	-0.39289445
138	0xbf4b542d	-0.7942532
139	0xbe3400aa	-0.17578378
140	0x3e447c12	0.19187954
141	0x3d063c02	0.03277207
142	0xbe197d32	-0.14989164
143	0x3f0f7465	0.5603698
144	0x3fb794ed	1.4342324
145	0x3ee4df74	0.4470173
146	0xbf05ddeb	-0.52291745
147	0x3f31d29f	0.6946201
148	0xbf24184c	-0.64099574
149	0x3f0e86e3	0.5567457
150	0x3f25d069	0.64771134
151	0x3f2c06ec	0.6719806
152	0xbf68d782	-0.9095384
153	0xbf00738d	-0.50176316
154	0x3e420f72	0.18951204
155	0xbf144fd1	-0.5793429
156	0x3ed5bc0a	0.41745025
157	0x3ed95abf	0.42452046
158	0xbf1a1483	-0.6018755
159	0xbe770aa8	-0.24125159
160	0xbe393dcd	-0.18089981
161	0x3dc86e23	0.09786632
162	0x3ccba2d1	0.02485791
163	0xbf3ecfcd	-0.7453583
164	0x3eadd7d2	0.3395372
165	0xbeb23688	-0.3480723
166	0x3f0d2dcc	0.55148005
167	0xbe8947cb	-0.26812586
168	0x3ca1c252	0.01974598
169	0x3e23f1c2	0.16010192
170	0x3f3260dd	0.6967905
171	0x3f08ec10	0.534852
172	0x3ee43c1c	0.4457711
173	0xbb30536d	-0.0026905194
174	0xbe10108e	-0.14068815
175	0x3e08bae6	0.13352546
176	0x3df5d10b	0.120027624
177	0xbf3fe32d	-0.7495602
178	0x3e305404	0.1721955
179	0xbdf79775	-0.12089435
180	0x3ed9c444	0.4253255
181	0xbdadfda6	-0.08495645
182	0xbf0bd953	-0.54628485
183	0xbed3e71b	-0.41387257
184	0xbeb9a1a5	-0.36256137
185	0xbf187c83	-0.5956499
186	0xbee841e3	-0.45362768
187	0xbef5e761	-0.4802809
188	0xbdf08bed	-0.11745439
189	0x3f169036	0.588138
190	0xbf1d66e7	-0.6148514
191	0x3f4514fd	0.7698515
192	0xbf1c1de7	-0.6098313
193	0xbd82a08e	-0.063782796
194	0x3ed577d7	0.41692993
195	0xbe808300	-0.25099945
196	0x3f096490	0.5366907
197	0xbef3f632	-0.4764877
198	0x3f22fb5e	0.63664806
199	0xbe9bf2d4	-0.304587
200	0x3f89b1b8	1.075736
201	0xbfbccdc5	-1.4750296
202	0xbf63a1b4	-0.88918614
203	0xbf3ee425	-0.7456687
204	0x3ea8885d	0.32916537
205	0xbe14706d	-0.14496012
206	0x3f36f0f4	0.71461415
207	0x3ef6e4d6	0.48221463
208	0x3f8611cf	1.0474185
209	0x3ea82a4c	0.3284477
210	0x3e437b56	0.19090018
211	0x3d28231b	0.041049104
212	0x3e891589	0.26774243
213	0x3f374d50	0.71602345
214	0x3e8dfce2	0.27731997
215	0x3e2a2e4d	0.16619225
216	0x3e618faa	0.2202746
217	0x3ebf7d79	0.37400416
218	0xbeb38d9d	-0.3506898
219	0x3f193c4f	0.5985765
220	0x3bc4b035	0.006002451
221	0x3f60467b	0.87607545
222	0x3eb6f418	0.35733104
223	0xbf523768	-0.82115793
224	0x3f68b193	0.90895957
225	0x3f82a0c2	1.0205309
226	0x3ea3526a	0.31898814
227	0xbeb78ccc	-0.35849607
228	0x3e003ac3	0.12522416
229	0xbb34a572	-0.0027564433
230	0xbf1f1b4c	-0.62151027
231	0x3dafdd3d	0.0858712
232	0xbe5c476c	-0.2151162
233	0xbf9d6036	-1.2294986
234	0x3f42f364	0.76152635
235	0x3e3ddaff	0.18540572
236	0x3f1ece2c	0.62033343
237	0xbd0776a8	-0.033072144
238	0x3e152b42	0.14567283
239	0x3ec1bb8e	0.37838405
240	0x3dc0607e	0.093934044
241	0xbed6c513	-0.4194723
242	0x3f8a9a77	1.0828389
243	0xbf77fe75	-0.96872646
244	0xbd383863	-0.04497565
245	0xbc0a829a	-0.008453989
246	0x3f102d4e	0.5631913
247	0x3e14e1bf	0.1453924
248	0x3f90816b	1.1289495
249	0xbf5e08c1	-0.8673211
250	0x3e044b86	0.12919435
251	0xbe1f7be3	-0.15574603
252	0xbf987d8f	-1.1913317
253	0x3e872d05	0.26401535
254	0xbefbdbc4	-0.49191105
255	0x3f3a15d9	0.72689587

network_body._body_endoder.seq_layers.0.bias f4 [128]
0	0x00000000	0.0
1	0x00000000	0.0
2	0x00000000	0.0
3	0x00000000	0.0
4	0x00000000	0.0
5	0x00000000	0.0
6	0x00000000	0.0
7	0x00000000	0.0
8	0x00000000	0.0
9	0x00000000	0.0
10	0x00000000	0.0
11	0x00000000	0.0
12	0x00000000	0.0
13	0x00000000	0.0
14	0x00000000	0.0
15	0x00000000	0.0
16	0x00000000	0.0
17	0x00000000	0.0
18	0x00000000	0.0
19	0x00000000	0.0
20	0x00000000	0.0
21	0x00000000	0.0
22	0x00000000	0.0
23	0x00000000	0.0
24	0x00000000	0.0
25	0x00000000	0.0
26	0x00000000	0.0
27	0x00000000	0.0
28	0x00000000	0.0
29	0x00000000	0.0
30	0x00000000	0.0
31	0x00000000	0.0
32	0x00000000	0.0
33	0x00000000	0.0
34	0x00000000	0.0
35	0x00000000	0.0
36	0x00000000	0.0
37	0x00000000	0.0
38	0x00000000	0.0
39	0x00000000	0.0
40	0x00000000	0.0
41	0x00000000	0.0
42	0x00000000	0.0
43	0x00000000	0.0
44	0x00000000	0.0
45	0x00000000	0.0
46	0x00000000	0.0
47	0x00000000	0.0
48	0x00000000	0.0
49	0x00000000	0.0
50	0x00000000	0.0
51	0x00000000	0.0
52	0x00000000	0.0
53	0x00000000	0.0
54	0x00000000	0.0
55	0x00000000	0.0
56	0x00000000	0.0
57	0x00000000	0.0
58	0x00000000	0.0
59	0x00000000	0.0
60	0x00000000	0.0
61	0x00000000	0.0
62	0x00000000	0.0
63	0x00000000	0.0
64	0x00000000	0.0
65	0x00000000	0.0
66	0x00000000	0.0
67	0x00000000	0.0
68	0x00000000	0.0
69	0x00000000	0.0
70	0x00000000	0.0
71	0x00000000	0.0
72	0x00000000	0.0
73	0x00000000	0.0
74	0x00000000	0.0
75	0x00000000	0.0
76	0x00000000	0.0
77	0x00000000	0.0
78	0x00000000	0.0
79	0x00000000	0.0
80	0x00000000	0.0
81	0x00000000	0.0
82	0x00000000	0.0
83	0x00000000	0.0
84	0x00000000	0.0
85	0x00000000	0.0
86	0x00000000	0.0
87	0x00000000	0.0
88	0x00000000	0.0
89	0x00000000	0.0
90	0x00000000	0.0
91	0x00000000	0.0
92	0x00000000	0.0
93	0x00000000	0.0
94	0x00000000	0.0
95	0x00000000	0.0
96	0x00000000	0.0
97	0x00000000	0.0
98	0x00000000	0.0
99	0x00000000	0.0
100	0x00000000	0.0
101	0x00000000	0.0
102	0x00000000	0.0
103	0x00000000	0.0
104	0x00000000	0.0
105	0x00000000	0.0
106	0x00000000	0.0
107	0x00000000	0.0
108	0x00000000	0.0
109	0x00000000	0.0
110	0x00000000	0.0
111	0x00000000	0.0
112	0x00000000	0.0
113	0x00000000	0.0
114	0x00000000	0.0
115	0x00000000	0.0
116	0x00000000	0.0
117	0x00000000	0.0
118	0x00000000	0.0
119	0x00000000	0.0
120	0x00000000	0.0
121	0x00000000	0.0
122	0x00000000	0.0
123	0x00000000	0.0
124	0x00000000	0.0
125	0x00000000	0.0
126	0x00000000	0.0
127	0x00000000	0.0

network_body._body_endoder.seq_layers.2.weight f4 [128, 128]
0	0x3dcf3150	0.101168275
1	0xbd40baec	-0.047053263
2	0xbcb97d3c	-0.022642724
3	0xbd11ba9c	-0.035578355
4	0x3d6e539c	0.058185205
5	0xbbb31075	-0.0054646083
6	0xbdc82482	-0.09772588
7	0xbdcb6f57	-0.09933346
8	0xbd045471	-0.032307092
9	0x3a23fd3e	0.00062556926
10	0x3d56bed1	0.05242807
11	0x3e086613	0.13320188
12	0x3bcbc726	0.0062188087
13	0x3e2dd772	0.16976717
14	0x3e21fda3	0.15819411
15	0x3e137436	0.143998
16	0x3e008837	0.12551962
17	0x3d44c4a4	0.048039094
18	0x3ce46b18	0.027883098
19	0xbdf11b03	-0.1177273
20	0x3de8931f	0.11356186
21	0x3cdb80e4	0.026794858
22	0xbcb24872	-0.02176306
23	0x3cbf2a43	0.023335582
24	0x3e263966	0.16232833
25	0xbd2206a7	-0.039557125
26	0x3d6b4ad4	0.05744441
27	0xbd21e471	-0.0395245
28	0x3d63ce66	0.05561676
29	0x3e196a54	0.14981967
30	0x3cae80b9	0.021301614
31	0x3d555b7f	0.05208921
32	0x3d39888a	0.04529623
33	0xbe13e4ef	-0.144428
34	0x3dd2b5f4	0.10288611
35	0xbe045c46	-0.12925825
36	0xbd2784ef	-0.04089826
37	0x3d8193ab	0.063269936
38	0x3c102f84	0.008800391
39	0xbda9b809	-0.08287055
40	0x3e0bbc1d	0.13645978
41	0xbdac437d	-0.0841131
42	0x3e320d53	0.17387895
43	0x3da03dd3	0.07824292
44	0xbcec1d3d	-0.028822536
45	0x3d20c285	0.03924801
46	0x3d5b28f2	0.053505845
47	0x3b98c51e	0.00466217
48	0xbdf38952	-0.11891426
49	0x3d203226	0.039110325
50	0x3d8e39e6	0.06944637
51	0xbe172cd5	-0.14763196
52	0x3d53c453	0.0517009
53	0x3de21d9b	0.11040803
54	0x3b891153	0.0041829734
55	0xbd133e15	-0.035947878
56	0x3b22b314	0.0024825977
57	0xbe02ade0	-0.1276164
58	0x3daa4bb8	0.083152235
59	0x3cebdf8c	0.028793119
60	0x3ca28ba9	0.019841986
61	0x3d9ba263	0.07599332
62	0xbde183e0	-0.11011481
63	0x3e60d616	0.21956667
64	0xbe476244	-0.19471079
65	0xbdba5fd9	-0.09100313
66	0x3db1696f	0.08662688
67	0x3e007701	0.12545396
68	0xbd071af4	-0.03298469
69	0x3b9be20e	0.0047571724
70	0x3d9fc071	0.07800377
71	0x3d17c715	0.037055094
72	0x3cb460a5	0.02201874
73	0x3df9d5ff	0.1219902
74	0xbe096c95	-0.13420327
75	0x3e120402	0.14259341
76	0xbe273c78	-0.16331661
77	0xbca7332b	-0.020410141
78	0x3c84b2d1	0.016198548
79	0x3ddd02ba	0.10791536
80	0x3dd24ff4	0.10269156
81	0xbe21a52e	-0.15785667
82	0xbc7376e9	-0.014859893
83	0xbde945c9	-0.113902636
84	0x3d5be057	0.053680744
85	0x3d35b83d	0.044365156
86	0xbbb1f617	-0.0054309475
87	0xbd626ff7	-0.05528256
88	0xbba3d704	-0.004999997
89	0xbcba5783	-0.022746807
90	0xb824c5b8	-3.9284787e-05
91	0x3dce89dd	0.10084889
92	0xbcb290f5	-0.021797637
93	0xbd652ba6	-0.05594983
94	0xbc947303	-0.018121248
95	0xbe396b6c	-0.18107384
96	0x3e6309d0	0.22171712
97	0x3de27caf	0.11058938
98	0x3db96df9	0.09054179
99	0x3e19d1e1	0.15021469
100	0xbde9ddaa	-0.11419232
101	0xbe30d6a0	-0.17269373
102	0xbd6861d9	-0.05673394
103	0xbd99cba9	-0.07509548
104	0xbc291ba0	-0.010321528
105	0x3c7039cb	0.014662216
106	0xbd72c3ee	-0.059268884
107	0x3d8da42f	0.06916081
108	0xbd43dc4a	-0.047817506
109	0xbdc1ce2e	-0.09463154
110	0x3d1426ae	0.0361697
111	0xbe1b9ad6	-0.15195784
112	0xbd0654a8	-0.03279558
113	0xbd95afcb	-0.073089205
114	0xbe127ade	-0.14304683
115	0x3bc7c7c2	0.006096811
116	0x3e73ed77	0.23821054
117	0xbd54c2b2	-0.05194349
118	0xbcd32b31	-0.025777431
119	0x3dc963e4	0.09833506
120	0x3c0e207e	0.008674739
121	0xba8eb290	-0.0010886956
122	0x3c476b71	0.012171612
123	0x3c63f71a	0.013913894
124	0xbd747750	-0.059684098
125	0xbde8791a	-0.11351223
126	0xbd45391c	-0.048150167
127	0xbde692f4	-0.11258498
128	0x3d22a564	0.03970851
129	0xbdab245c	-0.083565444
130	0x3e023bca	0.1271812
131	0xbdafc847	-0.08583122
132	0x3dacb3f7	0.08432763
133	0xbd7c2630	-0.061559856
134	0x3d5b0148	0.05346802
135	0xbe30e95b	-0.17276518
136	0x3b8e88dc	0.004349811
137	0xbda78c2a	-0.08181031
138	0xbde0efa7	-0.1098321
139	0xbd6adb4b	-0.05733804
140	0xbe254696	-0.16140208
141	0x3e2eb521	0.17061283
142	0x3dc22fcd	0.094817735
143	0xbc169210	-0.009190097
144	0x3d6c6011	0.057708804
145	0xbd727c2e	-0.05920046
146	0xbd9a3215	-0.07529084
147	0x3d3eeb48	0.0466111
148	0x3e007420	0.12544298
149	0xbe17d5c6	-0.14827642
150	0x3db0a0c6	0.08624415
151	0x3e2e00c9	0.16992487
152	0xbcd9c7f4	-0.026584603
153	0xbcd77869	-0.026302533
154	0x3c2f460c	0.010697853
155	0xbd474124	-0.048646107
156	0x3da59c30	0.08086431
157	0xbbf0cabd	-0.007348387
158	0xbe0b0318	-0.13575399
159	0xbe3e9d2e	-0.18614647
160	0xbdc23fdd	-0.09484837
161	0xbe01d6dd	-0.1267962
162	0xbd69c1b2	-0.057069488
163	0xbe3509ac	-0.17679471
164	0xbd25a625	-0.04044165
165	0xbdafc9f9	-0.08583445
166	0x3d34aaed	0.04410832
167	0xbe1b4fe5	-0.15167196
168	0x3d2c46ad	0.04205959
169	0xbe5861ab	-0.21131007
170	0x3c322e84	0.010875348
171	0x3e0c3a83	0.13694195
172	0xbd305093	-0.04304559
173	0x3d52794e	0.051385216
174	0x3ba0677d	0.0048951493
175	0xbda89c7e	-0.082329735
176	0x3de9f5b3	0.114238165
177	0x3db70cf0	0.089380145
178	0x3da94b00	0.08266258
179	0xbd9c1865	-0.076218404
180	0x3e3e2287	0.18567859
181	0x3e16f454	0.14741641
182	0x3c8d005f	0.017212091
183	0x3d95386d	0.07286153
184	0xbcd93dbe	-0.026518699
185	0x3c83c2b2	0.016084049
186	0xbe151176	-0.14557442
187	0xbc981407	-0.018564237
188	0xbd8d7e44	-0.06908849
189	0xbe534890	-0.20633149
190	0x3c23a9bf	0.009989201
191	0xbbbe4699	-0.0058067557
192	0x3e0860a7	0.1331812
193	0x3e3abdaa	0.18236414
194	0x3b63cb81	0.003475875
195	0x3de81547	0.11332183
196	0x3cb3b079	0.021934735
197	0xbcdb18b5	-0.02674518
198	0x3d002c8b	0.03129248
199	0x3cbb36c6	0.022853266
200	0x3cac0281	0.020997288
201	0xbe051f12	-0.13000134
202	0xba64f32d	-0.0008733746
203	0x3ce835ad	0.028345907
204	0xbbf77e79	-0.0075529185
205	0xbe112b93	-0.14176778
206	0x3d2cf5cc	0.042226598
207	0xbd7c9a8e	-0.061670832
208	0xbe33507b	-0.1751117
209	0x3dc1ad99	0.09456939
210	0x3dcf9273	0.10135355
211	0xbbc531e2	-0.0060179094
212	0x3e42919f	0.19000863
213	0xbe370b5c	-0.17875427
214	0x3e38a9b6	0.1803349
215	0x3d53d72f	0.051718887
216	0x3d8bd8fd	0.068284966
217	0xbd347137	-0.044053283
218	0xbe30c43c	-0.17262357
219	0xbe2839ec	-0.16428345
220	0x3ce5ad3a	0.028036702
221	0xbd5c0941	-0.053719763
222	0xbcbf1f6f	-0.023330418
223	0xbe1d8405	-0.15382393
224	0x3d20dfd1	0.039275948
225	0x3d5d7537	0.054066863
226	0x3ddf6589	0.10908038
227	0x3cb99416	0.02265362
228	0xbe1a023f	-0.1503992
229	0x3e0a3a55	0.13498814
230	0xbda9b6b5	-0.08286802
231	0xbdae442d	-0.08509097
232	0xbd63efdf	-0.05564868
233	0xbd786ea4	-0.06065239
234	0x3c1e0600	0.009644985
235	0x3d78a4af	0.06070393
236	0x3ce819b4	0.028332569
237	0x3d3f7cab	0.046749752
238	0x3cdb6c9a	0.026785184
239	0xbc70cd3a	-0.014697367
240	0xbdca32b4	-0.09872952
241	0x3d410a9c	0.04712926
242	0x3da1ddd6	0.0790364
243	0xbd742541	-0.05960584
244	0x3e5da850	0.21646237
245	0xbe1dc81a	-0.15408364
246	0xbe8c05fa	-0.2734831
247	0x3dbd1b42	0.09233715
248	0xbd17a43a	-0.037021853
249	0xbc36caf9	-0.011156791
250	0xbd2060d8	-0.039154857
251	0x3da9ff77	0.08300679
252	0xbcca6747	-0.02470745
253	0x3b590ae0	0.0033118054
254	0x3ae5e591	0.001753973
255	0x3e3a1ced	0.18175097

network_body._body_endoder.seq_layers.2.bias f4 [128]
0	0x00000000	0.0
1	0x00000000	0.0
2	0x00000000	0.0
3	0x00000000	0.0
4	0x00000000	0.0
5	0x00000000	0.0
6	0x00000000	0.0
7	0x00000000	0.0
8	0x00000000	0.0
9	0x00000000	0.0
10	0x00000000	0.0
11	0x00000000	0.0
12	0x00000000	0.0
13	0x00000000	0.0
14	0x00000000	0.0
15	0x00000000	0.0
16	0x00000000	0.0
17	0x00000000	0.0
18	0x00000000	0.0
19	0x00000000	0.0
20	0x00000000	0.0
21	0x00000000	0.0
22	0x00000000	0.0
23	0x00000000	0.0
24	0x00000000	0.0
25	0x00000000	0.0
26	0x00000000	0.0
27	0x00000000	0.0
28	0x00000000	0.0
29	0x00000000	0.0
30	0x00000000	0.0
31	0x00000000	0.0
32	0x00000000	0.0
33	0x00000000	0.0
34	0x00000000	0.0
35	0x00000000	0.0
36	0x00000000	0.0
37	0x00000000	0.0
38	0x00000000	0.0
39	0x00000000	0.0
40	0x00000000	0.0
41	0x00000000	0.0
42	0x00000000	0.0
43	0x00000000	0.0
44	0x00000000	0.0
45	0x00000000	0.0
46	0x00000000	0.0
47	0x00000000	0.0
48	0x00000000	0.0
49	0x00000000	0.0
50	0x00000000	0.0
51	0x00000000	0.0
52	0x00000000	0.0
53	0x00000000	0.0
54	0x00000000	0.0
55	0x00000000	0.0
56	0x00000000	0.0
57	0x00000000	0.0
58	0x00000000	0.0
59	0x00000000	0.0
60	0x00000000	0.0
61	0x00000000	0.0
62	0x00000000	0.0
63	0x00000000	0.0
64	0x00000000	0.0
65	0x00000000	0.0
66	0x00000000	0.0
67	0x00000000	0.0
68	0x00000000	0.0
69	0x00000000	0.0
70	0x00000000	0.0
71	0x00000000	0.0
72	0x00000000	0.0
73	0x00000000	0.0
74	0x00000000	0.0
75	0x00000000	0.0
76	0x00000000	0.0
77	0x00000000	0.0
78	0x00000000	0.0
79	0x00000000	0.0
80	0x00000000	0.0
81	0x00000000	0.0
82	0x00000000	0.0
83	0x00000000	0.0
84	0x00000000	0.0
85	0x00000000	0.0
86	0x00000000	0.0
87	0x00000000	0.0
88	0x00000000	0.0
89	0x00000000	0.0
90	0x00000000	0.0
91	0x00000000	0.0
92	0x00000000	0.0
93	0x00000000	0.0
94	0x00000000	0.0
95	0x00000000	0.0
96	0x00000000	0.0
97	0x00000000	0.0
98	0x00000000	0.0
99	0x00000000	0.0
100	0x00000000	0.0
101	0x00000000	0.0
102	0x00000000	0.0
103	0x00000000	0.0
104	0x00000000	0.0
105	0x00000000	0.0
106	0x00000000	0.0
107	0x00000000	0.0
108	0x00000000	0.0
109	0x00000000	0.0
110	0x00000000	0.0
111	0x00000000	0.0
112	0x00000000	0.0
113	0x00000000	0.0
114	0x00000000	0.0
115	0x00000000	0.0
116	0x00000000	0.0
117	0x00000000	0.0
118	0x00000000	0.0
119	0x00000000	0.0
120	0x00000000	0.0
121	0x00000000	0.0
122	0x00000000	0.0
123	0x00000000	0.0
124	0x00000000	0.0
125	0x00000000	0.0
126	0x00000000	0.0
127	0x00000000	0.0

action_model._continuous_distribution.log_sigma f4 [1, 2]
0	0x00000000	0.0
1	0x00000000	0.0

action_model._continuous_distribution.mu.weight f4 [2, 128]
0	0xbcd1500a	-0.02555086
1	0xbc14eb38	-0.009089284
2	0x3b89eff3	0.0042095124
3	0xbc342e62	-0.010997387
4	0xbcb5153f	-0.022104857
5	0x3b644930	0.0034833662
6	0x3bdd03e2	0.0067448476
7	0xbc363dc2	-0.011123123
8	0xbc3d6a31	-0.011560963
9	0x3cdefb43	0.02721942
10	0xbc0e075f	-0.00866875
11	0x3be59fd7	0.00700758
12	0xbae18720	-0.0017206408
13	0x3c56fc75	0.013121714
14	0x3cbad737	0.0228077
15	0x3c6e03e0	0.014527291
16	0xbcee84fa	-0.029116143
17	0xbc0325b9	-0.008004599
18	0x3d063d66	0.032773398
19	0xbc7de64d	-0.0154968025
20	0xbcd29aa5	-0.025708506
21	0x3d2251e0	0.039628863
22	0x3bec1b95	0.0072054365
23	0x3d11415d	0.035462726
24	0xbc3540d3	-0.011062819
25	0x3c583a73	0.013197529
26	0xbcaf3577	-0.021387799
27	0xbc0b8e2f	-0.008517786
28	0xbc8e2076	-0.017349463
29	0xbbbaabcc	-0.0056967493
30	0xbd2e03a5	-0.042483944
31	0xbc4ecebd	-0.012622532
32	0x3b464b03	0.0030257113
33	0xbc7967df	-0.015222519
34	0x3ba35f1f	0.0049857046
35	0xbabdcad5	-0.0014480004
36	0xbb413bab	-0.0029485028
37	0x3bf88de0	0.007585272
38	0xbc8faf6e	-0.017539706
39	0xbba5ded8	-0.0050619654
40	0x3bd62485	0.006535115
41	0x3cb7c9a7	0.022435023
42	0x3c437c44	0.011931483
43	0xbc39866c	-0.011323553
44	0x3cdee625	0.02720935
45	0xbc828838	-0.015934095
46	0x3a291896	0.0006450502
47	0xbd54c2bb	-0.051943522
48	0x3ca153cb	0.019693276
49	0xbc4024e6	-0.011727547
50	0x3bf0fb82	0.007354201
51	0xbc380be8	-0.011233307
52	0x3c759f8d	0.014991653
53	0xbc57fb18	-0.013182424
54	0x3cd4d2c2	0.025979403
55	0xbbaca042	-0.0052681277
56	0x3ca9143b	0.02063953
57	0x3cb879c1	0.022518994
58	0xbcd4ded8	-0.025985166
59	0x3c9fc279	0.019501911
60	0xbcc97958	-0.024593994
61	0xbc3e796b	-0.011625628
62	0x3be6ab7a	0.0070394846
63	0x3bc61739	0.006045249
64	0x3cdc84da	0.026918817
65	0xbce94083	-0.028473144
66	0x3c6b316f	0.014355048
67	0xbd022a03	-0.031778347
68	0x3cf8a357	0.030351324
69	0xbc237983	-0.009977701
70	0x3c32492d	0.010881704
71	0xbc05b5ab	-0.008160989
72	0x3d1262a4	0.035738602
73	0xba895213	-0.001047673
74	0xbc283bd4	-0.01026817
75	0xbae301c3	-0.0017319251
76	0x3c218740	0.009858906
77	0x3be11bcf	0.00686977
78	0xbc887597	-0.016657634
79	0xb9a88dc1	-0.00032149072
80	0xbc00c4a0	-0.007859379
81	0xbc2a9743	-0.01041204
82	0x3d359697	0.044333067
83	0x3bd0ee23	0.0063760444
84	0xbcde9043	-0.027168399
85	0xbc32023d	-0.010864791
86	0x3c91e89f	0.017811118
87	0x3d1754c3	0.03694607
88	0xbc7eb178	-0.015545242
89	0xbcd250db	-0.02567332
90	0xbbdfee3d	-0.00683382
91	0xbd64414d	-0.05572634
92	0xbc5d24c0	-0.013497531
93	0xbb1911ab	-0.0023356478
94	0xbc94c937	-0.018162353
95	0x3bec8018	0.0072174184
96	0xbcdb8413	-0.026796376
97	0xbc1d470c	-0.009599458
98	0x3cc53148	0.02407135
99	0x3c7810ab	0.015140693
100	0x3c6d2b7f	0.014475702
101	0x3d22563c	0.03963302
102	0x3c8491c7	0.016182793
103	0xbd01b10f	-0.031662997
104	0x3bd95d83	0.006633462
105	0xbd002d45	-0.031293172
106	0xbbfb6f7b	-0.0076732016
107	0xbc50feb7	-0.012756041
108	0x3c460946	0.012087172
109	0x3c5f5ced	0.013632995
110	0xbd234d54	-0.039868668
111	0xbc263a93	-0.010145801
112	0x3a85566b	0.0010172849
113	0x3cbd3607	0.023097051
114	0x3d00d541	0.031453375
115	0x3be4c33f	0.006981283
116	0xbc33a2a7	-0.010964072
117	0xbc3509b8	-0.01104968
118	0xbc141d03	-0.00904012
119	0xbc4e1290	-0.012577668
120	0xbcb61237	-0.022225482
121	0x3c862ff3	0.016380286
122	0xbb43e458	-0.0029890742
123	0x3cf3491a	0.029697943
124	0x3b49c695	0.003078853
125	0xbc4757d6	-0.012166938
126	0x3c4257c7	0.011861748
127	0xbc420aa6	-0.011843359
128	0x3c6e1875	0.014532198
129	0xbb59f773	-0.0033259063
130	0x3b1a5e54	0.002355476
131	0x3c2375ac	0.009976786
132	0xbc787cfd	-0.015166518
133	0x3c2210d8	0.009891711
134	0x3c36f003	0.011165622
135	0xbcd1bdf2	-0.025603268
136	0x3cafa839	0.02144252
137	0x3c06a636	0.008218339
138	0xbbcadf1a	-0.0061911466
139	0xbb6d5cc7	-0.003621863
140	0x3c78b787	0.015180475
141	0x3b0f12ab	0.0021831195
142	0xbc4925cf	-0.012277081
143	0x3b19dfe7	0.0023479403
144	0x3c376ca2	0.011195334
145	0x3bebaa48	0.00719193
146	0xbc49c338	-0.01231461
147	0xbb6e91d0	-0.003640283
148	0x3c5467ff	0.012964248
149	0xbcda0edd	-0.026618415
150	0x3ba82cf0	0.00513231
151	0x3c9675c6	0.018366706
152	0x3ba03845	0.0048895204
153	0x3b88db86	0.00417656
154	0x3c9578aa	0.018246014
155	0x3c44dad2	0.012015061
156	0x3d077a59	0.033075664
157	0x3c3b04bb	0.011414702
158	0x3a63e06b	0.00086928037
159	0xbca15ca6	-0.019697499
160	0xbc56a13a	-0.013099963
161	0x3c4cd90d	0.012502921
162	0xbc871717	-0.016490502
163	0x3c85deff	0.016341684
164	0x3bcf1548	0.0063196756
165	0x3b83c4d5	0.004021267
166	0xbbc5c04a	-0.0060348855
167	0xbc619048	-0.0137673095
168	0xbbc5c98a	-0.006035988
169	0xbb86c5e8	-0.0041129477
170	0x3ba8551f	0.0051371004
171	0xbc3dc158	-0.011581741
172	0x3d347238	0.04405424
173	0xbad13827	-0.0015962169
174	0xbc82f0b7	-0.015983922
175	0xbb8586b9	-0.004074898
176	0x3c576948	0.01314766
177	0xbc750caf	-0.014956637
178	0x3ba30333	0.0049747466
179	0x3c7b6a47	0.015345163
180	0xbbd8df47	-0.0066184136
181	0x3c5fafc8	0.013652749
182	0x3c8f6d2d	0.017508114
183	0x3bdf4bff	0.0068144794
184	0x3b0d32f6	0.0021545268
185	0xbcff4a52	-0.031163368
186	0xbb6a7182	-0.0035773222
187	0x3c0abd22	0.008467944
188	0x3c120828	0.008913077
189	0xbc1826d9	-0.009286606
190	0x3cfce60b	0.030871412
191	0xbaed1e2b	-0.0018090656
192	0x3bc9595b	0.006144685
193	0xbb121161	-0.002228819
194	0x3c0440f9	0.008072131
195	0xbc0cb1eb	-0.008587341
196	0xbc86d13e	-0.016457196
197	0x3c3162fb	0.010826821
198	0xbd005564	-0.031331435
199	0xba69007a	-0.00088883156
200	0x3c808396	0.015687745
201	0x3ce84670	0.0283539
202	0x3cbbdeb2	0.022933338
203	0x3d0f7dd0	0.035032094
204	0x3b9170f3	0.0044385134
205	0x3c2a98c7	0.0104124015
206	0xbc6a68fb	-0.014307256
207	0x3cb1c452	0.021700058
208	0xbc393e60	-0.011306375
209	0xbc267087	-0.010158665
210	0xbca9a527	-0.020708634
211	0x3c2f9781	0.010717274
212	0x3b8be15a	0.0042688074
213	0x3c803093	0.015648162
214	0x3ccf8287	0.025330795
215	0xbbfceda7	-0.00771876
216	0x3bcb95d5	0.0062129297
217	0xbd17209b	-0.03689633
218	0xbaf73f2a	-0.0018863429
219	0xbc11e1a4	-0.008903895
220	0x3c612a3a	0.013742978
221	0xbc0e1cf3	-0.008673894
222	0x3d008b95	0.031383116
223	0x3bcb94f9	0.0062128273
224	0x3d06b6f4	0.03288932
225	0x3abd0374	0.0014420585
226	0x3c30c2ab	0.0107886
227	0x3c0665f1	0.008203016
228	0x3abe6f8a	0.0014529091
229	0x3c8118a3	0.015758818
230	0xbc19f70a	-0.009397278
231	0x3be5624b	0.007000243
232	0xbbf31d17	-0.0074192393
233	0x3bd2047b	0.0064092255
234	0xbbd07c93	-0.0063625067
235	0xbb00c6f7	-0.0019649842
236	0x3a81608f	0.0009870696
237	0xbafe43b7	-0.0019398843
238	0x3cc7cb8a	0.024389047
239	0x3c94972a	0.018138487
240	0x3c1b4be3	0.009478542
241	0x3ca10bdb	0.019658973
242	0x3c6878cb	0.014188956
243	0xbbd6bf1a	-0.006553543
244	0xbbe6e94f	-0.0070468555
245	0xbd2df0ae	-0.04246586
246	0xbd0cf1b9	-0.034410212
247	0xbc98839f	-0.01861745
248	0xbc8e85a2	-0.017397705
249	0x3cd20b73	0.025640225
250	0xbc2a7d83	-0.010405901
251	0xbcc022f3	-0.023454165
252	0xbb782b23	-0.0037867508
253	0x3cbc6880	0.022999048
254	0xbb8a6716	-0.0042237146
255	0xbc73139a	-0.014836216

action_model._continuous_distribution.mu.bias f4 [2]
0	0x00000000	0.0
1	0x00000000	0.0

network_body._body_endoder.seq_layers.0.weight f4 [128, 4]
0	0xbe4e07c5	-0.20120151
1	0x3e1a337d	0.15058704
2	0xbec51d70	-0.38499022
3	0xbe6d36f5	-0.23165496
4	0x3e77fa3a	0.24216548
5	0xbebb103a	-0.36535817
6	0x3f12cc45	0.5734294
7	0xbefda9d3	-0.49543628
8	0xbd5db3ce	-0.054126553
9	0xbe3fbd82	-0.18724635
10	0x3f2350b0	0.63794994
11	0x3dbf3d58	0.09337872
12	0xbec84983	-0.39118585
13	0xbdbdbeb7	-0.092648916
14	0x3f7a46ba	0.9776417
15	0x3f207dbf	0.62691873
16	0xbf0f4fe2	-0.55981266
17	0xbee30b37	-0.44344494
18	0x3bb7f7bf	0.0056142504
19	0xbea3552b	-0.31900916
20	0x3e8c648a	0.27420455
21	0xbe4ee562	-0.2020469
22	0xbe571b10	-0.21006417
23	0x3eafbde0	0.3432455
24	0xbd8c8d24	-0.06862858
25	0x3e0fef7a	0.14056197
26	0xbecaa855	-0.39581552
27	0xbfa020e1	-1.2510034
28	0xbf0ceeb0	-0.5505171
29	0x3ecb9414	0.39761412
30	0xbf3be70f	-0.7339944
31	0xbea2158e	-0.3165707
32	0xbe59fac4	-0.21287066
33	0x3c89531e	0.016763266
34	0x3d45dfec	0.04830925
35	0x3f3a2123	0.7270681
36	0xbda28d60	-0.079371214
37	0x3d747e35	0.059690673
38	0x3f4b3661	0.7937985
39	0xbf616f85	-0.8806079
40	0x3ef871c4	0.48524296
41	0xbf27fcd0	-0.65620136
42	0xbfc4320e	-1.5327775
43	0x3e9bc5bc	0.30424297
44	0x3e4bc96d	0.19901057
45	0x3ec2224a	0.37916785
46	0x3f1b88c9	0.6075559
47	0xbefbc121	-0.49170783
48	0xbef13cf3	-0.47116813
49	0xbeaad605	-0.3336641
50	0xbea4cd61	-0.32187942
51	0xba6b203d	-0.00089693425
52	0xbf12d9c5	-0.5736354
53	0xbed34853	-0.41266116
54	0x3ec910c5	0.39270607
55	0xbdce75a5	-0.10081033
56	0x3db9e8af	0.09077584
57	0xbeab8f71	-0.33507875
58	0xbee83c39	-0.45358446
59	0x3eb4bed9	0.35301855
60	0x3f085284	0.5325091
61	0x3f1d6f5d	0.6149805
62	0xbd27fa9c	-0.041010484
63	0xbe7ac5fa	-0.24489585
64	0xbdffbda5	-0.12487344
65	0xbcd41f30	-0.025893778
66	0xbf3ea22f	-0.7446622
67	0x3e00d613	0.12581663
68	0xbd845cc4	-0.06463006
69	0xbe4ea21d	-0.20179029
70	0x3e8f9b58	0.28048205
71	0x3dc03fad	0.09387145
72	0xbf3053a8	-0.6887765
73	0xbcb970c2	-0.022636775
74	0xbe967221	-0.29383948
75	0x3f2a36df	0.66489977
76	0x3f7dc765	0.99132377
77	0xbf7593fb	-0.95928925
78	0x3eeb2285	0.45924774
79	0x3d7213a6	0.05910077
80	0xbede3a60	-0.43403912
81	0x3f64f377	0.89434
82	0xbe431826	-0.1905218
83	0xbedbeee6	-0.42955703
84	0x3be89e1b	0.0070989258
85	0xbe8781fa	-0.26466352
86	0x3da0a69b	0.078442775
87	0x3db48889	0.088151045
88	0x3f5876c6	0.84556234
89	0x3e6adf01	0.22936632
90	0x3ec9644e	0.3933434
91	0xbc8abf35	-0.016936878
92	0xbe96178c	-0.2931484
93	0x3f15a4a8	0.5845437
94	0x3e737c73	0.23777942
95	0x3f3cf8bd	0.73817044
96	0xbf9c7003	-1.2221683
97	0x3dab15a6	0.083537385
98	0xbf04d00f	-0.5187997
99	0x3e93a6f6	0.2883832
100	0x3e75a205	0.23987587
101	0xbe050cde	-0.1299319
102	0xbe0534ea	-0.13008466
103	0x3f74ba46	0.9559673
104	0x3dd706a3	0.10499313
105	0x3f3e226b	0.7427127
106	0xbf1bfaeb	-0.60929745
107	0x3ee2a4ac	0.4426626
108	0x3f6482b1	0.8926192
109	0xbf281ae6	-0.65666044
110	0x3fa60a52	1.29719
111	0xbda5d481	-0.080971725
112	0x3f1fa21e	0.62356746
113	0x3eb7e32a	0.359155
114	0x3d00c459	0.03143725
115	0x3f80c929	1.0061389
116	0xbf5529a8	-0.8326669
117	0xbf81119a	-1.0083497
118	0x3ec88dfe	0.3917083
119	0xbf366fc6	-0.712643
120	0x3e724d74	0.23662359
121	0x3f272fdf	0.6530742
122	0x3dd7ec1e	0.10543083
123	0x3d704bdf	0.058666106
124	0x3e58ffef	0.21191381
125	0x3ed0ae94	0.40758193
126	0xbe54efc4	-0.20794588
127	0xbf0eeb2f	-0.5582761
128	0xbe8b3b62	-0.27193743
129	0x3f176207	0.5913395
130	0xbf092189	-0.53566796
131	0x3ddc142b	0.10746034
132	0xbe3816b0	-0.17977405
133	0xbeaa6958	-0.33283496
134	0x3f27f2f7	0.6560511
135	0xbf24c910	-0.643693
136	0x3f20d0da	0.6281868
137	0x3df1b55d	0.118021704
138	0x3f0e0dc7	0.5548977
139	0x3e9a0e55	0.3008906
140	0x3e3eb6a6	0.18624362
141	0xbeec2181	-0.4611931
142	0x3dc28baf	0.09499299
143	0x3dede02b	0.11615022
144	0xbf578c0f	-0.8419809
145	0x3f6262ec	0.8843219
146	0xbe2be6dd	-0.16787286
147	0xbf3e5159	-0.74342877
148	0x3ebda487	0.37039587
149	0x3ef0e22c	0.47047555
150	0xbd327393	-0.04356725
151	0x3be989ec	0.0071270373
152	0x3f21ccc6	0.63203084
153	0xbe7e4742	-0.2483187
154	0x3f3e546b	0.7434756
155	0x3f201f6b	0.6254794
156	0x3f1f257c	0.6216657
157	0xbf9eb4bc	-1.2398906
158	0xbc07856a	-0.0082715545
159	0x3f051e73	0.51999587
160	0xbee72297	-0.45143577
161	0x3e31845d	0.17335649
162	0xbdae8f58	-0.085234344
163	0x3f793786	0.9735035
164	0xbd279a5a	-0.040918685
165	0x3f449b2e	0.76799285
166	0x3d23e2f2	0.040011354
167	0xbea5d392	-0.32387978
168	0xbf12e161	-0.5737515
169	0xbf02b04a	-0.51050246
170	0x3f4ceef9	0.80052143
171	0xbf08c9f8	-0.5343318
172	0xbe7234e3	-0.23652987
173	0xbed96e82	-0.42467123
174	0xbe5888c7	-0.21145926
175	0x3f34442e	0.70416534
176	0xbf22c64e	-0.6358384
177	0xbd547d5c	-0.051877365
178	0xbf28c2a2	-0.65921986
179	0xbf1c50a9	-0.6106058
180	0xbec979e8	-0.3935082
181	0x3e1b5fba	0.15173236
182	0xbed7ddd4	-0.4216143
183	0xbf168557	-0.5879721
184	0x3f23beb3	0.6396286
185	0xbe131faf	-0.14367555
186	0x3e0ba0f9	0.13635625
187	0xbf2086d6	-0.62705743
188	0xbf23ba8c	-0.6395652
189	0xbe8d95ee	-0.2765345
190	0x3f84810b	1.0351881
191	0x3d46555a	0.04842124
192	0xbf410e8c	-0.7541282
193	0xbea750ef	-0.32678935
194	0xbd1fb023	-0.038986336
195	0xbec1c9c8	-0.3784926
196	0xbea023b4	-0.3127724
197	0x3dd9027b	0.10596176
198	0xbefc12f9	-0.49233225
199	0xbf752729	-0.9576288
200	0x3e1058cd	0.14096375
201	0x3ea70aab	0.32625327
202	0x3ef403aa	0.47659045
203	0xbeba5c2f	-0.36398456
204	0x3ec38678	0.3818853
205	0x3f049688	0.5179219
206	0x3dfaa6ba	0.12238832
207	0x3f443cd5	0.7665532
208	0xbbd0a791	-0.0063676317
209	0xbe5babb6	-0.21452221
210	0xbf173626	-0.59067
211	0xbfa2c4ba	-1.2716286
212	0xbcb2f6aa	-0.021846134
213	0xbe7060de	-0.23474452
214	0xbe27df31	-0.16393735
215	0x3eee3bf8	0.46530128
216	0x3edd20d3	0.43189105
217	0xbd4d1d47	-0.05007675
218	0xbe2f10e4	-0.17096287
219	0xbeaa0d6b	-0.33213362
220	0x3e970c26	0.29501456
221	0x3f3f6df8	0.74777174
222	0xbf0c1afa	-0.5472866
223	0x3e8e891e	0.27838987
224	0xbda0f2aa	-0.078587845
225	0x3da2d346	0.079504535
226	0x3ec29a2b	0.38008246
227	0xbf9314b7	-1.1490697
228	0x3f50482f	0.81360143
229	0xbf762839	-0.96155125
230	0xbf62a045	-0.885258
231	0x3e7c0474	0.24611074
232	0x3f89d4ed	1.0768105
233	0x3e394a1d	0.18094678
234	0xbeb9626f	-0.3620791
235	0x3cada3ff	0.021196363
236	0xbf49e77c	-0.7886884
237	0x3edb70e1	0.42859557
238	0x3dc1bccf	0.094598405
239	0xbd483eff	-0.048888203
240	0xbcd6562d	-0.026164139
241	0xbe9aef5c	-0.30260742
242	0xbe8bace0	-0.2728033
243	0x3d8b0d18	0.06789607
244	0x3c925303	0.017861849
245	0xbd70857f	-0.05872106
246	0x3f3682b6	0.712932
247	0x3f2fa13b	0.68605393
248	0xbdfe6aef	-0.1242274
249	0xbe430ab3	-0.1904705
250	0xbd2617f3	-0.040550184
251	0x3f3f61d9	0.7475868
252	0x3d1aa68e	0.037756495
253	0x3ec0b802	0.37640387
254	0x3cf7410d	0.030182386
255	0xbcb4f3b2	-0.02208886

network_body._body_endoder.seq_layers.0.bias f4 [128]
0	0x00000000	0.0
1	0x00000000	0.0
2	0x00000000	0.0
3	0x00000000	0.0
4	0x00000000	0.0
5	0x00000000	0.0
6	0x00000000	0.0
7	0x00000000	0.0
8	0x00000000	0.0
9	0x00000000	0.0
10	0x00000000	0.0
11	0x00000000	0.0
12	0x00000000	0.0
13	0x00000000	0.0
14	0x00000000	0.0
15	0x00000000	0.0
16	0x00000000	0.0
17	0x00000000	0.0
18	0x00000000	0.0
19	0x00000000	0.0
20	0x00000000	0.0
21	0x00000000	0.0
22	0x00000000	0.0
23	0x00000000	0.0
24	0x00000000	0.0
25	0x00000000	0.0
26	0x00000000	0.0
27	0x00000000	0.0
28	0x00000000	0.0
29	0x00000000	0.0
30	0x00000000	0.0
31	0x00000000	0.0
32	0x00000000	0.0
33	0x00000000	0.0
34	0x00000000	0.0
35	0x00000000	0.0
36	0x00000000	0.0
37	0x00000000	0.0
38	0x00000000	0.0
39	0x00000000	0.0
40	0x00000000	0.0
41	0x00000000	0.0
42	0x00000000	0.0
43	0x00000000	0.0
44	0x00000000	0.0
45	0x00000000	0.0
46	0x00000000	0.0
47	0x00000000	0.0
48	0x00000000	0.0
49	0x00000000	0.0
50	0x00000000	0.0
51	0x00000000	0.0
52	0x00000000	0.0
53	0x00000000	0.0
54	0x00000000	0.0
55	0x00000000	0.0
56	0x00000000	0.0
57	0x00000000	0.0
58	0x00000000	0.0
59	0x00000000	0.0
60	0x00000000	0.0
61	0x00000000	0.0
62	0x00000000	0.0
63	0x00000000	0.0
64	0x00000000	0.0
65	0x00000000	0.0
66	0x00000000	0.0
67	0x00000000	0.0
68	0x00000000	0.0
69	0x00000000	0.0
70	0x00000000	0.0
71	0x00000000	0.0
72	0x00000000	0.0
73	0x00000000	0.0
74	0x00000000	0.0
75	0x00000000	0.0
76	0x00000000	0.0
77	0x00000000	0.0
78	0x00000000	0.0
79	0x00000000	0.0
80	0x00000000	0.0
81	0x00000000	0.0
82	0x00000000	0.0
83	0x00000000	0.0
84	0x00000000	0.0
85	0x00000000	0.0
86	0x00000000	0.0
87	0x00000000	0.0
88	0x00000000	0.0
89	0x00000000	0.0
90	0x00000000	0.0
91	0x00000000	0.0
92	0x00000000	0.0
93	0x00000000	0.0
94	0x00000000	0.0
95	0x00000000	0.0
96	0x00000000	0.0
97	0x00000000	0.0
98	0x00000000	0.0
99	0x00000000	0.0
100	0x00000000	0.0
101	0x00000000	0.0
102	0x00000000	0.0
103	0x00000000	0.0
104	0x00000000	0.0
105	0x00000000	0.0
106	0x00000000	0.0
107	0x00000000	0.0
108	0x00000000	0.0
109	0x00000000	0.0
110	0x00000000	0.0
111	0x00000000	0.0
112	0x00000000	0.0
113	0x00000000	0.0
114	0x00000000	0.0
115	0x00000000	0.0
116	0x00000000	0.0
117	0x00000000	0.0
118	0x00000000	0.0
119	0x00000000	0.0
120	0x00000000	0.0
121	0x00000000	0.0
122	0x00000000	0.0
123	0x00000000	0.0
124	0x00000000	0.0
125	0x00000000	0.0
126	0x00000000	0.0
127	0x00000000	0.0

network_body._body_endoder.seq_layers.2.weight f4 [128, 128]
0	0x3e482159	0.19543971
1	0x3cb5ac48	0.022176877
2	0xbd2608d1	-0.04053575
3	0x3cdaa8ce	0.02669182
4	0x3d3f4088	0.0466924
5	0xba8e602d	-0.0010862403
6	0x3d056ec6	0.032576345
7	0x3da375b3	0.07981434
8	0xbdfc1560	-0.123087645
9	0x3dbe3324	0.09287098
10	0x3d0f8d5a	0.035046913
11	0x3dec635b	0.11542388
12	0x3d1e7004	0.038681045
13	0xbb14f665	-0.002272987
14	0xbdd7045f	-0.104988806
15	0xbe64103b	-0.22271816
16	0x3dea622a	0.114445046
17	0x3e00fca3	0.12596373
18	0xbbca515c	-0.0061742496
19	0x3d1bca6a	0.038034834
20	0x3d93d0f8	0.07217592
21	0x3cab1440	0.02088368
22	0x3e148d41	0.14507009
23	0xbdbbc8f1	-0.09169186
24	0x3db5b0da	0.088716224
25	0x3e109465	0.14119108
26	0xbd7609de	-0.060068004
27	0x3d8afd84	0.067866355
28	0x3c6d96af	0.014501258
29	0xbd98f8a8	-0.074693024
30	0xbe33b006	-0.17547616
31	0x3e3e782c	0.1860053
32	0x3d2ac371	0.041690294
33	0xbddb793b	-0.10716482
34	0x3c9d1264	0.019173808
35	0x3bb1cbde	0.005425914
36	0x3e2186c1	0.15774061
37	0xbc8ceaf9	-0.017201887
38	0x3bd7cf2d	0.0065859766
39	0xbd1f4f49	-0.03889397
40	0xbd923d0a	-0.071405485
41	0x3c81f92d	0.015865887
42	0x3cce1a1f	0.02515894
43	0xbdbda8e4	-0.09260729
44	0xba9c0dda	-0.0011905984
45	0x3d2a9223	0.041643273
46	0x3e0489ba	0.12943164
47	0xbe11cca8	-0.14238226
48	0x3dd8ea63	0.10591581
49	0x3ce37dcd	0.027769947
50	0x3ddcf2ab	0.10788473
51	0xbd50cdcd	-0.050977517
52	0x3daf87c3	0.08570816
53	0xbe0d027c	-0.13770479
54	0xbd08e74d	-0.03342371
55	0xbc840765	-0.016116807
56	0xbda7fe30	-0.08202779
57	0x3d9f71ed	0.077854015
58	0xbc758e98	-0.01498761
59	0x3d396282	0.04525996
60	0xbdb5ec55	-0.088829674
61	0x3b871ba1	0.0041231667
62	0x3bc2154e	0.00592295
63	0xbd1533da	-0.036426403
64	0xbcfd580f	-0.030925779
65	0xbe10c7ba	-0.1413869
66	0xbd587855	-0.052849133
67	0xbd718da3	-0.058972966
68	0x3d194f59	0.037429187
69	0x3dddbb7a	0.10826774
70	0x3e1edbe2	0.15513566
71	0x3e142b10	0.14469552
72	0x3b9b6e2d	0.0047433586
73	0x3d1e958c	0.038716838
74	0x3de9c4e3	0.11414506
75	0xbd1f9fcb	-0.03897075
76	0x3da8b1f1	0.08237065
77	0xbd058b23	-0.032603394
78	0xbd81df91	-0.0634147
79	0x3dd5bdaf	0.1043657
80	0xbdbfea8c	-0.09370908
81	0xbcd430a3	-0.025902098
82	0x3d0c4124	0.03424181
83	0xbe2fdfd4	-0.17175227
84	0x3d17dfcf	0.037078675
85	0x3d86efba	0.06588693
86	0xbd83a593	-0.06428065
87	0x3d96ac69	0.073571034
88	0xbddd88e5	-0.10817126
89	0xbd924075	-0.071412005
90	0xbd7a52ab	-0.061113995
91	0xbd812092	-0.063050404
92	0x3e3bcead	0.1834056
93	0x3e0eef8d	0.13958569
94	0xbd35bcd9	-0.044369552
95	0xbd99218f	-0.07477104
96	0x3bf411a9	0.0074483943
97	0xbe3974eb	-0.18111007
98	0x3df3b07f	0.11898898
99	0x3c875b68	0.016523078
100	0x3d9c45c9	0.07630498
101	0x3dbaf9f9	0.0912971
102	0x3d13019a	0.0358902
103	0xbd99d214	-0.07510772
104	0xbc5d5859	-0.013509833
105	0xbda9b681	-0.08286763
106	0x3bde0ff1	0.0067768027
107	0xbc3e1b9a	-0.01160326
108	0x3d251efc	0.040312752
109	0x3ca7f83b	0.020504108
110	0x3d076a39	0.033060286
111	0x3d6951df	0.056962844
112	0x3dd13d6e	0.10216795
113	0xbdc6c186	-0.097048804
114	0x3d94c4f5	0.07264129
115	0x3c900cee	0.01758429
116	0xbd7e7cf3	-0.06213088
117	0xbb92634b	-0.004467403
118	0x3d2a65dd	0.04160105
119	0xbcbdb5e9	-0.02315803
120	0xbc6e5622	-0.014546903
121	0x3e0ceb2f	0.1376159
122	0x3d21f28c	0.03953795
123	0x3d9f8a34	0.07790032
124	0xbdce7f18	-0.10082835
125	0x3d69fb6c	0.05712454
126	0xbc4a5811	-0.012350098
127	0x3d56ecbb	0.052471858
128	0x3dc199be	0.09453152
129	0x3dbf0b36	0.0932831
130	0x3e135819	0.14389075
131	0x3df4a5f7	0.11945718
132	0x3c613351	0.013745145
133	0x3d1d4dd8	0.038404316
134	0x3d9ab099	0.075532146
135	0x3d85f7ef	0.0654143
136	0x3dc9ef6a	0.09860118
137	0x3d42c046	0.047546647
138	0x3de617e4	0.112350255
139	0xbdec03b4	-0.11524144
140	0x3e1b3e3e	0.15160462
141	0xbd42eb5d	-0.04758774
142	0x3d4a54ee	0.0493974
143	0xbd52689f	-0.051369306
144	0xbd00dc86	-0.031460308
145	0x3ca4cb98	0.020116612
146	0xbc5fab45	-0.013651674
147	0x3db3954e	0.08768712
148	0xbcf146a1	-0.029452624
149	0x3e49de26	0.19713649
150	0xbde0372a	-0.10948022
151	0xbd02cbeb	-0.031932753
152	0x3d18e508	0.037327796
153	0x3b1f712a	0.0024328926
154	0xbd14d659	-0.03633723
155	0x3e3fcd3f	0.18730639
156	0x3cdb8d37	0.026800735
157	0x3cf8b144	0.030357964
158	0x3d50047a	0.05078552
159	0x3dd914c9	0.105996676
160	0x3c11fc98	0.008910321
161	0xbd89d6b8	-0.067304075
162	0xbbdce131	-0.006740712
163	0xbe4cf18a	-0.20014015
164	0x3da5c10f	0.08093464
165	0xbd5425bc	-0.0517938
166	0xbe69f41b	-0.22847025
167	0xbde45aea	-0.11150153
168	0xbccba5c6	-0.02485932
169	0xbd84ac46	-0.06478171
170	0xbd71f23d	-0.059068907
171	0x3dc755ad	0.09733138
172	0x3d5f787d	0.054558266
173	0x3cd98321	0.026551785
174	0x3df3742d	0.11887393
175	0x3dbace98	0.09121436
176	0xbd11f9f4	-0.035638765
177	0x3dbc0fbb	0.09182688
178	0x3d4a0779	0.049323533
179	0x3dcf280c	0.1011506
180	0xbca0b166	-0.01961584
181	0xbdc7745d	-0.097389914
182	0xbcb34c50	-0.021886975
183	0xbdcb16d2	-0.09916462
184	0x3d634a0c	0.05549054
185	0x3d92e3eb	0.07172378
186	0x3d855b9d	0.065116145
187	0x3cd92f31	0.02651176
188	0x3bb9c41e	0.005669131
189	0x3e00ffd0	0.12597585
190	0xbdb0c65c	-0.08631584
191	0x3d72e90c	0.059304282
192	0x3b0ccf72	0.0021485952
193	0xbd10b7d8	-0.035331577
194	0xbc059950	-0.008154228
195	0x3df44659	0.1192748
196	0x3d2fad20	0.042889714
197	0x3db4d660	0.08829951
198	0xbe0540ef	-0.13013051
199	0x3e191d92	0.14952686
200	0x3d3f95d9	0.046773765
201	0x37804c63	1.529436e-05
202	0x3d405f80	0.046966076
203	0xbaedd97d	-0.0018146482
204	0xbb0a1736	-0.0021070964
205	0xbdd8a297	-0.105778866
206	0xbb55b288	-0.0032607634
207	0xbde611b5	-0.11233846
208	0xbd073c36	-0.033016406
209	0xbd516d41	-0.051129583
210	0x3daad317	0.083410434
211	0x3d2ac343	0.041690122
212	0xbae386d2	-0.0017358905
213	0xbd4f1604	-0.050558105
214	0xbdcfbfb3	-0.101439856
215	0x3c1a4150	0.009414986
216	0x3cdc39fa	0.026883114
217	0x3d83c5b9	0.06434197
218	0xbcb728ae	-0.022358265
219	0xbb2118c0	-0.0024581403
220	0x3d09baf9	0.033625577
221	0x3dd062ae	0.10175072
222	0x3d9ca12a	0.07647927
223	0xbcc31109	-0.023811834
224	0x3dd76728	0.10517722
225	0xbcc4a8f5	-0.024006346
226	0xbc46d380	-0.0121353865
227	0xbd7216f4	-0.05910392
228	0x3e2021d7	0.15637909
229	0x3c4a995a	0.012365663
230	0x3d61bcbe	0.05511164
231	0x3dbe996b	0.09306606
232	0x3e68e6e9	0.22744335
233	0xbdf530ee	-0.11972223
234	0x3e2c4b9d	0.16825719
235	0x3df34d8b	0.118800245
236	0x3d2c9f3d	0.04214405
237	0x3ca57ca6	0.020201039
238	0xbdf19633	-0.11796226
239	0x3e5c1ae7	0.21494637
240	0x3d81949a	0.063271716
241	0xbcbec45d	-0.023286993
242	0x3c83a3de	0.016069349
243	0xbd5d1dae	-0.053983383
244	0xbdcbb108	-0.099458754
245	0xbc91dc9e	-0.017805394
246	0xbb3b03f6	-0.0028536296
247	0x3d8c1dd3	0.06841626
248	0x3c905584	0.017618902
249	0x3c6c5575	0.014424671
250	0xbc77f4c0	-0.015134037
251	0x3bdbc351	0.006706633
252	0xbcf261a4	-0.029587574
253	0xbd5651c2	-0.052324064
254	0xbd3f441b	-0.04669581
255	0xbdb736b1	-0.089459784

network_body._body_endoder.seq_layers.2.bias f4 [128]
0	0x00000000	0.0
1	0x00000000	0.0
2	0x00000000	0.0
3	0x00000000	0.0
4	0x00000000	0.0
5	0x00000000	0.0
6	0x00000000	0.0
7	0x00000000	0.0
8	0x00000000	0.0
9	0x00000000	0.0
10	0x00000000	0.0
11	0x00000000	0.0
12	0x00000000	0.0
13	0x00000000	0.0
14	0x00000000	0.0
15	0x00000000	0.0
16	0x00000000	0.0
17	0x00000000	0.0
18	0x00000000	0.0
19	0x00000000	0.0
20	0x00000000	0.0
21	0x00000000	0.0
22	0x00000000	0.0
23	0x00000000	0.0
24	0x00000000	0.0
25	0x00000000	0.0
26	0x00000000	0.0
27	0x00000000	0.0
28	0x00000000	0.0
29	0x00000000	0.0
30	0x00000000	0.0
31	0x00000000	0.0
32	0x00000000	0.0
33	0x00000000	0.0
34	0x00000000	0.0
35	0x00000000	0.0
36	0x00000000	0.0
37	0x00000000	0.0
38	0x00000000	0.0
39	0x00000000	0.0
40	0x00000000	0.0
41	0x00000000	0.0
42	0x00000000	0.0
43	0x00000000	0.0
44	0x00000000	0.0
45	0x00000000	0.0
46	0x00000000	0.0
47	0x00000000	0.0
48	0x00000000	0.0
49	0x00000000	0.0
50	0x00000000	0.0
51	0x00000000	0.0
52	0x00000000	0.0
53	0x00000000	0.0
54	0x00000000	0.0
55	0x00000000	0.0
56	0x00000000	0.0
57	0x00000000	0.0
58	0x00000000	0.0
59	0x00000000	0.0
60	0x00000000	0.0
61	0x00000000	0.0
62	0x00000000	0.0
63	0x00000000	0.0
64	0x00000000	0.0
65	0x00000000	0.0
66	0x00000000	0.0
67	0x00000000	0.0
68	0x00000000	0.0
69	0x00000000	0.0
70	0x00000000	0.0
71	0x00000000	0.0
72	0x00000000	0.0
73	0x00000000	0.0
74	0x00000000	0.0
75	0x00000000	0.0
76	0x00000000	0.0
77	0x00000000	0.0
78	0x00000000	0.0
79	0x00000000	0.0
80	0x00000000	0.0
81	0x00000000	0.0
82	0x00000000	0.0
83	0x00000000	0.0
84	0x00000000	0.0
85	0x00000000	0.0
86	0x00000000	0.0
87	0x00000000	0.0
88	0x00000000	0.0
89	0x00000000	0.0
90	0x00000000	0.0
91	0x00000000	0.0
92	0x00000000	0.0
93	0x00000000	0.0
94	0x00000000	0.0
95	0x00000000	0.0
96	0x00000000	0.0
97	0x00000000	0.0
98	0x00000000	0.0
99	0x00000000	0.0
100	0x00000000	0.0
101	0x00000000	0.0
102	0x00000000	0.0
103	0x00000000	0.0
104	0x00000000	0.0
105	0x00000000	0.0
106	0x00000000	0.0
107	0x00000000	0.0
108	0x00000000	0.0
109	0x00000000	0.0
110	0x00000000	0.0
111	0x00000000	0.0
112	0x00000000	0.0
113	0x00000000	0.0
114	0x00000000	0.0
115	0x00000000	0.0
116	0x00000000	0.0
117	0x00000000	0.0
118	0x00000000	0.0
119	0x00000000	0.0
120	0x00000000	0.0
121	0x00000000	0.0
122	0x00000000	0.0
123	0x00000000	0.0
124	0x00000000	0.0
125	0x00000000	0.0
126	0x00000000	0.0
127	0x00000000	0.0

value_heads.value_heads.extrinsic.weight f4 [1, 128]
0	0x3de7cd9c	0.11318514
1	0xbe0cc7ec	-0.13748139
2	0x3daf9798	0.08573836
3	0xbe3335fe	-0.17501065
4	0x3e598d5c	0.2124533
5	0xbe247d3d	-0.160634
6	0x3e3c7c12	0.18406704
7	0xbd8612ee	-0.06546579
8	0xbdf39e80	-0.11895466
9	0x3c1d8200	0.009613514
10	0x3d1e0668	0.03858033
11	0xbe14f365	-0.14545973
12	0xbe095d6a	-0.13414541
13	0x3d328658	0.04358515
14	0x3e0029fe	0.12516019
15	0xbcf11688	-0.029429689
16	0xbe3d6705	-0.1849633
17	0xbe3adf30	-0.18249202
18	0xbe332e3c	-0.17498106
19	0x3df13464	0.11777571
20	0x3bfb8220	0.007675424
21	0xbce0ec70	-0.027456492
22	0xbe4e3038	-0.20135581
23	0xbd6ab4f0	-0.05730146
24	0x3e0b9772	0.1363199
25	0xbe44ca3f	-0.19217776
26	0xbe364669	-0.17800297
27	0x3dc121a4	0.094302446
28	0x3e4d5a82	0.20054057
29	0xbd767b58	-0.060176224
30	0x3d800fe0	0.06253028
31	0x3e0ea250	0.13929105
32	0xbe202916	-0.15640673
33	0xbe51562c	-0.20443028
34	0x3df1d09c	0.11807367
35	0xbd57dd18	-0.052701086
36	0x3d709a98	0.058741182
37	0xbd55e558	-0.052220672
38	0x3e40386c	0.18771523
39	0x3c96c3c8	0.018403903
40	0x3e4d1852	0.20028809
41	0x3df56fb8	0.11984199
42	0xbcbc9bd8	-0.02302353
43	0x3e39e080	0.18152046
44	0x3d6d2160	0.057893157
45	0xbe3f0d1d	-0.18657346
46	0xbdf7062e	-0.120617256
47	0xbd048b54	-0.032359436
48	0xbe06059a	-0.13088074
49	0x3e067976	0.13132271
50	0xbe521494	-0.20515662
51	0x3e59083c	0.21194547
52	0xbdf8b633	-0.12144127
53	0x3dc732d0	0.097264886
54	0xbd29f528	-0.041493565
55	0xbe164f13	-0.14678602
56	0x3db8dee0	0.09026885
57	0x3e5c83b4	0.21534616
58	0x3d45e178	0.048310727
59	0x3e31881e	0.17337081
60	0xbe26658a	-0.16249672
61	0x3df9b04c	0.12191829
62	0xbe0923d0	-0.13392568
63	0xbe32124b	-0.1738979
64	0x3d3fc778	0.046821088
65	0x3d226920	0.039651036
66	0xbd5578a0	-0.05211699
67	0x3e15a594	0.14613944
68	0x3d8795a0	0.066203356
69	0xbe529e5b	-0.2056822
70	0xbe56bd1f	-0.20970581
71	0x3dbd3f78	0.09240621
72	0xbdace5f2	-0.08442296
73	0x3d82bc74	0.06383601
74	0xbc075730	-0.008260533
75	0x3db34170	0.087527156
76	0x3e0e5148	0.13898194
77	0xbe278f2f	-0.16363214
78	0x3dc01e5c	0.093807906
79	0x3e2ddbae	0.16978332
80	0xbe1bb512	-0.15205792
81	0xbd8bf020	-0.068329096
82	0xbd142e98	-0.036177248
83	0xbe3b16ae	-0.1827037
84	0xbe0049f8	-0.12528217
85	0x3c645380	0.013935924
86	0xbe0e03fa	-0.13868704
87	0x3e27d982	0.16391566
88	0xbdcc76dd	-0.09983609
89	0x3d3aa390	0.04556614
90	0xbd39d6b8	-0.045370787
91	0x3db80928	0.089861214
92	0x3e457f70	0.19286895
93	0x3d0a0db4	0.033704475
94	0xbddcc679	-0.10780043
95	0x3e0a94a8	0.1353327
96	0xbe0542a6	-0.13013706
97	0xbe4ae837	-0.19815145
98	0xbdea808a	-0.11450298
99	0xbe334ecf	-0.17510532
100	0xbdf9aee7	-0.12191563
101	0x3d0dda20	0.03463185
102	0x3e3a77f2	0.18209818
103	0x3da297b8	0.07939094
104	0x3d169740	0.036765337
105	0xbd62aef8	-0.055342644
106	0x3bcf8c40	0.006333858
107	0xbe31403e	-0.17309663
108	0x3e37e0e0	0.17956877
109	0xbd45bdd4	-0.048276737
110	0x3e5af61a	0.21382943
111	0x3e2e07c2	0.16995147
112	0xbe27b906	-0.16379175
113	0xbc14b740	-0.009076893
114	0xbdeee6bc	-0.11665103
115	0x3d9db924	0.077013284
116	0xbdcab09b	-0.09896966
117	0xbe092d71	-0.13396241
118	0xbe45b76b	-0.1930825
119	0x3dae7e38	0.08520168
120	0x3e3732b0	0.1789043
121	0x3e3733ac	0.17890805
122	0x3ca61c20	0.020277083
123	0x3db8b290	0.09018433
124	0x3e546932	0.20743254
125	0x3cb77120	0.02239281
126	0xbda729f2	-0.08162297
127	0x3e487b44	0.19578272
