Client/results/ppo/MoveToGoal/MoveToGoal-64.onnx (onnx, 73089 bytes, 6 tensors)

network_body._body_endoder.seq_layers.0.weight f4 [128, 1]
1.3031268 0.4116372 0.75485873 -2.2690341 0.26441586 -0.6916591 2.2791712 1.3723162
0.4275793 -1.2209132 1.335021 0.46177986 1.6611028 -0.53907216 -1.6711752 0.3978629
-0.0766678 -0.058600966 -0.0010294662 0.73642755 1.3008641 -0.1532765 -0.07747233 -1.1683294
1.5245705 0.6913367 -0.44588068 0.08332205 0.7543126 0.46271977 0.5549805 -1.1566589
-1.6040576 -0.9441454 -0.13002107 -0.6918168 1.9796671 -1.6799575 -0.9358529 -1.5747046
-0.17260122 0.08200517 0.62807834 0.28569484 -0.13422713 0.22823708 -0.6072611 0.7929457
0.9325023 1.1587006 0.33139828 0.05126968 1.0374712 -0.6864029 -0.45656443 -0.2831652
-0.014228018 -0.95297426 0.7501799 0.3565501 0.2594932 0.16480392 0.2833155 -0.2398766
0.17390597 0.99935967 -0.18761101 0.6257061 0.20144646 -0.19807264 -0.0058004763 1.2307676
-0.77869916 0.6393788 -1.2001543 0.16906454 -0.031071197 -1.0464145 -0.26346335 -1.4961445
-0.3042496 1.1042814 -1.6426831 0.008259509 -1.1335006 1.5062975 -1.4751674 -0.4055744
-0.45091137 0.62056524 -0.6880012 -1.5387083 1.1426976 0.06961384 0.578163 -0.42037755
-0.94349414 -1.1733916 0.25834328 -0.9142778 -1.2375834 -0.0042971144 0.34026653 -0.49237725
0.119199455 -0.7801617 1.9394598 1.3308755 -0.21601135 -0.7950974 -0.25703228 0.03267499
0.197287 1.9193484 1.1132598 -0.07057235 -1.2440528 -0.4632239 -2.3461115 0.5020176
0.035749424 1.1157857 -0.5637515 0.21087876 -0.697759 -0.79579765 -0.4804406 -0.9377048
00000000: dccc a63f 1cc2 d23e 6c3e 413f db37 11c0
00000010: 8461 873e 9210 31bf f1dd 1140 0fa8 af3f
00000020: adeb da3e e246 9cbf f8e1 aa3f 696e ec3e
00000030: 049f d43f a200 0abf 12e9 d5bf b0b4 cb3e
00000040: 0204 9dbd 9107 70bd 27ef 86ba 8486 3c3f
00000050: b782 a63f 84f4 1cbe d0a9 9ebd d18b 95bf
00000060: 2025 c33f 71fb 303f 794a e4be c0a4 aa3d
00000070: a11a 413f 9be9 ec3e 3413 0e3f 660d 94bf
00000080: c251 cdbf 83b3 71bf 3e24 05be e81a 31bf
00000090: bb65 fd3f d908 d7bf 0e94 6fbf ec8f c9bf
000000a0: 60be 30be 54f2 a73d bec9 203f 9846 923e
000000b0: d672 09be fbb6 693e 7775 1bbf 7dfe 4a3f
000000c0: 79b8 6e3f 4d50 943f 09ad a93e 2800 523d
000000d0: dbcb 843f 1ab8 2fbf d0c2 e9be 07fb 90be
000000e0: a21c 69bc 1ff6 73bf ca0b 403f bc8d b63e
000000f0: 4bdc 843e 5cc2 283e bb0e 913e 36a2 75be
00000100: 6814 323e 09d6 7f3f 1a1d 40be 462e 203f
00000110: fb47 4e3e 8ed3 4abe ec11 bebb cb89 9d3f
00000120: d458 47bf 54ae 233f a89e 99bf 411f 2d3e
00000130: 0689 febc e9f0 85bf abe4 86be aa81 bfbf
00000140: 9bc6 9bbe 1859 8d3f 7143 d2bf e452 073c
00000150: 8c16 91bf 5bce c03f 49d2 bcbf 73a7 cfbe
00000160: dbdd e6be 5ddd 1e3f d920 30bf 65f4 c4bf
00000170: ea43 923f b391 8e3d 7e02 143f ba3b d7be
00000180: d588 71bf b231 96bf 9245 843e 1c0e 6abf
00000190: 2269 9ebf cfce 8cbb 6a37 ae3e df18 fcbe
000001a0: d81e f43d adb8 47bf 3840 f83f 215a aa3f
000001b0: 1432 5dbe 818b 4bbf bc99 83be 36d6 053d
000001c0: 9a05 4a3e 35ad f53f 4c7f 8e3f 3c88 90bd
000001d0: 1f3d 9fbf af2b edbe b126 16c0 3a84 003f
000001e0: fd6d 123d 11d2 8e3f 0552 10bf 9af0 573e
000001f0: 55a0 32bf 65b9 4bbf 4ffc f5be 6c0d 70bf

network_body._body_endoder.seq_layers.0.bias f4 [128]
0.0 0.0 0.0 0.0 0.0 0.0 0.0 0.0
0.0 0.0 0.0 0.0 0.0 0.0 0.0 0.0
0.0 0.0 0.0 0.0 0.0 0.0 0.0 0.0
0.0 0.0 0.0 0.0 0.0 0.0 0.0 0.0
0.0 0.0 0.0 0.0 0.0 0.0 0.0 0.0
0.0 0.0 0.0 0.0 0.0 0.0 0.0 0.0
0.0 0.0 0.0 0.0 0.0 0.0 0.0 0.0
0.0 0.0 0.0 0.0 0.0 0.0 0.0 0.0
0.0 0.0 0.0 0.0 0.0 0.0 0.0 0.0
0.0 0.0 0.0 0.0 0.0 0.0 0.0 0.0
0.0 0.0 0.0 0.0 0.0 0.0 0.0 0.0
0.0 0.0 0.0 0.0 0.0 0.0 0.0 0.0
0.0 0.0 0.0 0.0 0.0 0.0 0.0 0.0
0.0 0.0 0.0 0.0 0.0 0.0 0.0 0.0
0.0 0.0 0.0 0.0 0.0 0.0 0.0 0.0
0.0 0.0 0.0 0.0 0.0 0.0 0.0 0.0
00000000: 0000 0000 0000 0000 0000 0000 0000 0000
00000010: 0000 0000 0000 0000 0000 0000 0000 0000
00000020: 0000 0000 0000 0000 0000 0000 0000 0000
00000030: 0000 0000 0000 0000 0000 0000 0000 0000
00000040: 0000 0000 0000 0000 0000 0000 0000 0000
00000050: 0000 0000 0000 0000 0000 0000 0000 0000
00000060: 0000 0000 0000 0000 0000 0000 0000 0000
00000070: 0000 0000 0000 0000 0000 0000 0000 0000
00000080: 0000 0000 0000 0000 0000 0000 0000 0000
00000090: 0000 0000 0000 0000 0000 0000 0000 0000
000000a0: 0000 0000 0000 0000 0000 0000 0000 0000
000000b0: 0000 0000 0000 0000 0000 0000 0000 0000
000000c0: 0000 0000 0000 0000 0000 0000 0000 0000
000000d0: 0000 0000 0000 0000 0000 0000 0000 0000
000000e0: 0000 0000 0000 0000 0000 0000 0000 0000
000000f0: 0000 0000 0000 0000 0000 0000 0000 0000
00000100: 0000 0000 0000 0000 0000 0000 0000 0000
00000110: 0000 0000 0000 0000 0000 0000 0000 0000
00000120: 0000 0000 0000 0000 0000 0000 0000 0000
00000130: 0000 0000 0000 0000 0000 0000 0000 0000
00000140: 0000 0000 0000 0000 0000 0000 0000 0000
00000150: 0000 0000 0000 0000 0000 0000 0000 0000
00000160: 0000 0000 0000 0000 0000 0000 0000 0000
00000170: 0000 0000 0000 0000 0000 0000 0000 0000
00000180: 0000 0000 0000 0000 0000 0000 0000 0000
00000190: 0000 0000 0000 0000 0000 0000 0000 0000
000001a0: 0000 0000 0000 0000 0000 0000 0000 0000
000001b0: 0000 0000 0000 0000 0000 0000 0000 0000
000001c0: 0000 0000 0000 0000 0000 0000 0000 0000
000001d0: 0000 0000 0000 0000 0000 0000 0000 0000
000001e0: 0000 0000 0000 0000 0000 0000 0000 0000
000001f0: 0000 0000 0000 0000 0000 0000 0000 0000

network_body._body_endoder.seq_layers.2.weight f4 [128, 128]
0.017454378 0.022274153 0.08358118 -0.010000631 -0.023486821 0.11018379 0.0012555005 0.104506515
-0.039412282 0.09290095 0.03443673 -0.08393114 -0.11328269 0.18968107 -0.11458707 -0.048677195
-0.14317174 0.055343743 0.24381673 -0.120311655 -0.021761084 0.103694215 -0.03563381 0.012033825
-0.05946386 0.1261861 -0.077845484 0.06966805 -0.11905434 -0.015799917 -0.013891665 0.05768025
-0.10152181 0.10079867 -0.0017058952 -0.0975679 0.014547336 -0.020941734 0.00080056925 0.33805677
0.06569253 -0.08112543 -0.16386773 -0.005286017 -0.028060742 0.006149613 0.08237124 -0.1593788
0.08648965 -0.12466031 0.002984068 0.031984683 -0.09655904 -0.07618527 0.015518493 -0.079489395
-0.16496132 -0.1615435 -0.15784508 0.023192646 -0.13333449 0.06443332 0.016838519 -0.017503038
-0.19703785 0.15185623 -0.08427807 0.05904894 -0.021376181 -0.09641888 -0.12118695 0.037386294
0.025803778 0.04088965 0.11528005 -0.012249262 0.06965276 0.018750714 -0.055305947 -0.041312147
-0.03418644 0.05818838 0.06555912 -0.005146291 -0.05544396 0.1606917 0.06274002 -0.0006519353
0.08854726 0.014750755 -0.054639433 0.14321473 -0.18094671 -0.010792678 -0.02401317 0.111659065
0.058036756 0.02807489 -0.22733288 -0.1142816 -0.085008904 0.048096683 0.10972126 0.082460806
0.046115253 -0.07094067 0.02486963 0.004114898 0.20044969 0.1562682 0.021060988 0.037358027
0.14192408 -0.07260661 0.053926893 -0.04864027 -0.0691591 -0.015983896 -0.04290451 0.13523099
-0.14372003 0.06731605 -0.09607702 -0.06472736 -0.03520975 0.021799197 0.016927846 0.104638144
-0.1465055 0.12047888 -0.020743122 -0.06733847 -0.041840542 0.011548764 -0.08474931 -0.05098989
-0.039657153 -0.017889645 0.050590195 -0.0011575865 -0.032633103 -0.0049479064 -0.316258 -0.32308593
-0.05617452 0.09530078 0.09851725 0.0055977 -0.018093465 0.0020897049 -0.03925901 -0.03562304
-0.14946276 -0.07019512 0.06881138 0.04103169 -0.0724716 0.020763285 -0.17956117 -0.08222624
-0.02925164 -0.09616091 0.004564379 -0.08039437 0.17677504 -0.04334373 0.0775672 -0.07203904
0.07977477 -0.10139026 0.12501702 -0.044094224 -0.10788928 0.047211766 0.17820092 0.03469789
-0.08151575 0.05812646 -0.21008557 0.14385572 -0.15705581 -0.093112305 -0.17724556 0.08310294
0.028534813 -0.017434688 -0.040136952 -0.015676107 0.02721442 -0.04730112 -0.080365345 -0.023918195
-0.09216164 0.020814314 -0.14307618 0.15744552 0.06015523 -0.06720779 -0.014899259 -0.045683857
0.075988814 0.04105682 0.13739944 0.14488943 0.05536786 -0.10918948 0.08950182 -0.082554035
0.071723774 -0.015112186 -0.04979197 0.12528935 0.043963544 0.048660036 0.06747885 0.108489424
-0.0270387 -0.048480734 -0.09745209 0.09237194 -0.0601797 -0.1260032 -0.10220876 0.02682298
0.0058838134 0.04918562 0.107137896 0.04254493 -0.09688338 0.005827335 -0.012666208 0.028715989
-0.053205565 0.00952906 0.0069304532 0.009510813 -0.23867492 -0.027365113 -0.14431101 -0.035444323
-0.103347644 0.0047003157 0.03967891 -0.009920284 -0.05567381 -0.026078159 0.07949203 -0.050219998
0.061158337 -0.06743334 0.02500251 -0.07527537 -0.06780008 0.05021742 0.10324571 0.124842905
00000000: 7cfc 8e3c 4978 b63c 9c2c ab3d b0d9 23bc
00000010: 6f67 c0bc 0aa8 e13d 9b8f a43a 8307 d63d
00000020: c66e 21bd da42 be3d 870d 0d3d 17e4 abbd
00000030: c100 e8bd c13b 423e a0ac eabd bd61 47bd
00000040: 9d9b 12be 1fb0 623d 18ab 793e f565 f6bd
00000050: 4d44 b2bc a25d d43d c2f4 11bd 8529 453c
00000060: 6090 73bd ee36 013e 746d 9fbd 1fae 8e3d
00000070: c3d2 f3bd d46e 81bc de99 63bc 2042 6c3d
00000080: abea cfbd 886f ce3d 5898 dfba aed1 c7bd
00000090: f357 6e3c 008e abbc 4bdd 513a c715 ad3e
000000a0: ce89 863d 1725 a6bd f1cc 27be 5336 adbb
000000b0: a4df e5bc b182 c93b 41b2 a83d 3234 23be
000000c0: 7c21 b13d e84d ffbd 5a90 433b 5f02 033d
000000d0: bfc0 c5bd 0607 9cbd 4741 7e3c 56cb a2bd
000000e0: 9feb 28be a96b 25be 24a2 21be 81fe bd3c
000000f0: d688 08be 9ef5 833d eff0 893c 8862 8fbc
00000100: 4ac4 49be 3380 1b3e fb99 acbd 4ddd 713d
00000110: 1a1d afbc 4377 c5bd dd30 f8bd 5f22 193d
00000120: 7262 d33c e87b 273d f217 ec3d 21b1 48bc
00000130: 1ba6 8e3d 199b 993c 7d88 62bd ed36 29bd
00000140: 1507 0cbd f056 6e3d dc43 863d 38a2 a8bb
00000150: 3519 63bd 5d8c 243e d77d 803d a3e6 2aba
00000160: 4458 b53d 27ad 713c 99cd 5fbd e2a6 123e
00000170: 184a 39be c6d3 30bc 44b7 c4bc 82ad e43d
00000180: f3b7 6d3d 50fd e53c f3c9 68be 790c eabd
00000190: 2619 aebd 0701 453d 8ab5 e03d 36e1 a83d
000001a0: 59e3 3c3d 5849 91bd 65bb cb3c 44d6 863b
000001b0: af42 4d3e c504 203e 1888 ac3c bb04 193d
000001c0: 8c54 113e c6b2 94bd 72e2 5c3d 053b 47bd
000001d0: 49a3 8dbd a9f0 82bc a4bc 2fbd fe79 0a3e
000001e0: 582b 13be ffdc 893d 07c4 c4bd c78f 84bd
000001f0: 1938 10bd 3b94 b23c 44ac 8a3c 864c d63d
00000200: 8a05 16be a2bd f63d 7bed a9bc c0e8 89bd
00000210: fd60 2bbd 0737 3d3c 0c91 adbd c6da 50bd
00000220: 8a6f 22bd 4e8d 92bc aa37 4f3d 28ba 97ba
00000230: 4aaa 05bd 0c22 a2bb 92ec a1be 856b a5be
00000240: 4117 66bd 0e2d c33d 69c3 c93d e96c b73b
00000250: bf38 94bc 6ef3 083b 0ece 20bd 77e9 11bd
00000260: c40c 19be 76c2 8fbd fbec 8c3d d810 283d
00000270: fd6b 94bd c417 aa3c e2de 37be 3b66 a8bd
00000280: 23a1 efbc 03f0 c4bd c990 953b cea5 a4bd
00000290: 8404 353e 3289 31bd 8ddb 9e3d 3489 93bd
000002a0: f460 a33d b2a5 cfbd 7604 003e 259c 34bd
000002b0: 0ef5 dcbd 2061 413d 4d7a 363e 601f 0e3d
000002c0: bbf1 a6bd 0316 6e3d ac20 57be ea4e 133e
000002d0: 3dd3 20be aab1 bebd dc7f 35be e031 aa3d
000002e0: d7c1 e93c 31d3 8ebc a566 24bd 2e6b 80bc
000002f0: c6f0 de3c d2be 41bd 9696 a4bd 17f0 c3bc
00000300: 3ebf bcbd c882 aa3c 9082 12be 6639 213e
00000310: 5565 763d 3da4 89bd 061c 74bc ff1e 3bbd
00000320: 06a0 9b3d 322b 283d 70b2 0c3e e55d 143e
00000330: 69c9 623d bc9e dfbd bb4c b73d 1712 a9bd
00000340: eae3 923d 1a99 77bc aaf2 4bbd da4b 003e
00000350: 1e13 343d bf4f 473d 5a32 8a3d b42f de3d
00000360: 4480 ddbc bc93 46bd f694 c7bd 802d bd3d
00000370: fd7e 76bd fc06 01be d452 d1bd debb db3c
00000380: 01cd c03b dc76 493d 1d6b db3d 9843 2e3d
00000390: cb6a c6bd 3bf3 be3b ed85 4fbc cb3d eb3c
000003a0: 14ee 59bd c61f 1c3c db18 e33b 3ed3 1b3c
000003b0: 3367 74be cd2c e0bc 44c6 13be 112e 11bd
000003c0: eea7 d3bd 1b05 9a3b 5a86 223d b088 22bc
000003d0: 390a 64bd dda1 d5bc b8cc a23d 7cb3 4dbd
000003e0: 2a81 7a3d 7e1a 8abd 10d2 cc3c f929 9abd
000003f0: c5da 8abd c8b0 4d3d 7d72 d33d a3ad ff3d

action_model._continuous_distribution.log_sigma f4 [1, 4]
0.0 0.0 0.0 0.0
00000000: 0000 0000 0000 0000 0000 0000 0000 0000

action_model._continuous_distribution.mu.weight f4 [4, 128]
0.011540645 0.022746995 0.015781423 -0.03516644 -0.004529769 0.008256864 -0.021584114 0.007307486
0.009499478 0.019835763 0.0058246567 -0.0022433999 -0.013304705 0.009620706 2.491017e-05 -0.0063441456
-0.015269923 -0.014939377 -0.013948348 0.017140683 -0.016792363 0.011514474 0.01120615 -0.002903206
0.022907594 0.00983915 -0.0023883444 -0.008319548 -0.039663758 0.026937176 -0.00060332776 0.024678519
0.01042913 -0.017922906 -0.011451025 -0.007607323 -0.0036266085 0.018744059 -0.009482417 0.011195728
-0.0067110495 0.00690769 -0.0009278871 -0.0038957358 0.016287265 -0.021762172 0.001271102 0.013690017
-0.021600066 -0.041824933 -0.021854764 0.012987325 -0.014610322 -0.0101770675 -0.013143844 -0.033652898
0.0025284297 0.0075336634 0.029437413 0.006767588 -0.0021497887 0.0033885438 0.00332572 -0.0075446228
0.015897376 -0.011153392 0.013002679 -0.010306958 0.025572238 0.016310474 -0.0054835724 0.0072577978
0.007024666 0.019875629 -0.00032451947 -0.01588938 0.0037703533 -0.030249923 -0.030465454 -0.010918951
-0.0018862447 -0.011435571 0.0173813 0.013739774 0.009251497 0.00058594556 0.022109225 0.038998704
0.014302996 0.004016957 -0.016982807 0.023090292 -0.027101535 0.0376813 -0.002650787 0.018614607
-0.0060637346 -0.0073895263 -0.03498739 -0.003517943 -0.029153675 -0.012648532 0.002173072 -0.0077656633
0.029842813 -0.0096880905 0.014086454 -0.034726527 -0.014181733 0.01105034 0.016134968 0.013866267
-0.006401899 0.022058366 0.006143747 -0.0022504143 0.003363248 -0.030835494 -0.0041110883 0.0051590665
0.013280059 0.007172478 0.025081322 0.0028701026 -0.0038899132 -0.004336016 0.0149288615 0.01481532
-0.0125806695 0.004807209 0.0059051877 -0.04643796 -0.0020941857 0.0026678944 -0.013325408 -0.021119444
-0.049000192 0.0015359602 -0.011063713 0.0006127157 0.01674257 -0.016395992 -0.033405673 0.0010337777
0.03320463 0.015778145 -0.013999454 0.022165569 -0.02410243 -0.03188181 0.01935884 0.01427712
0.0027032297 0.006031538 -0.020387176 0.013362976 -0.008413511 0.029151393 0.014502284 -0.060725063
-0.0012127002 -0.0028007375 -0.0026053954 0.019316413 -0.018217025 0.0100392075 -0.0035312925 -0.016158767
0.012617521 -0.025658121 0.008922196 -0.020002505 -0.033934936 0.010853938 -0.026088774 -0.008041055
0.014300053 0.0036539074 -0.0067041814 -0.026244879 0.03213784 -0.007182316 -0.010981682 0.0071338923
-0.0041552368 -0.05050054 -0.038156956 -0.015913298 -0.001547893 0.01682503 -0.023865111 -0.010992583
0.0099215675 -0.014233249 0.011367571 -0.0052079675 0.0015858895 -0.005161889 -0.013665189 0.022933787
-0.010323206 0.02469744 0.00139305 0.0025650472 0.012409732 0.00027850378 -0.025248362 0.016618062
-0.024086345 0.0079047 -0.0242305 0.0070173717 -0.022365736 0.011115371 0.017857494 0.004943376
0.015730811 0.013940819 -0.0011470033 0.03567085 0.00428345 0.027708238 -0.008448052 0.012380614
0.009458571 -0.0201142 -0.015626846 0.00037201794 -0.033080216 0.039225474 -0.0073566395 0.021154447
0.008187927 -0.018050533 -0.0019171716 0.0059176283 -0.0007011147 0.027992073 0.030323027 -0.011029146
-0.016226359 0.005390761 -0.007405549 0.007948171 0.032027047 0.037069503 -0.0131689655 0.004279492
0.009161666 0.040088236 -0.023127375 -0.021753347 0.0106070805 -0.010535498 0.011381622 0.004416977
00000000: f914 3d3c e857 ba3c 0b48 813c af0a 10bd
00000010: 756e 94bb cc47 073c 2bd1 b0bc a373 ef3b
00000020: b3a3 1b3c 9c7e a23c c3dc be3b 0106 13bb
00000030: fafb 59bc 2aa0 1d3c 2ff6 d037 8de2 cfbb
00000040: b32e 7abc 4ac4 74bc 9d87 64bc 9e6a 8c3c
00000050: 2390 89bc 34a7 3c3c 009a 373c b743 3ebb
00000060: b5a8 bb3c 6334 213c c585 1cbb b74e 08bc
00000070: 7776 22bd 5aab dc3c a428 1eba 9b2a ca3c
00000080: f1de 2a3c 0fd3 92bc 149d 3bbc da46 f9bb
00000090: 65ac 6dbb 248d 993c 245c 1bbc 496e 373c
000000a0: 5de8 dbbb e759 e23b 733d 73ba 9a4f 7fbb
000000b0: df6c 853c 9546 b2bc 1b9b a63a 184c 603c
000000c0: 9ff2 b0bc 9f50 2bbd c308 b3bc cac8 543c
000000d0: 2260 6fbc b7bd 26bc 4759 57bc 9fd7 09bd
000000e0: 03b4 253b f3dc f63b bb26 f13c a5c2 dd3b
000000f0: 78e3 0cbb 5512 5e3b 53f4 593b e238 f7bb
00000100: 373b 823c b7bc 36bc 3009 553c 84de 28bc
00000110: df7c d13c 8b9d 853c 8aaf b3bb d2d2 ed3b
00000120: 2b2f e63b 37d2 a23c 4424 aab9 722a 82bc
00000130: 0818 773b b0ce f7bc b092 f9bc 66e5 32bc
00000140: df3b f7ba 435c 3bbc 3a63 8e3c ca1c 613c
00000150: 9793 173c 249a 193a 681e b53c 1bbd 1f3d
00000160: 1d57 6a3c ada0 833b 871f 8bbc da27 bd3c
00000170: 0a04 debc b557 1a3d d3b8 2dbb a97d 983c
00000180: 4bb2 c6bb d723 f2bb f04e 0fbd 4a8d 66bb
00000190: b0d3 eebc ca3b 4fbc 196a 0e3b 1b77 febb
000001a0: ea78 f43c ccba 1ebc dfca 663c 673d 0ebd
000001b0: 805a 68bc 7c0c 353c 7b2d 843c 572f 633c
000001c0: 05c7 d1bb bfb3 b43c 7c51 c93b b07b 13bb
000001d0: f069 5c3b b89a fcbc 4fb6 86bb 630d a93b
000001e0: 9b94 593c 1b07 eb3b 5877 cd3c 5518 3c3b
000001f0: eaed 7ebb 2315 8ebb 2f98 743c f5bb 723c
00000200: 271f 4ebc cb85 9d3b 4e80 c13b bb35 3ebd
00000210: 9b3e 09bb d7d7 2e3b d052 5abc af02 adbc
00000220: 6db4 48bd 4652 c93a 9344 35bc a89e 203a
00000230: b727 893c e350 86bc 63d4 08bd d37f 873a
00000240: 9401 083d 2b41 813c f75d 65bc 9194 b53c
00000250: 7672 c5bc 8096 02bd 6e96 9e3c 95ea 693c
00000260: ab28 313b 35a4 c53b 0203 a7bc 62f0 5a3c
00000270: d3d8 09bc e7ce ee3c fd9a 6d3c d8ba 78bd
00000280: 77f3 9eba 948c 37bb 48bf 2abb 743d 9e3c
00000290: df3b 95bc 7d7b 243c 426d 67bb 645f 84bc
000002a0: b8b9 4e3c fb30 d2bc 672e 123c 4bdc a3bc
000002b0: 5cff 0abd b7d4 313c 20b8 d5bc a1be 03bc
000002c0: c54a 6a3c 6576 6f3b c0ae dbbb 80ff d6bc
000002d0: f8a2 033d a259 ebbb 83ec 33bc 6dc3 e93b
000002e0: a728 88bb a7d9 4ebd 784a 1cbd 9b5c 82bc
000002f0: ace2 caba a5d4 893c c480 c3bc 3c1a 34bc
00000300: 128e 223c 9332 69bc 0c3f 3a3c 99a7 aabb
00000310: 9fdd cf3a 1025 a9bb f5e3 5fbc a3df bb3c
00000320: aa22 29bc 4952 ca3c 0097 b63a 5a1a 283b
00000330: 3052 4b3c 2504 9239 a7d5 cebc 9a22 883c
00000340: ba50 c5bc b782 013c 0b7f c6bc fbf1 e53b
00000350: 5938 b7bc 3f1d 363c e149 923c 0bfc a13b
00000360: e7dd 803c 0868 643c 0b57 96ba 991b 123d
00000370: 2f5c 8c3b 63fc e23c b369 0abc 0fd8 4a3c
00000380: 1ff8 1a3c 89c6 a4bc df03 80bc 670b c339
00000390: 1f7f 07bd e4aa 203d f70f f1bb 174c ad3c
000003a0: a826 063c b6de 93bc 9b49 fbba aae8 c13b
000003b0: 03cb 37ba a24f e53c ff67 f83c 97b3 34bc
000003c0: 24ed 84bc fba4 b03b 3faa f2bb 0c39 023c
000003d0: cb2e 033d 31d6 173d a5c2 57bc fb3a 8c3b
000003e0: d01a 163c 9033 243d 9f75 bdbc 1334 b2bc
000003f0: 52c9 2d3c 159d 2cbc fc79 3a3c 4abc 903b

action_model._continuous_distribution.mu.bias f4 [4]
0.0 0.0 0.0 0.0
00000000: 0000 0000 0000 0000 0000 0000 0000 0000
