Client/results/ppo/MoveToGoal/MoveToGoal-320.onnx (onnx, 73089 bytes, 6 tensors)

network_body._body_endoder.seq_layers.0.weight f4 [128, 1]
00000000: a7bd 793e b8f0 92bf c41f 46be cf70 58be
00000010: 2688 acbf a34e d53e e6f4 8d3e 0f71 043f
00000020: a9ba 003e 2418 0b3f 90d2 ffbd dd9d 883e
00000030: c6ac a13f 64fb a23f 1240 e13f 47c5 8fbc
00000040: 2924 0abf 8075 dabc 30c0 7b3f 2ac9 99bf
00000050: 81cb 0b3f ec8c eebf aa1e 1c3f a257 9f3f
00000060: 8679 69bf 8e5e 423f dc27 cbbf 1609 e93f
00000070: 5f2c b93f fa54 48be 644d 253e b5e8 55be
00000080: 1f8f 643f 8aac 20bf 0363 bb3e 7e2c 23bf
00000090: e47a 993f 37d3 b13f 5b0b ea3f 78d8 bbbf
000000a0: 8928 133f 92d2 26bf 20a8 88bf 716d 4fbe
000000b0: 2379 dbbe a949 8e3e 5d0c 27bf 5421 743f
000000c0: 5ed1 3540 91f0 553f 16c7 cbbc 7b04 063f
000000d0: f66e d7bd 0977 4b3f 1a1d d43f d737 d5be
000000e0: c5ac dfbd 2069 6f3f bc22 b9bf 6df9 823e
000000f0: 2b49 47bd 905f bdbf 5b0a 393e d4b1 cbbe
00000100: 796c 2a3f 6317 18bf 7f45 04bd c88b abbe
00000110: 0f23 053b da52 8dbe 06fa fa3d 9268 1840
00000120: 3943 e2bf 3248 e4bd a524 28c0 dfce 79bf
00000130: 9794 173e eec7 453f 63f1 5a3f 802f df3d
00000140: 7305 733f 07d0 82bf 01f5 44be f99b 86bf
00000150: 81c0 32bf 250d 49bf ad81 923d 1206 a83f
00000160: 7c0b 9bbe 9cc3 5940 8ff8 0b3f 2e0a febf
00000170: 5901 f03f f2ba 63bf ee2f c63f 4dea 113e
00000180: 4884 0240 6be5 84bf 1385 1bbf bfed 953e
00000190: 51b9 6c3f d5f2 373d 7370 8c3e 14d7 0cbf
000001a0: fa95 493f 78b2 81bf 670d 0bbf 0ccd 1dbf
000001b0: 5ac3 10bf 4a46 e13e 2bbf 463e 30ed 00bf
000001c0: c431 89bf d57d abbe a736 02bf c391 b2bd
000001d0: 9fab a53f 066c e2be 1790 b53f 96a8 263e
000001e0: ff42 83bc f7eb 183f fb7c 33bf 4ddf 26bf
000001f0: 08bc ae3f 16b1 97bf 419a 4cbf bcee adbf
0.24388753 -1.1479712 -0.19348055 -0.21136783 -1.3479049 0.41661558 0.27725905 0.51735014
0.12571205 0.5433371 -0.124913335 0.2668294 1.2630851 1.2732968 1.7597678 -0.017550124
-0.53961426 -0.026667356 0.9834013 -1.2014515 0.546074 -1.8636756 0.6098429 1.2448618
-0.91201055 0.7592553 -1.5871539 1.8205898 1.4466666 -0.19563666 0.16142803 -0.20889552
0.89280885 -0.62763274 0.36598977 -0.63739765 1.1990628 1.3892583 1.8284715 -1.4675436
0.57483727 -0.65165055 -1.0676308 -0.20256592 -0.42865857 0.27790573 -0.6525324 0.95363355
2.8409038 0.835702 -0.024875205 0.52350587 -0.10519211 0.7947851 1.6571381 -0.41644165
-0.10921625 0.93519783 -1.4463725 0.25580922 -0.048653763 -1.4794788 0.18070357 -0.3978411
0.66571766 -0.59410685 -0.03229284 -0.33505082 0.0020315086 -0.27602273 0.122547194 2.3813825
-1.7676765 -0.11146583 -2.6272366 -0.97581285 0.14802776 0.77258193 0.85524577 0.10897732
0.9493019 -1.0219735 -0.19234087 -1.0516349 -0.6982499 -0.7853568 0.0715364 1.3126853
-0.302822 3.402564 0.54676145 -1.9846857 1.8750411 -0.8895713 1.5483377 0.14249535
2.0393238 -1.0382513 -0.6074993 0.29282948 0.9247027 0.044909317 0.27429542 -0.55015683
0.7874447 -1.0132589 -0.54317325 -0.61641 -0.5654808 0.4399894 0.19408862 -0.5036192
-1.0718312 -0.3349444 -0.5086464 -0.08719208 1.2943 -0.4422304 1.4184598 0.16275248
-0.016023157 0.59735054 -0.7011258 -0.6518448 1.3651133 -1.1850917 -0.7992287 -1.3588481

network_body._body_endoder.seq_layers.0.bias f4 [128]
00000000: 0000 0000 0000 0000 0000 0000 0000 0000
00000010: 0000 0000 0000 0000 0000 0000 0000 0000
00000020: 0000 0000 0000 0000 0000 0000 0000 0000
00000030: 0000 0000 0000 0000 0000 0000 0000 0000
00000040: 0000 0000 0000 0000 0000 0000 0000 0000
00000050: 0000 0000 0000 0000 0000 0000 0000 0000
00000060: 0000 0000 0000 0000 0000 0000 0000 0000
00000070: 0000 0000 0000 0000 0000 0000 0000 0000
00000080: 0000 0000 0000 0000 0000 0000 0000 0000
00000090: 0000 0000 0000 0000 0000 0000 0000 0000
000000a0: 0000 0000 0000 0000 0000 0000 0000 0000
000000b0: 0000 0000 0000 0000 0000 0000 0000 0000
000000c0: 0000 0000 0000 0000 0000 0000 0000 0000
000000d0: 0000 0000 0000 0000 0000 0000 0000 0000
000000e0: 0000 0000 0000 0000 0000 0000 0000 0000
000000f0: 0000 0000 0000 0000 0000 0000 0000 0000
00000100: 0000 0000 0000 0000 0000 0000 0000 0000
00000110: 0000 0000 0000 0000 0000 0000 0000 0000
00000120: 0000 0000 0000 0000 0000 0000 0000 0000
00000130: 0000 0000 0000 0000 0000 0000 0000 0000
00000140: 0000 0000 0000 0000 0000 0000 0000 0000
00000150: 0000 0000 0000 0000 0000 0000 0000 0000
00000160: 0000 0000 0000 0000 0000 0000 0000 0000
00000170: 0000 0000 0000 0000 0000 0000 0000 0000
00000180: 0000 0000 0000 0000 0000 0000 0000 0000
00000190: 0000 0000 0000 0000 0000 0000 0000 0000
000001a0: 0000 0000 0000 0000 0000 0000 0000 0000
000001b0: 0000 0000 0000 0000 0000 0000 0000 0000
000001c0: 0000 0000 0000 0000 0000 0000 0000 0000
000001d0: 0000 0000 0000 0000 0000 0000 0000 0000
000001e0: 0000 0000 0000 0000 0000 0000 0000 0000
000001f0: 0000 0000 0000 0000 0000 0000 0000 0000
0.0 0.0 0.0 0.0 0.0 0.0 0.0 0.0
0.0 0.0 0.0 0.0 0.0 0.0 0.0 0.0
0.0 0.0 0.0 0.0 0.0 0.0 0.0 0.0
0.0 0.0 0.0 0.0 0.0 0.0 0.0 0.0
0.0 0.0 0.0 0.0 0.0 0.0 0.0 0.0
0.0 0.0 0.0 0.0 0.0 0.0 0.0 0.0
0.0 0.0 0.0 0.0 0.0 0.0 0.0 0.0
0.0 0.0 0.0 0.0 0.0 0.0 0.0 0.0
0.0 0.0 0.0 0.0 0.0 0.0 0.0 0.0
0.0 0.0 0.0 0.0 0.0 0.0 0.0 0.0
0.0 0.0 0.0 0.0 0.0 0.0 0.0 0.0
0.0 0.0 0.0 0.0 0.0 0.0 0.0 0.0
0.0 0.0 0.0 0.0 0.0 0.0 0.0 0.0
0.0 0.0 0.0 0.0 0.0 0.0 0.0 0.0
0.0 0.0 0.0 0.0 0.0 0.0 0.0 0.0
0.0 0.0 0.0 0.0 0.0 0.0 0.0 0.0

network_body._body_endoder.seq_layers.2.weight f4 [128, 128]
00000000: 82ce 633d 354d a6bc 4ff7 6c3d 2f68 0a3d
00000010: a536 b43d 68d9 28bd 5e7b aa3d e09a 83bd
00000020: 9e8f a03c a15a 0fbe ca2a 803d 8bd8 3dbd
00000030: fcae 1cbc 20d9 d8bc a28d d83d 0467 e2bd
00000040: 44b7 443d 9694 273e 9612 91bd 33b3 713d
00000050: e7a1 6c3d 5b9b ae3d 50d1 c93a 2be6 303e
00000060: 0aee 03bd 8b06 e5bd a094 81bd 8b08 a2bd
00000070: 762d 303c f2e4 04bd db93 b53c 5716 e03c
00000080: 9f23 51be cbdd ff3d 6175 353d 3e24 bfbc
00000090: f79e 59bd 07cb 93bc 025d 95ba 45cd a4bc
000000a0: cbcf 07be 7c7b 803d 6ef6 c8bd 5a33 1bbd
000000b0: 6be1 30bd 44c3 36be 38cd f23c 4def 00be
000000c0: e7f6 bf3d 62e4 00bc b76a ae3d e455 8b3d
000000d0: b74e 483c 00bd 293e b7fe 0e3d 5a27 f63d
000000e0: 266f 363c 3566 13be 8f67 f63d 5d58 a93d
000000f0: 53c7 66bd a531 b3bd c014 823d cff4 b6bb
00000100: b212 8bbc 587f 473d ecd7 6f3d 7e87 453d
00000110: c277 fb3d d292 01ba cea9 00be 7aff 043e
00000120: d721 1fbe 0a5d 923c eac9 9cbd 3be4 803c
00000130: f1df c8bd 1778 453e 0972 5c3d fad4 0dbc
00000140: 02ac 463d d046 08bd 81f8 2bba a37e 74bd
00000150: b535 cd3d cd7a 223d ad2d 713e 0b4d 123d
00000160: 504c 64bd a6d2 f6bd 91db 0bbd a18c a83d
00000170: f748 4bbd bae9 f13c 96fd 5a3d c21a aa3d
00000180: cb64 9a3d 893d 90bd 48bd 7fbe b2e4 4a3d
00000190: 3953 c6bd 4bae 3f3e 4af2 b3bb 0658 77bd
000001a0: eb17 8b3d 0e44 4fbd 3bba 403d 1645 95bd
000001b0: 1ec3 3a3d 5303 dd3d 90b4 64bd f31a 863d
000001c0: f42a 2d3e ff2c 9cbd 269e 14be 130c 173e
000001d0: 51f4 18bd d949 75bd 9eda d0bd b9de 953d
000001e0: 2de9 43bd 3d87 ffbb bd7d 1d3d aab8 57bd
000001f0: de6a dcbd 9a25 52bd fcf6 b1bd 3cc6 24be
00000200: 61a1 13be f2fe 4e3d d513 8e3b 8523 bf3c
00000210: 9c3b e5bc e922 133d 85f1 5e3e fa4c 1bbd
00000220: fdcb 373d f6a9 64bd b74d 143e f656 1fbe
00000230: 91fb 95bd abae 73bd a1f4 7c3b 5550 03b9
00000240: 3b61 183e 904a 43bd 038a 903d 064b 2fbe
00000250: 473d d63c a37b 53bc 124b a3bb b56d ccbd
00000260: a609 163c 0538 fcbc 4f21 883d 8b12 0e3e
00000270: 27cb d2bd 954b 1bbd a570 893d 1545 71bd
00000280: 78ec ef3b 5635 8abc cd9d 95bd 155f b43c
00000290: 120b 4cbc b6ef bd3d d764 c5bc 96f3 5bbd
000002a0: 7a7b 2dbe 678f 693d 15a7 0abd 0bff 283e
000002b0: 1224 3bbd 662e 62bd 056e d6bd 638a 87bc
000002c0: 2964 4f3d bc67 84bb 93c3 d5bc 8ad5 433c
000002d0: c3a1 94bd 38af 95bd 38ee fdbb e816 07be
000002e0: 2271 01bd df21 d03c e5db fa3c aa6b 82bb
000002f0: 242a 0abe 057d e3bd ea2b 31bd b0d4 d5bd
00000300: 6495 edbc 1ce2 2bbb 6eeb 00bc e8ea d03d
00000310: 0804 873c 6501 6abe 1172 083e b9bc 9dbc
00000320: a710 963c 22a3 d037 a7e3 3f3d 82bd bc3d
00000330: 7b0b e5bd 091c de3a 118c a73d 32e8 623c
00000340: a049 92bd 27d4 533d 5a71 2fbd 563f b73d
00000350: 5af2 5f3a 548d 043e df12 bb3d 53bc f53d
00000360: 9486 513d 38dd 4cbc c144 19be 3670 c43d
00000370: 0e39 e43c 0d6c 4bbd 3f4a 45bd 8f18 0e3d
00000380: 20bd 10be cf78 1b3d 70e7 bfbd 68e2 903a
00000390: c698 c7bc a925 963d c860 29bd 6fd6 7c3d
000003a0: 4df4 bdbd 280a 70bd 1844 d13d fdbc 8c3c
000003b0: fede 2dbc 494b fb3d 90b3 a63d 57f3 0a3c
000003c0: 0ff8 cdbc a565 533c 9f26 4a3d ff63 603e
000003d0: 9556 1fbe e77c 163d 071a 0d3e 806a 9dbd
000003e0: 7def ed3d e357 c03d b193 80bd c77e d53c
000003f0: 1ba0 0fbd 1be4 b23d f31e 2fbe 7437 153d
0.055616863 -0.020300487 0.05785304 0.033790763 0.08799485 -0.04122296 0.08324312 -0.064260244
0.019599732 -0.13999416 0.06258161 -0.04634909 -0.009563204 -0.02647072 0.10573889 -0.11054805
0.04802634 0.16365275 -0.07083623 0.05900879 0.05777159 0.085257255 0.0015397463 0.17275302
-0.032209434 -0.111828886 -0.06327176 -0.07911786 0.010753026 -0.0324449 0.02216523 0.027354402
-0.20423745 0.124934755 0.044301394 -0.023332711 -0.053130116 -0.018041147 -0.0011395516 -0.020117411
-0.1326286 0.06273553 -0.09812628 -0.03789077 -0.043183725 -0.17847925 0.029638872 -0.12591286
0.09373265 -0.007866951 0.08516448 0.06803492 0.012225798 0.16576004 0.034910884 0.120192245
0.011134898 -0.14394458 0.12031471 0.08268807 -0.056342434 -0.08749703 0.06351614 -0.0055833827
-0.016976688 0.04870543 0.05855553 0.04822492 0.12278701 -0.00049428374 -0.12564775 0.12988082
-0.15540253 0.01786663 -0.076556996 0.015733829 -0.098083384 0.19284092 0.05381969 -0.008656735
0.048503883 -0.033270657 -0.00065601623 -0.059691083 0.100200094 0.039667893 0.2355258 0.035718005
-0.05573684 -0.12051897 -0.03414494 0.08229948 -0.04963013 0.029530395 0.053464495 0.08305885
0.07538756 -0.07042987 -0.24974549 0.049534507 -0.09683842 0.18718831 -0.0054915296 -0.06038668
0.06791671 -0.05060201 0.047052603 -0.07288568 0.045596235 0.1079165 -0.05583626 0.06548109
0.16910917 -0.0762577 -0.14513454 0.147507 -0.037342373 -0.05988488 -0.10197948 0.073178716
-0.047829796 -0.007798104 0.03844999 -0.052666344 -0.10762571 -0.05130539 -0.08689687 -0.16091245
-0.1441703 0.050536104 0.0043358603 0.023332367 -0.027982526 0.035921965 0.2177182 -0.037915207
0.044872273 -0.05582615 0.14482771 -0.15560517 -0.07323373 -0.05949275 0.0038597959 -0.0001252306
0.1488084 -0.04767853 0.07057574 -0.17118463 0.026152266 -0.012907895 -0.0049833143 -0.099818625
0.009157574 -0.030788431 0.06646978 0.13874261 -0.102926545 -0.037913878 0.06710938 -0.058903772
0.0073218904 -0.016871136 -0.07305489 0.022017995 -0.012453811 0.09274237 -0.024095936 -0.0536991
-0.16941634 0.057021525 -0.033850748 0.16503541 -0.045688696 -0.05522003 -0.10470203 -0.01654548
0.05063263 -0.0040406864 -0.026094234 0.011952767 -0.07257416 -0.07308811 -0.007749345 -0.13192332
-0.031602032 0.025406776 0.030622432 -0.0039801197 -0.13492638 -0.1110783 -0.04325477 -0.104409575
-0.029001899 -0.00262273 -0.007868631 0.10201055 0.016481414 -0.22852094 0.13324763 -0.019255029
0.018318487 2.4871497e-05 0.046847966 0.09215833 -0.1118383 0.0016945611 0.081810124 0.013849305
-0.07142949 0.051715996 -0.04283271 0.08947627 0.0008542888 0.12944537 0.09134459 0.119988106
0.051153734 -0.012503915 -0.14967634 0.09591715 0.027859237 -0.049663592 -0.04816651 0.03469139
-0.14134645 0.03795701 -0.09370315 0.0011053802 -0.02436484 0.07331402 -0.041352063 0.061727937
-0.09275112 -0.058603436 0.10218066 0.01717996 -0.0106122475 0.12270219 0.081397176 0.008480868
-0.025142698 0.012902652 0.04935324 0.21913145 -0.15560372 0.03674021 0.1377946 -0.07686329
0.116179444 0.09391763 -0.0627817 0.026061429 -0.035064798 0.08734914 -0.1710165 0.036429837

action_model._continuous_distribution.log_sigma f4 [1, 4]
00000000: 0000 0000 0000 0000 0000 0000 0000 0000
0.0 0.0 0.0 0.0

action_model._continuous_distribution.mu.weight f4 [4, 128]
00000000: 8a76 023d 40a0 19bc 3b8d 7cbc 264f 893c
00000010: 33c1 b33b e888 a4bc 4355 073c e081 543c
00000020: 9b90 1e3c 3f42 613c 9538 cabc 1722 c93c
00000030: 3072 fb3c 6d4f f7bc 066e 9d3c 6458 1cbd
00000040: 9ba3 72bc 2741 363c c2d1 bbbc e06d 2ebc
00000050: 67c5 153a 8864 96bb 79ef 47bd 47c9 b4bc
00000060: a18d 8ebb a7ae ddbc 0054 03bb 23d1 4b3c
00000070: 2a61 f4ba 8b6d 8f3c 9fff 7a3c 7d8b db3c
00000080: 5a61 81bc e518 963c 6749 233b 038f d7bc
00000090: 9fda d1ba 0f43 ef3c 8fcb 1abc f629 c9bb
000000a0: 5503 3abd b213 7abc 5734 a83a 17b3 4b3c
000000b0: c73b ba3b f09e d9bb 1828 8f3b c60c ab3c
000000c0: 56b9 b6bc aedc 1ab8 9f05 5f3c 73eb a2bc
000000d0: 2f67 d13b 2b4f 3f3b 53b6 a13c 9272 e33b
000000e0: 5710 aabc 8188 453c 2a1d 963c 1fd4 e03a
000000f0: 01ec 2dbc 110b acbc 28a5 2dbc aba3 b8bb
00000100: 881c f03b 3219 85bc c333 2ebc a288 29b9
00000110: 71c9 00bc ea87 c8bc 5834 343d ab5a 973c
00000120: 4750 b03b 4b31 28bc 4344 e6b8 b86e ba3b
00000130: eeb8 8b3c 33fd 363c 8022 703b 49e8 4abc
00000140: bf4e 903c baf1 033c 3b59 03bc 2754 67bc
00000150: 2b64 003c 6bc2 913c 6b03 49bc c7fe b83b
00000160: 7c54 113b 8a12 53bc 3c54 0ebb c5cb 7cbc
00000170: c237 97bb fb81 78bc 4a9d 53bc 8631 103c
00000180: fc64 9d3c 1cba 97b9 013e 0f3d 5025 95bc
00000190: ff19 c0bb ca11 8cbb 1cb3 88bc 1726 3c3d
000001a0: a87d f13c fc8c c2bc f2e9 843b c7a6 c13a
000001b0: 67c7 1abc da4f 48bc a340 01ba ef31 cabc
000001c0: cfc9 fbb8 bb01 f6bc 2b65 013d 0c0c 243a
000001d0: a228 1a3d 74ef a3bb 27c7 803c b1e4 073c
000001e0: 7281 0a3c 2c29 013d 158f d1bc cbfe fabb
000001f0: f194 94bb 1fb4 8eba ebf1 b2bc 0d36 debc
00000200: bc59 403b af77 873b 96c1 053d c729 f93b
00000210: 69c2 36bd cb52 5f3c 2058 183c ab9c cfbc
00000220: 5cbb a83b 6531 b13c bacd 813b 47c4 91bc
00000230: 4e66 c5bc 2778 ec3c 064c 3fbd cd24 f3bc
00000240: 4619 23ba ebaa a33a fd17 1c3d a8d8 64bc
00000250: 7a4e 5d3c c165 1dbc fffb dd3a b156 81bc
00000260: 97be 933c 7992 47bc 77ca 3abc 35f9 dd3b
00000270: befe 3d3a 68e1 5e3b b3c6 403b 20fd 793a
00000280: de88 063a 25b6 223b 272c df3c a515 28bc
00000290: 957b a83c d285 e9bb f026 04bd 2bce 903b
000002a0: 09e8 adbc ac00 babc 0111 8ebc a334 3c3c
000002b0: 4e44 843c 4b86 733c 4bdc 3dbd d33d 9fb7
000002c0: 7b2f 59bc 55f2 563c e7fd b53c 9006 3f3c
000002d0: b1ff 90bc 6fa7 003d 1871 933c 5c01 48bb
000002e0: 7a29 55bb 00fb d63c 605a 3ebd c389 b83c
000002f0: 4855 43bc bde2 31bc 1ce4 1ebd 91b1 363c
00000300: 934c 93bc 55ff 5e3c 2629 2ebc 147d 1b3d
00000310: 8d56 5cba 60cb 1b3b a9f2 053c 67e5 cfbc
00000320: 4e4e 09bc cba0 583c 85fa 9a39 d173 9f3c
00000330: ab99 0b3c b7f3 103c 04a8 88bb 7169 8bbc
00000340: 4dcd 1bbd dd7e 523b cfc2 6fbc 08fe 2a3c
00000350: 6209 6abc 75e9 5b3b 62eb 84bc eabb 68bb
00000360: 9860 01bc 6c87 19bd 13c4 e23c d489 1b3a
00000370: 3c5a bd3c a7d1 54bc feb5 1fbb 3731 1cbd
00000380: 6b31 2d3c 1bdc 3dbd 677d 383c f645 2fbc
00000390: 6340 e03c a006 a43b e313 f73b d5a4 f8bc
000003a0: 6366 b93c bf57 00bd a56d e93b c7ff 3dbc
000003b0: 1733 4ebb 3526 e73b e113 bcbb 6d23 6cb9
000003c0: 3b75 93bc aade 00bc c43f 003d 2f19 ee3c
000003d0: ec1f 353c 9836 9abc 6a94 4abb 8750 8d3c
000003e0: f587 6f3c 4be1 19bc 06a9 3f3d 1747 fbbc
000003f0: 7f05 043d 4769 31bc 8734 443c 1ad7 a1bc
0.03185133 -0.0093765855 -0.015414531 0.016761374 0.0054856776 -0.020084813 0.008260074 0.012970418
0.009678031 0.013748704 -0.024685184 0.024552388 0.030694097 -0.03018924 0.019217502 -0.038170233
-0.014809514 0.011123932 -0.022927169 -0.010646313 0.0005713314 -0.004589621 -0.048812363 -0.022068633
-0.0043503796 -0.02706082 -0.0020039082 0.012439999 -0.001864468 0.017508289 0.015319734 0.026799912
-0.015793491 0.018322418 0.0024915577 -0.02631331 -0.0016010589 0.02920678 -0.009447946 -0.0061390353
-0.045413334 -0.015263485 0.0012832981 0.012432835 0.0056833955 -0.0066412613 0.004368793 0.020880114
-0.022305172 -3.6921985e-05 0.01361218 -0.019887662 0.0063904743 0.0029191475 0.01974026 0.006941148
-0.020759745 0.012056471 0.018324453 0.0017153061 -0.01061535 -0.02100137 -0.010598458 -0.005634745
0.00732762 -0.016247366 -0.010632458 -0.00016167996 -0.007860527 -0.024478871 0.04399523 0.018475851
0.0053806636 -0.010265659 -0.000109799694 0.0056894682 0.017055955 0.011168766 0.0036641657 -0.012384483
0.017615674 0.008053238 -0.00801688 -0.014119185 0.007836382 0.017792901 -0.012268881 0.005645606
0.00221756 -0.012882838 -0.0021717688 -0.015429442 -0.004614801 -0.0151677085 -0.012915919 0.00880087
0.019213192 -0.00028939627 0.03497124 -0.018206269 -0.005862474 -0.0042745816 -0.016686969 0.045934763
0.029478863 -0.023748867 0.0040562088 0.0014774435 -0.009446955 -0.012226069 -0.0004930591 -0.024682013
-0.000120062025 -0.030030122 0.031590622 0.00062578986 0.037636407 -0.0050029103 0.015719963 0.00829427
0.008453714 0.031533405 -0.025580922 -0.007659768 -0.0045343568 -0.001088742 -0.021843871 -0.027125383
0.002935036 0.0041341404 0.03265532 0.007603857 -0.044618998 0.013630579 0.009298354 -0.02534326
0.005149288 0.021629998 0.003961292 -0.017793788 -0.024096634 0.028865887 -0.04670336 -0.029680634
-0.00062217226 0.0012486851 0.038108815 -0.0139676705 0.01350748 -0.00960678 0.0016936063 -0.015788408
0.018035216 -0.012180918 -0.01140081 0.0067740926 0.00072477374 0.0034008864 0.002941531 0.0009536315
0.0005132089 0.0024827805 0.027242733 -0.010259067 0.020566741 -0.0071265483 -0.032263696 0.0044191084
-0.021228807 -0.022705398 -0.017342092 0.011487159 0.016145851 0.014863561 -0.046352666 -1.8983066e-05
-0.013255949 0.0131193 0.022215797 0.0116592795 -0.017700048 0.031409677 0.017998263 -0.0030518388
-0.0032525943 0.026242733 -0.046472907 0.022526627 -0.011922188 -0.010857281 -0.03879176 0.011150734
-0.01798085 0.013610681 -0.010629928 0.03796108 -0.0008405231 0.0023772344 0.0081755305 -0.025377942
-0.008380486 0.01322193 0.0002955982 0.019464405 0.008520524 0.008847169 -0.0041704196 -0.017018052
-0.038037587 0.0032119073 -0.014633848 0.010436542 -0.014284464 0.00335559 -0.01622552 -0.0035512396
-0.007896565 -0.037482664 0.027681386 0.0005933319 0.023114316 -0.012989438 -0.002436995 -0.038132872
0.010570864 -0.046352487 0.011260367 -0.010697832 0.027374452 0.0050056726 0.0075402125 -0.030352036
0.02263183 -0.03133368 0.0071236663 -0.011596627 -0.0031463557 0.007054115 -0.0057396744 -0.00022519911
-0.018000236 -0.007865587 0.03131081 0.029064743 0.011054974 -0.01882486 -0.0030911216 0.017250312
0.014619817 -0.009392093 0.046792053 -0.030673547 0.032231804 -0.010828323 0.011975414 -0.019755889

action_model._continuous_distribution.mu.bias f4 [4]
00000000: 0000 0000 0000 0000 0000 0000 0000 0000
0.0 0.0 0.0 0.0
