Client/results/ppo/MoveToGoal/MoveToGoal-512.pt (torch, 146946 bytes, 10 tensors)

network_body._body_endoder.seq_layers.0.weight f4 [128, 4]
00000000: 6483 063e 6e20 99bf dff2 1abf c470 babe
00000010: 75b2 8d3e f731 d0be 6f5b 533f 8d9c 06bf
00000020: 670e 443e 48e3 ad3e ef80 1b3e 7e66 f0be
00000030: f9d9 8f3e 56d1 fabc 47ad 133f aefc 983e
00000040: 00e3 d2bd 2e05 9abf 8fcb d53e a74d 9a3e
00000050: 2a96 4fbe 1f2a c63f 415d 4bbf ba82 9b3e
00000060: 2ac5 61bf 416d 653c 1dd9 8b3f f6e6 2f3e
00000070: f36b ddbe c984 0bbf 2d49 8ebd bcd2 21bf
00000080: 1a9c 853f 5eae 483f 7905 0d3f d110 9f3d
00000090: e258 08bf eae4 1a3e db92 b63e 2216 debd
000000a0: 7c59 053f 6c0c 973d 19b5 17bf 88cb ed3d
000000b0: 208f 753e e237 dabe 54b6 5ebf 47cd 1cbf
000000c0: 9c36 0ebf ce0c aa3d 1231 483e 9014 6dbe
000000d0: 5e3e 8b3f 7be6 84be a42b 7cbe 65fe 74bf
000000e0: d203 81be 1ca9 76bf ba24 3abe 98a8 a0be
000000f0: bde5 c23d c6a4 59be dbc1 253d 2afd 38bf
00000100: 2fd3 0abf ffdc 62be f188 32bf 22b8 653f
00000110: 545f 123f e189 79bf 1828 423e 8046 36bd
00000120: 3473 c63e 245e 8bbf 4a65 c33a ea8e 063d
00000130: 1620 663c ef4b bfbd 06ed 2ebf ff86 423e
00000140: e82e aebe b9cb 81be fdb9 cb3c a1c3 613f
00000150: 1293 213e f278 3d3d 0b1e a73e 2590 d6bb
00000160: f7ec 353f 9ee4 063f dcc1 fe3e 0c05 ffbb
00000170: 58e0 4dbe c272 13bf 7bc9 cc3e 7d3e 09bd
00000180: 49e6 27be 35e3 0ebf 8253 513e ab74 ae3e
00000190: 069c cb3e 02f5 dc3e 964d 06be 7239 31be
000001a0: 9bd1 143e fb11 873e 99a9 b63d 7f0d 3abf
000001b0: ed8f 2d3e fe77 3c3f 94cd b0be 1876 ad3e
000001c0: 2b58 fa3e 58f6 3e3f 2cbc 0b3f 82ce 093e
000001d0: e70e b3bd ad3d c33d 8ea0 4dbf a962 6ebf
000001e0: 341d 91bd a3a5 6dbe a604 38bf d858 cb3e
000001f0: b169 c6bd 8fc9 a63d 20a8 2fbf 3bc9 bb3e
00000200: 0951 943e f143 773e 1efc d33e 65f0 ac3e
00000210: 27bb 55bf a6d6 463e dc90 44bd 1278 e5be
00000220: 5d1f 52bf af4f 9dbd 165c 223e b7b0 ef3c
00000230: 3dc9 583f a4b8 80be dd27 40bf 8b27 d13e
00000240: cc27 ee3e bf57 c3bc 4884 9bbf 6ce0 07bf
00000250: 7bd0 a3be 36ac bebd 1000 ca3e 4ed1 fcbe
00000260: e3d2 ab3e 625d 38bf 56a6 a33e 0373 1c3f
00000270: 279e 523e 9abb 7d3f 12d7 89bf 7ba1 14bf
00000280: 9b2c 0bbe aadf 21be 9214 033f 9c27 43bd
00000290: f9b2 a8be 83cc d23e cfd1 24be af6f af3e
000002a0: 5b90 20be 733f cc3e e549 89be e7ae bf3e
000002b0: 86f5 1f3e 4e3f 513e c6ac fa3e c1d9 1ebf
000002c0: c70e e1be 68f7 84bf 608d c7be d885 37ba
000002d0: d891 093f a1a6 e43e fe41 50be a8b2 c53e
000002e0: bc72 e83d 1d38 ee3e 1048 7a3d 0b13 24be
000002f0: 528c 11bf 247e ef3d 0271 6c3e 69df 31be
00000300: 9fe7 f3be 1280 f23e 3366 edbe a70c dabc
00000310: 228e 1dbf bff9 c33e 9305 a2be 51da 40bd
00000320: d865 97be cae6 18be dff4 0b3f e25d d5bd
00000330: 09ee 973e 6308 493d 5b41 80be 9e5f 713f
00000340: 390f e4be 0ead b13e 2d33 52bf d631 1dbd
00000350: c6f5 1a3e 15f2 a93e 27cf d23e a6d3 533e
00000360: 897b 863d 80bc f7be ae54 183d 8af6 19bf
00000370: 4ba8 103f 378b a2be 32ad c0be d5c2 6f3f
00000380: 48b7 9f3f 8b01 bd3e 86d8 c0be 831d 813e
00000390: 9fd6 133f 7e92 903e 6511 7abe bc17 47bf
000003a0: 686f 0b3f be8f 493d d4ef 7fbf 59e6 093f
000003b0: 1665 2fbe 51fb 38bf ad2f 9e3e 8d22 be3e
000003c0: 760e c73e 6597 e7be 3e92 95bd 98fc ffbe
000003d0: d77f ee3c 4bdb 55bd 6acf 63be 6631 ae3e
000003e0: c93c f63c 9bf7 b23e a52c d9be 06b6 113d
000003f0: ff4d 17bf 0c9d ffbe bc49 fa3e 09fb 4ebd
0.13136059 -1.1963022 -0.6052684 -0.36414158 0.27675214 -0.4066312 0.8256139 -0.5258263
0.19146119 0.33962464 0.15185903 -0.46953195 0.28095987 -0.030617397 0.57686275 0.2988028
-0.10297203 -1.2032831 0.41756865 0.3013737 -0.20272127 1.5481604 -0.7943917 0.30373174
-0.88191473 0.014003099 1.0925633 0.17177948 -0.4324642 -0.5449949 -0.06947551 -0.6321218
1.0438263 0.78391063 0.55086476 0.07766879 -0.53260624 0.15126386 0.35658917 -0.10844065
0.5208967 0.07375416 -0.5926071 0.11611086 0.23980379 -0.4262076 -0.8699696 -0.6125073
-0.5555208 0.083032236 0.19549969 -0.23152375 1.0878408 -0.25957093 -0.24626023 -0.95700675
-0.25198227 -0.9635179 -0.18178073 -0.31378627 0.09516475 -0.21254262 0.040468078 -0.722613
-0.5422849 -0.22154616 -0.69740206 0.8973409 0.5717671 -0.9747601 0.18960607 -0.044500828
0.38759768 -1.0888104 0.0014907506 0.032851137 0.014045736 -0.09340655 -0.6833042 0.1899681
-0.34020162 -0.2535074 0.02486896 0.8818913 0.15778759 0.04625792 0.32640108 -0.006547945
0.71064705 0.5269259 0.49757278 -0.007782584 -0.20105112 -0.5759698 0.39997467 -0.03350686
-0.1639644 -0.5581544 0.20442012 0.34073386 0.39767474 0.43155676 -0.13115534 -0.1730707
0.14533083 0.26380906 0.08919067 -0.72676843 0.16949435 0.73620594 -0.34531844 0.3387916
0.48895392 0.7459464 0.54584 0.13457683 -0.08743077 0.09533248 -0.8032311 -0.93119293
-0.07085648 -0.23207717 -0.7188209 0.3971622 -0.09688128 0.08143913 -0.68615913 0.36676964
0.28968075 0.24147011 0.41403288 0.33777156 -0.83488697 0.1941782 -0.04798971 -0.4481817
-0.82079107 -0.07681214 0.1585544 0.029259069 0.84682065 -0.2514087 -0.75060827 0.4085048
0.46514738 -0.023845552 -1.2149744 -0.53076816 -0.31994995 -0.093101904 0.39453173 -0.49378437
0.3355933 -0.7201749 0.31962842 0.61112994 0.20568143 0.9911438 -1.0768759 -0.580589
-0.13591234 -0.15807977 0.5120326 -0.047645196 -0.32949045 0.41171655 -0.1609566 0.34264895
-0.15680067 0.39892158 -0.2681419 0.37438127 0.15621004 0.20434305 0.4895994 -0.62051016
-0.43956587 -1.0388002 -0.38975048 -0.000700084 0.53738165 0.44658378 -0.20337674 0.38612866
0.11350009 0.46527186 0.06110388 -0.1602289 -0.56854737 0.11693981 0.23089984 -0.1737038
-0.4763765 0.47363335 -0.46367034 -0.026617361 -0.61545 0.3827648 -0.31644878 -0.047083203
-0.29569888 -0.14931789 0.5467052 -0.10418297 0.29673794 0.049080264 -0.25049862 0.94286525
-0.44542864 0.34702343 -0.8210934 -0.038377605 0.15132818 0.33192506 0.4117367 0.20686206
0.06566531 -0.48386002 0.03719013 -0.60141814 0.56506795 -0.31746837 -0.37632138 0.93656665
1.2477808 0.3691524 -0.37665194 0.25217828 0.5774936 0.28236765 -0.24420698 -0.7777059
0.5446687 0.04920935 -0.99975324 0.5386711 -0.17128405 -0.7225848 0.3089575 0.37135735
0.3887822 -0.45232692 -0.07303284 -0.499974 0.029113693 -0.052211087 -0.22247091 0.34022063
0.030058281 0.34954533 -0.42416874 0.03557398 -0.5910339 -0.49924505 0.4888438 -0.050532375

network_body._body_endoder.seq_layers.0.bias f4 [128]
00000000: 0000 0000 0000 0000 0000 0000 0000 0000
00000010: 0000 0000 0000 0000 0000 0000 0000 0000
00000020: 0000 0000 0000 0000 0000 0000 0000 0000
00000030: 0000 0000 0000 0000 0000 0000 0000 0000
00000040: 0000 0000 0000 0000 0000 0000 0000 0000
00000050: 0000 0000 0000 0000 0000 0000 0000 0000
00000060: 0000 0000 0000 0000 0000 0000 0000 0000
00000070: 0000 0000 0000 0000 0000 0000 0000 0000
00000080: 0000 0000 0000 0000 0000 0000 0000 0000
00000090: 0000 0000 0000 0000 0000 0000 0000 0000
000000a0: 0000 0000 0000 0000 0000 0000 0000 0000
000000b0: 0000 0000 0000 0000 0000 0000 0000 0000
000000c0: 0000 0000 0000 0000 0000 0000 0000 0000
000000d0: 0000 0000 0000 0000 0000 0000 0000 0000
000000e0: 0000 0000 0000 0000 0000 0000 0000 0000
000000f0: 0000 0000 0000 0000 0000 0000 0000 0000
00000100: 0000 0000 0000 0000 0000 0000 0000 0000
00000110: 0000 0000 0000 0000 0000 0000 0000 0000
00000120: 0000 0000 0000 0000 0000 0000 0000 0000
00000130: 0000 0000 0000 0000 0000 0000 0000 0000
00000140: 0000 0000 0000 0000 0000 0000 0000 0000
00000150: 0000 0000 0000 0000 0000 0000 0000 0000
00000160: 0000 0000 0000 0000 0000 0000 0000 0000
00000170: 0000 0000 0000 0000 0000 0000 0000 0000
00000180: 0000 0000 0000 0000 0000 0000 0000 0000
00000190: 0000 0000 0000 0000 0000 0000 0000 0000
000001a0: 0000 0000 0000 0000 0000 0000 0000 0000
000001b0: 0000 0000 0000 0000 0000 0000 0000 0000
000001c0: 0000 0000 0000 0000 0000 0000 0000 0000
000001d0: 0000 0000 0000 0000 0000 0000 0000 0000
000001e0: 0000 0000 0000 0000 0000 0000 0000 0000
000001f0: 0000 0000 0000 0000 0000 0000 0000 0000
0.0 0.0 0.0 0.0 0.0 0.0 0.0 0.0
0.0 0.0 0.0 0.0 0.0 0.0 0.0 0.0
0.0 0.0 0.0 0.0 0.0 0.0 0.0 0.0
0.0 0.0 0.0 0.0 0.0 0.0 0.0 0.0
0.0 0.0 0.0 0.0 0.0 0.0 0.0 0.0
0.0 0.0 0.0 0.0 0.0 0.0 0.0 0.0
0.0 0.0 0.0 0.0 0.0 0.0 0.0 0.0
0.0 0.0 0.0 0.0 0.0 0.0 0.0 0.0
0.0 0.0 0.0 0.0 0.0 0.0 0.0 0.0
0.0 0.0 0.0 0.0 0.0 0.0 0.0 0.0
0.0 0.0 0.0 0.0 0.0 0.0 0.0 0.0
0.0 0.0 0.0 0.0 0.0 0.0 0.0 0.0
0.0 0.0 0.0 0.0 0.0 0.0 0.0 0.0
0.0 0.0 0.0 0.0 0.0 0.0 0.0 0.0
0.0 0.0 0.0 0.0 0.0 0.0 0.0 0.0
0.0 0.0 0.0 0.0 0.0 0.0 0.0 0.0

network_body._body_endoder.seq_layers.2.weight f4 [128, 128]
00000000: 7ede 3fbe a6ae b6bd 30c8 febd d59a 9abc
00000010: 63e3 44bd 81e5 ad3d 61b5 8fbc 0449 bfbc
00000020: 6585 63be be0c 263d 8cd2 b43d 1c02 6dbd
00000030: 4954 033c 6c91 2abe 4984 fdbd 5a2b 913d
00000040: 9a3d 64bd caa7 2dbd 3067 4c3d 6adf 2abd
00000050: 6101 8cbd 7a11 0f3e a205 95bc b60e a73c
00000060: 41ee 1e39 0cd1 243d 58b9 863c 146a 94bc
00000070: 107c 983d 8df2 853d 389c 843d 4da8 6a3e
00000080: a762 26bc cbb4 923b b22f 6fbd 776f 603e
00000090: 2d9b 1e3d 3527 a23d 5ccc 9bbc bb56 813b
000000a0: 400c a83c 6840 4c3d 96b9 c4bd ed3f c5bd
000000b0: a7da 22bd 5915 423d 2d57 15be bcdb 853d
000000c0: bef2 cf3d 8033 1a3c ec48 6c3c 773f babc
000000d0: 1282 e63a af3d 77bd 42f7 ecbb 3a47 533e
000000e0: 9e15 bd3c bcd8 13bd 0224 123e 5364 573d
000000f0: bf1f 253e 0e2f a53d e7bd 0cbd f5d2 783d
00000100: 3b8e 703d 91a8 efbd dd0e 9dbc a137 57bb
00000110: 2c97 9bbc 5302 973c 77df 08be 0d97 033c
00000120: bdd6 a8bd ae5c 5e3d 8b64 88bb 4319 78bc
00000130: 15b6 223e af23 0a3e ce8b 50bd fa2a aebc
00000140: 5624 48bc 4c1d 773c 1f19 d73d 9bda dd3d
00000150: d368 983d 0e90 06be c7f7 70bc 1a0f 583d
00000160: 914b e2bd b62f 02be cda0 3e3d 95ab 0dbe
00000170: d050 16bd fed0 453c 33a7 81bd 1daf 9e3c
00000180: 1277 17bd 3735 bbbd 191f ae3d 1b7a 8f3d
00000190: 497e cfbb b04e 09bc ef3a aa3d 3169 0e3e
000001a0: 8360 e43d caaf a8ba d4ed e7bb ad2a 333c
000001b0: e832 193e 2b36 3a3e 915c 3c3c 3cac 0d3d
000001c0: f747 4a3d ec8c dc3c 0864 17be e5f8 c9bd
000001d0: a9c6 b43d a5ef c23d 75a5 23be c3f6 d33d
000001e0: 175f c03c 0288 f73b 1e47 5b3b 6af3 d43c
000001f0: 33a4 333c 1a1d bdbd 2c6c 883d bc20 0dbe
00000200: 6015 3d3c f2e0 403e f5f2 89bd cd44 d23d
00000210: b57e 153e e1d2 e5bc d34e 7e3d 8496 86bd
00000220: e9d2 203c 173a a53c 0ac2 1c3e 28e0 efbd
00000230: f632 373d c02a 6dbd 4b12 2d3c cf2e 5e3d
00000240: b582 94bd 7ca0 373d 816f 2b3c 9b8b 38be
00000250: 1e2d 353d 4a79 bf3d 4b63 2abd 1ac2 d1bc
00000260: 2746 9c3c 2338 7ebb 1221 55bd 22dc b03d
00000270: 612c 1f3e 5f2f 323d b2e9 77be e8aa 64bd
00000280: b9c8 ddbd 1732 cebd d0a4 cb3d 7734 a5bc
00000290: 0ee2 143e e32f 80bd f7c3 fabd c59a 73bd
000002a0: a1c9 47bd bddb f63c ea96 c0bc 46fe 96bc
000002b0: 8281 d1bd 3f0f 62bd c11b 393e 8762 143d
000002c0: 29f3 efbd 08ca a43d 3282 ecba 9c42 ffbd
000002d0: 5a55 ce3c 6146 0a3d 119e a9bc a0bc e93d
000002e0: 0776 073e a29f 25bd 064c c3bd f359 b43d
000002f0: a677 833c a26b f13d 61ca 08be 06ae 4a3d
00000300: b606 2dbd 0aa1 d1bd c785 7c3b 9d07 3fbd
00000310: 3707 8f3d 61be e93b ba20 aebd cf3d 8bbd
00000320: 5a54 d0bd 3054 d8bd f68b 0b3d 2f9c 91bc
00000330: 2034 713d 5bca 223d 8539 293d 5cc9 43be
00000340: e4b0 a4bc bc3a b53c df9f e13d a1a3 8b3d
00000350: e04c ca3a c106 b5bd 56ba f9bd 39c4 8cbc
00000360: 6743 3abc a0d4 8e3c fab5 783c e265 983d
00000370: 3e8a ee3d 1351 633c 1f2d 073e 19e9 7cbe
00000380: e9a1 f1bd a2d4 febc 2e9e de3d 1896 883d
00000390: 2a26 1cbd 29f1 b43d d66a 953d 4670 67bd
000003a0: 171f 57bc 8922 10be d05c 253d eda5 ee3b
000003b0: 893d 8a3d b8e9 0abe 2025 743d e19a b03d
000003c0: 61f9 233c fa46 5fbe f68d 333d 5ac4 21be
000003d0: 917b 50be 3da8 40be 9bd7 98bd 2348 8e3d
000003e0: 8af9 263d f105 7a3e 2715 063e d55a 843c
000003f0: 76bc 683c be3d e73c bb5b c83d 8641 52bb
-0.18737218 -0.0892003 -0.124405265 -0.018872658 -0.048068415 0.0849104 -0.017542543 -0.023350246
-0.22218855 0.040539496 0.08829221 -0.05786334 0.008015701 -0.16657037 -0.12378747 0.07088347
-0.05572281 -0.042396344 0.049903095 -0.04171697 -0.068362005 0.1397151 -0.018191162 0.020392757
0.0001515681 0.040238425 0.0164458 -0.018116988 0.07445538 0.065404035 0.06475109 0.22915764
-0.0101553565 0.0044771186 -0.058395095 0.2191752 0.038722206 0.079176344 -0.019018345 0.0039471067
0.020513654 0.04986611 -0.0960571 -0.096313335 -0.039759304 0.04738364 -0.14584036 0.06536052
0.10153721 0.009411693 0.014421683 -0.02273534 0.0017586371 -0.06036156 -0.007231624 0.2063264
0.023081597 -0.036095366 0.14271548 0.05258591 0.16125391 0.080656156 -0.034360792 0.06074806
0.05872939 -0.11702073 -0.019172126 -0.0032839554 -0.018992983 0.018433725 -0.13366495 0.008031619
-0.08244083 0.054287605 -0.0041623763 -0.015142742 0.15889771 0.13490175 -0.05091458 -0.021260727
-0.012215694 0.0150826685 0.10502838 0.10832711 0.07441869 -0.1314089 -0.014707512 0.052748777
-0.110495694 -0.12713513 0.04654007 -0.13834985 -0.036698163 0.012073753 -0.06330719 0.01937061
-0.03697879 -0.09141009 0.08502025 0.07005712 -0.006332193 -0.008380577 0.08312022 0.13907315
0.11151221 -0.0012869772 -0.007077912 0.010935468 0.14960825 0.18184726 0.011496679 0.034588084
0.049385037 0.026922666 -0.14784253 -0.09861926 0.08826954 0.09518365 -0.15981086 0.103498004
0.023482842 0.007554055 0.0033459137 0.025994975 0.010964441 -0.09234066 0.06661257 -0.13782018
0.011540741 0.1883581 -0.067357935 0.10267029 0.14599116 -0.028054656 0.06208689 -0.06571677
0.00981591 0.020169301 0.15308395 -0.11712676 0.044726335 -0.057902098 0.010563443 0.05424386
-0.07251493 0.044830784 0.010463596 -0.18022005 0.04423248 0.09349306 -0.0415986 -0.02560525
0.01907642 -0.0038790784 -0.05203349 0.08635737 0.15544273 0.043502208 -0.24210241 -0.05582705
-0.108293004 -0.10068148 0.09943545 -0.020166619 0.14539358 -0.06259134 -0.122444086 -0.05947377
-0.048776273 0.030134076 -0.023509461 -0.018431794 -0.1022978 -0.05519032 0.18076994 0.036226775
-0.11716301 0.08046347 -0.0018044172 -0.124638766 0.025187183 0.033758525 -0.020705255 0.114129305
0.13228618 -0.04043544 -0.09535985 0.08806219 0.016048264 0.117881075 -0.13358451 0.049482368
-0.04224273 -0.10235794 0.0038531886 -0.04663812 0.06983798 0.0071332906 -0.08502336 -0.067988984
-0.10172339 -0.105629325 0.034069024 -0.01777467 0.0588876 0.039743762 0.04131462 -0.19119781
-0.02010388 0.022122733 0.11016821 0.06818319 0.0015434287 -0.08839179 -0.12193744 -0.01718341
-0.011368609 0.017435372 0.015180105 0.074413076 0.11647461 0.01387431 0.13200806 -0.24698295
-0.1179846 -0.03110725 0.10870014 0.06669253 -0.038122334 0.0883506 0.07295768 -0.056503557
-0.013129971 -0.14075674 0.040371716 0.0072829635 0.06750018 -0.13565719 0.059605718 0.08623291
0.010008187 -0.21804419 0.043836556 -0.15797558 -0.20359637 -0.18814178 -0.074629985 0.06947353
0.040765323 0.24416329 0.13094006 0.016156593 0.014205089 0.028227683 0.09783121 -0.0032082512

network_body._body_endoder.seq_layers.2.bias f4 [128]
00000000: 0000 0000 0000 0000 0000 0000 0000 0000
00000010: 0000 0000 0000 0000 0000 0000 0000 0000
00000020: 0000 0000 0000 0000 0000 0000 0000 0000
00000030: 0000 0000 0000 0000 0000 0000 0000 0000
00000040: 0000 0000 0000 0000 0000 0000 0000 0000
00000050: 0000 0000 0000 0000 0000 0000 0000 0000
00000060: 0000 0000 0000 0000 0000 0000 0000 0000
00000070: 0000 0000 0000 0000 0000 0000 0000 0000
00000080: 0000 0000 0000 0000 0000 0000 0000 0000
00000090: 0000 0000 0000 0000 0000 0000 0000 0000
000000a0: 0000 0000 0000 0000 0000 0000 0000 0000
000000b0: 0000 0000 0000 0000 0000 0000 0000 0000
000000c0: 0000 0000 0000 0000 0000 0000 0000 0000
000000d0: 0000 0000 0000 0000 0000 0000 0000 0000
000000e0: 0000 0000 0000 0000 0000 0000 0000 0000
000000f0: 0000 0000 0000 0000 0000 0000 0000 0000
00000100: 0000 0000 0000 0000 0000 0000 0000 0000
00000110: 0000 0000 0000 0000 0000 0000 0000 0000
00000120: 0000 0000 0000 0000 0000 0000 0000 0000
00000130: 0000 0000 0000 0000 0000 0000 0000 0000
00000140: 0000 0000 0000 0000 0000 0000 0000 0000
00000150: 0000 0000 0000 0000 0000 0000 0000 0000
00000160: 0000 0000 0000 0000 0000 0000 0000 0000
00000170: 0000 0000 0000 0000 0000 0000 0000 0000
00000180: 0000 0000 0000 0000 0000 0000 0000 0000
00000190: 0000 0000 0000 0000 0000 0000 0000 0000
000001a0: 0000 0000 0000 0000 0000 0000 0000 0000
000001b0: 0000 0000 0000 0000 0000 0000 0000 0000
000001c0: 0000 0000 0000 0000 0000 0000 0000 0000
000001d0: 0000 0000 0000 0000 0000 0000 0000 0000
000001e0: 0000 0000 0000 0000 0000 0000 0000 0000
000001f0: 0000 0000 0000 0000 0000 0000 0000 0000
0.0 0.0 0.0 0.0 0.0 0.0 0.0 0.0
0.0 0.0 0.0 0.0 0.0 0.0 0.0 0.0
0.0 0.0 0.0 0.0 0.0 0.0 0.0 0.0
0.0 0.0 0.0 0.0 0.0 0.0 0.0 0.0
0.0 0.0 0.0 0.0 0.0 0.0 0.0 0.0
0.0 0.0 0.0 0.0 0.0 0.0 0.0 0.0
0.0 0.0 0.0 0.0 0.0 0.0 0.0 0.0
0.0 0.0 0.0 0.0 0.0 0.0 0.0 0.0
0.0 0.0 0.0 0.0 0.0 0.0 0.0 0.0
0.0 0.0 0.0 0.0 0.0 0.0 0.0 0.0
0.0 0.0 0.0 0.0 0.0 0.0 0.0 0.0
0.0 0.0 0.0 0.0 0.0 0.0 0.0 0.0
0.0 0.0 0.0 0.0 0.0 0.0 0.0 0.0
0.0 0.0 0.0 0.0 0.0 0.0 0.0 0.0
0.0 0.0 0.0 0.0 0.0 0.0 0.0 0.0
0.0 0.0 0.0 0.0 0.0 0.0 0.0 0.0

action_model._continuous_distribution.mu.weight f4 [1, 128]
00000000: 2dd9 52bb 070c a5bb 9626 453c 3791 cb39
00000010: 2cfd 47bc 476c 5a3c 82bb 14bc 3d0a 743c
00000020: 9772 be3b 8555 423d bb68 993b 97cf cc3c
00000030: a087 c7ba f8bd afbc 716b 3d3c e39d e93b
00000040: 9adf 20bc 6d4c c5bc 1044 fcbc 3dfa 61bc
00000050: ab64 49bb eb64 893b 3d83 f4bc 0d96 d53b
00000060: 7fab 7b3c 4d3c 34bb befe 483c f559 453c
00000070: 5acf 293c 5caf 943b 3aff e33b 0579 c7bb
00000080: 89cc 253c a6db a6b9 6b3f 763c 7c2c bcbc
00000090: 0573 663c 8f5c 853c 5640 3cbc d6d7 1bbc
000000a0: fa76 7bbc e3f7 383d f544 96ba 7227 c9bb
000000b0: 9807 f5bc eb2d 0cbc 3bd6 afbb 6e6c a93c
000000c0: f3a8 d73b a3c3 cd39 d092 fdbb 9a87 f13b
000000d0: 0ddd 513c dfa5 12ba 67bd 293c 0f8a fdbb
000000e0: a8a8 0bbc 47a3 2b3a b92c 27bc 778a 6c3b
000000f0: 61b6 cc3b d44b babc 149f 04bc bde0 643c
00000100: 9f62 22bb 16be 0dbd f646 ae3c 51c9 91bb
00000110: 65d1 18bc 2008 93bc c7aa 913b e288 72bc
00000120: 09ac 093a 18b7 17bc f89b 90bc 3b09 7ebb
00000130: c79c 903c df73 a83c d745 503c 2116 083c
00000140: 60db 20bc 4239 64bc 4723 1f3c dd1e a33a
00000150: 0c40 2d3a 95a7 c43a f5a0 75bb 3bc0 c83b
00000160: 380d 8b3c ae1f 08bd 3b56 ff3c 7f73 7b3c
00000170: d315 593b 0d72 2d3b eb61 dbbc 7696 9bbc
00000180: a208 00bc 1ecb b9ba 3eff c4b9 a36e 873b
00000190: 8516 bbbb c183 123d 9be0 05bc a3e1 e13c
000001a0: 8325 9d3c 2723 aaba 1723 143c afc5 4ebc
000001b0: cb6c ef3b eb10 47bc a739 f6bc ab68 e13c
000001c0: d5fe a73b 73e9 af3b 7008 e53b 873b 183c
000001d0: 8763 3fbc 96e2 4abc 8013 e53b 5ed3 8a3b
000001e0: 37fc 143c 97d6 fa3b d5a8 82bc 3734 64bc
000001f0: a763 243d 037a 17bc 0be7 0cbd b35b 023d
-0.0032172904 -0.005036834 0.012033125 0.0003882737 -0.012206357 0.013331479 -0.0090779085 0.014895019
0.005812 0.04744484 0.0046816743 0.02500133 -0.0015222915 -0.021452889 0.011561261 0.0071294173
-0.009818936 -0.024084294 -0.030794173 -0.013792572 -0.0030730169 0.0041929386 -0.029847736 0.0065181316
0.015360712 -0.0027501762 0.0122677665 0.012045373 0.010364378 0.004537506 0.0069579156 -0.0060874247
0.010119566 -0.00031825638 0.015029768 -0.02297043 0.014065509 0.016279487 -0.011489948 -0.0095119085
-0.01534819 0.04515828 -0.0011464643 -0.0061387355 -0.029910848 -0.00855587 -0.0053661144 0.020681586
0.0065814196 0.00039246408 -0.0077384487 0.0073709013 0.01280905 -0.0005594175 0.010360098 -0.007737405
-0.0085240975 0.00065474625 -0.010203534 0.0036093274 0.006247327 -0.022741236 -0.008094568 0.013969597
-0.002477802 -0.03460511 0.021274071 -0.0044490476 -0.009327267 -0.01794821 0.004445407 -0.014803143
0.00052517705 -0.009259962 -0.017652497 -0.0038762826 0.017652882 0.020563064 0.012711964 0.008306057
-0.009817928 -0.013929667 0.009713001 0.0012445111 0.000660897 0.0015003557 -0.003747997 0.0061264313
0.016974077 -0.033233337 0.031169048 0.015347361 0.003312458 0.0026465685 -0.02678009 -0.018992644
-0.007814558 -0.0014174914 -0.00037574203 0.004133062 -0.0057094716 0.03577018 -0.008171226 0.027573412
0.019182926 -0.0012980447 0.009041569 -0.012620374 0.0073066703 -0.01215003 -0.030056788 0.02751573
0.005126814 0.0053684055 0.006989531 0.009291536 -0.011681444 -0.012383124 0.00699085 0.0042366227
0.009093336 0.0076549756 -0.015949646 -0.013928465 0.0401341 -0.009245398 -0.034400027 0.031825732

network_body._body_endoder.seq_layers.0.weight f4 [128, 4]
00000000: a72a 83be a4e9 3fbc befe 2dbf c773 093e
00000010: 960b 803e 63e8 2ebe 1e88 853f ff9f 9fbe
00000020: e155 d7be 0f96 8abe 7d2f 033f 3afd 813e
00000030: ca1f b3be d691 8c3f ecfb 2f3e 4fb8 8f3e
00000040: b2a1 193f b9c6 123e 0db6 b1be a1e5 363e
00000050: 85ae 9c3e 80a1 e33e 051c 643e 5aed 3bbf
00000060: 10f4 8bbe 3736 2bbf 4db6 42be 5a12 cc3d
00000070: 4916 55bd f30c 9ebd fb67 7f3e 3c7a d4be
00000080: 6f62 063f bc3d bf3e 72e0 cc3e 3a2a 59bf
00000090: b4da ff3e 4764 ccbe 93d9 8bbf 8566 43be
000000a0: 4eea 24be 1539 7e3e 4c87 b8bd 8634 46bf
000000b0: 177a aebe c8ec c7bc 69ff a3be 75db 5f3f
000000c0: 689f 133f 167a c03e 0057 20bf caa9 423e
000000d0: c2ee 11be 87ef 463f d61c a13e 99b5 67be
000000e0: 84dc 21be 2f1b a03e 3282 cf3e 29f2 d7be
000000f0: 0460 933e 5342 24bf 09f1 043f 115b 1abf
00000100: 7639 cbbe 21de 263f 7eaf 643d 08bf 343f
00000110: 80c9 5a3e 76a9 783e 85f3 753f 9ad1 213f
00000120: 1f9e 2bbf f6ee 363e c95c 40bf b40f 80bc
00000130: 06b2 8dbf ecfc a4be b781 26bf 3d16 f73e
00000140: 9e04 51be 79e8 d43c 80a8 26be edcb 01bf
00000150: cd70 f9bd b801 fc3d fb46 47bf d5f9 183f
00000160: 3002 233c 8bf2 88be e8a8 79bf 4446 97be
00000170: ad51 9a3e 6525 ef3e 97a9 a53e a978 f1be
00000180: 5ee9 17bf 29ea 42bf ed57 35bf 9a19 8f3e
00000190: af35 e7be d244 f6be 0a79 2dbf 6bed 8c3e
000001a0: d35e 0dbf 6704 8fbf c73f 11be ebbe 8bbe
000001b0: e67c ef3e aa3c 9bbd 0f76 dcbe 4520 80be
000001c0: 102b abbe 93de 2f3f 5cb8 26bf 2943 9ebc
000001d0: 7ccf 053f 77a9 ff3d a51c 17be 6d6c 72be
000001e0: 17f6 4ebd 7cb1 1f3f c919 6a3f 96fd ef3e
000001f0: 0051 17bf 8b4a 46be 3743 d7bd d405 9dbe
00000200: 77ea 96be ce01 73be a096 d03e d8a5 673d
00000210: bf9d 973e de48 d9bc 4b02 823f fca9 d9be
00000220: b469 873e c24c b53d 5309 febe 5a68 263d
00000230: 1969 15be 3b44 afbe 3f29 f7be 76dc a9be
00000240: 2187 4c3e cf1d 3e3d eda0 a73d 3b5c f93e
00000250: a123 0abf e95c e0be 6a6d 373e 5a4a 02bf
00000260: 7d8b 3cbe 2b2b 7e3f fdab bdbe d14d 5f3f
00000270: ed56 8e3f d0a1 9a3e 1750 6a3f 5244 e3be
00000280: 14a8 803d 53a7 09bf 846c ed3e 0541 2c3b
00000290: c2e5 d0be d41d a33f 678a 503e 32a2 fa3e
000002a0: 5c36 013e d29b 143f a017 d6be 6008 2f3f
000002b0: 2e86 ddbe 7e8a 443f 00ad 843d f5ec da3e
000002c0: f34a 33bf 50f8 9bbe bdcc cabe a858 0cbf
000002d0: 8606 e73e e20e 46be 4c29 1c3f ad5d aabe
000002e0: 7ddb 09be 9047 a5be e5af ccbd 801e 5e3f
000002f0: bd21 fabe 3c47 abbf 14f1 ab3d dee1 edbe
00000300: 8fd7 81be 2087 9abe cca9 ce3d 8ccf 273e
00000310: 690f e6be d218 dd3c 04ad 983d 1ff0 a93e
00000320: 1fb3 3b3f d779 303f 3fd1 803e fa8e 19bf
00000330: 8dcd 3dbe 752d 76be 45ea ffbe 84b7 1dbf
00000340: cd30 8c3d 3684 163e 7454 813e 3f80 873e
00000350: 6592 bc3e 7de1 843e 4983 fb3d 5e35 60be
00000360: 7ee4 423f d2cd b63e 6ccb 243d 175d 7d3e
00000370: cd17 a13f 588e 7d3e 4a4b dbbc 33a8 03bf
00000380: 6617 013e 6f8a 813e a0e4 3fbe 1334 25bf
00000390: a025 9b3e 4542 9dbd d269 b23d 2a6a febd
000003a0: 00c2 fcbe 8bfd 213f 72c6 8abe 34e6 833d
000003b0: 435f 6abf c206 5bbf 4169 73bf 5fe5 1abf
000003c0: 9c20 a73e 2193 e9be cc5f c2be 87b8 153d
000003d0: ddf6 48bf 9702 d6be 3dc0 5abd 81d3 4cbf
000003e0: 1a5e afbe 69d4 8cbe 8e27 253f b060 a0be
000003f0: 8f40 dfbe 5cb7 043f a9d9 0c3f ac3b 70be
-0.2561848 -0.011713419 -0.6796683 0.13423072 0.2500884 -0.17080836 1.0432165 -0.31176755
-0.42057708 -0.2706761 0.51244336 0.2538851 -0.3498519 1.0982006 0.17185944 0.28070304
0.6001235 0.14333619 -0.34709206 0.17861034 0.30601898 0.44459152 0.22276314 -0.73409045
-0.27334642 -0.668796 -0.19014855 0.09964438 -0.052023206 -0.077173136 0.24942009 -0.41499507
0.5249395 0.37351787 0.40014988 -0.8483006 0.49971545 -0.39920256 -1.0925773 -0.19082077
-0.16105005 0.24826463 -0.09010181 -0.77423894 -0.34077522 -0.024404898 -0.320308 0.8744424
0.5766511 0.37593144 -0.6263275 0.19010082 -0.14251235 0.7770924 0.31467313 -0.22627868
-0.15806776 0.3127074 0.4052902 -0.4217694 0.28784192 -0.641637 0.5193029 -0.60295206
-0.39692277 0.6518269 0.055831425 0.7060399 0.21365929 0.24283394 0.96074706 0.6321045
-0.6703815 0.17864594 -0.7514158 -0.015632488 -1.1069953 -0.32224214 -0.6504168 0.48259154
-0.20411918 0.025989758 -0.16275215 -0.5070179 -0.12179718 0.12305015 -0.7784268 0.59756213
0.009949252 -0.26747546 -0.97523355 -0.29545796 0.3014044 0.46708217 0.3235595 -0.4716237
-0.59340465 -0.7613855 -0.7083729 0.2794922 -0.45158145 -0.4809938 -0.67762816 0.27524886
-0.55222815 -1.1173218 -0.14184485 -0.27294096 0.46774977 -0.0757993 -0.43058822 -0.2502462
-0.33431292 0.68698996 -0.6512506 -0.019319134 0.5226972 0.12483495 -0.14757021 -0.23674174
-0.05052766 0.62380195 0.91445595 0.46873158 -0.5910797 -0.19364373 -0.10510867 -0.3066851
-0.29475757 -0.23731157 0.40739918 0.056554645 0.29612538 -0.026524004 1.015695 -0.425125
0.26447833 0.08852531 -0.4961649 0.04062686 -0.14590873 -0.34231743 -0.48273656 -0.3317601
0.19973423 0.046415146 0.08184991 0.4870318 -0.53960615 -0.43820885 0.17912832 -0.508947
-0.18412586 0.9928462 -0.3704528 0.87228113 1.1120278 0.30201578 0.9152846 -0.44388062
0.06282058 -0.5377094 0.46371853 0.0026283872 -0.4080029 1.2743478 0.20365296 0.4895187
0.12618393 0.5805026 -0.418149 0.68372154 -0.43266433 0.7677382 0.0647831 0.4275891
-0.7003624 -0.30462885 -0.39609328 -0.5482278 0.45122164 -0.19341615 0.61000514 -0.33274594
-0.13462634 -0.3228116 -0.09994487 0.8676529 -0.48853865 -1.3381114 0.083955914 -0.46461385
-0.2535977 -0.30181217 0.1009098 0.16387767 -0.44933632 0.026989374 0.07454875 0.3319101
0.7332019 0.6893591 0.25159642 -0.5998379 -0.18535443 -0.24040778 -0.4998342 -0.6160815
0.068452455 0.14698872 0.25259745 0.26465032 0.3683044 0.25953284 0.122809 -0.21895358
0.761299 0.35703903 0.04023306 0.24742542 1.2585388 0.24761331 -0.026769299 -0.51428527
0.12606582 0.2530093 -0.18739557 -0.64532584 0.30302143 -0.076786555 0.0871159 -0.12422593
-0.4936676 0.632775 -0.27104527 0.06440392 -0.9155161 -0.85557187 -0.9508248 -0.6050624
0.32642066 -0.45620063 -0.37963712 0.036552932 -0.78501683 -0.4179885 -0.05340599 -0.8001023
-0.3425148 -0.27505806 0.6451348 -0.31323767 -0.43603942 0.51842284 0.55019623 -0.23460263

network_body._body_endoder.seq_layers.0.bias f4 [128]
00000000: 0000 0000 0000 0000 0000 0000 0000 0000
00000010: 0000 0000 0000 0000 0000 0000 0000 0000
00000020: 0000 0000 0000 0000 0000 0000 0000 0000
00000030: 0000 0000 0000 0000 0000 0000 0000 0000
00000040: 0000 0000 0000 0000 0000 0000 0000 0000
00000050: 0000 0000 0000 0000 0000 0000 0000 0000
00000060: 0000 0000 0000 0000 0000 0000 0000 0000
00000070: 0000 0000 0000 0000 0000 0000 0000 0000
00000080: 0000 0000 0000 0000 0000 0000 0000 0000
00000090: 0000 0000 0000 0000 0000 0000 0000 0000
000000a0: 0000 0000 0000 0000 0000 0000 0000 0000
000000b0: 0000 0000 0000 0000 0000 0000 0000 0000
000000c0: 0000 0000 0000 0000 0000 0000 0000 0000
000000d0: 0000 0000 0000 0000 0000 0000 0000 0000
000000e0: 0000 0000 0000 0000 0000 0000 0000 0000
000000f0: 0000 0000 0000 0000 0000 0000 0000 0000
00000100: 0000 0000 0000 0000 0000 0000 0000 0000
00000110: 0000 0000 0000 0000 0000 0000 0000 0000
00000120: 0000 0000 0000 0000 0000 0000 0000 0000
00000130: 0000 0000 0000 0000 0000 0000 0000 0000
00000140: 0000 0000 0000 0000 0000 0000 0000 0000
00000150: 0000 0000 0000 0000 0000 0000 0000 0000
00000160: 0000 0000 0000 0000 0000 0000 0000 0000
00000170: 0000 0000 0000 0000 0000 0000 0000 0000
00000180: 0000 0000 0000 0000 0000 0000 0000 0000
00000190: 0000 0000 0000 0000 0000 0000 0000 0000
000001a0: 0000 0000 0000 0000 0000 0000 0000 0000
000001b0: 0000 0000 0000 0000 0000 0000 0000 0000
000001c0: 0000 0000 0000 0000 0000 0000 0000 0000
000001d0: 0000 0000 0000 0000 0000 0000 0000 0000
000001e0: 0000 0000 0000 0000 0000 0000 0000 0000
000001f0: 0000 0000 0000 0000 0000 0000 0000 0000
0.0 0.0 0.0 0.0 0.0 0.0 0.0 0.0
0.0 0.0 0.0 0.0 0.0 0.0 0.0 0.0
0.0 0.0 0.0 0.0 0.0 0.0 0.0 0.0
0.0 0.0 0.0 0.0 0.0 0.0 0.0 0.0
0.0 0.0 0.0 0.0 0.0 0.0 0.0 0.0
0.0 0.0 0.0 0.0 0.0 0.0 0.0 0.0
0.0 0.0 0.0 0.0 0.0 0.0 0.0 0.0
0.0 0.0 0.0 0.0 0.0 0.0 0.0 0.0
0.0 0.0 0.0 0.0 0.0 0.0 0.0 0.0
0.0 0.0 0.0 0.0 0.0 0.0 0.0 0.0
0.0 0.0 0.0 0.0 0.0 0.0 0.0 0.0
0.0 0.0 0.0 0.0 0.0 0.0 0.0 0.0
0.0 0.0 0.0 0.0 0.0 0.0 0.0 0.0
0.0 0.0 0.0 0.0 0.0 0.0 0.0 0.0
0.0 0.0 0.0 0.0 0.0 0.0 0.0 0.0
0.0 0.0 0.0 0.0 0.0 0.0 0.0 0.0

network_body._body_endoder.seq_layers.2.weight f4 [128, 128]
00000000: 4212 b13d 73a8 b2bd ed20 9ebd 918b 383d
00000010: c079 003d ff29 b53d db37 b4bd 53fb 20bd
00000020: 28e8 5b3d 7f3a a63d 5086 773d 5568 bebc
00000030: a26f 903d 31d1 2a3d 972e ef3b e38b cabc
00000040: cb83 383d 122d fa3c 0eac c0bd 7660 55be
00000050: 3637 00bd d3ab 78bd 3fc5 17be 6c1e c63c
00000060: 84ac 8dbd 08e6 2a3d ea3b 043d 81ab 243d
00000070: 119a 023e ff4c 593d 42f9 b3bd 18f3 45be
00000080: daf3 9ebe c1a8 c03d f222 943d b852 55bd
00000090: 5baa 1cbe df31 273e 0279 753d ed26 64bd
000000a0: 50b2 b5bb c712 94bc bb13 9f3e 5e67 3e3d
000000b0: b5dc 90bd b66d 91bd 22a0 193e a5f3 ecbd
000000c0: 9f7c dabd 3792 98bc 22e5 0c3e 9336 273d
000000d0: 4aa5 c03d 4c00 2b3d 8f56 053e 65d7 023d
000000e0: 0dec 063e 0a32 1d3c 6e06 31bd a3d8 3dbd
000000f0: 42f0 f7bb f8fe 2ebd c563 003e 9468 5b3c
00000100: e44c 40be 88d1 fd3d cbed 0dbe 484d e4bc
00000110: 4c8c 11be 717c 513d f460 12bd d561 05bd
00000120: 5a43 75bd 70f3 f73b 8f4a 513b 8155 913d
00000130: 4d3f 813b e9a3 07bd 3eed dabb 427e a23d
00000140: c3af 2abd ea10 983d ae50 013c 9186 bd3c
00000150: 0633 2e3d 9296 263d 36fc f63d 3560 febc
00000160: 6cb5 36bd c2b1 2bbd c35d 8b3d 3344 673d
00000170: 0d66 743d 6871 edbb 620b d53d 4307 05be
00000180: 5dcd 0abc 6bc9 0e3e dd63 f23c 20e6 aabc
00000190: 5380 223d 24e8 4c3e 1a8b de3c 9b06 b3bd
000001a0: 6487 0a3e 1252 fbbc fe0e 863d 3371 263d
000001b0: b41b 82bd 2aea 8ebb 10aa 54bb 6277 81be
000001c0: b501 50be 8dff c33d 5d46 b4bd acd9 c13b
000001d0: 0799 96bd 230c e43d db67 c73c b465 f93d
000001e0: 9630 b83d 0638 843d b755 db3d 8d4d 5f3d
000001f0: 7624 b0bd 5569 393e 8fce b33d ed16 613d
00000200: 4707 9aba e9a7 87bd 7b1d 40bd fd75 5e3a
00000210: 4324 153d 69f3 003e 7492 b23d aaab 103e
00000220: de3f f8bc 3341 503d aaff 81ba ba2f 3fbd
00000230: 9650 e9bc b247 573a 6967 c0bd 06d1 13bc
00000240: 0f26 01be 9b82 2e3e 5a63 fd3c 2ca6 25be
00000250: 13c9 853d ec28 52bd b2e6 113e 6a50 10bd
00000260: 01aa 0abd 36ef 1f3d 1325 133e 8104 4dbd
00000270: 91aa 253e ba09 c63c 20e9 df3c 200e 24be
00000280: 9be1 b03d 37a5 0b3e 893a a03d 6c46 8abd
00000290: c261 3e3c 02d9 ef3b 1f61 b83d fb1b c5bd
000002a0: daf7 2039 0add f9bd 07a4 073e 5309 eabd
000002b0: 80b8 a43c 5c1f a83c bad7 8ebd a637 fdbd
000002c0: 2de8 513e 16bd ab3d 9d6f 86bd 37e0 643d
000002d0: 66fc 9bbd a83f 883c e5dc e53d e377 0e3d
000002e0: 9bd0 453e 4b2b 2e3d 8220 66bd bb2c e0bc
000002f0: 3621 43bd 4e08 2c3e 9bd7 f3bd 03dd 9b3d
00000300: 5f84 8ebb 73d7 313d c904 72be 0a27 0fbc
00000310: 123c 4a3e 28af 2cbe a4f2 85bd c43c b1bd
00000320: 1c46 cebd 3a5a 0a3d 6d99 efbc 1037 d8bb
00000330: c6e1 e03d 1177 1e3e cd04 933d 0c01 04be
00000340: fd52 1e3c cfd0 763d 40fc 84bd c754 3fbd
00000350: a467 b33d 1f8a 413d b8da 9f3d 78dd dd3d
00000360: 2ba0 d33d a797 043e 06cf 8c3d 3974 bdbc
00000370: afd7 00be 5c1b 8b3d 1943 a9bd 100e 573b
00000380: d5b9 84bc bb01 42bd 33fa 273e a765 50be
00000390: 6253 87bd c223 623e c9cf 053e 7a49 fbbd
000003a0: ca9b 12bd cc22 ae3d 7742 febc 8510 e03d
000003b0: 2b90 a73d 2b2c 2bbe d310 3b3e 6dfe 1dbd
000003c0: 39ef 573d 1baf 23be bf30 153e cf51 c43c
000003d0: 67c7 9d3c 94f2 30bd fc8e b9bd 8ea1 683d
000003e0: d5d1 0e3e f14b 48be 4316 b7bc b839 9d3d
000003f0: 8d29 51bd cc78 22bd 90ba 54bd 947f 803d
0.086460605 -0.087235354 -0.07721124 0.045054976 0.03136611 0.08845901 -0.08799716 -0.03930218
0.0536882 0.08116626 0.060430825 -0.023243109 0.07052542 0.041703407 0.007299255 -0.024724906
0.045047563 0.03053907 -0.09407817 -0.20837578 -0.031302653 -0.06071074 -0.14821337 0.024184428
-0.0691767 0.04172328 0.0322837 0.04020262 0.12754084 0.053051945 -0.087877765 -0.19331014
-0.3104542 0.09407187 0.07233228 -0.05208084 -0.1529936 0.16327618 0.059929855 -0.055701185
-0.005544938 -0.01807536 0.3106974 0.046485297 -0.070733465 -0.07101004 0.15002492 -0.11569909
-0.10668301 -0.018624408 0.13759282 0.04082353 0.094065264 0.04174833 0.130213 0.031943697
0.13175984 0.00959445 -0.043219022 -0.04634918 -0.0075664828 -0.042723626 0.12538059 0.013391633
-0.18779331 0.123934805 -0.13860242 -0.027868882 -0.14213675 0.051144067 -0.035736993 -0.032564003
-0.059878685 0.007566862 0.003193531 0.07096387 0.0039443136 -0.0331153 -0.0066811135 0.07934238
-0.041671526 0.07425101 0.007892771 0.023135455 0.04252913 0.04067094 0.12059824 -0.031051734
-0.04460661 -0.04191757 0.06804993 0.056461524 0.059667636 -0.007246185 0.10402562 -0.12991051
-0.008471814 0.13944022 0.029588634 -0.020861685 0.03967316 0.2001043 0.027165938 -0.08741494
0.1352821 -0.030678783 0.06545828 0.0406353 -0.0635294 -0.0043614106 -0.0032449998 -0.25286394
-0.20313151 0.09570227 -0.08802483 0.005915841 -0.073534064 0.111351274 0.024341514 0.121776015
0.08993642 0.06455998 0.10709708 0.054517318 -0.08600704 0.18106587 0.08779632 0.054953504
-0.0011751436 -0.06623823 -0.046903115 0.00084862096 0.036411535 0.12592854 0.0871934 0.14127985
-0.030303892 0.05084343 -0.0009918113 -0.046676375 -0.02848081 0.00082122826 -0.09394724 -0.009022003
-0.12612174 0.1704201 0.030931164 -0.16176671 0.065324925 -0.051308557 0.1424816 -0.03523294
-0.033853535 0.03904649 0.14369611 -0.050053123 0.16178347 0.02417456 0.027332842 -0.16021013
0.08636781 0.13637243 0.07823665 -0.06751713 0.011619987 0.0073195705 0.090028994 -0.096244775
0.00015351121 -0.12200363 0.13246165 -0.1142756 0.020107508 0.020522766 -0.0697474 -0.1236413
0.20498724 0.08385675 -0.06564257 0.05587789 -0.076165006 0.016631916 0.11223773 0.0347823
0.19317858 0.042521756 -0.056183346 -0.02736508 -0.047639094 0.16800043 -0.11906358 0.07610514
-0.004349276 0.04341836 -0.23634638 -0.008737335 0.19749478 -0.16863692 -0.06540421 -0.08654168
-0.10071966 0.033777453 -0.029247964 -0.006598361 0.10980563 0.15475108 0.0717865 -0.12891024
0.009663341 0.06025773 -0.06493425 -0.04671171 0.08760002 0.047250863 0.07805389 0.108332574
0.10333284 0.12948476 0.06875424 -0.023126708 -0.12582277 0.06792328 -0.08264751 0.0032814778
-0.016201893 -0.04736493 0.16404037 -0.20351277 -0.06607701 0.22083953 0.13067545 -0.12269874
-0.035793103 0.08502731 -0.031037552 0.10940651 0.08181795 -0.16716067 0.18268137 -0.038572717
0.052718375 -0.15984766 0.14569376 0.02396479 0.019260122 -0.04320009 -0.09060475 0.056794696
0.13947232 -0.1956022 -0.022349482 0.076770246 -0.051065017 -0.039665982 -0.051935732 0.062743336

network_body._body_endoder.seq_layers.2.bias f4 [128]
00000000: 0000 0000 0000 0000 0000 0000 0000 0000
00000010: 0000 0000 0000 0000 0000 0000 0000 0000
00000020: 0000 0000 0000 0000 0000 0000 0000 0000
00000030: 0000 0000 0000 0000 0000 0000 0000 0000
00000040: 0000 0000 0000 0000 0000 0000 0000 0000
00000050: 0000 0000 0000 0000 0000 0000 0000 0000
00000060: 0000 0000 0000 0000 0000 0000 0000 0000
00000070: 0000 0000 0000 0000 0000 0000 0000 0000
00000080: 0000 0000 0000 0000 0000 0000 0000 0000
00000090: 0000 0000 0000 0000 0000 0000 0000 0000
000000a0: 0000 0000 0000 0000 0000 0000 0000 0000
000000b0: 0000 0000 0000 0000 0000 0000 0000 0000
000000c0: 0000 0000 0000 0000 0000 0000 0000 0000
000000d0: 0000 0000 0000 0000 0000 0000 0000 0000
000000e0: 0000 0000 0000 0000 0000 0000 0000 0000
000000f0: 0000 0000 0000 0000 0000 0000 0000 0000
00000100: 0000 0000 0000 0000 0000 0000 0000 0000
00000110: 0000 0000 0000 0000 0000 0000 0000 0000
00000120: 0000 0000 0000 0000 0000 0000 0000 0000
00000130: 0000 0000 0000 0000 0000 0000 0000 0000
00000140: 0000 0000 0000 0000 0000 0000 0000 0000
00000150: 0000 0000 0000 0000 0000 0000 0000 0000
00000160: 0000 0000 0000 0000 0000 0000 0000 0000
00000170: 0000 0000 0000 0000 0000 0000 0000 0000
00000180: 0000 0000 0000 0000 0000 0000 0000 0000
00000190: 0000 0000 0000 0000 0000 0000 0000 0000
000001a0: 0000 0000 0000 0000 0000 0000 0000 0000
000001b0: 0000 0000 0000 0000 0000 0000 0000 0000
000001c0: 0000 0000 0000 0000 0000 0000 0000 0000
000001d0: 0000 0000 0000 0000 0000 0000 0000 0000
000001e0: 0000 0000 0000 0000 0000 0000 0000 0000
000001f0: 0000 0000 0000 0000 0000 0000 0000 0000
0.0 0.0 0.0 0.0 0.0 0.0 0.0 0.0
0.0 0.0 0.0 0.0 0.0 0.0 0.0 0.0
0.0 0.0 0.0 0.0 0.0 0.0 0.0 0.0
0.0 0.0 0.0 0.0 0.0 0.0 0.0 0.0
0.0 0.0 0.0 0.0 0.0 0.0 0.0 0.0
0.0 0.0 0.0 0.0 0.0 0.0 0.0 0.0
0.0 0.0 0.0 0.0 0.0 0.0 0.0 0.0
0.0 0.0 0.0 0.0 0.0 0.0 0.0 0.0
0.0 0.0 0.0 0.0 0.0 0.0 0.0 0.0
0.0 0.0 0.0 0.0 0.0 0.0 0.0 0.0
0.0 0.0 0.0 0.0 0.0 0.0 0.0 0.0
0.0 0.0 0.0 0.0 0.0 0.0 0.0 0.0
0.0 0.0 0.0 0.0 0.0 0.0 0.0 0.0
0.0 0.0 0.0 0.0 0.0 0.0 0.0 0.0
0.0 0.0 0.0 0.0 0.0 0.0 0.0 0.0
0.0 0.0 0.0 0.0 0.0 0.0 0.0 0.0

value_heads.value_heads.extrinsic.weight f4 [1, 128]
00000000: 0099 48bb 9e47 b9bd 80f4 13bd f1f9 47be
00000010: f8a8 e93d 6c82 abbd 8909 d7bd 90a9 b73d
00000020: 5806 77bd a078 1fbe 4c49 68bd 3c00 3dbe
00000030: 2be5 f6bd bc37 3cbe 3a30 8fbd e072 29bc
00000040: e0df 89bb d69c acbd 404e 433e c875 cdbd
00000050: b059 fa3d 8848 263d 9466 1f3e a096 2bbd
00000060: 8776 c1bd 20fb 9e3b a863 213d d03a 033e
00000070: 5cf1 8b3d 4ea1 58be 16c6 2e3e 0085 513b
00000080: b6e0 26be c5be c5bd eee7 abbd a8a5 6a3d
00000090: 0f1d eebd 7c38 ee3d b3aa 3ebe 8a5e 413e
000000a0: 52be 2d3e 4022 4fbc e68c 4c3e 4a4c 283e
000000b0: 0032 b7ba 4ccd 1cbe 08e2 5cbd 4340 0bbe
000000c0: ba6a d3bd a476 6fbd cea0 2a3e 405b 8a3d
000000d0: 9c69 483e ac8c 37be e885 8ebd da92 0dbe
000000e0: fc6e d43d c0eb 0f3b 6cc3 573e 8bf7 c5bd
000000f0: 510c f1bd e4e5 dc3d f8f6 b6bd 4dae 2bbe
00000100: 1ad0 493e 9cb9 27bd 22c4 363e 74ff 083d
00000110: fa02 4cbe a440 98bd a490 3a3e 98b3 f83d
00000120: b8b7 eebd 5ad4 09be b46f e83d c6b2 51be
00000130: 27b3 51be 2cfa 803d c9d0 51be d0b2 f6bd
00000140: 400f 823d ee1a 8cbd 7048 4c3e feba 04be
00000150: 560c 473e 664f c4bd 902a 4c3d a48f b9bd
00000160: acb9 973d 12c1 333e e8de 593d 80e9 093c
00000170: a8ee c8bc a4f8 a83d 20ad a8bd c252 b1bd
00000180: 885a 0a3e 961e cabd 3c45 44be 8ca8 c13d
00000190: c731 21be d396 2abe 885e 97bc 8c89 efbd
000001a0: 8c30 0e3e 0a45 b5bd 74f2 953d 64e1 a33d
000001b0: 8e87 293e a0ee 09bc da57 a1bd 20e7 51bd
000001c0: 7238 4dbe 8828 77bd c87f a5bd 920b 593e
000001d0: 5468 373e ee03 16be 36fb 193e 7c88 a1bd
000001e0: 640b d93d a0f2 aabd 8897 a03d e1f3 4dbe
000001f0: bc64 28be a278 bebd a4d8 54be 5841 b8bc
-0.0030608773 -0.09046863 -0.036121845 -0.19528939 0.11409181 -0.083744854 -0.104998656 0.08967888
-0.060308784 -0.15573359 -0.056710526 -0.1845712 -0.12055429 -0.18380636 -0.0699162 -0.01034233
-0.004207596 -0.084283516 0.19072819 -0.100322306 0.12224138 0.040596515 0.15566474 -0.041891694
-0.094464354 0.004851714 0.03940168 0.12815404 0.06833145 -0.21155283 0.17067751 0.0031970143
-0.16296658 -0.09655527 -0.083938465 0.05728689 -0.11626636 0.11631867 -0.18619804 0.1888372
0.16967133 -0.012642443 0.19975623 0.16435352 -0.0013976693 -0.1531269 -0.053926498 -0.13598733
-0.10323091 -0.058462754 0.16662905 0.06755686 0.19571537 -0.17924756 -0.06959134 -0.1382555
0.10372731 0.0021960586 0.21070641 -0.09666356 -0.11769927 0.10786036 -0.08933824 -0.16765709
0.1970829 -0.040948495 0.17848256 0.033446744 -0.1992301 -0.07434204 0.18219239 0.1214363
-0.11656135 -0.13459912 0.11349431 -0.20478353 -0.20478497 0.062977165 -0.20489801 -0.120458245
0.06350565 -0.06841074 0.19949508 -0.12961957 0.194383 -0.095854566 0.04984528 -0.090606004
0.07408461 0.17554119 0.053191096 0.008417487 -0.024527863 0.082505494 -0.08236146 -0.08658363
0.13511097 -0.09869115 -0.19167036 0.09455976 -0.15741645 -0.16659097 -0.018477693 -0.11696157
0.13885707 -0.08851059 0.07321635 0.08001974 0.16555616 -0.008418709 -0.078780845 -0.05124581
-0.20041063 -0.060341388 -0.08081013 0.2119582 0.17910892 -0.14649937 0.15037236 -0.078873605
0.10597876 -0.08347058 0.07841402 -0.20112564 -0.16444677 -0.09300353 -0.20785767 -0.022492096
