Client/results/ppo/MoveToGoal/MoveToGoal-64.onnx (onnx, 73585 bytes, 6 tensors)

network_body._body_endoder.seq_layers.0.weight f4 [128, 4]
-0.15572529 0.81394416 -0.5101548 -0.015280575 0.5282146 0.5501104 -0.35128075 0.9468425
0.42676952 -0.3811857 -0.72075415 -0.059792195 -0.5696051 0.02484313 -0.75046706 -0.9866307
0.15617244 -0.48014197 -0.69364357 -0.21967477 0.19953834 -0.48708576 -0.30010095 0.12498066
-0.134158 -0.18193974 -0.96408504 -0.27167445 0.003207101 -0.08810478 -0.03176361 -0.5131647
0.65166366 -0.7573328 0.09345491 0.20840645 0.011286933 0.096104965 0.1957257 0.13388018
0.17762995 -0.6862016 0.07853908 -0.009179485 0.1370637 0.058287125 0.05253564 0.26265374
0.7788714 -0.22651577 0.35667518 -0.3005827 0.916182 0.0024158615 -0.1840131 0.80116814
0.005889682 0.23275995 0.29571393 -0.2187659 1.2094319 -0.60414815 0.65243053 0.626058
-0.35888314 0.341738 0.21731257 0.14660071 0.0761822 -0.7347492 -0.5037673 -0.47712457
0.4340096 -0.11236575 -0.09836275 -0.47870544 -0.52059424 0.23151809 0.0038385452 0.7034701
-0.473475 -0.0040981383 0.11499731 -0.028717149 -0.95368505 -0.06701719 -0.6594903 -0.46254107
-0.70675415 -0.97024065 0.27727002 -0.15865482 0.00684656 0.025608465 0.3160331 -0.1018353
0.1927498 0.0717611 0.42025232 -0.708126 0.27615774 -0.11153435 0.029209407 1.0141562
0.20550925 0.019173104 -0.13823777 0.49848247 -0.123344176 0.56060994 -0.75094056 0.42015293
-0.623711 -0.3184137 -0.6603212 0.37456164 -0.30654064 -0.5798496 -0.3929169 0.48923308
-0.9770198 -0.17712764 0.5652828 -0.9959577 -0.16401961 -0.56083554 0.008717072 0.023444405
-0.096703865 0.14726798 -0.51259303 -0.6849182 0.086911306 -0.33068508 0.6995305 0.093514375
0.23146011 -0.39289445 -0.7942532 -0.17578378 0.19187954 0.03277207 -0.14989164 0.5603698
1.4342324 0.4470173 -0.52291745 0.6946201 -0.64099574 0.5567457 0.64771134 0.6719806
-0.9095384 -0.50176316 0.18951204 -0.5793429 0.41745025 0.42452046 -0.6018755 -0.24125159
-0.18089981 0.09786632 0.02485791 -0.7453583 0.3395372 -0.3480723 0.55148005 -0.26812586
0.01974598 0.16010192 0.6967905 0.534852 0.4457711 -0.0026905194 -0.14068815 0.13352546
0.120027624 -0.7495602 0.1721955 -0.12089435 0.4253255 -0.08495645 -0.54628485 -0.41387257
-0.36256137 -0.5956499 -0.45362768 -0.4802809 -0.11745439 0.588138 -0.6148514 0.7698515
-0.6098313 -0.063782796 0.41692993 -0.25099945 0.5366907 -0.4764877 0.63664806 -0.304587
1.075736 -1.4750296 -0.88918614 -0.7456687 0.32916537 -0.14496012 0.71461415 0.48221463
1.0474185 0.3284477 0.19090018 0.041049104 0.26774243 0.71602345 0.27731997 0.16619225
0.2202746 0.37400416 -0.3506898 0.5985765 0.006002451 0.87607545 0.35733104 -0.82115793
0.90895957 1.0205309 0.31898814 -0.35849607 0.12522416 -0.0027564433 -0.62151027 0.0858712
-0.2151162 -1.2294986 0.76152635 0.18540572 0.62033343 -0.033072144 0.14567283 0.37838405
0.093934044 -0.4194723 1.0828389 -0.96872646 -0.04497565 -0.008453989 0.5631913 0.1453924
1.1289495 -0.8673211 0.12919435 -0.15574603 -1.1913317 0.26401535 -0.49191105 0.72689587
00000000: 7376 1fbe a55e 503f 8199 02bf 605b 7abc
00000010: 1239 073f 09d4 0c3f 12db b3be 4564 723f
00000020: 8981 da3e c62a c3be 5883 38bf a9e8 74bd
00000030: a4d1 11bf d283 cb3c 9c1e 40bf d493 7cbf
00000040: abeb 1f3e 2bd5 f5be a092 31bf 6cf2 60be
00000050: c753 4c3e 4e63 f9be d5a6 99be dcf5 ff3d
00000060: b760 09be 694e 3abe 47ce 76bf ea18 8bbe
00000070: 3a2e 523b 4770 b4bd 8f1a 02bd c35e 03bf
00000080: 6ed3 263f 90e0 41bf 4a65 bf3d 8068 553e
00000090: d4ec 383c aed2 c43d 516c 483e e317 093e
000000a0: a0e4 353e e8aa 2fbf 19d9 a03d 8d65 16bc
000000b0: 6d5a 0c3e 7bbe 6e3d 9c2f 573d 8d7a 863e
000000c0: 1e64 473f c0f3 67be 219e b63e fae5 99be
000000d0: e78a 6a3f 6e53 1e3b ee6d 3cbe 5b19 4d3f
000000e0: 3cfe c03b a058 6e3e d167 973e 2b04 60be
000000f0: aace 9a3f 74a9 1abf b005 273f 5645 203f
00000100: 88bf b7be 48f8 ae3e 3087 5e3e 7f1e 163e
00000110: 6a05 9c3d 8618 3cbf e5f6 00bf ac49 f4be
00000120: 8236 de3e 0420 e6bd 6972 c9bd e118 f5be
00000130: aa45 05bf 1413 6d3e 1a90 7b3b 9e16 343f
00000140: 516b f2be ad49 86bb b683 eb3d 3a40 ebbc
00000150: b424 74bf 4f40 89bd 5bd4 28bf 2fd2 ecbe
00000160: d7ed 34bf b161 78bf 56f6 8d3e 6976 22be
00000170: 1c59 e03b d8c8 d13c 17cf a13e 078f d0bd
00000180: 3460 453e 7cf7 923d 502b d73e bf47 35bf
00000190: 8c64 8d3e 1f6c e4bd 9148 ef3c dfcf 813f
000001a0: 0471 523e ea10 9d3c 348e 0dbe 1839 ff3e
000001b0: df9b fcbd 2284 0f3f a43d 40bf 491e d73e
000001c0: 86ab 1fbf 1f07 a3be cf0a 29bf 8bc6 bf3e
000001d0: e5f2 9cbe 0671 14bf 672c c9be c27c fa3e
000001e0: f81d 7abf f360 35be 60b6 103f 15f7 7ebf
000001f0: c2f4 27be eb92 0fbf 0dd2 0e3c 7b0e c03c
00000200: ad0c c6bd 6bcd 163e 4c39 03bf cd56 2fbf
00000210: 8efe b13d 8e4f a9be 6e14 333f 7784 bf3d
00000220: e103 6d3e 7629 c9be 2d54 4bbf aa00 34be
00000230: 127c 443e 023c 063d 327d 19be 6574 0f3f
00000240: ed94 b73f 74df e43e ebdd 05bf 9fd2 313f
00000250: 4c18 24bf e386 0e3f 69d0 253f ec06 2c3f
00000260: 82d7 68bf 8d73 00bf 720f 423e d14f 14bf
00000270: 0abc d53e bf5a d93e 8314 1abf a80a 77be
00000280: cd3d 39be 236e c83d d1a2 cb3c cdcf 3ebf
00000290: d2d7 ad3e 8836 b2be cc2d 0d3f cb47 89be
000002a0: 52c2 a13c c2f1 233e dd60 323f 10ec 083f
000002b0: 1c3c e43e 6d53 30bb 8e10 10be e6ba 083e
000002c0: 0bd1 f53d 2de3 3fbf 0454 303e 7597 f7bd
000002d0: 44c4 d93e a6fd adbd 53d9 0bbf 1be7 d3be
000002e0: a5a1 b9be 837c 18bf e341 e8be 61e7 f5be
000002f0: ed8b f0bd 3690 163f e766 1dbf fd14 453f
00000300: e71d 1cbf 8ea0 82bd d777 d53e 0083 80be
00000310: 9064 093f 32f6 f3be 5efb 223f d4f2 9bbe
00000320: b8b1 893f c5cd bcbf b4a1 63bf 25e4 3ebf
00000330: 5d88 a83e 6d70 14be f4f0 363f d6e4 f63e
00000340: cf11 863f 4c2a a83e 567b 433e 1b23 283d
00000350: 8915 893e 504d 373f e2fc 8d3e 4d2e 2a3e
00000360: aa8f 613e 797d bf3e 9d8d b3be 4f3c 193f
00000370: 35b0 c43b 7b46 603f 18f4 b63e 6837 52bf
00000380: 93b1 683f c2a0 823f 6a52 a33e cc8c b7be
00000390: c33a 003e 72a5 34bb 4c1b 1fbf 3ddd af3d
000003a0: 6c47 5cbe 3660 9dbf 64f3 423f ffda 3d3e
000003b0: 2cce 1e3f a876 07bd 422b 153e 8ebb c13e
000003c0: 7e60 c03d 13c5 d6be 779a 8a3f 75fe 77bf
000003d0: 6338 38bd 9a82 0abc 4e2d 103f bfe1 143e
000003e0: 6b81 903f c108 5ebf 864b 043e e37b 1fbe
000003f0: 8f7d 98bf 052d 873e c4db fbbe d915 3a3f

network_body._body_endoder.seq_layers.0.bias f4 [128]
0.0 0.0 0.0 0.0 0.0 0.0 0.0 0.0
0.0 0.0 0.0 0.0 0.0 0.0 0.0 0.0
0.0 0.0 0.0 0.0 0.0 0.0 0.0 0.0
0.0 0.0 0.0 0.0 0.0 0.0 0.0 0.0
0.0 0.0 0.0 0.0 0.0 0.0 0.0 0.0
0.0 0.0 0.0 0.0 0.0 0.0 0.0 0.0
0.0 0.0 0.0 0.0 0.0 0.0 0.0 0.0
0.0 0.0 0.0 0.0 0.0 0.0 0.0 0.0
0.0 0.0 0.0 0.0 0.0 0.0 0.0 0.0
0.0 0.0 0.0 0.0 0.0 0.0 0.0 0.0
0.0 0.0 0.0 0.0 0.0 0.0 0.0 0.0
0.0 0.0 0.0 0.0 0.0 0.0 0.0 0.0
0.0 0.0 0.0 0.0 0.0 0.0 0.0 0.0
0.0 0.0 0.0 0.0 0.0 0.0 0.0 0.0
0.0 0.0 0.0 0.0 0.0 0.0 0.0 0.0
0.0 0.0 0.0 0.0 0.0 0.0 0.0 0.0
00000000: 0000 0000 0000 0000 0000 0000 0000 0000
00000010: 0000 0000 0000 0000 0000 0000 0000 0000
00000020: 0000 0000 0000 0000 0000 0000 0000 0000
00000030: 0000 0000 0000 0000 0000 0000 0000 0000
00000040: 0000 0000 0000 0000 0000 0000 0000 0000
00000050: 0000 0000 0000 0000 0000 0000 0000 0000
00000060: 0000 0000 0000 0000 0000 0000 0000 0000
00000070: 0000 0000 0000 0000 0000 0000 0000 0000
00000080: 0000 0000 0000 0000 0000 0000 0000 0000
00000090: 0000 0000 0000 0000 0000 0000 0000 0000
000000a0: 0000 0000 0000 0000 0000 0000 0000 0000
000000b0: 0000 0000 0000 0000 0000 0000 0000 0000
000000c0: 0000 0000 0000 0000 0000 0000 0000 0000
000000d0: 0000 0000 0000 0000 0000 0000 0000 0000
000000e0: 0000 0000 0000 0000 0000 0000 0000 0000
000000f0: 0000 0000 0000 0000 0000 0000 0000 0000
00000100: 0000 0000 0000 0000 0000 0000 0000 0000
00000110: 0000 0000 0000 0000 0000 0000 0000 0000
00000120: 0000 0000 0000 0000 0000 0000 0000 0000
00000130: 0000 0000 0000 0000 0000 0000 0000 0000
00000140: 0000 0000 0000 0000 0000 0000 0000 0000
00000150: 0000 0000 0000 0000 0000 0000 0000 0000
00000160: 0000 0000 0000 0000 0000 0000 0000 0000
00000170: 0000 0000 0000 0000 0000 0000 0000 0000
00000180: 0000 0000 0000 0000 0000 0000 0000 0000
00000190: 0000 0000 0000 0000 0000 0000 0000 0000
000001a0: 0000 0000 0000 0000 0000 0000 0000 0000
000001b0: 0000 0000 0000 0000 0000 0000 0000 0000
000001c0: 0000 0000 0000 0000 0000 0000 0000 0000
000001d0: 0000 0000 0000 0000 0000 0000 0000 0000
000001e0: 0000 0000 0000 0000 0000 0000 0000 0000
000001f0: 0000 0000 0000 0000 0000 0000 0000 0000

network_body._body_endoder.seq_layers.2.weight f4 [128, 128]
0.101168275 -0.047053263 -0.022642724 -0.035578355 0.058185205 -0.0054646083 -0.09772588 -0.09933346
-0.032307092 0.00062556926 0.05242807 0.13320188 0.0062188087 0.16976717 0.15819411 0.143998
0.12551962 0.048039094 0.027883098 -0.1177273 0.11356186 0.026794858 -0.02176306 0.023335582
0.16232833 -0.039557125 0.05744441 -0.0395245 0.05561676 0.14981967 0.021301614 0.05208921
0.04529623 -0.144428 0.10288611 -0.12925825 -0.04089826 0.063269936 0.008800391 -0.08287055
0.13645978 -0.0841131 0.17387895 0.07824292 -0.028822536 0.03924801 0.053505845 0.00466217
-0.11891426 0.039110325 0.06944637 -0.14763196 0.0517009 0.11040803 0.0041829734 -0.035947878
0.0024825977 -0.1276164 0.083152235 0.028793119 0.019841986 0.07599332 -0.11011481 0.21956667
-0.19471079 -0.09100313 0.08662688 0.12545396 -0.03298469 0.0047571724 0.07800377 0.037055094
0.02201874 0.1219902 -0.13420327 0.14259341 -0.16331661 -0.020410141 0.016198548 0.10791536
0.10269156 -0.15785667 -0.014859893 -0.113902636 0.053680744 0.044365156 -0.0054309475 -0.05528256
-0.004999997 -0.022746807 -3.9284787e-05 0.10084889 -0.021797637 -0.05594983 -0.018121248 -0.18107384
0.22171712 0.11058938 0.09054179 0.15021469 -0.11419232 -0.17269373 -0.05673394 -0.07509548
-0.010321528 0.014662216 -0.059268884 0.06916081 -0.047817506 -0.09463154 0.0361697 -0.15195784
-0.03279558 -0.073089205 -0.14304683 0.006096811 0.23821054 -0.05194349 -0.025777431 0.09833506
0.008674739 -0.0010886956 0.012171612 0.013913894 -0.059684098 -0.11351223 -0.048150167 -0.11258498
0.03970851 -0.083565444 0.1271812 -0.08583122 0.08432763 -0.061559856 0.05346802 -0.17276518
0.004349811 -0.08181031 -0.1098321 -0.05733804 -0.16140208 0.17061283 0.094817735 -0.009190097
0.057708804 -0.05920046 -0.07529084 0.0466111 0.12544298 -0.14827642 0.08624415 0.16992487
-0.026584603 -0.026302533 0.010697853 -0.048646107 0.08086431 -0.007348387 -0.13575399 -0.18614647
-0.09484837 -0.1267962 -0.057069488 -0.17679471 -0.04044165 -0.08583445 0.04410832 -0.15167196
0.04205959 -0.21131007 0.010875348 0.13694195 -0.04304559 0.051385216 0.0048951493 -0.082329735
0.114238165 0.089380145 0.08266258 -0.076218404 0.18567859 0.14741641 0.017212091 0.07286153
-0.026518699 0.016084049 -0.14557442 -0.018564237 -0.06908849 -0.20633149 0.009989201 -0.0058067557
0.1331812 0.18236414 0.003475875 0.11332183 0.021934735 -0.02674518 0.03129248 0.022853266
0.020997288 -0.13000134 -0.0008733746 0.028345907 -0.0075529185 -0.14176778 0.042226598 -0.061670832
-0.1751117 0.09456939 0.10135355 -0.0060179094 0.19000863 -0.17875427 0.1803349 0.051718887
0.068284966 -0.044053283 -0.17262357 -0.16428345 0.028036702 -0.053719763 -0.023330418 -0.15382393
0.039275948 0.054066863 0.10908038 0.02265362 -0.1503992 0.13498814 -0.08286802 -0.08509097
-0.05564868 -0.06065239 0.009644985 0.06070393 0.028332569 0.046749752 0.026785184 -0.014697367
-0.09872952 0.04712926 0.0790364 -0.05960584 0.21646237 -0.15408364 -0.2734831 0.09233715
-0.037021853 -0.011156791 -0.039154857 0.08300679 -0.02470745 0.0033118054 0.001753973 0.18175097
00000000: 5031 cf3d ecba 40bd 3c7d b9bc 9cba 11bd
00000010: 9c53 6e3d 7510 b3bb 8224 c8bd 576f cbbd
00000020: 7154 04bd 3efd 233a d1be 563d 1366 083e
00000030: 26c7 cb3b 72d7 2d3e a3fd 213e 3674 133e
00000040: 3788 003e a4c4 443d 186b e43c 031b f1bd
00000050: 1f93 e83d e480 db3c 7248 b2bc 432a bf3c
00000060: 6639 263e a706 22bd d44a 6b3d 71e4 21bd
00000070: 66ce 633d 546a 193e b980 ae3c 7f5b 553d
00000080: 8a88 393d efe4 13be f4b5 d23d 465c 04be
00000090: ef84 27bd ab93 813d 842f 103c 09b8 a9bd
000000a0: 1dbc 0b3e 7d43 acbd 530d 323e d33d a03d
000000b0: 3d1d ecbc 85c2 203d f228 5b3d 1ec5 983b
000000c0: 5289 f3bd 2632 203d e639 8e3d d52c 17be
000000d0: 53c4 533d 9b1d e23d 5311 893b 153e 13bd
000000e0: 14b3 223b e0ad 02be b84b aa3d 8cdf eb3c
000000f0: a98b a23c 63a2 9b3d e083 e1bd 16d6 603e
00000100: 4462 47be d95f babd 6f69 b13d 0177 003e
00000110: f41a 07bd 0ee2 9b3b 71c0 9f3d 15c7 173d
00000120: a560 b43c ffd5 f93d 956c 09be 0204 123e
00000130: 783c 27be 2b33 a7bc d1b2 843c ba02 dd3d
00000140: f44f d23d 2ea5 21be e976 73bc c945 e9bd
00000150: 57e0 5b3d 3db8 353d 17f6 b1bb f76f 62bd
00000160: 04d7 a3bb 8357 babc b8c5 24b8 dd89 ce3d
00000170: f590 b2bc a62b 65bd 0373 94bc 6c6b 39be
00000180: d009 633e af7c e23d f96d b93d e1d1 193e
00000190: aadd e9bd a0d6 30be d961 68bd a9cb 99bd
000001a0: a01b 29bc cb39 703c eec3 72bd 2fa4 8d3d
000001b0: 4adc 43bd 2ece c1bd ae26 143d d69a 1bbe
000001c0: a854 06bd cbaf 95bd de7a 12be c2c7 c73b
000001d0: 77ed 733e b2c2 54bd 312b d3bc e463 c93d
000001e0: 7e20 0e3c 90b2 8eba 716b 473c 1af7 633c
000001f0: 5077 74bd 1a79 e8bd 1c39 45bd f492 e6bd
00000200: 64a5 223d 5c24 abbd ca3b 023e 47c8 afbd
00000210: f7b3 ac3d 3026 7cbd 4801 5b3d 5be9 30be
00000220: dc88 8e3b 2a8c a7bd a7ef e0bd 4bdb 6abd
00000230: 9646 25be 21b5 2e3e cd2f c23d 1092 16bc
00000240: 1160 6c3d 2e7c 72bd 1532 9abd 48eb 3e3d
00000250: 2074 003e c6d5 17be c6a0 b03d c900 2e3e
00000260: f4c7 d9bc 6978 d7bc 0c46 2f3c 2441 47bd
00000270: 309c a53d bdca f0bb 1803 0bbe 2e9d 3ebe
00000280: dd3f c2bd ddd6 01be b2c1 69bd ac09 35be
00000290: 25a6 25bd f9c9 afbd edaa 343d e54f 1bbe
000002a0: ad46 2c3d ab61 58be 842e 323c 833a 0c3e
000002b0: 9350 30bd 4e79 523d 7d67 a03b 7e9c a8bd
000002c0: b3f5 e93d f00c b73d 004b a93d 6518 9cbd
000002d0: 8722 3e3e 54f4 163e 5f00 8d3c 6d38 953d
000002e0: be3d d9bc b2c2 833c 7611 15be 0714 98bc
000002f0: 447e 8dbd 9048 53be bfa9 233c 9946 bebb
00000300: a760 083e aabd 3a3e 81cb 633b 4715 e83d
00000310: 79b0 b33c b518 dbbc 8b2c 003d c636 bb3c
00000320: 8102 ac3c 121f 05be 2df3 64ba ad35 e83c
00000330: 797e f7bb 932b 11be ccf5 2c3d 8e9a 7cbd
00000340: 7b50 33be 99ad c13d 7392 cf3d e231 c5bb
00000350: 9f91 423e 5c0b 37be b6a9 383e 2fd7 533d
00000360: fdd8 8b3d 3771 34bd 3cc4 30be ec39 28be
00000370: 3aad e53c 4109 5cbd 6f1f bfbc 0584 1dbe
00000380: d1df 203d 3775 5d3d 8965 df3d 1694 b93c
00000390: 3f02 1abe 553a 0a3e b5b6 a9bd 2d44 aebd
000003a0: dfef 63bd a46e 78bd 0006 1e3c afa4 783d
000003b0: b419 e83c ab7c 3f3d 9a6c db3c 3acd 70bc
000003c0: b432 cabd 9c0a 413d d6dd a13d 4125 74bd
000003d0: 50a8 5d3e 1ac8 1dbe fa05 8cbe 421b bd3d
000003e0: 3aa4 17bd f9ca 36bc d860 20bd 77ff a93d
000003f0: 4767 cabc e00a 593b 91e5 e53a ed1c 3a3e

action_model._continuous_distribution.log_sigma f4 [1, 2]
0.0 0.0
00000000: 0000 0000 0000 0000

action_model._continuous_distribution.mu.weight f4 [2, 128]
-0.02555086 -0.009089284 0.0042095124 -0.010997387 -0.022104857 0.0034833662 0.0067448476 -0.011123123
-0.011560963 0.02721942 -0.00866875 0.00700758 -0.0017206408 0.013121714 0.0228077 0.014527291
-0.029116143 -0.008004599 0.032773398 -0.0154968025 -0.025708506 0.039628863 0.0072054365 0.035462726
-0.011062819 0.013197529 -0.021387799 -0.008517786 -0.017349463 -0.0056967493 -0.042483944 -0.012622532
0.0030257113 -0.015222519 0.0049857046 -0.0014480004 -0.0029485028 0.007585272 -0.017539706 -0.0050619654
0.006535115 0.022435023 0.011931483 -0.011323553 0.02720935 -0.015934095 0.0006450502 -0.051943522
0.019693276 -0.011727547 0.007354201 -0.011233307 0.014991653 -0.013182424 0.025979403 -0.0052681277
0.02063953 0.022518994 -0.025985166 0.019501911 -0.024593994 -0.011625628 0.0070394846 0.006045249
0.026918817 -0.028473144 0.014355048 -0.031778347 0.030351324 -0.009977701 0.010881704 -0.008160989
0.035738602 -0.001047673 -0.01026817 -0.0017319251 0.009858906 0.00686977 -0.016657634 -0.00032149072
-0.007859379 -0.01041204 0.044333067 0.0063760444 -0.027168399 -0.010864791 0.017811118 0.03694607
-0.015545242 -0.02567332 -0.00683382 -0.05572634 -0.013497531 -0.0023356478 -0.018162353 0.0072174184
-0.026796376 -0.009599458 0.02407135 0.015140693 0.014475702 0.03963302 0.016182793 -0.031662997
0.006633462 -0.031293172 -0.0076732016 -0.012756041 0.012087172 0.013632995 -0.039868668 -0.010145801
0.0010172849 0.023097051 0.031453375 0.006981283 -0.010964072 -0.01104968 -0.00904012 -0.012577668
-0.022225482 0.016380286 -0.0029890742 0.029697943 0.003078853 -0.012166938 0.011861748 -0.011843359
0.014532198 -0.0033259063 0.002355476 0.009976786 -0.015166518 0.009891711 0.011165622 -0.025603268
0.02144252 0.008218339 -0.0061911466 -0.003621863 0.015180475 0.0021831195 -0.012277081 0.0023479403
0.011195334 0.00719193 -0.01231461 -0.003640283 0.012964248 -0.026618415 0.00513231 0.018366706
0.0048895204 0.00417656 0.018246014 0.012015061 0.033075664 0.011414702 0.00086928037 -0.019697499
-0.013099963 0.012502921 -0.016490502 0.016341684 0.0063196756 0.004021267 -0.0060348855 -0.0137673095
-0.006035988 -0.0041129477 0.0051371004 -0.011581741 0.04405424 -0.0015962169 -0.015983922 -0.004074898
0.01314766 -0.014956637 0.0049747466 0.015345163 -0.0066184136 0.013652749 0.017508114 0.0068144794
0.0021545268 -0.031163368 -0.0035773222 0.008467944 0.008913077 -0.009286606 0.030871412 -0.0018090656
0.006144685 -0.002228819 0.008072131 -0.008587341 -0.016457196 0.010826821 -0.031331435 -0.00088883156
0.015687745 0.0283539 0.022933338 0.035032094 0.0044385134 0.0104124015 -0.014307256 0.021700058
-0.011306375 -0.010158665 -0.020708634 0.010717274 0.0042688074 0.015648162 0.025330795 -0.00771876
0.0062129297 -0.03689633 -0.0018863429 -0.008903895 0.013742978 -0.008673894 0.031383116 0.0062128273
0.03288932 0.0014420585 0.0107886 0.008203016 0.0014529091 0.015758818 -0.009397278 0.007000243
-0.0074192393 0.0064092255 -0.0063625067 -0.0019649842 0.0009870696 -0.0019398843 0.024389047 0.018138487
0.009478542 0.019658973 0.014188956 -0.006553543 -0.0070468555 -0.04246586 -0.034410212 -0.01861745
-0.017397705 0.025640225 -0.010405901 -0.023454165 -0.0037867508 0.022999048 -0.0042237146 -0.014836216
00000000: 0a50 d1bc 38eb 14bc f3ef 893b 622e 34bc
00000010: 3f15 b5bc 3049 643b e203 dd3b c23d 36bc
00000020: 316a 3dbc 43fb de3c 5f07 0ebc d79f e53b
00000030: 2087 e1ba 75fc 563c 37d7 ba3c e003 6e3c
00000040: fa84 eebc b925 03bc 663d 063d 4de6 7dbc
00000050: a59a d2bc e051 223d 951b ec3b 5d41 113d
00000060: d340 35bc 733a 583c 7735 afbc 2f8e 0bbc
00000070: 7620 8ebc ccab babb a503 2ebd bdce 4ebc
00000080: 034b 463b df67 79bc 1f5f a33b d5ca bdba
00000090: ab3b 41bb e08d f83b 6eaf 8fbc d8de a5bb
000000a0: 8524 d63b a7c9 b73c 447c 433c 6c86 39bc
000000b0: 25e6 de3c 3888 82bc 9618 293a bbc2 54bd
000000c0: cb53 a13c e624 40bc 82fb f03b e80b 38bc
000000d0: 8d9f 753c 18fb 57bc c2d2 d43c 42a0 acbb
000000e0: 3b14 a93c c179 b83c d8de d4bc 79c2 9f3c
000000f0: 5879 c9bc 6b79 3ebc 7aab e63b 3917 c63b
00000100: da84 dc3c 8340 e9bc 6f31 6b3c 032a 02bd
00000110: 57a3 f83c 8379 23bc 2d49 323c abb5 05bc
00000120: a462 123d 1352 89ba d43b 28bc c301 e3ba
00000130: 4087 213c cf1b e13b 9775 88bc c18d a8b9
00000140: a0c4 00bc 4397 2abc 9796 353d 23ee d03b
00000150: 4390 debc 3d02 32bc 9fe8 913c c354 173d
00000160: 78b1 7ebc db50 d2bc 3dee dfbb 4d41 64bd
00000170: c024 5dbc ab11 19bb 37c9 94bc 1880 ec3b
00000180: 1384 dbbc 0c47 1dbc 4831 c53c ab10 783c
00000190: 7f2b 6d3c 3c56 223d c791 843c 0fb1 01bd
000001a0: 835d d93b 452d 00bd 7b6f fbbb b7fe 50bc
000001b0: 4609 463c ed5c 5f3c 544d 23bd 933a 26bc
000001c0: 6b56 853a 0736 bd3c 41d5 003d 3fc3 e43b
000001d0: a7a2 33bc b809 35bc 031d 14bc 9012 4ebc
000001e0: 3712 b6bc f32f 863c 58e4 43bb 1a49 f33c
000001f0: 95c6 493b d657 47bc c757 423c a60a 42bc
00000200: 7518 6e3c 73f7 59bb 545e 1a3b ac75 233c
00000210: fd7c 78bc d810 223c 03f0 363c f2bd d1bc
00000220: 39a8 af3c 36a6 063c 1adf cabb c75c 6dbb
00000230: 87b7 783c ab12 0f3b cf25 49bc e7df 193b
00000240: a26c 373c 48aa eb3b 38c3 49bc d091 6ebb
00000250: ff67 543c dd0e dabc f02c a83b c675 963c
00000260: 4538 a03b 86db 883b aa78 953c d2da 443c
00000270: 597a 073d bb04 3b3c 6be0 633a a65c a1bc
00000280: 3aa1 56bc 0dd9 4c3c 1717 87bc ffde 853c
00000290: 4815 cf3b d5c4 833b 4ac0 c5bb 4890 61bc
000002a0: 8ac9 c5bb e8c5 86bb 1f55 a83b 58c1 3dbc
000002b0: 3872 343d 2738 d1ba b7f0 82bc b986 85bb
000002c0: 4869 573c af0c 75bc 3303 a33b 476a 7b3c
000002d0: 47df d8bb c8af 5f3c 2d6d 8f3c ff4b df3b
000002e0: f632 0d3b 524a ffbc 8271 6abb 22bd 0a3c
000002f0: 2808 123c d926 18bc 0be6 fc3c 2b1e edba
00000300: 5b59 c93b 6111 12bb f940 043c ebb1 0cbc
00000310: 3ed1 86bc fb62 313c 6455 00bd 7a00 69ba
00000320: 9683 803c 7046 e83c b2de bb3c d07d 0f3d
00000330: f370 913b c798 2a3c fb68 6abc 52c4 b13c
00000340: 603e 39bc 8770 26bc 27a5 a9bc 8197 2f3c
00000350: 5ae1 8b3b 9330 803c 8782 cf3c a7ed fcbb
00000360: d595 cb3b 9b20 17bd 2a3f f7ba a4e1 11bc
00000370: 3a2a 613c f31c 0ebc 958b 003d f994 cb3b
00000380: f4b6 063d 7403 bd3a abc2 303c f165 063c
00000390: 8a6f be3a a318 813c 0af7 19bc 4b62 e53b
000003a0: 171d f3bb 7b04 d23b 937c d0bb f7c6 00bb
000003b0: 8f60 813a b743 feba 8acb c73c 2a97 943c
000003c0: e34b 1b3c db0b a13c cb78 683c 1abf d6bb
000003d0: 4fe9 e6bb aef0 2dbd b9f1 0cbd 9f83 98bc
000003e0: a285 8ebc 730b d23c 837d 2abc f322 c0bc
000003f0: 232b 78bb 8068 bc3c 1667 8abb 9a13 73bc

action_model._continuous_distribution.mu.bias f4 [2]
0.0 0.0
00000000: 0000 0000 0000 0000
