Client/results/ppo/MoveToGoal/MoveToGoal-640.pt (torch, 143874 bytes, 10 tensors)

network_body._body_endoder.seq_layers.0.weight f4 [128, 1]
0	0x3fd8287d	1.6887356
1	0x3f1b5a3b	0.60684556
2	0x40208ec7	2.5087144
3	0x40432b1c	3.0495062
4	0xbe80dd18	-0.2516868
5	0x3f9523dc	1.1651568
6	0xbf1c91ef	-0.61160177
7	0x3f8d2cff	1.1029357
8	0xbf138156	-0.57619226
9	0x3ef0efef	0.47058055
10	0xbeb03301	-0.34413913
11	0x3fa8153b	1.3131479
12	0x3fabf4be	1.3434064
13	0xbed80fe4	-0.42199624
14	0xbfaf522b	-1.3696951
15	0xbf7123c1	-0.9419518
16	0xbf03cd15	-0.51484805
17	0x3ea40def	0.3204188
18	0x3e2ca2ac	0.1685893
19	0xbf0697df	-0.52575487
20	0xbf27fd23	-0.6562063
21	0x3f909f2d	1.1298577
22	0xbee36090	-0.4440961
23	0xbe926084	-0.2858926
24	0x3f3f5edb	0.7475411
25	0xbef7d3fe	-0.48403925
26	0xbf9046df	-1.1271628
27	0xbe51bf41	-0.20483114
28	0x3f632739	0.88731724
29	0xbefac8be	-0.4898128
30	0x3cd4741f	0.025934277
31	0xbf33bf51	-0.702138
32	0x3f6d2b57	0.92644256
33	0x3e04bc52	0.12962463
34	0x3fc04a07	1.5022591
35	0x3d8d4376	0.06897633
36	0x3ed8adb2	0.4232002
37	0xbff364bb	-1.9015115
38	0xbe346d11	-0.1761973
39	0xbe7fcc2c	-0.24980229
40	0x3e9ab6b9	0.3021753
41	0xbf5e87d7	-0.86926025
42	0xbf6162fd	-0.8804167
43	0xbfafca40	-1.3733597
44	0xbf3fe9af	-0.7496595
45	0x3e9be847	0.3045065
46	0x3f3afaa5	0.73038703
47	0xbe44fad8	-0.19236314
48	0x400398c7	2.0561998
49	0x3e98fc5a	0.2988003
50	0x3faba395	1.3409296
51	0x3f5256c2	0.8216363
52	0x3f0832c6	0.53202474
53	0x3fabbd1e	1.3417089
54	0x3fb7f6ac	1.4372153
55	0xbf516fb6	-0.8181108
56	0xc002b0da	-2.0420442
57	0xbe45d00e	-0.19317648
58	0x3fc6746e	1.5504282
59	0xbca5735d	-0.020196611
60	0xc0094b87	-2.1452348
61	0xbdee6ecd	-0.11642227
62	0x3fe07cac	1.7538047
63	0x3f996776	1.1984699
64	0x3e8b9455	0.27261606
65	0x3f2be6bc	0.6714895
66	0x3f2ce245	0.6753276
67	0xbfc0cb9e	-1.5062139
68	0xbee9ce36	-0.4566514
69	0xbfe1263e	-1.7589796
70	0xbf48d3f9	-0.78448445
71	0x3f033c3b	0.5126378
72	0x3f57d02d	0.84302026
73	0xbf4a9ce6	-0.7914566
74	0xbf82a87a	-1.0207665
75	0x3e945873	0.2897373
76	0x3f04071c	0.5157335
77	0x3f8b57ea	1.0886204
78	0xbd24b8ab	-0.040215176
79	0xbebd91f5	-0.3702542
80	0x3e048d77	0.1294459
81	0xbf7d9d00	-0.9906769
82	0xbfe0a35b	-1.7549852
83	0x3f2336fd	0.6375578
84	0xbf4125a8	-0.75448084
85	0x3fed5eb4	1.8544526
86	0x3e86f7cf	0.26360938
87	0xbf8f82e0	-1.1211815
88	0x3eadb7af	0.33929202
89	0xc014293b	-2.3150165
90	0x4034b3f1	2.8234828
91	0x3f8a983f	1.0827712
92	0xbf9093a8	-1.1295061
93	0x3f17c959	0.5929161
94	0xbd9e9c07	-0.077446036
95	0x3e6b0fb0	0.22955203
96	0x3fb60c02	1.4222414
97	0xbf88f8af	-1.0700892
98	0xbeb9a936	-0.3626191
99	0xbea38d3c	-0.3194369
100	0x3e013985	0.12619598
101	0xbf1b2338	-0.60600615
102	0xbf828a8f	-1.0198535
103	0xbff17683	-1.8864292
104	0x3e772df2	0.2413862
105	0x3e2faf58	0.17156732
106	0xbf62205e	-0.8833064
107	0x3ee10b92	0.4395414
108	0xbfee0c06	-1.8597419
109	0xbfa3b2b1	-1.2788907
110	0x3f251d79	0.64498097
111	0xbeb0aa29	-0.34504822
112	0x3f592e93	0.8483669
113	0x3fa7983d	1.3093334
114	0x3f35e004	0.71044946
115	0xbfc21b09	-1.51645
116	0xbf6729fe	-0.9029845
117	0x3fa2c9b9	1.2717811
118	0xbfd73d9f	-1.681568
119	0xbf24b81a	-0.64343417
120	0x3fc55a93	1.5418266
121	0x3f80d66b	1.0065435
122	0xbe707495	-0.23481973
123	0xbfc0cf6b	-1.5063299
124	0x3f163bbc	0.586849
125	0xbfa1bcb5	-1.2635714
126	0xbe04b635	-0.12960131
127	0xbf480d24	-0.7814505

network_body._body_endoder.seq_layers.0.bias f4 [128]
0	0x00000000	0.0
1	0x00000000	0.0
2	0x00000000	0.0
3	0x00000000	0.0
4	0x00000000	0.0
5	0x00000000	0.0
6	0x00000000	0.0
7	0x00000000	0.0
8	0x00000000	0.0
9	0x00000000	0.0
10	0x00000000	0.0
11	0x00000000	0.0
12	0x00000000	0.0
13	0x00000000	0.0
14	0x00000000	0.0
15	0x00000000	0.0
16	0x00000000	0.0
17	0x00000000	0.0
18	0x00000000	0.0
19	0x00000000	0.0
20	0x00000000	0.0
21	0x00000000	0.0
22	0x00000000	0.0
23	0x00000000	0.0
24	0x00000000	0.0
25	0x00000000	0.0
26	0x00000000	0.0
27	0x00000000	0.0
28	0x00000000	0.0
29	0x00000000	0.0
30	0x00000000	0.0
31	0x00000000	0.0
32	0x00000000	0.0
33	0x00000000	0.0
34	0x00000000	0.0
35	0x00000000	0.0
36	0x00000000	0.0
37	0x00000000	0.0
38	0x00000000	0.0
39	0x00000000	0.0
40	0x00000000	0.0
41	0x00000000	0.0
42	0x00000000	0.0
43	0x00000000	0.0
44	0x00000000	0.0
45	0x00000000	0.0
46	0x00000000	0.0
47	0x00000000	0.0
48	0x00000000	0.0
49	0x00000000	0.0
50	0x00000000	0.0
51	0x00000000	0.0
52	0x00000000	0.0
53	0x00000000	0.0
54	0x00000000	0.0
55	0x00000000	0.0
56	0x00000000	0.0
57	0x00000000	0.0
58	0x00000000	0.0
59	0x00000000	0.0
60	0x00000000	0.0
61	0x00000000	0.0
62	0x00000000	0.0
63	0x00000000	0.0
64	0x00000000	0.0
65	0x00000000	0.0
66	0x00000000	0.0
67	0x00000000	0.0
68	0x00000000	0.0
69	0x00000000	0.0
70	0x00000000	0.0
71	0x00000000	0.0
72	0x00000000	0.0
73	0x00000000	0.0
74	0x00000000	0.0
75	0x00000000	0.0
76	0x00000000	0.0
77	0x00000000	0.0
78	0x00000000	0.0
79	0x00000000	0.0
80	0x00000000	0.0
81	0x00000000	0.0
82	0x00000000	0.0
83	0x00000000	0.0
84	0x00000000	0.0
85	0x00000000	0.0
86	0x00000000	0.0
87	0x00000000	0.0
88	0x00000000	0.0
89	0x00000000	0.0
90	0x00000000	0.0
91	0x00000000	0.0
92	0x00000000	0.0
93	0x00000000	0.0
94	0x00000000	0.0
95	0x00000000	0.0
96	0x00000000	0.0
97	0x00000000	0.0
98	0x00000000	0.0
99	0x00000000	0.0
100	0x00000000	0.0
101	0x00000000	0.0
102	0x00000000	0.0
103	0x00000000	0.0
104	0x00000000	0.0
105	0x00000000	0.0
106	0x00000000	0.0
107	0x00000000	0.0
108	0x00000000	0.0
109	0x00000000	0.0
110	0x00000000	0.0
111	0x00000000	0.0
112	0x00000000	0.0
113	0x00000000	0.0
114	0x00000000	0.0
115	0x00000000	0.0
116	0x00000000	0.0
117	0x00000000	0.0
118	0x00000000	0.0
119	0x00000000	0.0
120	0x00000000	0.0
121	0x00000000	0.0
122	0x00000000	0.0
123	0x00000000	0.0
124	0x00000000	0.0
125	0x00000000	0.0
126	0x00000000	0.0
127	0x00000000	0.0

network_body._body_endoder.seq_layers.2.weight f4 [128, 128]
0	0xbd38bbea	-0.045101084
1	0xbddadbee	-0.106864795
2	0x3d777b26	0.060420178
3	0xbd27717d	-0.040879715
4	0x3d5dff5a	0.0541986
5	0xbdb3b316	-0.08774392
6	0xbdfaebf4	-0.12252036
7	0xbcbf2a06	-0.023335468
8	0xbda063fd	-0.07831571
9	0x3df05f63	0.117369436
10	0xbe40d0b1	-0.1882961
11	0xbe0c7379	-0.13715924
12	0x3e06575e	0.13119265
13	0xbd6c3331	-0.057666007
14	0x3d5de49c	0.054173097
15	0x3d0449cf	0.03229695
16	0xbe55b34f	-0.20869182
17	0x3d9e793a	0.07737966
18	0xb9e3b8d9	-0.00043434536
19	0xbd493cf7	-0.049130406
20	0x3dd78017	0.10522478
21	0x3dc3c491	0.095589764
22	0x3d668223	0.05627645
23	0xbd7c65ba	-0.06162045
24	0x3c454251	0.012039737
25	0x3e070cf9	0.13188542
26	0x3d2f0406	0.042728446
27	0x3dfc9ff4	0.12335196
28	0x3e383ea5	0.17992647
29	0xbdbad793	-0.09123149
30	0x3c9112de	0.017709192
31	0x3df56578	0.11982244
32	0xbc477c88	-0.012175687
33	0x3d6eb2a7	0.058275845
34	0x3df02fb2	0.11727847
35	0xbd7a27e2	-0.06107319
36	0x3ba7047c	0.00509697
37	0x3d4462c4	0.047945753
38	0x3da74fd0	0.0816952
39	0xbdd52335	-0.10407106
40	0x3c2f3823	0.010694536
41	0xbda1de65	-0.079037465
42	0xbe55638a	-0.20838752
43	0xbe1bed83	-0.15227322
44	0x3d588d37	0.052869048
45	0xbb5dcacd	-0.0033842803
46	0x3c9495dd	0.018137867
47	0xbd59b869	-0.053154383
48	0xbe194a15	-0.14969666
49	0x3dff3c50	0.124626756
50	0x3cbcfafc	0.023068897
51	0xbe1b0378	-0.15138042
52	0xbc09eb41	-0.008417905
53	0xbddfa06d	-0.10919271
54	0xbd6b45b7	-0.057439532
55	0xbbbab16d	-0.0056974203
56	0x3da7d671	0.08195198
57	0xbd9d918d	-0.07693777
58	0x3ab8b715	0.0014092649
59	0x3db232f3	0.08701124
60	0x3d505137	0.050858703
61	0x3da48ff9	0.08035273
62	0x3df1a6c0	0.11799383
63	0xbdfc548c	-0.123208135
64	0xbe55dcb0	-0.20884967
65	0x3cd5b681	0.026088001
66	0xbdded016	-0.10879533
67	0xbd8e3e4e	-0.069454774
68	0x3d012ad3	0.03153498
69	0x3d52eb30	0.051493824
70	0xbd902d60	-0.070399046
71	0xbe263184	-0.16229826
72	0x3c616e0b	0.013759146
73	0x3d0523b9	0.03250477
74	0xbe34031e	-0.17579314
75	0xbe25b1cb	-0.16181104
76	0xbe113dc2	-0.14183715
77	0x3c8ae753	0.016956007
78	0xbde99cce	-0.11406861
79	0x3cd04dd1	0.02542773
80	0xbba7bb65	-0.0051187747
81	0xbdfedd11	-0.12444509
82	0x3e0d47b9	0.13796891
83	0x3d248d53	0.04017384
84	0xbe231f6b	-0.15929954
85	0x3ded2ce2	0.11580826
86	0xbca34c3e	-0.019933816
87	0xbca71511	-0.020395787
88	0xbc9dfcc7	-0.019285573
89	0x3d435ca9	0.04769579
90	0x3cf2d58a	0.029642839
91	0xbd8d5f21	-0.0690291
92	0xbdb7a58f	-0.08967125
93	0xbb2041f8	-0.0024453383
94	0xbdf4e65d	-0.11958001
95	0xbd87851d	-0.06617186
96	0x3b948e64	0.004533576
97	0xba7dea4b	-0.00096860965
98	0x3e025211	0.12726618
99	0x3d8fbae7	0.07018071
100	0xbcb205ad	-0.021731222
101	0xbdbb1d45	-0.09136442
102	0xbcbf7ebc	-0.023375861
103	0xbd459049	-0.048233304
104	0xbdd12739	-0.10212559
105	0xbc127621	-0.008939297
106	0x3ce43859	0.0278589
107	0x3d35e03f	0.04440331
108	0x3c618525	0.013764654
109	0xbcddc65f	-0.02707213
110	0x3ca749fb	0.020421019
111	0x3e0819f6	0.13291153
112	0x3e028e08	0.12749493
113	0xbe0d1819	-0.13778724
114	0x3d2cb41f	0.042163964
115	0x3e1b273b	0.15151684
116	0xbe198b5a	-0.14994565
117	0x3c47d8af	0.0121976575
118	0x3ddf9cc7	0.10918575
119	0xbd442e8e	-0.04789596
120	0xbc4488c3	-0.011995497
121	0x3de70c35	0.11281625
122	0x3d8cd3bc	0.068763226
123	0xbb38c54b	-0.0028193768
124	0x3e3782ee	0.1792104
125	0xbd98a692	-0.07453646
126	0xbcacc029	-0.021087723
127	0x3dbdbf84	0.09265044
128	0xbcd7aac5	-0.026326546
129	0xbda9566f	-0.08268439
130	0xbcf9acbc	-0.030477874
131	0xbdb29aab	-0.08720907
132	0x3dc09249	0.09402902
133	0xbd1eeaab	-0.038798016
134	0x3e602c47	0.2189189
135	0x3d83f7e0	0.06443763
136	0xbe1745ae	-0.14772674
137	0xbdf24c6e	-0.11830984
138	0xbc974117	-0.018463654
139	0xbd8fcdc2	-0.07021667
140	0x3ca166c1	0.019702317
141	0x3d9c180a	0.076217726
142	0xbd210b17	-0.039317217
143	0x3df92909	0.1216603
144	0xbdcd8dae	-0.10036789
145	0x3c5aaddc	0.013347115
146	0x3d43c857	0.04779848
147	0xbe0ad8ad	-0.13559218
148	0xbca2839c	-0.019838147
149	0xbc67b918	-0.014143251
150	0xbd9bf8e2	-0.0761583
151	0x3e6f207d	0.23352237
152	0xbda97160	-0.08273578
153	0xbc52541a	-0.012837434
154	0x3e07809d	0.13232656
155	0xbd10a681	-0.03531504
156	0xbd219428	-0.039447933
157	0xbdf4be40	-0.1195035
158	0x3d63b138	0.05558893
159	0xbcae492a	-0.021275122
160	0xbd47ab2b	-0.048747223
161	0x3cc8810d	0.024475599
162	0x3dbd28e4	0.09236315
163	0xbd003fc8	-0.031310827
164	0x3d182b5d	0.03715073
165	0xbd03e104	-0.032197013
166	0xbe3cf0b2	-0.18451193
167	0xbd510d4e	-0.05103808
168	0x3c9472c4	0.01812113
169	0xbd16d548	-0.036824495
170	0x3ddc335f	0.10751986
171	0x3c5640d7	0.013076982
172	0x3d19e5fe	0.037572853
173	0x3d93d125	0.072176255
174	0x3d82f845	0.0639501
175	0x3d31db0d	0.043421794
176	0xbc183a79	-0.009291285
177	0xbd58348a	-0.05278448
178	0x3d5318d1	0.05153734
179	0xbad254dc	-0.0016047019
180	0xbc8732f8	-0.016503796
181	0x3c4ce26a	0.012505153
182	0xbd9f6fce	-0.07784997
183	0xbdcc91c3	-0.09988739
184	0xbd029fb4	-0.031890586
185	0x3ca2f152	0.019890461
186	0x3cf87755	0.03033034
187	0x3ddbbc32	0.10729255
188	0x3cdaaeed	0.02669474
189	0x3d21a28f	0.03946167
190	0x3c89f070	0.016838282
191	0xbd97353b	-0.073832
192	0x3d6cc4a5	0.057804722
193	0x3cc06f6a	0.023490626
194	0xbbe65196	-0.007028769
195	0xbdd14ca0	-0.10219693
196	0xbd2c9cb8	-0.042141646
197	0x3dc0e7fd	0.09419248
198	0x3cc60f8a	0.024177331
199	0xbdd4938a	-0.10379703
200	0xbcad7000	-0.02117157
201	0xbb1cbba4	-0.0023915553
202	0xbe1d5169	-0.15363087
203	0xbdd9462e	-0.10609089
204	0x3dede9b1	0.11616839
205	0x3e14df92	0.1453841
206	0xbdc5c094	-0.09655872
207	0x3d032f9a	0.03202782
208	0xb9268331	-0.00015879866
209	0xbd061b07	-0.03274062
210	0x3cf7874f	0.030215887
211	0xbdfdb123	-0.12387302
212	0xbdafe8d7	-0.085893326
213	0xbd685ac4	-0.056727186
214	0xbc767baf	-0.015044137
215	0xbcefbba1	-0.029264273
216	0xbc598945	-0.0132773565
217	0xbda8c631	-0.08240927
218	0xbd126e0b	-0.035749476
219	0x3e1944f4	0.1496771
220	0xbce6bbd8	-0.028165743
221	0xbd828b7a	-0.06374259
222	0x3d251d00	0.04031086
223	0x3db0bd32	0.08629836
224	0xbb513a03	-0.0031925447
225	0xbc407cb4	-0.011748482
226	0xbe2b4426	-0.16725215
227	0x3d27e49a	0.040989496
228	0x3e099553	0.13435869
229	0x3cc87ed6	0.024474543
230	0x3bd12312	0.0063823545
231	0xbd577ff3	-0.052612256
232	0x3db6a891	0.0891887
233	0xbc36a434	-0.0111475475
234	0x3dcd775c	0.100325316
235	0xbdd9e19f	-0.10638737
236	0xbd2b9a4c	-0.041895196
237	0xbde8f34b	-0.113745295
238	0x3d6c2b12	0.057658263
239	0x3d4413f2	0.047870584
240	0x3d58a30c	0.05288987
241	0xbc33dee4	-0.010978434
242	0x3d659f7b	0.056060296
243	0xba6fdbbe	-0.00091498706
244	0x3d40cc5b	0.04706989
245	0xbe3961ef	-0.18103765
246	0x3dcb6dc3	0.09933045
247	0x3c82682c	0.015918814
248	0x3d862252	0.06549515
249	0x3e534a85	0.20633896
250	0x3d920c6f	0.07131278
251	0x3dc0e63e	0.09418915
252	0xbddfe11a	-0.109316066
253	0xbdb3b24a	-0.0877424
254	0xbde237d8	-0.110458076
255	0x3b2a120b	0.0025950696

network_body._body_endoder.seq_layers.2.bias f4 [128]
0	0x00000000	0.0
1	0x00000000	0.0
2	0x00000000	0.0
3	0x00000000	0.0
4	0x00000000	0.0
5	0x00000000	0.0
6	0x00000000	0.0
7	0x00000000	0.0
8	0x00000000	0.0
9	0x00000000	0.0
10	0x00000000	0.0
11	0x00000000	0.0
12	0x00000000	0.0
13	0x00000000	0.0
14	0x00000000	0.0
15	0x00000000	0.0
16	0x00000000	0.0
17	0x00000000	0.0
18	0x00000000	0.0
19	0x00000000	0.0
20	0x00000000	0.0
21	0x00000000	0.0
22	0x00000000	0.0
23	0x00000000	0.0
24	0x00000000	0.0
25	0x00000000	0.0
26	0x00000000	0.0
27	0x00000000	0.0
28	0x00000000	0.0
29	0x00000000	0.0
30	0x00000000	0.0
31	0x00000000	0.0
32	0x00000000	0.0
33	0x00000000	0.0
34	0x00000000	0.0
35	0x00000000	0.0
36	0x00000000	0.0
37	0x00000000	0.0
38	0x00000000	0.0
39	0x00000000	0.0
40	0x00000000	0.0
41	0x00000000	0.0
42	0x00000000	0.0
43	0x00000000	0.0
44	0x00000000	0.0
45	0x00000000	0.0
46	0x00000000	0.0
47	0x00000000	0.0
48	0x00000000	0.0
49	0x00000000	0.0
50	0x00000000	0.0
51	0x00000000	0.0
52	0x00000000	0.0
53	0x00000000	0.0
54	0x00000000	0.0
55	0x00000000	0.0
56	0x00000000	0.0
57	0x00000000	0.0
58	0x00000000	0.0
59	0x00000000	0.0
60	0x00000000	0.0
61	0x00000000	0.0
62	0x00000000	0.0
63	0x00000000	0.0
64	0x00000000	0.0
65	0x00000000	0.0
66	0x00000000	0.0
67	0x00000000	0.0
68	0x00000000	0.0
69	0x00000000	0.0
70	0x00000000	0.0
71	0x00000000	0.0
72	0x00000000	0.0
73	0x00000000	0.0
74	0x00000000	0.0
75	0x00000000	0.0
76	0x00000000	0.0
77	0x00000000	0.0
78	0x00000000	0.0
79	0x00000000	0.0
80	0x00000000	0.0
81	0x00000000	0.0
82	0x00000000	0.0
83	0x00000000	0.0
84	0x00000000	0.0
85	0x00000000	0.0
86	0x00000000	0.0
87	0x00000000	0.0
88	0x00000000	0.0
89	0x00000000	0.0
90	0x00000000	0.0
91	0x00000000	0.0
92	0x00000000	0.0
93	0x00000000	0.0
94	0x00000000	0.0
95	0x00000000	0.0
96	0x00000000	0.0
97	0x00000000	0.0
98	0x00000000	0.0
99	0x00000000	0.0
100	0x00000000	0.0
101	0x00000000	0.0
102	0x00000000	0.0
103	0x00000000	0.0
104	0x00000000	0.0
105	0x00000000	0.0
106	0x00000000	0.0
107	0x00000000	0.0
108	0x00000000	0.0
109	0x00000000	0.0
110	0x00000000	0.0
111	0x00000000	0.0
112	0x00000000	0.0
113	0x00000000	0.0
114	0x00000000	0.0
115	0x00000000	0.0
116	0x00000000	0.0
117	0x00000000	0.0
118	0x00000000	0.0
119	0x00000000	0.0
120	0x00000000	0.0
121	0x00000000	0.0
122	0x00000000	0.0
123	0x00000000	0.0
124	0x00000000	0.0
125	0x00000000	0.0
126	0x00000000	0.0
127	0x00000000	0.0

action_model._continuous_distribution.mu.weight f4 [1, 128]
0	0xbccd5a97	-0.02506761
1	0x3ba9e7f1	0.0051851203
2	0xbbf51328	-0.0074790902
3	0xbbb39a83	-0.0054810657
4	0x3ce0ef2a	0.027457792
5	0x3b07bc51	0.002071161
6	0x3a820eeb	0.0009922659
7	0x3ccb52a8	0.024819687
8	0x3aa520c8	0.001259827
9	0x3c902e35	0.017600158
10	0xbc2d65b3	-0.010583329
11	0xb80ca744	-3.353438e-05
12	0x3cb2662b	0.021777233
13	0x3ca5c383	0.020234829
14	0xbbd1c42b	-0.006401559
15	0x3b311615	0.0027021219
16	0xbb9b6037	-0.0047416943
17	0x3cf4c26a	0.02987786
18	0xbc1354d3	-0.008992392
19	0xbb71569f	-0.0036825312
20	0xbc860a37	-0.016362293
21	0x3be57fc0	0.0070037544
22	0x3cabb104	0.020958431
23	0xbcf1d400	-0.029520035
24	0xbb070e4b	-0.0020607885
25	0x3b8d732d	0.0043167085
26	0x3c44c5ef	0.012010082
27	0x3cab573d	0.020915622
28	0xbc8a2eaf	-0.016867964
29	0x3c4e5bdb	0.012595142
30	0xbbbe7862	-0.0058126906
31	0x3cc21ff4	0.023696877
32	0x3c0de002	0.008659365
33	0xbaf2df38	-0.0018529659
34	0x3ca98760	0.020694435
35	0xbc6d6ad2	-0.0144908
36	0xbc689287	-0.014195091
37	0x3bca48b3	0.006173217
38	0xbbcd9d18	-0.0062748305
39	0x3b4f4258	0.0031625237
40	0x3c3b9ed1	0.011451439
41	0xbd003298	-0.03129825
42	0x3c3cd082	0.0115243215
43	0x3c6dfcf2	0.014525639
44	0x3bb18ec1	0.005418629
45	0xbbd7ed82	-0.0065895924
46	0xbc9c0a07	-0.01904775
47	0xba142b39	-0.00056521926
48	0x3c868923	0.016422814
49	0xbbefc823	-0.0073175593
50	0xbb88e6e0	-0.004177913
51	0x3b352fd7	0.0027646923
52	0xbb8c8eda	-0.00428949
53	0xbc89e07f	-0.01683068
54	0xbcbb2cf1	-0.022848578
55	0xbb810335	-0.00393715
56	0xbc7015d0	-0.014653638
57	0xbccd2c3f	-0.025045512
58	0x3c66b56f	0.014081343
59	0xbd0af91f	-0.033928987
60	0xbce60790	-0.028079778
61	0x3c661a32	0.014044331
62	0xbcbefca9	-0.023313837
63	0xbc754143	-0.014969173
64	0x3c429a12	0.011877554
65	0xbbcbbc07	-0.006217483
66	0x3b883289	0.004156415
67	0x3cdda205	0.027054796
68	0x3c0f6d40	0.008754075
69	0x3ce042f0	0.027375668
70	0xbb389830	-0.0028166883
71	0xba8b3553	-0.001062075
72	0x3d3fb603	0.04680444
73	0xbcd96968	-0.02653952
74	0x3d0e2794	0.034705713
75	0x3c436a4a	0.011927197
76	0xbc942969	-0.018086152
77	0xbc27e9c8	-0.010248609
78	0xbcfba513	-0.030718362
79	0x3c8ec1df	0.01742643
80	0x3c098c7c	0.0083953105
81	0xbccf9057	-0.025337381
82	0x3bc78cb5	0.0060897716
83	0xbbdcac1b	-0.0067343838
84	0x3ca8f1e8	0.020623162
85	0x3c3ef163	0.011654231
86	0x3c3a96cb	0.011388491
87	0xbc76068a	-0.0150162075
88	0xbba5191e	-0.0050383946
89	0xbac4ccfd	-0.0015014705
90	0xbc7fb6d8	-0.015607558
91	0xbc1132af	-0.008862182
92	0x3c05e0a9	0.008171239
93	0x3cba9921	0.022778096
94	0xbc9b9693	-0.018992698
95	0x3ba5c39d	0.0050587193
96	0xbbbe1910	-0.0058013275
97	0xbc4a9118	-0.012363695
98	0xbc8ce4ef	-0.017199008
99	0xbca740c8	-0.020416632
100	0x3c07c704	0.008287195
101	0x3c16316c	0.0091670565
102	0x3bb83bac	0.005622348
103	0xb8a133ab	-7.686702e-05
104	0x3c4a4c3b	0.012347276
105	0x3d0ee23a	0.034883715
106	0xbc69c7fb	-0.01426887
107	0x3c0af863	0.008482072
108	0xbbfa524f	-0.0076392065
109	0x3cae4679	0.021273838
110	0xbcd55abb	-0.02604424
111	0xbc2db8b7	-0.0106031215
112	0xbcaa8e3c	-0.020819776
113	0xbceaec9a	-0.028677274
114	0xbc589402	-0.013218882
115	0x3bcc8fec	0.0062427428
116	0xbc2d609c	-0.0105821155
117	0xbba336d2	-0.0049809003
118	0xbc87389b	-0.016506484
119	0x3c4a4671	0.012345896
120	0x3c2345a3	0.009965333
121	0xbcc9aed4	-0.024619497
122	0x3af3f273	0.0018611684
123	0x373f743f	1.1411553e-05
124	0xbc5601cd	-0.013061953
125	0x3c18216f	0.009285315
126	0xbc45b2b4	-0.012066532
127	0x3cb0067d	0.021487469

network_body._body_endoder.seq_layers.0.weight f4 [128, 1]
0	0x3f1f9f5f	0.62352556
1	0x3fdb0c06	1.7113044
2	0xbf015a4f	-0.50528425
3	0xbfdaa39c	-1.708118
4	0xbf04f6e2	-0.51939213
5	0xbeabd823	-0.33563337
6	0x3edfdc09	0.4372256
7	0xbf5358cc	-0.8255737
8	0x3d1ccee0	0.03828323
9	0x3ed15947	0.40888426
10	0x3bf7982e	0.007555983
11	0x3d8a01f2	0.06738652
12	0xbe9f0898	-0.31061244
13	0xbf6bf93f	-0.92177194
14	0xbf110ce4	-0.56660295
15	0x3e5f436e	0.21803066
16	0xbddcddd1	-0.107844956
17	0x3eef3f15	0.46727815
18	0x400dc1e0	2.2149582
19	0x3eba906f	0.3643832
20	0xbf0f67ac	-0.56017566
21	0xbfa9697b	-1.3235315
22	0x3f435424	0.76300263
23	0x3f1cc144	0.612324
24	0xbee627f8	-0.4495237
25	0x3f29028c	0.6601951
26	0xbf079e9d	-0.529764
27	0x3f0817bb	0.5316121
28	0x3f92353d	1.1422497
29	0xbf858f24	-1.0434308
30	0xbeba9783	-0.3644372
31	0x3f12e64f	0.57382673
32	0x3e1832bb	0.14863102
33	0x3f917c41	1.1366044
34	0xbdffa6b3	-0.12482967
35	0xbf9518cc	-1.1648192
36	0x3e49471f	0.19656037
37	0xbfa87d62	-1.3163264
38	0xbf073425	-0.5281394
39	0xbf95553b	-1.1666635
40	0x3f792b5f	0.97331804
41	0xbd1b5b42	-0.037928827
42	0xbf1d9c96	-0.61567056
43	0x3f842175	1.032271
44	0xbf338f2a	-0.70140326
45	0x3eac922d	0.33705273
46	0x4019a83b	2.400893
47	0xbefcf0ba	-0.4940241
48	0x3f2357d4	0.6380589
49	0x3fcd2924	1.602818
50	0x3fbc5110	1.4712238
51	0xbfbf1daf	-1.4930934
52	0x3ef33d8e	0.475079
53	0x3f8a8f43	1.082497
54	0xbeac2006	-0.33618182
55	0xbe7031e0	-0.23456526
56	0x3e9a6a3a	0.3015917
57	0x3f5b21e0	0.85598564
58	0x3ff2b252	1.8960669
59	0xbf0047c8	-0.5010953
60	0xbe2c8fb7	-0.16851698
61	0xc006e96d	-2.1079972
62	0xbedc39fa	-0.43012983
63	0x3fa45635	1.2838808
64	0xbf1c71b6	-0.6111101
65	0xbc8dc086	-0.017303716
66	0x3ed9e6b8	0.42558837
67	0x3f995e78	1.1981955
68	0x3ea2ed7f	0.3182182
69	0x3fecbc09	1.8494884
70	0x3f621478	0.8831248
71	0x3f878176	1.0586383
72	0xbe1c40c0	-0.15259075
73	0xbf844ca1	-1.0335885
74	0xbf9f1a54	-1.242991
75	0x3f4c65e1	0.79842955
76	0xbf5c6485	-0.8609088
77	0xbfd60113	-1.6719078
78	0xbfaf24b6	-1.3683078
79	0x4005930f	2.0871007
80	0x3f54de97	0.83152145
81	0xbfeb46b3	-1.8380951
82	0xbe74ffd3	-0.23925714
83	0x3cfdcfb1	0.030982824
84	0xbe4d032e	-0.20020744
85	0x3ebe9f52	0.37230927
86	0xbda0800a	-0.078369215
87	0xbf99b5da	-1.2008622
88	0x3f048468	0.51764536
89	0x3eecc722	0.46245676
90	0xbf9aea13	-1.2102684
91	0xbda8f85d	-0.082504965
92	0x3f19b9b9	0.60049015
93	0x3ead1396	0.33804005
94	0x3eaeb896	0.34125203
95	0x3f81a0d7	1.012721
96	0xbf385fa8	-0.7202096
97	0x3fa46859	1.2844344
98	0xbf1f00e1	-0.62110716
99	0xbcac8c66	-0.021063041
100	0xbe3310a6	-0.1748682
101	0x3e48b057	0.19598518
102	0x3ff57327	1.9175767
103	0xbedee7e5	-0.43536296
104	0xbdf24130	-0.1182884
105	0xbf159b62	-0.5844022
106	0xbf827dd0	-1.0194645
107	0x3f89244b	1.0714201
108	0x3fdb4d0c	1.7132888
109	0xbf1f7ee5	-0.62303
110	0xbf3a1442	-0.7268716
111	0x3f62c250	0.8857775
112	0xbf76fe12	-0.9648143
113	0xbfb61128	-1.4223986
114	0xbeac7033	-0.3367935
115	0xbf07228c	-0.5278709
116	0x3f94b960	1.1619072
117	0x4012a899	2.2915404
118	0x3fad879a	1.3557007
119	0xbfd4cf2a	-1.6625721
120	0x3f20059f	0.6250858
121	0x3fb2dfed	1.3974587
122	0x400c196e	2.189052
123	0xbfc029a4	-1.5012708
124	0x3ed41f1f	0.41429994
125	0xbecff170	-0.4061389
126	0x3f843d0d	1.0331131
127	0x3f928bde	1.1448934

network_body._body_endoder.seq_layers.0.bias f4 [128]
0	0x00000000	0.0
1	0x00000000	0.0
2	0x00000000	0.0
3	0x00000000	0.0
4	0x00000000	0.0
5	0x00000000	0.0
6	0x00000000	0.0
7	0x00000000	0.0
8	0x00000000	0.0
9	0x00000000	0.0
10	0x00000000	0.0
11	0x00000000	0.0
12	0x00000000	0.0
13	0x00000000	0.0
14	0x00000000	0.0
15	0x00000000	0.0
16	0x00000000	0.0
17	0x00000000	0.0
18	0x00000000	0.0
19	0x00000000	0.0
20	0x00000000	0.0
21	0x00000000	0.0
22	0x00000000	0.0
23	0x00000000	0.0
24	0x00000000	0.0
25	0x00000000	0.0
26	0x00000000	0.0
27	0x00000000	0.0
28	0x00000000	0.0
29	0x00000000	0.0
30	0x00000000	0.0
31	0x00000000	0.0
32	0x00000000	0.0
33	0x00000000	0.0
34	0x00000000	0.0
35	0x00000000	0.0
36	0x00000000	0.0
37	0x00000000	0.0
38	0x00000000	0.0
39	0x00000000	0.0
40	0x00000000	0.0
41	0x00000000	0.0
42	0x00000000	0.0
43	0x00000000	0.0
44	0x00000000	0.0
45	0x00000000	0.0
46	0x00000000	0.0
47	0x00000000	0.0
48	0x00000000	0.0
49	0x00000000	0.0
50	0x00000000	0.0
51	0x00000000	0.0
52	0x00000000	0.0
53	0x00000000	0.0
54	0x00000000	0.0
55	0x00000000	0.0
56	0x00000000	0.0
57	0x00000000	0.0
58	0x00000000	0.0
59	0x00000000	0.0
60	0x00000000	0.0
61	0x00000000	0.0
62	0x00000000	0.0
63	0x00000000	0.0
64	0x00000000	0.0
65	0x00000000	0.0
66	0x00000000	0.0
67	0x00000000	0.0
68	0x00000000	0.0
69	0x00000000	0.0
70	0x00000000	0.0
71	0x00000000	0.0
72	0x00000000	0.0
73	0x00000000	0.0
74	0x00000000	0.0
75	0x00000000	0.0
76	0x00000000	0.0
77	0x00000000	0.0
78	0x00000000	0.0
79	0x00000000	0.0
80	0x00000000	0.0
81	0x00000000	0.0
82	0x00000000	0.0
83	0x00000000	0.0
84	0x00000000	0.0
85	0x00000000	0.0
86	0x00000000	0.0
87	0x00000000	0.0
88	0x00000000	0.0
89	0x00000000	0.0
90	0x00000000	0.0
91	0x00000000	0.0
92	0x00000000	0.0
93	0x00000000	0.0
94	0x00000000	0.0
95	0x00000000	0.0
96	0x00000000	0.0
97	0x00000000	0.0
98	0x00000000	0.0
99	0x00000000	0.0
100	0x00000000	0.0
101	0x00000000	0.0
102	0x00000000	0.0
103	0x00000000	0.0
104	0x00000000	0.0
105	0x00000000	0.0
106	0x00000000	0.0
107	0x00000000	0.0
108	0x00000000	0.0
109	0x00000000	0.0
110	0x00000000	0.0
111	0x00000000	0.0
112	0x00000000	0.0
113	0x00000000	0.0
114	0x00000000	0.0
115	0x00000000	0.0
116	0x00000000	0.0
117	0x00000000	0.0
118	0x00000000	0.0
119	0x00000000	0.0
120	0x00000000	0.0
121	0x00000000	0.0
122	0x00000000	0.0
123	0x00000000	0.0
124	0x00000000	0.0
125	0x00000000	0.0
126	0x00000000	0.0
127	0x00000000	0.0

network_body._body_endoder.seq_layers.2.weight f4 [128, 128]
0	0x3d3ca9e9	0.046060476
1	0xbd9ee707	-0.07758909
2	0x3d1fd03a	0.03901694
3	0x3e045890	0.12924409
4	0x3debe552	0.11518349
5	0xbbc43ff5	-0.0059890696
6	0xbd636da8	-0.0555245
7	0x3d6632da	0.05620084
8	0x3dd8556a	0.105631664
9	0x3c71264a	0.0147186015
10	0x3d8e8050	0.069580674
11	0xbd942ee6	-0.07235508
12	0x3cc3069c	0.023806863
13	0x3e046b49	0.12931551
14	0x3d2325ce	0.039830975
15	0x3d69177c	0.056907162
16	0xbdb0fb18	-0.08641642
17	0xbd5c2f0a	-0.053755797
18	0x3e01e9ef	0.12686895
19	0x3d346487	0.044041183
20	0xbc25da7c	-0.0101228915
21	0xbb46dc1a	-0.0030343593
22	0xbd953a4b	-0.07286509
23	0xbc302bb7	-0.01075261
24	0xbdee74c5	-0.11643366
25	0x3dbf563e	0.09342621
26	0x3c5d50a0	0.013507992
27	0x3c6ff409	0.014645585
28	0x3d83ec88	0.06441599
29	0x3db8c17a	0.09021278
30	0x3da3e956	0.0800349
31	0xbc9800c0	-0.018555045
32	0x3dc41477	0.09574216
33	0x3d7f6593	0.062352728
34	0xbdc33053	-0.095307015
35	0x3d0cf9ea	0.034418024
36	0x3c3b413d	0.011429128
37	0x3d9ca7de	0.076492056
38	0x3d8d70b8	0.06906265
39	0x3d9dac6d	0.07698903
40	0x3d5ee98d	0.05442195
41	0xbe023a9b	-0.12717669
42	0x3bb494be	0.0055108955
43	0x3dc3a3b6	0.0955271
44	0xbdd5fc0c	-0.10448465
45	0xbdda9ed5	-0.10674826
46	0x3bc4959a	0.005999279
47	0xbdd47324	-0.10373524
48	0x3daf827f	0.08569812
49	0x3e098ee0	0.13433409
50	0x3d8e68af	0.069535606
51	0x3c76bed0	0.015060142
52	0x3d1bb688	0.038015872
53	0xbe00b437	-0.12568747
54	0x3e1ece5e	0.1550841
55	0x3de26954	0.11055246
56	0xbdea2fe6	-0.11434917
57	0x3ddc629a	0.10760994
58	0xbd4aeb94	-0.04954107
59	0xbdc87fe4	-0.09790018
60	0xbe3ce00b	-0.1844484
61	0xbd439add	-0.04775511
62	0xbd5f63c3	-0.0545385
63	0x3e1e16bf	0.15438364
64	0xbd014dd8	-0.03156838
65	0xbe3ab3db	-0.18232672
66	0x3cb7f373	0.022454953
67	0x3e50552a	0.20344988
68	0xbe187d00	-0.14891434
69	0x3d816d4d	0.063196756
70	0x3e06b1b2	0.13153723
71	0xbdbc84d5	-0.09205023
72	0x3d172c3e	0.036907427
73	0x3df9ae22	0.12191416
74	0xbdae9b5e	-0.08525728
75	0xbda68eaf	-0.081326835
76	0xbc210800	-0.0098285675
77	0xbe77be10	-0.24193597
78	0xbbf4d42d	-0.0074715824
79	0xbd82660a	-0.06367119
80	0xbd61069e	-0.05493795
81	0x3cf38a50	0.029729038
82	0x3d121e0c	0.035673186
83	0xbd1b9607	-0.037984874
84	0xbdc17398	-0.09445876
85	0x3e0d8c6b	0.13823096
86	0x3cda40f3	0.026642298
87	0x3d13a9eb	0.03605072
88	0xbe3bec32	-0.1835182
89	0xbdf0d7f1	-0.117599376
90	0xbdc6a846	-0.09700064
91	0x3c2cdc71	0.010550604
92	0x3d4ba837	0.04972097
93	0xbe573ba2	-0.21018842
94	0x3db9284e	0.09040891
95	0xbd728b70	-0.05921501
96	0x3dde45d2	0.10853161
97	0x3e29781f	0.16549729
98	0xbdb20456	-0.08692233
99	0xbd26d7af	-0.040733036
100	0x3caa185a	0.020763565
101	0x3982e2cb	0.00024964506
102	0x3d971a5d	0.07378075
103	0xbcc5322a	-0.024071772
104	0xbe0c8e90	-0.13726258
105	0xbd0b0ca9	-0.03394762
106	0x3d40915d	0.04701363
107	0xbc9b4c8f	-0.018957404
108	0x3d72ed22	0.05930818
109	0xbca34bc2	-0.019933585
110	0x3cdb5ae8	0.026776746
111	0x3d62e174	0.05539079
112	0x3e4daea2	0.20086148
113	0xbd70cc11	-0.058788363
114	0xbbdbe9fc	-0.0067112427
115	0xbdad1b70	-0.08452499
116	0xbce3f876	-0.027828436
117	0x3cfc8a6d	0.030827725
118	0xbd2687c9	-0.04065684
119	0xbd2212a9	-0.039568577
120	0x3d5817b1	0.05275697
121	0x3d12fffa	0.03588865
122	0x3d73417f	0.059388634
123	0x3d8e173b	0.069380246
124	0xbc11a308	-0.008888967
125	0xbdaf3fce	-0.08557092
126	0xbbba75fc	-0.0056903344
127	0xbc1b2399	-0.009468936
128	0xbdfbb78a	-0.12290867
129	0xbd8bd7ad	-0.06828246
130	0xbde78b5d	-0.11305878
131	0xbd74a62a	-0.05972878
132	0xbe29da69	-0.16587223
133	0xbc96591f	-0.018353043
134	0xbe01685f	-0.1263747
135	0x3d614b08	0.055003196
136	0xbdadab7e	-0.08479975
137	0xbe1bd0b9	-0.1521634
138	0x3d9e4dcb	0.077296816
139	0x39e359f5	0.00043363837
140	0xbd0d8c94	-0.034557894
141	0x3d9e152b	0.07718881
142	0x3e1d0e2e	0.1533744
143	0xbce8cace	-0.028417017
144	0xbbe6be3b	-0.00704172
145	0xbdc37740	-0.095442295
146	0x3d8b33e8	0.0679701
147	0xbd7006a5	-0.058600087
148	0x3d290a1a	0.0412694
149	0xbd257cd2	-0.04040224
150	0x3d6e3ddf	0.058164474
151	0xbdb1b84a	-0.086777285
152	0x3d649238	0.055803508
153	0xbda9b181	-0.08285809
154	0x3d17ba28	0.037042767
155	0xbd92d745	-0.07169966
156	0xbdc2aeaa	-0.09505971
157	0x3ca7fe66	0.020507049
158	0x3cee624c	0.029099606
159	0xbdd6f9b9	-0.104968496
160	0xbdb15d5a	-0.086603835
161	0xbdd5cd0d	-0.10439501
162	0x3d1af84b	0.037834447
163	0xbdd7a922	-0.105303064
164	0x3d8705b7	0.06592887
165	0x3c4d10d2	0.012516217
166	0xbcc4270b	-0.023944398
167	0xbd7714a5	-0.060322423
168	0x3ddcd383	0.1078253
169	0x3d3751b1	0.04475564
170	0xbd6edae4	-0.05831422
171	0xbcaa9df3	-0.02082727
172	0x3e6dacc6	0.23210439
173	0x3dd5f535	0.1044716
174	0x3da69b07	0.08135038
175	0xbe286d15	-0.16447861
176	0xbd49791d	-0.04918777
177	0xbd8dbe58	-0.06921071
178	0xbd86f840	-0.06590319
179	0x3d793a8f	0.06084686
180	0xbd287080	-0.041122913
181	0xbd02a969	-0.031899843
182	0x3cedf06e	0.02904531
183	0x3e01c894	0.1267417
184	0x3d0e4acd	0.034739304
185	0xbd8ea0f7	-0.06964295
186	0x3d383562	0.044972785
187	0xbd7a6b7b	-0.061137658
188	0x3d843d83	0.06457045
189	0xbc8900b0	-0.01672396
190	0xbd49421c	-0.049135312
191	0xbdddd105	-0.10830883
192	0xbe1f9644	-0.15584666
193	0x3d87c8f6	0.06630127
194	0xbd03b3de	-0.032153957
195	0x3d2f913f	0.042863127
196	0x3e24745a	0.1606001
197	0x3da60534	0.08106461
198	0xbd42b174	-0.047532514
199	0x3de5a44f	0.1121298
200	0xbcc4c77b	-0.024020901
201	0x3e68a692	0.22719792
202	0xbdada939	-0.08479542
203	0xbd7e1bce	-0.062038235
204	0xbd23c4e8	-0.039982706
205	0x3e0edddc	0.1395182
206	0x3d6aa322	0.05728448
207	0xbd0a0bc0	-0.033702612
208	0x3deb6159	0.11493177
209	0xbd971bd3	-0.07378354
210	0x3c014d2c	0.007891934
211	0xbc507bd8	-0.012724839
212	0x3de2ea0f	0.110797994
213	0xbc4247f8	-0.011857979
214	0x3e4e4ead	0.201472
215	0x3e569939	0.20956887
216	0xb925d358	-0.00015814358
217	0x3d184fcd	0.03718548
218	0xbd0604a9	-0.032719288
219	0x3da7b0df	0.08188032
220	0xbd850029	-0.06494171
221	0x3db06aac	0.08614096
222	0x3d8ea682	0.069653526
223	0x3c80db7e	0.015729662
224	0x3ce94035	0.028473
225	0x3d8345fd	0.064098336
226	0x3be842c1	0.007088036
227	0x3d7970ad	0.06089847
228	0xbde81fd4	-0.11334196
229	0xbe1ce0f2	-0.15320185
230	0x3c462a17	0.012094996
231	0x3dba8d99	0.09109039
232	0xbd0a6ff2	-0.033798166
233	0xbcfc8291	-0.030823978
234	0xbe009dd9	-0.12560214
235	0xbd2f60b3	-0.04281683
236	0xbd92bec6	-0.071652934
237	0xbc9927ef	-0.0186958
238	0x3e268f80	0.16265678
239	0x3c1d3e67	0.009597397
240	0x3da6d74e	0.08146535
241	0x3c002360	0.007820934
242	0x3d3e3d5b	0.046445232
243	0xbe1a1028	-0.15045226
244	0x3dc0e728	0.094190896
245	0xbcbe963c	-0.023264997
246	0xbdaf436d	-0.08557782
247	0x3d2dd350	0.04243785
248	0xbd03c36d	-0.032168794
249	0x3c9ea732	0.019366834
250	0xbd560169	-0.05224744
251	0x3dd093ae	0.10184418
252	0x3da14fdb	0.07876559
253	0xbd9e7c23	-0.07738521
254	0xbd24ef04	-0.040267006
255	0xbc2e05a6	-0.010621464

network_body._body_endoder.seq_layers.2.bias f4 [128]
0	0x00000000	0.0
1	0x00000000	0.0
2	0x00000000	0.0
3	0x00000000	0.0
4	0x00000000	0.0
5	0x00000000	0.0
6	0x00000000	0.0
7	0x00000000	0.0
8	0x00000000	0.0
9	0x00000000	0.0
10	0x00000000	0.0
11	0x00000000	0.0
12	0x00000000	0.0
13	0x00000000	0.0
14	0x00000000	0.0
15	0x00000000	0.0
16	0x00000000	0.0
17	0x00000000	0.0
18	0x00000000	0.0
19	0x00000000	0.0
20	0x00000000	0.0
21	0x00000000	0.0
22	0x00000000	0.0
23	0x00000000	0.0
24	0x00000000	0.0
25	0x00000000	0.0
26	0x00000000	0.0
27	0x00000000	0.0
28	0x00000000	0.0
29	0x00000000	0.0
30	0x00000000	0.0
31	0x00000000	0.0
32	0x00000000	0.0
33	0x00000000	0.0
34	0x00000000	0.0
35	0x00000000	0.0
36	0x00000000	0.0
37	0x00000000	0.0
38	0x00000000	0.0
39	0x00000000	0.0
40	0x00000000	0.0
41	0x00000000	0.0
42	0x00000000	0.0
43	0x00000000	0.0
44	0x00000000	0.0
45	0x00000000	0.0
46	0x00000000	0.0
47	0x00000000	0.0
48	0x00000000	0.0
49	0x00000000	0.0
50	0x00000000	0.0
51	0x00000000	0.0
52	0x00000000	0.0
53	0x00000000	0.0
54	0x00000000	0.0
55	0x00000000	0.0
56	0x00000000	0.0
57	0x00000000	0.0
58	0x00000000	0.0
59	0x00000000	0.0
60	0x00000000	0.0
61	0x00000000	0.0
62	0x00000000	0.0
63	0x00000000	0.0
64	0x00000000	0.0
65	0x00000000	0.0
66	0x00000000	0.0
67	0x00000000	0.0
68	0x00000000	0.0
69	0x00000000	0.0
70	0x00000000	0.0
71	0x00000000	0.0
72	0x00000000	0.0
73	0x00000000	0.0
74	0x00000000	0.0
75	0x00000000	0.0
76	0x00000000	0.0
77	0x00000000	0.0
78	0x00000000	0.0
79	0x00000000	0.0
80	0x00000000	0.0
81	0x00000000	0.0
82	0x00000000	0.0
83	0x00000000	0.0
84	0x00000000	0.0
85	0x00000000	0.0
86	0x00000000	0.0
87	0x00000000	0.0
88	0x00000000	0.0
89	0x00000000	0.0
90	0x00000000	0.0
91	0x00000000	0.0
92	0x00000000	0.0
93	0x00000000	0.0
94	0x00000000	0.0
95	0x00000000	0.0
96	0x00000000	0.0
97	0x00000000	0.0
98	0x00000000	0.0
99	0x00000000	0.0
100	0x00000000	0.0
101	0x00000000	0.0
102	0x00000000	0.0
103	0x00000000	0.0
104	0x00000000	0.0
105	0x00000000	0.0
106	0x00000000	0.0
107	0x00000000	0.0
108	0x00000000	0.0
109	0x00000000	0.0
110	0x00000000	0.0
111	0x00000000	0.0
112	0x00000000	0.0
113	0x00000000	0.0
114	0x00000000	0.0
115	0x00000000	0.0
116	0x00000000	0.0
117	0x00000000	0.0
118	0x00000000	0.0
119	0x00000000	0.0
120	0x00000000	0.0
121	0x00000000	0.0
122	0x00000000	0.0
123	0x00000000	0.0
124	0x00000000	0.0
125	0x00000000	0.0
126	0x00000000	0.0
127	0x00000000	0.0

value_heads.value_heads.extrinsic.weight f4 [1, 128]
0	0xbe1ccf1e	-0.15313384
1	0xbda8ad2a	-0.082361534
2	0x3e3d74ac	0.18501538
3	0x3dacac80	0.08431339
4	0x36b50000	5.3942204e-06
5	0x3da53588	0.08066851
6	0xbe4f6d4b	-0.20256536
7	0xbd7f550c	-0.062336966
8	0x3d83195c	0.06401321
9	0xbe45b451	-0.19307067
10	0xbe489e00	-0.19591522
11	0xbe4e4595	-0.20143731
12	0x3dd09f0c	0.10186586
13	0x3e5c7d60	0.21532202
14	0x3e59a090	0.21252656
15	0x3d045800	0.032310486
16	0xbe29d1f8	-0.16584003
17	0x3e172eca	0.14763942
18	0x3e592ae6	0.2120777
19	0xbd7f7460	-0.062366843
20	0xbe20a1b4	-0.15686685
21	0x3c381420	0.011235267
22	0xbc7b7330	-0.015347287
23	0xbddf59c0	-0.1090579
24	0xbe04acca	-0.12956539
25	0x3e357344	0.17719752
26	0xbd48acac	-0.048992798
27	0xbdf075b3	-0.11741199
28	0xbe14e8da	-0.14541951
29	0x3e4b57e8	0.19857752
30	0x3e038800	0.12844849
31	0xbd922fd6	-0.0713803
32	0xbd967db0	-0.07348192
33	0x3e09b8d8	0.13449419
34	0x3df8849c	0.12134668
35	0x3c890e30	0.016730398
36	0x3e26b9b2	0.16281775
37	0xbdb833c6	-0.0899425
38	0x3cd9d770	0.026591986
39	0x3e531132	0.20612028
40	0x3d9def84	0.077116996
41	0xbc824b40	-0.015905023
42	0x3cf717f0	0.030162781
43	0xbd452be0	-0.048137546
44	0x3cddc5f8	0.027071938
45	0x3da52e8c	0.08065519
46	0x3e140682	0.14455608
47	0x3dda70e4	0.106660634
48	0xbdc2d01e	-0.095123515
49	0x3c422b40	0.011851132
50	0x3e0d1274	0.1377657
51	0x3e3cffd8	0.18456972
52	0xbdc55fd6	-0.0963742
53	0x3e0a2994	0.13492423
54	0xbe517466	-0.20454559
55	0xbda73b50	-0.0816561
56	0xbdd70539	-0.10499043
57	0xbc06dba0	-0.008231074
58	0x3e369f18	0.17834127
59	0xbe598f4b	-0.21246068
60	0x3b15f080	0.0022878945
61	0x3cdccf10	0.026954204
62	0xbe0e59a8	-0.13901389
63	0xbe5a1a89	-0.21299185
64	0xbcd35d20	-0.025801241
65	0x3e5774e2	0.21040681
66	0xbe3d20f5	-0.18469603
67	0xbe462ee4	-0.19353825
68	0x3e307304	0.17231375
69	0xbd067788	-0.032828838
70	0xbddece97	-0.10879248
71	0xbdb7952a	-0.08963998
72	0xbd616d70	-0.05503601
73	0x3e1f3e0c	0.15551013
74	0xbd68acf8	-0.05680558
75	0x3e21b132	0.15790251
76	0xbe5abee0	-0.21361876
77	0xbd86660e	-0.06562434
78	0x3e27a7ba	0.16372576
79	0x3cfddfc8	0.030990496
80	0xbe169f81	-0.14709283
81	0x3d621a88	0.055201083
82	0xbe29d911	-0.1658671
83	0xbe4704bc	-0.194354
84	0xbd181064	-0.037125006
85	0x3d9ac9f8	0.07558054
86	0xbe023404	-0.12715155
87	0x3e012d1a	0.12614861
88	0xbe1f294a	-0.15543094
89	0x3d22fac0	0.039789915
90	0x3e080e24	0.13286644
91	0x3e4d8d8e	0.2007353
92	0xbe26a31c	-0.16273159
93	0x3c3a0ab0	0.011355087
94	0x3b212fc0	0.0024595112
95	0x3ab9d480	0.001417771
96	0xbda24918	-0.07924098
97	0xbe43ea9f	-0.1913247
98	0x3e19b856	0.15011725
99	0x3e1337f8	0.14376819
100	0x3e4a66b4	0.1976574
101	0x3e2388ec	0.159702
102	0x3aa00500	0.0012208521
103	0x3d810364	0.06299475
104	0x3e4329be	0.19058892
105	0xbca264d0	-0.019823462
106	0x3c986af8	0.018605694
107	0x3e2d1eb2	0.1690624
108	0x3de9bc68	0.11412889
109	0xbdc495a3	-0.095988534
110	0xbd051830	-0.03249377
111	0xbdddb166	-0.10824852
112	0x3c266830	0.010156676
113	0x3d670b38	0.056407183
114	0x3da49d58	0.080378234
115	0x3dee9fbc	0.11651561
116	0xbe577257	-0.21039711
117	0xbd3acf88	-0.045608073
118	0xbdb30a4c	-0.08742198
119	0xbd4b1bc0	-0.04958701
120	0x3d88e65c	0.066845626
121	0xbdab148a	-0.08353527
122	0xbc0b1ce0	-0.008490771
123	0x3e1467b6	0.14492688
124	0x3e2b668a	0.16738334
125	0xbe140a9c	-0.14457172
126	0xbe52c33f	-0.20582293
127	0xbe153c02	-0.14573672
