Client/results/ppo/MoveToGoal/MoveToGoal-2368.onnx (onnx, 71561 bytes, 4 tensors)

network_body._body_endoder.seq_layers.0.weight f4 [128, 1]
000000 ac 51 06 40 a9 d0 18 bf 7f db 39 3f 27 f8 39 3f
       2.0987349 -0.5969339 0.7260055 0.72644275
000010 21 0c f2 bf 68 41 69 3f ee 58 36 3f 95 40 29 bf
       -1.8909951 0.91115427 0.71229446 -0.6611417
000020 b9 1f c2 be 67 4e f3 3e ff 6c 31 be b4 61 96 3e
       -0.37914827 0.47520754 -0.17326735 0.29371417
000030 45 52 a8 bf 36 98 46 3f 80 91 01 bf 70 fb 7f bf
       -1.3150107 0.77576005 -0.5061264 -0.9999304
000040 98 84 ed bd 8c 72 9f 3e 33 17 9f 3e 70 7e 8a 3e
       -0.11597556 0.3114208 0.31072387 0.2704959
000050 02 f5 13 bf f1 40 33 bf 1f 83 1f 3f b6 5a e5 bc
       -0.5779573 -0.7002097 0.6230945 -0.027997356
000060 e8 ec 48 3f 9c 89 ef bd 56 eb dc bf 80 27 d1 3d
       0.7848649 -0.11696169 -1.7259319 0.10212612
000070 3f 4e e5 bc aa 76 1c 3f 93 f1 13 be 41 63 85 3f
       -0.027991412 0.61118567 -0.14447622 1.0420915
000080 07 99 50 3f b7 ac 9a 3e e1 44 8d 3f 57 89 1c 3f
       0.814835 0.30209896 1.1036645 0.61147064
000090 82 c7 54 bf 18 0e 84 3f da 79 ba 3e eb 81 dd 3e
       -0.83116925 1.0316801 0.3642109 0.43263182
0000a0 9e bf a2 3f da dd 51 be 08 55 94 3e 81 3e 55 bf
       1.2714727 -0.20494786 0.28971124 -0.832985
0000b0 fa ac 3f 3f f6 00 94 be d1 4c e6 3f 0e 43 c4 bf
       0.74873316 -0.28906983 1.7992193 -1.5332963
0000c0 6f d6 a4 3f b5 37 40 bf ae 22 b8 bf 3f de 68 3f
       1.287794 -0.75085 -1.4385583 0.9096412
0000d0 ea 23 38 bf 27 ab 91 3f eb f3 d5 be 3a ab 03 3f
       -0.719298 1.1380357 -0.41787657 0.51433146
0000e0 89 07 5a bd 1b 1a af 3e 44 94 89 3f 5c 4d 65 bf
       -0.053229842 0.34199604 1.0748372 -0.89571166
0000f0 78 dc 19 3f af 9d 29 3e 4e e1 32 bd c0 8b cc 3f
       0.60102034 0.16564058 -0.0436719 1.5980148
000100 4b 65 4c bf b3 0f ae 3f 38 7c 78 3e f8 dd 4b 3f
       -0.7984206 1.3598541 0.24266136 0.7963557
000110 55 84 40 bf b8 b0 34 3f c2 b3 bd 3f 6e 17 5a bf
       -0.7520192 0.7058215 1.4820483 -0.85192
000120 d3 a9 00 40 5b e2 76 40 b2 2a 8b bd 28 b5 67 bf
       2.0103652 3.8575656 -0.06795253 -0.905108
000130 60 ad 6f 3f 40 4e d3 3f d7 d4 83 bf 43 61 49 bf
       0.93623924 1.6508255 -1.0299329 -0.78664035
000140 1a fa 48 bf 49 ab a2 bf 57 f8 5d 3d c5 0a 54 be
       -0.78506625 -1.2708522 0.054191913 -0.20707233
000150 e7 64 8c bf 00 c9 01 3f 4e fb 32 bf 65 24 8e 3d
       -1.0968293 0.50697327 -0.6991471 0.069405355
000160 17 4b 82 3f 8b 9a cc 3f f4 e2 77 3d 14 78 58 bf
       1.0179166 1.5984663 0.060519174 -0.84558225
000170 63 03 c3 3f 40 5f 6e be d2 61 0e bf e1 88 38 bf
       1.5235409 -0.23278522 -0.5561801 -0.7208386
000180 80 6d af bd 68 7c d4 be 15 73 1d bf 67 70 35 bf
       -0.08565807 -0.41501164 -0.61503726 -0.7087464
000190 33 6f 69 bf 45 ff e1 bf 22 a1 cb bf fa f1 83 3f
       -0.911853 -1.7656027 -1.5908549 1.030822
0001a0 3b ff ec 3e fe 0d b8 3f 34 0e 71 bf b4 ec 80 3f
       0.46288475 1.437927 -0.941623 1.0072236
0001b0 e7 49 93 bf f4 93 17 be d8 c6 2a be 4f 33 67 bf
       -1.1506928 -0.14802533 -0.16677415 -0.90312666
0001c0 84 cf 25 3f ec 96 bc 3f 41 ab 0c 40 c7 4a 6a 3f
       0.6476977 1.4733558 2.1979525 0.9152035
0001d0 a9 cf b7 be fe 7d 5f 3e 39 61 1e 3f a4 56 57 bf
       -0.3590062 0.21825406 0.618671 -0.8411658
0001e0 a6 c4 a7 bc 88 d6 ae 3e 53 e1 ba be 10 16 b4 bd
       -0.020479511 0.3414805 -0.36500034 -0.087932706
0001f0 42 5d 27 3f 30 9b 87 3d dd 19 8a bd 7e ce 96 bf
       0.65376675 0.066213965 -0.06743214 -1.1781766

network_body._body_endoder.seq_layers.0.bias f4 [128]
000000 00 00 00 00 00 00 00 00 00 00 00 00 00 00 00 00
       0.0 0.0 0.0 0.0
000010 00 00 00 00 00 00 00 00 00 00 00 00 00 00 00 00
       0.0 0.0 0.0 0.0
000020 00 00 00 00 00 00 00 00 00 00 00 00 00 00 00 00
       0.0 0.0 0.0 0.0
000030 00 00 00 00 00 00 00 00 00 00 00 00 00 00 00 00
       0.0 0.0 0.0 0.0
000040 00 00 00 00 00 00 00 00 00 00 00 00 00 00 00 00
       0.0 0.0 0.0 0.0
000050 00 00 00 00 00 00 00 00 00 00 00 00 00 00 00 00
       0.0 0.0 0.0 0.0
000060 00 00 00 00 00 00 00 00 00 00 00 00 00 00 00 00
       0.0 0.0 0.0 0.0
000070 00 00 00 00 00 00 00 00 00 00 00 00 00 00 00 00
       0.0 0.0 0.0 0.0
000080 00 00 00 00 00 00 00 00 00 00 00 00 00 00 00 00
       0.0 0.0 0.0 0.0
000090 00 00 00 00 00 00 00 00 00 00 00 00 00 00 00 00
       0.0 0.0 0.0 0.0
0000a0 00 00 00 00 00 00 00 00 00 00 00 00 00 00 00 00
       0.0 0.0 0.0 0.0
0000b0 00 00 00 00 00 00 00 00 00 00 00 00 00 00 00 00
       0.0 0.0 0.0 0.0
0000c0 00 00 00 00 00 00 00 00 00 00 00 00 00 00 00 00
       0.0 0.0 0.0 0.0
0000d0 00 00 00 00 00 00 00 00 00 00 00 00 00 00 00 00
       0.0 0.0 0.0 0.0
0000e0 00 00 00 00 00 00 00 00 00 00 00 00 00 00 00 00
       0.0 0.0 0.0 0.0
0000f0 00 00 00 00 00 00 00 00 00 00 00 00 00 00 00 00
       0.0 0.0 0.0 0.0
000100 00 00 00 00 00 00 00 00 00 00 00 00 00 00 00 00
       0.0 0.0 0.0 0.0
000110 00 00 00 00 00 00 00 00 00 00 00 00 00 00 00 00
       0.0 0.0 0.0 0.0
000120 00 00 00 00 00 00 00 00 00 00 00 00 00 00 00 00
       0.0 0.0 0.0 0.0
000130 00 00 00 00 00 00 00 00 00 00 00 00 00 00 00 00
       0.0 0.0 0.0 0.0
000140 00 00 00 00 00 00 00 00 00 00 00 00 00 00 00 00
       0.0 0.0 0.0 0.0
000150 00 00 00 00 00 00 00 00 00 00 00 00 00 00 00 00
       0.0 0.0 0.0 0.0
000160 00 00 00 00 00 00 00 00 00 00 00 00 00 00 00 00
       0.0 0.0 0.0 0.0
000170 00 00 00 00 00 00 00 00 00 00 00 00 00 00 00 00
       0.0 0.0 0.0 0.0
000180 00 00 00 00 00 00 00 00 00 00 00 00 00 00 00 00
       0.0 0.0 0.0 0.0
000190 00 00 00 00 00 00 00 00 00 00 00 00 00 00 00 00
       0.0 0.0 0.0 0.0
0001a0 00 00 00 00 00 00 00 00 00 00 00 00 00 00 00 00
       0.0 0.0 0.0 0.0
0001b0 00 00 00 00 00 00 00 00 00 00 00 00 00 00 00 00
       0.0 0.0 0.0 0.0
0001c0 00 00 00 00 00 00 00 00 00 00 00 00 00 00 00 00
       0.0 0.0 0.0 0.0
0001d0 00 00 00 00 00 00 00 00 00 00 00 00 00 00 00 00
       0.0 0.0 0.0 0.0
0001e0 00 00 00 00 00 00 00 00 00 00 00 00 00 00 00 00
       0.0 0.0 0.0 0.0
0001f0 00 00 00 00 00 00 00 00 00 00 00 00 00 00 00 00
       0.0 0.0 0.0 0.0

network_body._body_endoder.seq_layers.2.weight f4 [128, 128]
000000 6d 84 03 bd 48 6b 77 bd 23 a5 a0 bc 37 88 69 3d
       -0.032108713 -0.060405046 -0.019609993 0.05701467
000010 7e 4b dd bc af 75 88 3c e4 de 5c 3b 40 aa dc 3c
       -0.027013537 0.016657678 0.003370219 0.02693665
000020 9a c5 84 bd a3 39 32 be c3 f2 0a 3e ce 7c 7c bd
       -0.06483002 -0.17404799 0.13569169 -0.06164246
000030 f0 e1 11 3d b9 a3 3b be ac 5e a1 bd 81 2b 5d 3d
       0.03561586 -0.18324174 -0.07879385 0.053996567
000040 74 5f 8b 3d 03 71 55 3d 2d 68 ed 3b b7 3b dd bd
       0.068053156 0.05210973 0.0072450847 -0.10802405
000050 ac fb e5 bc 17 47 ff bd f5 b3 7d bd da 3b a8 3d
       -0.028074108 -0.12464731 -0.0619392 0.08214541
000060 1a b6 1e bd c8 27 90 3d 4e 61 2b 3c 1c af 8a bd
       -0.038747884 0.07038838 0.010460211 -0.06771681
000070 9d ff 37 3e 74 86 2b be 2f 66 00 3e ab d5 9a 3c
       0.17968602 -0.16750509 0.1253898 0.018900713
000080 9c d5 9f 3d 80 2b 1f bc c7 fb 90 3d 32 f9 17 3e
       0.07804415 -0.009714961 0.07079273 0.14841154
000090 61 e9 f2 3d 44 cb 2c bd 23 fe 15 bd 4e 78 82 bc
       0.1186092 -0.042186037 -0.036619317 -0.015926506
0000a0 89 96 e1 bc bd 5a 06 bd bf b2 2d bd e6 6a c7 3c
       -0.027537601 -0.03280138 -0.042406794 0.024342965
0000b0 7b 3a 71 bc ba 94 a3 bd 4c be 00 3e 88 88 13 3e
       -0.0147234155 -0.07987352 0.12572592 0.14407551
0000c0 0d 4c 21 bd b7 f9 38 bd d3 5b 08 be 55 87 a4 3d
       -0.03937917 -0.04516002 -0.13316278 0.08033625
0000d0 14 22 34 3e 77 e2 9f 3d 72 b5 16 be 65 c9 91 3c
       0.17591125 0.078068666 -0.14717653 0.017796228
0000e0 5f ce 4b 3d 92 8e b0 bc ef 25 a9 3c 60 2d 8b bb
       0.049757358 -0.021552358 0.020647971 -0.0042473525
0000f0 be 9a ab bd 6c ba bd 3c 6a d6 fa bd e6 41 6d 3d
       -0.08379124 0.023160182 -0.122479275 0.057924174
000100 6c 78 20 3e 0a 97 f7 3d 58 25 a7 3c d9 c2 4b be
       0.15670937 0.12089355 0.02040355 -0.19898547
000110 11 8e fd bd 26 48 02 3e 6c 94 1e bb 65 a0 3c 3e
       -0.12380613 0.12722835 -0.0024197353 0.1842056
000120 b6 3a b4 bd 80 1a e7 bd 88 df 27 be b2 b7 56 bc
       -0.08800261 -0.11284351 -0.16393864 -0.01310532
000130 a4 75 cc 3d 42 06 06 bd 20 e1 7a bd a1 ae 3a 3d
       0.09983376 -0.03272081 -0.061249852 0.045576695
000140 ab e0 68 bd 05 bf 2c bc 16 5b 3e be 04 07 03 bd
       -0.056854885 -0.0105435895 -0.18589434 -0.031989112
000150 3b b3 ab bc e9 78 3a 3c b7 06 c7 3c 66 0f 08 3d
       -0.020959487 0.011381366 0.024295194 0.03321781
000160 c2 aa 98 3d ec 62 cb bd 6e fd 03 bd b6 69 88 3d
       0.074544445 -0.09930977 -0.03222411 0.06660788
000170 be d4 26 3e 34 19 e2 3d fe b9 aa 3d a3 12 34 3d
       0.16292092 0.11039963 0.083362564 0.043963086
000180 31 ce 9f 3c dc 78 11 3e a8 58 99 bd ff 12 c6 3d
       0.0195075 0.1420626 -0.07487613 0.09671592
000190 61 94 ff 3d ed c7 ac bd f8 bd 45 3d 93 ef 50 3d
       0.12479473 -0.0843657 0.04827687 0.051009726
0001a0 d6 bb db bd ac 25 d5 bc df a3 2c be 18 f5 92 3d
       -0.10729186 -0.02601894 -0.16859387 0.07175654
0001b0 07 c6 20 3e 1e a9 02 be d3 a3 09 3d 5f e1 1e 3d
       0.15700541 -0.12759826 0.0336035 0.03878915
0001c0 67 45 4e 3d c8 31 93 bd 3a 63 93 bd 2c e0 2f 3e
       0.050359156 -0.071872294 -0.0719666 0.17175359
0001d0 f1 83 da bd 09 07 80 bd 4a f6 e1 3d 94 9a 87 3c
       -0.10669697 -0.06251342 0.11033304 0.0165532
0001e0 66 5f 3a 3e 17 24 26 be 4c bc 55 bd 8a 4c 77 bd
       0.18200454 -0.16224705 -0.052181527 -0.060375728
0001f0 50 73 84 3c 85 d8 98 3d 0f dc 1d 3d 92 4a 42 3e
       0.016168267 0.07463173 0.038539942 0.18973759
000200 84 98 80 3d 9e aa ba 3d 95 88 88 bd 01 43 36 3c
       0.0627909 0.09114574 -0.06666676 0.011124373
000210 fa 6d 9b 3d f5 f6 3e 3c d6 b9 6b bd 6d 3e 9f 3c
       0.07589336 0.011655559 -0.057550274 0.019438947
000220 9e 62 6d bd 73 44 33 3e 0b 39 44 3d 10 92 1d bd
       -0.057955377 0.1750658 0.047905963 -0.038469374
000230 c4 7c 31 3c ba 51 a4 bd 85 1b 7f 3d 52 3a 94 3d
       0.010832969 -0.080234006 0.062282104 0.07237686
000240 d3 09 02 3a 87 c7 b1 bc 50 82 e3 bc 38 14 0d bc
       0.00049605704 -0.021701587 -0.027772099 -0.008610778
000250 42 6a c2 bd 5f aa d5 3c 1c eb f4 bc e9 e2 8f bc
       -0.09492923 0.026082216 -0.029897265 -0.017564254
000260 95 79 28 be a4 c3 a7 3c 2d fc 60 bd 07 7a ed 3c
       -0.1645263 0.02047903 -0.054927994 0.028988851
000270 f2 08 8e 3d 8d 20 aa 3d 4f 86 af 3d bf 86 2b 3e
       0.069353 0.0830699 0.08570539 0.1675062
000280 5b 2e d6 3d 09 10 2b 3d 2f 10 d3 bd 81 0f 0f be
       0.1045806 0.04176334 -0.10305821 -0.13970758
000290 bb 12 43 bc 41 bf 8e bc a8 49 41 3d 95 38 76 3d
       -0.011906321 -0.017425181 0.047189385 0.060112555
0002a0 1d d4 82 bd 31 dd c8 3d 7e 9a e0 3d 48 b9 22 bd
       -0.06388114 0.09807814 0.10966967 -0.03972748
0002b0 8d 3b b0 b9 e2 d6 3d 3e 21 ec 2b 3e 4a 73 3f bd
       -0.00033613705 0.18539003 0.16789295 -0.046740808
0002c0 5e c6 e4 3b 56 44 3e 3c 82 29 0f 3c 1d e7 60 3e
       0.006981655 0.011612972 0.008737924 0.21963163
0002d0 63 c5 a5 3d 64 ee 01 3d 97 7c 6a bc 63 db c0 3d
       0.08094289 0.031721488 -0.014311931 0.09416845
0002e0 57 aa a3 3d 6a 2c 43 3e ce 5b 8b bd c4 05 8b bd
       0.07991474 0.19059911 -0.0680462 -0.06788209
0002f0 d5 b7 a0 3d 9b 9c c6 bd cd 5c b5 bd 84 26 13 bd
       0.07847563 -0.09697839 -0.08855591 -0.035925403
000300 fa 4f e8 bd 62 14 ee 3b 4e 2b 9b bc fb 29 56 3c
       -0.11343379 0.0072656134 -0.018941548 0.013071532
000310 24 8a 0b 3d 2f a9 ee 3c f5 05 79 bd 38 1a a2 bd
       0.034067288 0.029133407 -0.060796697 -0.07915157
000320 c1 c2 3e 3e 0c 07 2d 3e f5 29 ce 3d 76 52 a6 3b
       0.1862898 0.1689722 0.100665964 0.005075748
000330 01 60 b5 bc bb 6b 8c bc b6 55 8b 3d 8d 0e 90 3d
       -0.022140505 -0.017141214 0.068034574 0.07034025
000340 69 03 9f bd a8 a1 b2 3d 3b b2 1f be 89 65 33 be
       -0.07764322 0.0872224 -0.15595333 -0.17519201
000350 ad 67 84 3d 8c 46 85 bd 60 7b 04 3d 5d 44 98 bd
       0.06465087 -0.065075964 0.032344222 -0.07434914
000360 a1 4d 84 3d 1e 56 5e 3d 30 f0 54 bd 34 1a 4a bd
       0.06460119 0.054281346 -0.051986873 -0.049341395
000370 4e d9 b4 3d cd c5 cd 3d d0 36 aa bd 33 48 fa bd
       0.0883051 0.10047493 -0.08311236 -0.12220802
000380 ec e1 ad 3c 1e 10 43 bc c0 e5 34 3d 2e 94 d7 3d
       0.021225892 -0.011905698 0.04416442 0.1052631
000390 cd 82 5c bc a0 95 f9 bd 69 a5 b9 3d 6d 48 a5 bd
       -0.01345892 -0.12186742 0.090647526 -0.08070455
0003a0 91 18 03 be 84 ab d5 bd f6 30 86 3c 2a c8 c6 bc
       -0.1280234 -0.10433105 0.016380768 -0.024265368
0003b0 bf 60 88 3d d1 c5 e6 bd 63 3c 0d 3e 28 ce eb bd
       0.06659078 -0.11268199 0.13792567 -0.115139306
0003c0 33 62 94 bd 74 5a 5b bd ad cc 3b be fc f7 88 3d
       -0.072452925 -0.05355306 -0.18339796 0.06687924
0003d0 cb 53 75 bd 89 54 6f bd d9 3e dd 3d 0e 70 78 3d
       -0.059894364 -0.05843023 0.10803003 0.06065374
0003e0 cb 4c ee bc f3 62 17 bc ab 24 c7 bd f5 76 8b 3d
       -0.029089352 -0.0092399 -0.09723791 0.06809799
0003f0 dd 87 c8 bd cc da a0 bd 72 bc c0 bb d8 b1 c1 bd
       -0.09791539 -0.07854232 -0.0058818394 -0.09457749

action_model._continuous_distribution.mu.weight f4 [1, 128]
000000 10 fd a3 3c be e7 b3 39 e7 12 60 3c 03 7f 52 bb
       0.02001813 0.00034314202 0.013676382 -0.0032119162
000010 03 24 06 bc ef 1f 08 bc a3 ac 48 3c f9 4b 12 bd
       -0.008187297 -0.008308395 0.012248191 -0.035716984
000020 0a d8 ca 3c d8 25 f6 ba 26 1d c3 bc 69 98 8f 3b
       0.024761219 -0.0018779589 -0.02381761 0.0043821824
000030 05 89 8f 3c e2 a5 cb bc 94 66 ac 3b 80 ee ee 3b
       0.01752139 -0.024859373 0.0052612517 0.007291615
000040 e2 56 99 3b 27 8d 67 3c 45 19 70 3c bb 2f 53 3b
       0.0046795467 0.014132774 0.014654462 0.0032224494
000050 24 66 8d 3c 35 cb e6 3c c6 1d 01 3c 62 5d 4c bc
       0.017260619 0.028173069 0.007880634 -0.012473436
000060 5b c8 78 3c 17 58 93 3b e6 5c 49 3c b2 5d 7b bc
       0.015184487 0.004496585 0.012290215 -0.015342163
000070 0d 0e b8 ba 67 b8 ba bc a4 b2 b2 bb 65 7e d4 bc
       -0.0014042273 -0.022793008 -0.0054534245 -0.025939176
000080 f7 a9 26 bb 46 f6 9f bb 67 30 80 bc fa eb 25 bb
       -0.0025430897 -0.004881653 -0.01564808 -0.0025317655
000090 e9 e7 19 3c 14 97 88 bc 72 ae 14 3d a0 c8 fb bc
       0.009393671 -0.016673602 0.036299177 -0.030735314
0000a0 7a 5c e8 bb 0e 60 b8 3a ef a2 83 3c 46 31 43 bc
       -0.007091102 0.0014066712 0.016068904 -0.011913603
0000b0 3b cd b5 bc c6 bb 2b 3c b5 63 d0 b9 f6 22 17 bd
       -0.022192588 0.01048178 -0.0003974714 -0.036898576
0000c0 91 b1 16 bd 93 aa 96 bb de 7e 97 bc 3f bd 96 bc
       -0.036790434 -0.0045979708 -0.018493112 -0.018400786
0000d0 c3 50 1e 3d ff 42 1e 3b 2b 30 c1 3c 23 7a 15 bc
       0.03865124 0.002414882 0.023582539 -0.009123358
0000e0 cb 62 c0 3b 0e 0a 8f bc b1 a5 3e 3c 15 8b 4f 3c
       0.005871152 -0.01746085 0.011636184 0.012667437
0000f0 e2 9e a1 3c 8d 7a 80 bc 0d b2 57 3c 33 5e 0f 3b
       0.019729082 -0.015683437 0.013165009 0.0021876215
000100 60 57 b2 bc 49 e7 81 3c f1 96 36 3c 53 07 8f ba
       -0.02177018 0.015857356 0.011144386 -0.0010912217
000110 8d e6 cb bc 25 48 d6 bb 64 f8 32 3c 20 59 95 3c
       -0.024890209 -0.006539362 0.010923479 0.018230975
000120 ab 88 b4 3a c5 cd 3e 3c 7c 52 bf ba 2f 0c 49 3c
       0.001377364 0.011645739 -0.0014596726 0.012270971
000130 ca a9 fc bc 5f fb 70 bc 1b 72 37 bc 87 e8 45 bb
       -0.03084268 -0.014708369 -0.011196638 -0.0030198412
000140 3a 25 06 3c 5c 19 84 3c 06 f2 92 3b 53 1c e8 bb
       0.008187586 0.016125374 0.004484418 -0.0070834546
000150 0d b9 0f 3c b7 c0 5c 3c b3 0e eb 3c 95 f9 75 bc
       0.008772147 0.013473681 0.028693533 -0.015013118
000160 c7 7c 23 bd b6 e4 a8 bc 7f 9e 52 bb 98 52 c9 3c
       -0.03991392 -0.02061687 -0.0032137928 0.024575517
000170 4d be b3 ba 63 06 bb bc 51 f4 00 bd 23 54 21 bc
       -0.001371333 -0.022830194 -0.031483 -0.00984672
000180 af 83 e6 3b 07 fd b5 bc d0 20 18 bd 1f 1f 65 bc
       0.007034741 -0.02221538 -0.037140667 -0.013984471
000190 d7 ad 81 bb 9f 6d 81 bb 7a 50 e9 bb 6d 5f 5a bc
       -0.003957491 -0.0039498354 -0.0071201893 -0.013328415
0001a0 d2 04 ec bb ef 7d a0 3c f5 69 61 3b 4c 42 24 3b
       -0.007202723 0.0195913 0.003439543 0.002506393
0001b0 e3 63 55 bc 14 14 88 3b f8 1b ec 3c 6a 5c 53 3d
       -0.013024303 0.004152784 0.02882193 0.051601805
0001c0 10 4d c4 3c 68 90 d3 bc b0 ab 75 bc e9 2f 10 3a
       0.023962528 -0.025825694 -0.014994547 0.0005500303
0001d0 34 60 00 3c 57 53 b1 bc eb 45 ee bc e5 05 09 bd
       0.007835437 -0.021646185 -0.029086074 -0.033452887
0001e0 eb 73 de bc 24 35 a3 3b 78 df e7 bb 57 3a a1 bc
       -0.027154883 0.0049807 -0.0070762 -0.019681139
0001f0 e6 36 4a bc 86 e3 c3 3b 0d b9 dc 39 5b 9a 80 bb
       -0.01234219 0.0059780506 0.00042099543 -0.0039246506
