Client/results/test4/Move to target/checkpoint.pt (torch, 143778 bytes, 10 tensors)

network_body._body_endoder.seq_layers.0.weight f4 [128, 1]
000000 5b 2d 32 bd cb 5c 0f bf d9 d2 ed 3f 93 d9 29 3f
       -0.043500286 -0.56000966 1.8579971 0.66347617
000010 ef 0d 25 c0 44 50 6e bf 6f 93 e2 3d fb 84 3d 3f
       -2.5789754 -0.93091226 0.11063277 0.7403104
000020 4f 0c d8 be 8a a8 e8 bf 43 fa 8f bf 92 e4 03 3f
       -0.4219689 -1.8176434 -1.1248249 0.51520646
000030 0d c8 41 3d 97 1b 04 c0 25 b9 cd 3e 35 b1 85 3f
       0.047309924 -2.064184 0.40180317 1.0444704
000040 fe d6 c5 3f 59 5a e8 bb f3 cf ba 3f ec 58 09 bf
       1.5456235 -0.0070908484 1.4594711 -0.5365131
000050 2d ef be 3f af 53 8f 3f 13 5c 96 be 2a 11 17 bf
       1.4916741 1.1197413 -0.29367122 -0.59010565
000060 bf 33 ea bf cf a0 0f be 21 2b 47 be 59 70 9d bf
       -1.8297042 -0.14026187 -0.19450046 -1.2299911
000070 72 b2 1f bf 0f f7 d5 bf d6 4e 18 c0 21 7d a2 3f
       -0.6238166 -1.6716021 -2.3798118 1.2694436
000080 70 51 8e bf e0 c2 57 bf ab ba 63 bf f6 a1 d9 3f
       -1.1118603 -0.8428173 -0.8895671 1.7002552
000090 b5 78 20 3e 28 0f 07 be bd cf 96 3f 23 c9 81 bf
       0.15671046 -0.13189375 1.1782147 -1.0139507
0000a0 71 5f 8c 3f fc 91 41 bf 48 cf a5 be 9c 88 24 3f
       1.0966626 -0.7561338 -0.32384706 0.6427095
0000b0 15 03 1e bf 3c 78 d1 3f 8f 06 4a bf 71 f3 74 3f
       -0.6172345 1.6364818 -0.7891626 0.9568396
0000c0 d4 b9 df be 2c 84 47 3d c0 ee 16 bf 1d 33 a2 3e
       -0.43696463 0.048710033 -0.58958054 0.3167962
0000d0 67 cf bc 3f df e3 d4 3e 33 a2 3a 3f b3 a5 b2 be
       1.4750794 0.41580102 0.72903746 -0.34892043
0000e0 4b 44 6f be 0a 96 32 be d9 73 00 c0 b1 20 19 be
       -0.23365895 -0.17440048 -2.0070708 -0.14953877
0000f0 9c 77 38 3e 58 93 a5 3f c3 fd 08 3e e5 ec 6a bf
       0.18014377 1.2935591 0.13378052 -0.9176772
000100 c9 86 98 bd b9 5f cd 3e c6 8c c6 be ef 07 a9 3f
       -0.07447583 0.40112093 -0.38779277 1.3205546
000110 a8 79 34 c0 74 8e b3 bf 6b 9a 61 3e 7f 59 b4 be
       -2.8199253 -1.4027848 0.22031562 -0.3522453
000120 29 59 36 3f 3f ba 81 3f 2c b2 69 3f 20 de 02 bf
       0.712298 1.0134963 0.91287494 -0.51120186
000130 03 b7 00 be af 85 01 40 41 e1 ca 3f 1e 41 1d 40
       -0.12569813 2.0237844 1.5849992 2.4570994
000140 fd 3f 3f 3e 67 73 2a 3e a5 10 b5 3f 89 43 4b bc
       0.18676753 0.16645585 1.4145705 -0.012406238
000150 17 a2 3d 3e c6 ff f0 3f 76 e9 30 be 66 df 13 3f
       0.18518864 1.8828056 -0.17276558 0.57762754
000160 be b7 e5 3f 9e 4c 82 3b 01 bf e8 bf 16 32 04 3e
       1.7946699 0.0039764186 -1.818329 0.12909731
000170 52 a7 b0 bf 6f bd eb be 18 b0 9d bf 6f ab 85 3f
       -1.3801062 -0.46042964 -1.2319365 1.0442942
000180 de 9e 8d 3e 13 c1 82 bf 40 8e a8 be c4 22 bf 3f
       0.2766027 -1.0215172 -0.32921028 1.4932485
000190 61 fa c8 3e 15 ce 10 3d d6 fa 21 bf 57 b9 90 bf
       0.39253524 0.035352785 -0.6327337 -1.1306561
0001a0 e5 a2 26 3f 84 70 58 bc d2 f7 be bf df 4a 91 3f
       0.6509231 -0.01321042 -1.4919379 1.1350974
0001b0 50 a4 c3 3e 95 81 ce bd eb c0 c0 3d fc 19 71 3e
       0.38211298 -0.100833096 0.09411796 0.23545069
0001c0 cf 23 15 3e 79 aa 3f bf f6 cd f0 3f 2c fe 9a 3f
       0.14564441 -0.74869496 1.8812854 1.2108817
0001d0 cd d7 99 bf cb 84 71 be 15 cf ad 3f 87 e1 9c bf
       -1.2018982 -0.23585813 1.3578821 -1.2256325
0001e0 bb ef ba bf 97 ef 72 3e 5f be 19 3f 4e 6b da 3f
       -1.460441 0.23724209 0.6005611 1.7063997
0001f0 80 39 a1 3e 2b 47 cf 3f 9f 64 80 3f eb f7 92 bd
       0.31489182 1.6193594 1.0030707 -0.07176193

network_body._body_endoder.seq_layers.0.bias f4 [128]
000000 00 00 00 00 00 00 00 00 00 00 00 00 00 00 00 00
       0.0 0.0 0.0 0.0
000010 00 00 00 00 00 00 00 00 00 00 00 00 00 00 00 00
       0.0 0.0 0.0 0.0
000020 00 00 00 00 00 00 00 00 00 00 00 00 00 00 00 00
       0.0 0.0 0.0 0.0
000030 00 00 00 00 00 00 00 00 00 00 00 00 00 00 00 00
       0.0 0.0 0.0 0.0
000040 00 00 00 00 00 00 00 00 00 00 00 00 00 00 00 00
       0.0 0.0 0.0 0.0
000050 00 00 00 00 00 00 00 00 00 00 00 00 00 00 00 00
       0.0 0.0 0.0 0.0
000060 00 00 00 00 00 00 00 00 00 00 00 00 00 00 00 00
       0.0 0.0 0.0 0.0
000070 00 00 00 00 00 00 00 00 00 00 00 00 00 00 00 00
       0.0 0.0 0.0 0.0
000080 00 00 00 00 00 00 00 00 00 00 00 00 00 00 00 00
       0.0 0.0 0.0 0.0
000090 00 00 00 00 00 00 00 00 00 00 00 00 00 00 00 00
       0.0 0.0 0.0 0.0
0000a0 00 00 00 00 00 00 00 00 00 00 00 00 00 00 00 00
       0.0 0.0 0.0 0.0
0000b0 00 00 00 00 00 00 00 00 00 00 00 00 00 00 00 00
       0.0 0.0 0.0 0.0
0000c0 00 00 00 00 00 00 00 00 00 00 00 00 00 00 00 00
       0.0 0.0 0.0 0.0
0000d0 00 00 00 00 00 00 00 00 00 00 00 00 00 00 00 00
       0.0 0.0 0.0 0.0
0000e0 00 00 00 00 00 00 00 00 00 00 00 00 00 00 00 00
       0.0 0.0 0.0 0.0
0000f0 00 00 00 00 00 00 00 00 00 00 00 00 00 00 00 00
       0.0 0.0 0.0 0.0
000100 00 00 00 00 00 00 00 00 00 00 00 00 00 00 00 00
       0.0 0.0 0.0 0.0
000110 00 00 00 00 00 00 00 00 00 00 00 00 00 00 00 00
       0.0 0.0 0.0 0.0
000120 00 00 00 00 00 00 00 00 00 00 00 00 00 00 00 00
       0.0 0.0 0.0 0.0
000130 00 00 00 00 00 00 00 00 00 00 00 00 00 00 00 00
       0.0 0.0 0.0 0.0
000140 00 00 00 00 00 00 00 00 00 00 00 00 00 00 00 00
       0.0 0.0 0.0 0.0
000150 00 00 00 00 00 00 00 00 00 00 00 00 00 00 00 00
       0.0 0.0 0.0 0.0
000160 00 00 00 00 00 00 00 00 00 00 00 00 00 00 00 00
       0.0 0.0 0.0 0.0
000170 00 00 00 00 00 00 00 00 00 00 00 00 00 00 00 00
       0.0 0.0 0.0 0.0
000180 00 00 00 00 00 00 00 00 00 00 00 00 00 00 00 00
       0.0 0.0 0.0 0.0
000190 00 00 00 00 00 00 00 00 00 00 00 00 00 00 00 00
       0.0 0.0 0.0 0.0
0001a0 00 00 00 00 00 00 00 00 00 00 00 00 00 00 00 00
       0.0 0.0 0.0 0.0
0001b0 00 00 00 00 00 00 00 00 00 00 00 00 00 00 00 00
       0.0 0.0 0.0 0.0
0001c0 00 00 00 00 00 00 00 00 00 00 00 00 00 00 00 00
       0.0 0.0 0.0 0.0
0001d0 00 00 00 00 00 00 00 00 00 00 00 00 00 00 00 00
       0.0 0.0 0.0 0.0
0001e0 00 00 00 00 00 00 00 00 00 00 00 00 00 00 00 00
       0.0 0.0 0.0 0.0
0001f0 00 00 00 00 00 00 00 00 00 00 00 00 00 00 00 00
       0.0 0.0 0.0 0.0

network_body._body_endoder.seq_layers.2.weight f4 [128, 128]
000000 6d 62 fa bd 28 3d ba 3d c0 ad 1c bd 83 37 83 3d
       -0.122258045 0.09093696 -0.03825164 0.064070724
000010 3b 5e db 3d 73 93 28 3d a8 3e 8b bc 49 e9 1c bd
       0.107113324 0.041156244 -0.01699765 -0.038308416
000020 46 cf 5b 3d 95 bc 66 3d 4b 2c 77 bd dc 05 6d bd
       0.05366447 0.05633219 -0.060344975 -0.057866916
000030 47 b1 bd bc 51 28 37 be 52 70 be 3d e9 b5 ae bd
       -0.023155821 -0.17886473 0.09298767 -0.0853079
000040 7d 01 e1 bd 33 7d 57 3e 45 33 86 3c cb 1b 05 3e
       -0.10986612 0.21043853 0.01638187 0.12998883
000050 d6 0b 6f bd 6d 43 53 3e d2 8c e2 b8 d9 26 e8 3a
       -0.058360897 0.2063119 -0.000108027496 0.0017711773
000060 25 c1 58 3e b3 89 ea 3d fa 14 9d bd 4d ed 09 3c
       0.21167429 0.11452045 -0.076700166 0.008418393
000070 a6 07 cf bc b3 f0 e1 bd 84 59 81 bd c9 37 b6 bd
       -0.025272202 -0.11032238 -0.06315902 -0.08897359
000080 9e 4c d6 bc 63 d9 7e 3d f2 cd 8a bd f2 2c bd bc
       -0.02615958 0.062219035 -0.06777562 -0.02309272
000090 56 e4 35 3b 5e b2 3c 3d 94 54 a3 bd 34 54 eb 3c
       0.0027754507 0.04606854 -0.07975116 0.028726675
0000a0 3f 80 c6 3d b8 79 27 be b1 91 b2 3d 0e 55 59 3d
       0.0969243 -0.16355026 0.08719195 0.05305963
0000b0 30 f9 f6 3c cb b8 fb bd ef 38 68 bd 97 06 50 3d
       0.030148119 -0.12291106 -0.05669492 0.050787535
0000c0 f3 52 02 be 14 e5 1f 3e 0f 2d a6 3d c5 1b a4 3d
       -0.12726955 0.1561473 0.08114063 0.08013109
0000d0 51 28 a9 ba 25 57 87 b9 77 3a d0 3d 0f dd cf bc
       -0.0012905692 -0.00025814134 0.10167401 -0.025373964
0000e0 f1 c0 8b 3c cf e0 a8 bd 4d d4 5a 3d 41 85 9f 3c
       0.017059775 -0.08246004 0.053425122 0.01947272
0000f0 12 bd fd 3d 3c 7f 1b bd bc 99 27 be e1 07 41 3c
       0.12389578 -0.037963137 -0.16367239 0.011781664
000100 c3 93 6e 3e b0 3e 2a 3c eb a5 d6 3d 62 43 3d 3d
       0.23298554 0.010390922 0.10480865 0.04620684
000110 5e 87 bf 3c 67 25 17 3d f1 fd 33 be 53 78 1b be
       0.023379978 0.036900904 -0.1757734 -0.15182619
000120 e9 bf 8b 3c 1f 4a d4 3c 65 7d a8 bb 09 df 99 bd
       0.017059283 0.02591425 -0.0051419013 -0.07513244
000130 fd a1 4d 3e 60 24 f1 3d 4b 8a 8b 3d 09 18 38 bd
       0.20081325 0.11774516 0.06813487 -0.044944797
000140 f8 6c 09 be 4c 12 d3 3d 7e f6 09 3e a0 b0 02 3e
       -0.13420475 0.10306224 0.13472936 0.1276269
000150 7f 9f ed 3c 02 5d 1f be b6 3b b7 bd 38 58 5f 3d
       0.029006718 -0.15562823 -0.08946936 0.05452749
000160 e7 15 fe bd ea a1 24 bd d0 4d 01 be b9 d0 e1 3d
       -0.12406521 -0.040193476 -0.1262734 0.11026139
000170 26 3d e5 3b ec 4b e6 3c 7b 20 c0 3c a2 17 47 3d
       0.006995815 0.028112374 0.023452988 0.048606522
000180 f4 1c 0d 3d 2b 8d 0e 3e 4b e1 55 bd e0 51 37 3e
       0.03445144 0.13921039 -0.05221681 0.17902327
000190 88 27 9d bd ce 69 97 3d 3f d0 bf 3b 8a 00 dd 3d
       -0.076735556 0.073932275 0.0058536823 0.107911184
0001a0 b7 64 55 3c 78 70 15 be 3c 13 f1 bb 10 12 6e 3d
       0.013024501 -0.14593685 -0.0073570292 0.058122694
0001b0 56 c1 5d 3e 98 ae 76 be 1c 2d 53 be 47 52 40 bc
       0.21655783 -0.2409004 -0.20622677 -0.011738366
0001c0 49 b0 d9 3d 7a e4 10 3e d3 41 11 3c 7b 80 c0 bd
       0.10629327 0.14149657 0.008865791 -0.09399506
0001d0 c5 a4 a6 3d b2 c1 00 be 12 48 20 3c 2b 70 c6 3c
       0.08136896 -0.12573889 0.009782808 0.024223408
0001e0 ce bc 4f bd 7e 2f cb bb aa 04 aa bc 7a bc 60 3e
       -0.050717168 -0.00620073 -0.020754177 0.21946898
0001f0 b8 ab a4 bc 36 96 38 bd 73 c5 5f 3d 21 ba 21 be
       -0.020101413 -0.045065127 0.05463166 -0.15793659
000200 bf 67 a1 3d 4d da 5d bc 22 5d 57 3b 9a 93 90 bc
       0.07881116 -0.0135408165 0.0032861908 -0.017648507
000210 eb ac 8d bc 47 64 89 bd dd f2 af 3d f8 c2 bd bc
       -0.017294368 -0.067085795 0.08591244 -0.023164257
000220 64 df f2 bc c9 0b 06 3d 42 e2 09 3e cd 23 aa 3c
       -0.029647537 0.032726083 0.13465217 0.020769024
000230 28 a1 31 3d 19 a2 99 bd 8b bc 26 bc 4c fc c7 bd
       0.04336658 -0.07501621 -0.010176788 -0.09764919
000240 f7 e9 71 bd 78 ff 72 bd 06 3a b3 bd 29 d6 77 3d
       -0.059061017 -0.059325665 -0.087513015 0.060506973
000250 19 21 08 3b 18 65 a2 3d cf 3f 88 bd ee 8c c8 3c
       0.002077168 0.07929438 -0.066527955 0.024481263
000260 08 61 bc bb 5e 82 b4 bd 1f 92 84 bc 3b 55 61 bc
       -0.0057488717 -0.08813928 -0.016182957 -0.013753231
000270 e5 fd f5 bc d2 88 50 3d d5 c3 6c bd e0 ad 7c 3d
       -0.030028293 0.050911732 -0.057803947 0.061689258
000280 da 28 43 3c 65 53 0d bd 66 01 e8 bd e3 17 9e 3d
       0.011911595 -0.03450336 -0.11328392 0.077194
000290 52 1b b0 bd 73 dc 40 3d e9 54 9e bd 41 08 61 bc
       -0.08598961 0.047085237 -0.07731039 -0.013734878
0002a0 ca e0 3e be a9 3a a7 ba 9d 15 b3 3d eb e7 c5 bd
       -0.18640438 -0.0012758571 0.08744357 -0.096633755
0002b0 7e 87 ac bd 1a 3d b3 bd 7c 02 fc bd f6 28 5c bb
       -0.084242806 -0.087518886 -0.12305161 -0.003359375
0002c0 fc fc 8b 3c db 3f 34 3d 3f e1 cc bc 54 06 43 3d
       0.017088406 0.04400621 -0.02500975 0.047613457
0002d0 0f f9 2c bd 7d 17 c4 3d b7 af b2 bb 2c 1c cb bd
       -0.04222971 0.095747925 -0.0054530757 -0.09917483
0002e0 c6 aa 01 3d 69 2c 94 3c 5d f0 97 3c cb 4c 14 be
       0.031657003 0.018087583 0.018547231 -0.14482419
0002f0 f2 5f 07 3e 5f ce 20 be 4c 1f ab bd cf 4d 14 3b
       0.13220194 -0.15703724 -0.08355579 0.0022629385
000300 dc d2 01 3d 71 f2 9d 3d 00 c2 e1 3c 91 c0 4f 3e
       0.03169523 0.07712258 0.027558327 0.20288302
000310 1c 3a ee 3b 3b d7 27 3e 2d dc 1a bd e6 72 73 bd
       0.007270111 0.16390698 -0.037807632 -0.059435748
000320 5b 52 99 3c fd f5 3f bd e9 7d b9 3b f0 e5 2d bd
       0.018716028 -0.046865452 0.0056607616 -0.042455614
000330 ec 2a 72 3d 46 86 0a 3e 69 24 a0 3d a6 39 9e 3d
       0.059122965 0.13527784 0.07819445 0.07725839
000340 23 94 5c 3d 24 79 e0 3c 1b 6b cc 3c ff 21 8b bd
       0.05385221 0.027401514 0.024953416 -0.067935936
000350 04 91 e8 bb ba 9c 08 3e 6c 36 7f bd 47 6c 18 3d
       -0.0070973653 0.13341036 -0.06230776 0.037212636
000360 cb 86 15 3d e9 7e ca 3d d9 76 aa 3c 7f 21 f7 bb
       0.0365055 0.098874874 0.020808624 -0.007541835
000370 43 b9 20 bd 19 8b 41 3e 8d 6a 04 bd 3d b3 05 3e
       -0.03923918 0.18900718 -0.032328177 0.13056655
000380 af 73 90 bd 7b 23 d2 bd 17 02 07 3d fc f7 c4 3d
       -0.07053315 -0.102606736 0.032960977 0.09617612
000390 79 fc 76 bc 1e 6e b0 bd 77 ac 6a 3d 70 a2 14 be
       -0.015074843 -0.08614753 0.05729338 -0.1451509
0003a0 57 f5 d7 3c e2 8d 81 3c 68 67 1a bc db 5c d8 3c
       0.026362104 0.015814725 -0.009424068 0.026411464
0003b0 01 36 25 3e e5 41 61 3d 94 d4 40 bd ea b2 3b 3e
       0.16133882 0.054994483 -0.04707773 0.18329969
0003c0 33 e8 e4 bd 6c 5f e1 bd 74 9a 4d 3d 3e 07 1a 3c
       -0.11177101 -0.110045284 0.050196126 0.009401141
0003d0 6a 8f 93 bb 39 bb 0f bc 14 c9 15 be 5f 6e f6 3c
       -0.0045031803 -0.008772665 -0.14627486 0.030081926
0003e0 66 f8 9d 3d 7c a6 d0 3d 3c 26 03 bd 03 21 94 3d
       0.07713394 0.101880044 -0.032018885 0.07232859
0003f0 1a 5f d1 3c 89 6b 45 be 1f 61 05 3c 30 e6 b4 3d
       0.025558043 -0.19279303 0.008140831 0.08832967

network_body._body_endoder.seq_layers.2.bias f4 [128]
000000 00 00 00 00 00 00 00 00 00 00 00 00 00 00 00 00
       0.0 0.0 0.0 0.0
000010 00 00 00 00 00 00 00 00 00 00 00 00 00 00 00 00
       0.0 0.0 0.0 0.0
000020 00 00 00 00 00 00 00 00 00 00 00 00 00 00 00 00
       0.0 0.0 0.0 0.0
000030 00 00 00 00 00 00 00 00 00 00 00 00 00 00 00 00
       0.0 0.0 0.0 0.0
000040 00 00 00 00 00 00 00 00 00 00 00 00 00 00 00 00
       0.0 0.0 0.0 0.0
000050 00 00 00 00 00 00 00 00 00 00 00 00 00 00 00 00
       0.0 0.0 0.0 0.0
000060 00 00 00 00 00 00 00 00 00 00 00 00 00 00 00 00
       0.0 0.0 0.0 0.0
000070 00 00 00 00 00 00 00 00 00 00 00 00 00 00 00 00
       0.0 0.0 0.0 0.0
000080 00 00 00 00 00 00 00 00 00 00 00 00 00 00 00 00
       0.0 0.0 0.0 0.0
000090 00 00 00 00 00 00 00 00 00 00 00 00 00 00 00 00
       0.0 0.0 0.0 0.0
0000a0 00 00 00 00 00 00 00 00 00 00 00 00 00 00 00 00
       0.0 0.0 0.0 0.0
0000b0 00 00 00 00 00 00 00 00 00 00 00 00 00 00 00 00
       0.0 0.0 0.0 0.0
0000c0 00 00 00 00 00 00 00 00 00 00 00 00 00 00 00 00
       0.0 0.0 0.0 0.0
0000d0 00 00 00 00 00 00 00 00 00 00 00 00 00 00 00 00
       0.0 0.0 0.0 0.0
0000e0 00 00 00 00 00 00 00 00 00 00 00 00 00 00 00 00
       0.0 0.0 0.0 0.0
0000f0 00 00 00 00 00 00 00 00 00 00 00 00 00 00 00 00
       0.0 0.0 0.0 0.0
000100 00 00 00 00 00 00 00 00 00 00 00 00 00 00 00 00
       0.0 0.0 0.0 0.0
000110 00 00 00 00 00 00 00 00 00 00 00 00 00 00 00 00
       0.0 0.0 0.0 0.0
000120 00 00 00 00 00 00 00 00 00 00 00 00 00 00 00 00
       0.0 0.0 0.0 0.0
000130 00 00 00 00 00 00 00 00 00 00 00 00 00 00 00 00
       0.0 0.0 0.0 0.0
000140 00 00 00 00 00 00 00 00 00 00 00 00 00 00 00 00
       0.0 0.0 0.0 0.0
000150 00 00 00 00 00 00 00 00 00 00 00 00 00 00 00 00
       0.0 0.0 0.0 0.0
000160 00 00 00 00 00 00 00 00 00 00 00 00 00 00 00 00
       0.0 0.0 0.0 0.0
000170 00 00 00 00 00 00 00 00 00 00 00 00 00 00 00 00
       0.0 0.0 0.0 0.0
000180 00 00 00 00 00 00 00 00 00 00 00 00 00 00 00 00
       0.0 0.0 0.0 0.0
000190 00 00 00 00 00 00 00 00 00 00 00 00 00 00 00 00
       0.0 0.0 0.0 0.0
0001a0 00 00 00 00 00 00 00 00 00 00 00 00 00 00 00 00
       0.0 0.0 0.0 0.0
0001b0 00 00 00 00 00 00 00 00 00 00 00 00 00 00 00 00
       0.0 0.0 0.0 0.0
0001c0 00 00 00 00 00 00 00 00 00 00 00 00 00 00 00 00
       0.0 0.0 0.0 0.0
0001d0 00 00 00 00 00 00 00 00 00 00 00 00 00 00 00 00
       0.0 0.0 0.0 0.0
0001e0 00 00 00 00 00 00 00 00 00 00 00 00 00 00 00 00
       0.0 0.0 0.0 0.0
0001f0 00 00 00 00 00 00 00 00 00 00 00 00 00 00 00 00
       0.0 0.0 0.0 0.0

action_model._continuous_distribution.mu.weight f4 [1, 128]
000000 66 6e 38 3c 78 89 d8 bb e1 34 a4 3c d7 4f c3 3c
       0.01125679 -0.0066081844 0.020044746 0.023841782
000010 33 a9 cd 3c ee c2 b8 3c 9d 57 ad bc 85 62 66 bc
       0.025105095 0.022553887 -0.021159941 -0.014061575
000020 06 3a 2b bc d1 a2 3a bc f4 f6 81 3b c2 c7 e3 bb
       -0.010450846 -0.0113913575 0.0039662067 -0.006951303
000030 1f 58 ab bc e7 0f e9 3c 1e d3 4a bc dd e4 6b 3c
       -0.020916043 0.028449966 -0.012379436 0.014397827
000040 3b 50 3c 3b 20 99 74 3c 97 98 4c b9 a9 20 80 3c
       0.0028734345 0.014929086 -0.000195118 0.015640574
000050 0c 50 c2 3c 08 a3 88 bc 3b 8c 5c 3c b0 fd 88 bc
       0.02371981 -0.016679302 0.013461168 -0.01672253
000060 a7 31 ff bb b2 fb e7 bc 8b 75 9d bc 56 1f 00 bc
       -0.0077879014 -0.02831826 -0.019221088 -0.007819971
000070 33 d8 91 3c 40 e0 e7 3c 71 6c 0a 3d 1b cb 03 3c
       0.017803287 0.028305173 0.033794824 0.00804403
000080 70 15 8d bc c8 56 f5 bb 02 76 cf bb d7 c4 24 3a
       -0.017222136 -0.007487152 -0.0063312063 0.0006285435
000090 da aa df ba 91 34 29 3c 40 e1 60 ba d3 12 80 bc
       -0.0017064468 0.010327474 -0.0008578487 -0.015633976
0000a0 c2 ad eb bb c3 e6 00 3c 58 67 81 bc 2d 36 01 3c
       -0.0071923444 0.007867518 -0.015796348 0.007886452
0000b0 b5 24 15 bb b4 ed 33 bd cd 2f d7 3b bf 63 d5 3b
       -0.0022757475 -0.043927863 0.0065669776 0.006512135
0000c0 6a 9e 6e bc df a2 c5 bc cf 9d dc 3c b2 52 eb 3c
       -0.014564136 -0.024125515 0.026930718 0.028725956
0000d0 5f 8b 38 3b 4a ff ba 3c 75 04 4f bb ea b0 ef bc
       0.0028159244 0.02282681 -0.003158835 -0.029259164
0000e0 57 7f d4 3b f5 8d cd bc 05 58 6c 3c 79 4d 2a bc
       0.0064849067 -0.025092104 0.014425282 -0.0103944475
0000f0 3c 3a 2a 3d c2 2c ba bc b3 82 b4 3c 60 ac 73 bc
       0.041559443 -0.02272642 0.022034978 -0.01487264
000100 ae 54 91 3c b9 91 8b 3c 7f fc 45 bc 2e fc 36 3c
       0.017740574 0.01703726 -0.012084126 0.011168523
000110 cb dd b2 3b 43 2f 22 bc 13 f0 a1 3c 8b 96 20 bd
       0.0054585687 -0.009898963 0.019767797 -0.03920607
000120 b6 a9 11 3c 2b 86 90 3a 38 58 e9 bb a7 8f 3f bb
       0.00889056 0.0011026313 -0.007121112 -0.002922991
000130 07 9a 77 bb 90 3d cd bc 92 d9 39 bc d4 33 17 3d
       -0.0037781016 -0.02505377 -0.011343377 0.03691466
000140 bf 00 49 3b ed 22 9b 3b 8b 61 29 bc ed bf 79 bc
       0.003067061 0.004734388 -0.010338197 -0.015243513
000150 92 a9 e6 3c 5b e5 8f 3a fd a0 d8 bc ca a7 89 3c
       0.02815703 0.0010978387 -0.026443953 0.01680364
000160 65 7b 7c bc 80 ba 5d 3c 6c 44 44 bc 08 0b 70 3c
       -0.015410279 0.013533235 -0.011979204 0.014651068
000170 c3 d4 fd ba 1a 74 61 bb d3 2e 9e 3c f0 32 70 bc
       -0.0019365776 -0.0034401477 0.019309437 -0.014660582
000180 79 66 37 bb a7 03 2f bc 17 5f 5e ba 47 1c 97 bc
       -0.0027984662 -0.010682023 -0.00084827974 -0.0184461
000190 65 4c d7 3b ef ee 4b 3c d3 f1 15 3c cd c8 ab bc
       0.0065703862 0.012447103 0.009151894 -0.020969773
0001a0 30 a0 92 3c 0a ee 16 3b e5 d9 30 bb c0 99 d6 3c
       0.017898649 0.0023030066 -0.0026985344 0.02619636
0001b0 e2 31 b5 bc e3 75 69 3b 2b b6 9e 3a 52 90 a0 3c
       -0.022118513 0.0035623244 0.0012108734 0.019600067
0001c0 30 d7 96 bc e7 37 b7 3c 17 3f 85 bc 45 f1 8e bc
       -0.018413156 0.022365524 -0.016265435 -0.01744903
0001d0 53 dc 80 ba a2 58 9b bb 8b 29 8a 3c 13 8d 41 bd
       -0.0009831287 -0.0047407905 0.016865512 -0.04725368
0001e0 27 ed 75 bc b2 3c 54 3c 98 d4 b0 bc ab c3 9b bb
       -0.015010155 0.012953924 -0.021585748 -0.00475355
0001f0 7d 96 a2 3c 7b 51 d2 3c 6f 59 31 3c 37 4b 49 3c
       0.019847149 0.025673619 0.010824545 0.012285999

network_body._body_endoder.seq_layers.0.weight f4 [128, 1]
000000 59 f6 88 3f a9 7c e1 3f d1 7c a9 bf 10 73 89 3f
       1.0700179 1.7616168 -1.3241216 1.0738239
000010 c3 dd 07 bf 15 c9 0b bf 99 96 04 3f 75 00 bb 3e
       -0.53072757 -0.546037 0.51792294 0.36523786
000020 d7 ec 6e bf ab b5 34 3e 83 c7 73 bf 63 7d f4 bf
       -0.9333014 0.17647426 -0.95226306 -1.9100765
000030 41 07 59 bd 29 cd fc 3e d8 ff fb 3e 62 b4 a9 3f
       -0.052985433 0.49375275 0.4921863 1.3258173
000040 f1 6f a8 3f 8a 89 08 3f 7b 78 67 be de 63 9f be
       1.3159162 0.5333487 -0.22604553 -0.3113088
000050 e0 10 27 be 3e 74 46 3d a0 29 01 40 3c 21 bc be
       -0.16315031 0.0484507 2.0181656 -0.36744106
000060 14 28 c1 3f a7 1c 2d be 48 eb 8f bf 19 67 c8 3e
       1.5090356 -0.16905461 -1.1243677 0.39141157
000070 e7 df 0a bf a5 64 76 3f 71 fc 06 bf 37 22 27 3e
       -0.542479 0.9624732 -0.52728945 0.16321646
000080 83 c7 94 bd 2c 8f 24 3f 16 57 d1 3e c1 2f 2f bf
       -0.07264616 0.6428096 0.40886754 -0.6843224
000090 82 52 57 3e 4b d5 c6 bf e4 14 7e 3f 36 42 6f bf
       0.21027568 -1.5533842 0.99250627 -0.93460405
0000a0 0c 6c c6 bb 8f 63 88 3e 86 8f ca bf 76 59 ee bf
       -0.0060553607 0.26638457 -1.582505 -1.8621051
0000b0 b4 15 3a bd af c5 ae bf 3e 25 e2 3f ec 49 0e bf
       -0.045430854 -1.3654078 1.7667615 -0.55581546
0000c0 8c d8 bc bc 39 43 e0 3e 39 7b 2d be 76 d8 f5 be
       -0.023052476 0.43801287 -0.16941537 -0.4801671
0000d0 e6 90 ea 3e 3a a9 e7 bc a8 b9 b4 3c 4f cc 43 be
       0.45813674 -0.028278936 0.022061184 -0.19120906
0000e0 6c da 07 3f 49 47 f3 3f 51 20 71 3f cf 05 ab bd
       0.5306766 1.900613 0.94189936 -0.08350717
0000f0 84 12 29 bf 96 8b ca be 10 69 96 3e 99 62 fa 3e
       -0.6604388 -0.3955962 0.2937703 0.4890335
000100 b3 00 34 c0 b3 60 3b bf 4a 94 63 bf a8 da 0d bf
       -2.8125427 -0.73194426 -0.88898146 -0.5541177
000110 63 cb 68 bf 21 8a 8d be d1 42 62 bf c5 68 11 40
       -0.90935344 -0.27644446 -0.88383204 2.2720196
000120 7d 0d 65 bf c0 58 b4 bf 53 84 4c bf 3f a8 92 bf
       -0.89473706 -1.4089584 -0.7988941 -1.1457595
000130 e7 85 a1 be da 0a 81 3f 09 65 52 3e 36 0b 7d 3e
       -0.31547472 1.0081437 0.20546354 0.24711308
000140 56 e1 a1 3f 6a 9b 52 be 13 85 96 3f ae 9f c3 3f
       1.2646892 -0.20567098 1.1759361 1.5283105
000150 a9 e8 4b bf c5 90 af 3d 0f e3 d5 3d d1 36 6c 3e
       -0.79651886 0.085725345 0.104436986 0.23067786
000160 99 82 4d 3f 4c b9 bc be 2a ca b3 3f 92 87 8d bf
       0.802774 -0.3686012 1.404607 -1.1056998
000170 9f fd 07 be 73 60 99 3d 25 09 f2 39 f4 1f e9 bf
       -0.13280343 0.07489099 0.0004616465 -1.8212876
000180 4d 0c fa bd 33 54 d7 3f ef d3 aa 3e 0f 9a c8 3e
       -0.122093774 1.682257 0.33364818 0.39180037
000190 06 e7 b4 bf 45 fa 8e 3f cd 23 1b 3f ba 90 e9 bd
       -1.4133003 1.1170126 0.606015 -0.114045575
0001a0 a4 d7 7a bf 1a a2 35 3f bf 66 a5 be 69 8f 50 bf
       -0.9798529 0.7095047 -0.32304952 -0.81468827
0001b0 d4 9d c1 3e 61 96 95 be 29 74 51 3f 27 1b e9 bf
       0.37815726 -0.29216293 0.8181787 -1.8211411
0001c0 c7 57 ae 3f 9c e8 04 40 1c f0 ce 3d 97 e5 2d 3f
       1.3620538 2.0766973 0.10104391 0.6792845
0001d0 c0 b1 77 3d b5 7d 88 bf 78 2c 92 bf 63 b8 16 3f
       0.06047225 -1.0663363 -1.1419821 0.588751
0001e0 c3 ee 1e be 3f 19 ff 3d 23 a3 a8 3f 92 25 4e 3d
       -0.15520768 0.12455987 1.3174785 0.0503288
0001f0 2c 8b 92 3d c5 65 6e 3f 1f b7 e5 3e 7e 63 94 bf
       0.07155451 0.9312404 0.44866273 -1.1592863

network_body._body_endoder.seq_layers.0.bias f4 [128]
000000 00 00 00 00 00 00 00 00 00 00 00 00 00 00 00 00
       0.0 0.0 0.0 0.0
000010 00 00 00 00 00 00 00 00 00 00 00 00 00 00 00 00
       0.0 0.0 0.0 0.0
000020 00 00 00 00 00 00 00 00 00 00 00 00 00 00 00 00
       0.0 0.0 0.0 0.0
000030 00 00 00 00 00 00 00 00 00 00 00 00 00 00 00 00
       0.0 0.0 0.0 0.0
000040 00 00 00 00 00 00 00 00 00 00 00 00 00 00 00 00
       0.0 0.0 0.0 0.0
000050 00 00 00 00 00 00 00 00 00 00 00 00 00 00 00 00
       0.0 0.0 0.0 0.0
000060 00 00 00 00 00 00 00 00 00 00 00 00 00 00 00 00
       0.0 0.0 0.0 0.0
000070 00 00 00 00 00 00 00 00 00 00 00 00 00 00 00 00
       0.0 0.0 0.0 0.0
000080 00 00 00 00 00 00 00 00 00 00 00 00 00 00 00 00
       0.0 0.0 0.0 0.0
000090 00 00 00 00 00 00 00 00 00 00 00 00 00 00 00 00
       0.0 0.0 0.0 0.0
0000a0 00 00 00 00 00 00 00 00 00 00 00 00 00 00 00 00
       0.0 0.0 0.0 0.0
0000b0 00 00 00 00 00 00 00 00 00 00 00 00 00 00 00 00
       0.0 0.0 0.0 0.0
0000c0 00 00 00 00 00 00 00 00 00 00 00 00 00 00 00 00
       0.0 0.0 0.0 0.0
0000d0 00 00 00 00 00 00 00 00 00 00 00 00 00 00 00 00
       0.0 0.0 0.0 0.0
0000e0 00 00 00 00 00 00 00 00 00 00 00 00 00 00 00 00
       0.0 0.0 0.0 0.0
0000f0 00 00 00 00 00 00 00 00 00 00 00 00 00 00 00 00
       0.0 0.0 0.0 0.0
000100 00 00 00 00 00 00 00 00 00 00 00 00 00 00 00 00
       0.0 0.0 0.0 0.0
000110 00 00 00 00 00 00 00 00 00 00 00 00 00 00 00 00
       0.0 0.0 0.0 0.0
000120 00 00 00 00 00 00 00 00 00 00 00 00 00 00 00 00
       0.0 0.0 0.0 0.0
000130 00 00 00 00 00 00 00 00 00 00 00 00 00 00 00 00
       0.0 0.0 0.0 0.0
000140 00 00 00 00 00 00 00 00 00 00 00 00 00 00 00 00
       0.0 0.0 0.0 0.0
000150 00 00 00 00 00 00 00 00 00 00 00 00 00 00 00 00
       0.0 0.0 0.0 0.0
000160 00 00 00 00 00 00 00 00 00 00 00 00 00 00 00 00
       0.0 0.0 0.0 0.0
000170 00 00 00 00 00 00 00 00 00 00 00 00 00 00 00 00
       0.0 0.0 0.0 0.0
000180 00 00 00 00 00 00 00 00 00 00 00 00 00 00 00 00
       0.0 0.0 0.0 0.0
000190 00 00 00 00 00 00 00 00 00 00 00 00 00 00 00 00
       0.0 0.0 0.0 0.0
0001a0 00 00 00 00 00 00 00 00 00 00 00 00 00 00 00 00
       0.0 0.0 0.0 0.0
0001b0 00 00 00 00 00 00 00 00 00 00 00 00 00 00 00 00
       0.0 0.0 0.0 0.0
0001c0 00 00 00 00 00 00 00 00 00 00 00 00 00 00 00 00
       0.0 0.0 0.0 0.0
0001d0 00 00 00 00 00 00 00 00 00 00 00 00 00 00 00 00
       0.0 0.0 0.0 0.0
0001e0 00 00 00 00 00 00 00 00 00 00 00 00 00 00 00 00
       0.0 0.0 0.0 0.0
0001f0 00 00 00 00 00 00 00 00 00 00 00 00 00 00 00 00
       0.0 0.0 0.0 0.0

network_body._body_endoder.seq_layers.2.weight f4 [128, 128]
000000 64 9d fc 3c dc 12 cc 3d bf 35 0e 3e de 99 b7 3d
       0.030836768 0.09964535 0.1388769 0.08964895
000010 ba c4 37 bd be 86 3a 3e c7 86 11 3d f9 ae db bc
       -0.044865347 0.18215463 0.035528924 -0.026816832
000020 d7 06 bb 3d ee ce 04 3e 93 21 2e 3d 63 1d e4 bc
       0.09132164 0.12969562 0.042512488 -0.027846044
000030 df b9 4c bd 90 94 93 3d 19 26 ee 3d fc 07 cc 3c
       -0.049981948 0.072060704 0.1162836 0.024906151
000040 a4 32 89 3d f2 12 f9 3d e6 77 1d be f9 e9 c5 3d
       0.06699112 0.12161817 -0.15377769 0.09663767
000050 b0 bf ba bd 08 1b 5e bd 13 c5 bb bd 69 c9 7a 3d
       -0.09118593 -0.054224998 -0.09168448 0.061227236
000060 8f 30 bb 3d dd de 8c 3d 41 19 d7 bc 04 08 ce 3c
       0.09140121 0.06878445 -0.02625716 0.025150307
000070 71 d8 a3 3d fa 9b ca bd f6 3b 80 bd 75 aa 1a 3d
       0.08000267 -0.098930314 -0.06261437 0.037760217
000080 ca 93 d4 bd 12 11 b0 bd 7c ab a2 bd 37 4b f8 3d
       -0.10379751 -0.08597006 -0.07942864 0.12123721
000090 56 4f 22 bb 1b 9d 09 bd dc ce 8d bd 2f b7 23 3e
       -0.0024766526 -0.033597093 -0.06924221 0.15987848
0000a0 b7 9f 9d bd f3 90 57 bd e9 b8 ad bd 92 95 bd 3d
       -0.07696479 -0.05262847 -0.084825344 0.09257044
0000b0 eb 10 bd 3c 11 f4 59 bc 96 d2 1a 3d 00 5b fe bc
       0.023079356 -0.013302819 0.037798487 -0.031049252
0000c0 90 8a 17 3d 24 df 48 bd bb 64 e6 bd 04 4c a7 bd
       0.036997378 -0.04904093 -0.112496816 -0.08168796
0000d0 01 ea ad bd b5 4c 47 bd d2 0e ca bd 84 19 4a 3e
       -0.08491898 -0.048657138 -0.09866108 0.19736296
0000e0 f0 4c b7 3d 4b 45 b3 bb 1e 83 a3 bc 13 0d a4 3d
       0.089502215 -0.005470907 -0.019959982 0.08010306
0000f0 66 39 37 3d 59 b8 c1 bd c4 61 3a 3c 01 f3 ba bd
       0.044732474 -0.0945899 0.011375848 -0.091283806
000100 fc 50 82 bd 66 9d 66 3c 14 16 d5 bd 00 07 d0 bc
       -0.06363103 0.014075613 -0.10404602 -0.025393963
000110 09 a7 05 be 66 a0 6a 3c 7b c8 cd bd 1c 60 52 bd
       -0.13052 0.0143204685 -0.10048004 -0.05136119
000120 22 1e 97 3d e2 06 ed bd 4e 9c 25 3d 0e c5 93 bd
       0.07378794 -0.115735784 0.040432267 -0.072153196
000130 d1 0e 2d 3d 28 96 69 be 12 62 01 3d 30 82 d8 bc
       0.04225046 -0.22811186 0.031587668 -0.026429266
000140 ac b0 5d be 3f 3d c2 3c 5b 44 ee 3c bb 19 26 3d
       -0.21649426 0.023710845 0.029085329 0.040551882
000150 a8 1c 10 bd 0b 98 b6 3d 12 a4 a4 3c b8 c4 b5 bd
       -0.03518358 0.08915719 0.020097766 -0.08875412
000160 33 09 d7 bd 95 e5 89 bd ce a6 1e 3c 68 6a 1a be
       -0.104998015 -0.067332424 0.009683324 -0.15079653
000170 a9 e3 05 bd bd b0 02 3e 0c bc 29 3d 73 39 28 be
       -0.032687817 0.12762733 0.0414391 -0.16428165
000180 36 25 a4 3d 9e e2 3f 3d d6 21 48 be 59 75 2a 3e
       0.0801491 0.04684698 -0.19544157 0.16646327
000190 a8 af 54 bd be 7f 94 bd e7 9c 68 be 90 05 ec 3d
       -0.05192533 -0.072509274 -0.22716103 0.115244985
0001a0 f5 66 be bd 74 db 0e be c3 04 a4 3d 35 13 1e 3e
       -0.09296981 -0.13950902 0.08008721 0.15437014
0001b0 a8 7c b8 bd 36 95 8f bd b5 16 41 3d 5d 54 0e 3d
       -0.09008151 -0.070108816 0.047140796 0.034748424
0001c0 89 f7 26 be 6f ab 1d 3e 76 04 12 bd dc ec fd 3c
       -0.16305365 0.15397428 -0.035648786 0.030996732
0001d0 50 4e f9 3d 45 8d 9e bd da 25 4b bc dc 16 81 3d
       0.1217314 -0.07741789 -0.012399161 0.06303188
0001e0 76 3e 8c 3d f8 a5 9f 3b 6a ab a0 3d ae fa 9a bd
       0.06847851 0.00487208 0.07845195 -0.075673446
0001f0 d0 3d 2e be ab 85 fa 3d 4a 65 af bd 47 08 7e bd
       -0.17015767 0.122325264 -0.08564241 -0.062019613
000200 e9 5c b2 3d 7d 27 70 bd 2e ea 2e 3d 11 07 71 bd
       0.087091275 -0.05863141 0.0427038 -0.05884463
000210 76 61 8b 3d 51 c0 a6 bd ca 78 b7 3d 4d 5d 86 3d
       0.068056986 -0.0814215 0.089585856 0.065607645
000220 37 68 92 3d b7 ff cd bd ab 79 30 3e 30 27 c0 bd
       0.07148784 -0.10058539 0.17233913 -0.093824744
000230 e1 4a c4 3d ce 93 a5 bd ce a9 b0 3d c5 8c b2 3c
       0.095845945 -0.08084832 0.08626138 0.02179564
000240 47 bf c6 bc 83 db 17 3e 7c 52 f5 3c 6d 49 9d bd
       -0.02426113 0.14829831 0.029946558 -0.076800205
000250 c4 3f 77 3d 3d 82 72 3c 13 b3 5f bd a6 6e 05 bc
       0.060363546 0.014801559 -0.054614138 -0.008144056
000260 2b f6 ab bd 53 6b a0 bd de 8f 19 3d f1 a6 95 bd
       -0.08396562 -0.078329705 0.037490718 -0.07307232
000270 49 40 f2 3d 27 7f 2b 3d 69 e9 4b be c6 cc 4e be
       0.11828668 0.04186931 -0.19913258 -0.20195302
000280 f4 42 5d 3b 10 2c bd bc fc 7a c6 3d 0d 5e a7 bd
       0.003376183 -0.0230923 0.09691426 -0.08172236
000290 53 1c 7b bd 2d 37 85 3d a4 8f 5c bd 1a c0 e0 bd
       -0.06130631 0.065046646 -0.053847924 -0.109741405
0002a0 cd 64 a5 3d d2 16 07 3e 82 20 da bd a0 1f d8 3b
       0.08075867 0.13192299 -0.106507316 0.006595567
0002b0 0e 2a ac 3d 8c c9 f2 bd 27 e9 8c ba 61 bf d0 3d
       0.08406459 -0.11854848 -0.0010750637 0.10192753
0002c0 57 82 ba 3d b6 67 37 3e 6a 9e 09 be 1f 35 ce 3d
       0.091068916 0.17910656 -0.13439336 0.10068726
0002d0 41 81 c2 bd 19 68 5e be 04 4c 0f 3e c2 3d 11 3d
       -0.094973095 -0.21719398 0.13993841 0.035459287
0002e0 8e bd f2 3d 2c 66 f7 3d 22 1f 33 bd d2 b4 87 bb
       0.11852561 0.120800346 -0.043730862 -0.0041414285
0002f0 eb 20 ae bd 35 12 a4 bd 2f 2b 5b bd 3e 7e 98 bd
       -0.08502372 -0.08011285 -0.05350798 -0.07445954
000300 b4 bb 62 bc 54 54 32 bd 9f 2c 22 3e bc 7c 07 be
       -0.013838697 -0.043537453 0.15837334 -0.13231176
000310 7b e0 09 be c6 5d d5 bd 18 12 3c 3e 7f d3 a1 3d
       -0.13464539 -0.104182765 0.18366277 0.07901668
000320 4b 8b 43 3c 92 8d 1e 3d 05 92 05 3e 3b ce 7f 3d
       0.0119350655 0.03870923 0.13043983 0.062452536
000330 1a 37 a1 bb b0 9d c5 bb 8c 7b 0e 3d f5 17 ea 3a
       -0.0049198987 -0.0060307607 0.034785792 0.0017859923
000340 aa cc 4c 3e 24 f7 fb bd 27 82 85 3c 20 fb 06 be
       0.19999948 -0.12302998 0.016297413 -0.13181734
000350 ff 03 6a ba f8 fd ff bd 30 e8 db bd c5 11 3e 3e
       -0.0008926987 -0.124996126 -0.107376456 0.18561466
000360 ee e6 6d 3c a9 55 80 be c3 aa cd 3d 6e d5 b5 3c
       0.01452039 -0.25065354 0.10042336 0.022196498
000370 99 f9 a7 3d 6c 0a d3 bc 96 e0 77 3d 9d ad 14 3d
       0.08201904 -0.025761805 0.060516916 0.036298383
000380 3e de 21 3b 2d 15 37 3e 84 2d 25 bd 32 bf 1c 3c
       0.0024699117 0.17879172 -0.04032661 0.009567069
000390 a2 1b be 3d 0b dc af 3d a5 97 9c 3d d8 ee a7 bc
       0.09282614 0.08586892 0.076461114 -0.020499632
0003a0 54 87 ad 3d 79 7d 1d 3e 41 c1 01 3c 4c ba 23 3d
       0.084730774 0.15379895 0.0079196105 0.03997259
0003b0 7b 6e e5 bd bc ad 27 3c d3 8c 15 bc 88 38 04 3d
       -0.11202713 0.010234293 -0.009127813 0.032280475
0003c0 d0 b2 b1 bc 74 67 87 3c 0b 18 b4 3c 69 6b af bb
       -0.02169171 0.016528822 0.02198412 -0.0053533805
0003d0 14 6d f6 bd a4 ff 4a bd ed 2c a9 3d 74 c5 b0 bc
       -0.12032524 -0.049560204 0.08260522 -0.021578528
0003e0 ed 1a 8c 3a 8f 6d d4 bd 93 0d 8c bd f2 f2 43 3d
       0.0010689177 -0.10372459 -0.068385266 0.047839113
0003f0 b9 62 44 3c 44 b7 bf bc 72 f6 08 3e 84 35 3f 3e
       0.011986428 -0.023402818 0.13375261 0.18672758

network_body._body_endoder.seq_layers.2.bias f4 [128]
000000 00 00 00 00 00 00 00 00 00 00 00 00 00 00 00 00
       0.0 0.0 0.0 0.0
000010 00 00 00 00 00 00 00 00 00 00 00 00 00 00 00 00
       0.0 0.0 0.0 0.0
000020 00 00 00 00 00 00 00 00 00 00 00 00 00 00 00 00
       0.0 0.0 0.0 0.0
000030 00 00 00 00 00 00 00 00 00 00 00 00 00 00 00 00
       0.0 0.0 0.0 0.0
000040 00 00 00 00 00 00 00 00 00 00 00 00 00 00 00 00
       0.0 0.0 0.0 0.0
000050 00 00 00 00 00 00 00 00 00 00 00 00 00 00 00 00
       0.0 0.0 0.0 0.0
000060 00 00 00 00 00 00 00 00 00 00 00 00 00 00 00 00
       0.0 0.0 0.0 0.0
000070 00 00 00 00 00 00 00 00 00 00 00 00 00 00 00 00
       0.0 0.0 0.0 0.0
000080 00 00 00 00 00 00 00 00 00 00 00 00 00 00 00 00
       0.0 0.0 0.0 0.0
000090 00 00 00 00 00 00 00 00 00 00 00 00 00 00 00 00
       0.0 0.0 0.0 0.0
0000a0 00 00 00 00 00 00 00 00 00 00 00 00 00 00 00 00
       0.0 0.0 0.0 0.0
0000b0 00 00 00 00 00 00 00 00 00 00 00 00 00 00 00 00
       0.0 0.0 0.0 0.0
0000c0 00 00 00 00 00 00 00 00 00 00 00 00 00 00 00 00
       0.0 0.0 0.0 0.0
0000d0 00 00 00 00 00 00 00 00 00 00 00 00 00 00 00 00
       0.0 0.0 0.0 0.0
0000e0 00 00 00 00 00 00 00 00 00 00 00 00 00 00 00 00
       0.0 0.0 0.0 0.0
0000f0 00 00 00 00 00 00 00 00 00 00 00 00 00 00 00 00
       0.0 0.0 0.0 0.0
000100 00 00 00 00 00 00 00 00 00 00 00 00 00 00 00 00
       0.0 0.0 0.0 0.0
000110 00 00 00 00 00 00 00 00 00 00 00 00 00 00 00 00
       0.0 0.0 0.0 0.0
000120 00 00 00 00 00 00 00 00 00 00 00 00 00 00 00 00
       0.0 0.0 0.0 0.0
000130 00 00 00 00 00 00 00 00 00 00 00 00 00 00 00 00
       0.0 0.0 0.0 0.0
000140 00 00 00 00 00 00 00 00 00 00 00 00 00 00 00 00
       0.0 0.0 0.0 0.0
000150 00 00 00 00 00 00 00 00 00 00 00 00 00 00 00 00
       0.0 0.0 0.0 0.0
000160 00 00 00 00 00 00 00 00 00 00 00 00 00 00 00 00
       0.0 0.0 0.0 0.0
000170 00 00 00 00 00 00 00 00 00 00 00 00 00 00 00 00
       0.0 0.0 0.0 0.0
000180 00 00 00 00 00 00 00 00 00 00 00 00 00 00 00 00
       0.0 0.0 0.0 0.0
000190 00 00 00 00 00 00 00 00 00 00 00 00 00 00 00 00
       0.0 0.0 0.0 0.0
0001a0 00 00 00 00 00 00 00 00 00 00 00 00 00 00 00 00
       0.0 0.0 0.0 0.0
0001b0 00 00 00 00 00 00 00 00 00 00 00 00 00 00 00 00
       0.0 0.0 0.0 0.0
0001c0 00 00 00 00 00 00 00 00 00 00 00 00 00 00 00 00
       0.0 0.0 0.0 0.0
0001d0 00 00 00 00 00 00 00 00 00 00 00 00 00 00 00 00
       0.0 0.0 0.0 0.0
0001e0 00 00 00 00 00 00 00 00 00 00 00 00 00 00 00 00
       0.0 0.0 0.0 0.0
0001f0 00 00 00 00 00 00 00 00 00 00 00 00 00 00 00 00
       0.0 0.0 0.0 0.0

value_heads.value_heads.extrinsic.weight f4 [1, 128]
000000 90 be 79 bc 3e b7 ae bd 63 67 00 be 20 6f db 3d
       -0.015243188 -0.085310444 -0.12539439 0.10714555
000010 e0 d2 2a be 96 83 53 be 58 ed 2f be 46 07 12 be
       -0.16682005 -0.20655665 -0.17180383 -0.14260587
000020 a9 bb 0d be 2c d8 02 3d c8 49 26 3e 30 20 c1 3d
       -0.13841118 0.03194444 0.16239083 0.094299674
000030 6c 8d 9e 3d 5e 5d 8d bd 36 34 1b be 6a 0c c0 bd
       0.07741818 -0.06902574 -0.15156636 -0.09377368
000040 90 ad 03 be e0 b4 3d be 50 a2 9b bd 14 75 cb 3d
       -0.12859178 -0.1852603 -0.07599318 0.0993444
000050 e0 45 db bc 8b bb 55 be 90 13 6d 3d a8 c7 34 3e
       -0.026766717 -0.20872323 0.057879984 0.17654288
000060 c1 25 d8 bd 7a fa 31 3e 38 a4 04 be 5a ae 52 3e
       -0.10554076 0.17380705 -0.1295327 0.20574322
000070 ba bb 35 3e f3 8f 41 be d8 11 28 be 66 e6 46 3e
       0.17747393 -0.18902569 -0.16413057 0.19423828
000080 13 31 e6 bd 22 b1 d7 bd 04 95 12 3e f0 84 35 3c
       -0.11239829 -0.10531832 0.14314657 0.011079058
000090 08 83 1d 3d fc 64 2e 3e 50 81 1e bd a4 ba c2 3d
       0.03845504 0.1703071 -0.03869754 0.09508255
0000a0 48 97 ac bc f5 eb 16 be fc e1 a6 3d d8 7c 60 3d
       -0.02106823 -0.14738448 0.08148572 0.05480656
0000b0 f4 e1 1f bd bc 29 46 be 2c 1d 0f 3e ba a7 17 be
       -0.039033845 -0.19351858 0.13975972 -0.14810076
0000c0 14 25 f6 bd dc 9e 4e be a8 a8 2c be d0 4a df 3c
       -0.12018791 -0.20177788 -0.16861212 0.027257353
0000d0 b4 05 b9 3d 40 f8 50 3b ce 9a c8 bd 1c b9 52 3e
       0.09034291 0.003188625 -0.09795152 0.20578426
0000e0 b0 4c f6 bc 7a 72 3f 3e 3e 60 0c be 34 67 37 3e
       -0.030065864 0.18696013 -0.13708588 0.17910463
0000f0 4c d8 1c be f0 29 94 bd 88 ed 05 bd f0 72 35 be
       -0.15316886 -0.072345614 -0.03269723 -0.17719626
000100 3d ed 44 be ca 29 1d be c8 4f 7a bd 0f d6 fc bd
       -0.19231124 -0.15347973 -0.06111124 -0.12345516
000110 0c 43 22 bd a0 26 e0 3c e0 dd fa 3d 10 e1 b4 3c
       -0.039614722 0.027362168 0.122493505 0.022079974
000120 82 c9 a9 bd 20 e4 c3 3c 1c a0 84 3d 46 87 32 3e
       -0.08290388 0.02391249 0.06475851 0.17434415
000130 7c c0 b5 3d 48 d2 ff bd 48 e7 93 bc d0 08 e9 bd
       0.08874604 -0.1249128 -0.01805462 -0.11378634
000140 d8 47 e3 bd 92 44 e2 bd c8 89 4e bd d0 02 5a bc
       -0.110976875 -0.11048235 -0.050424367 -0.013306335
000150 4b 8e c1 bd 13 e2 fd bd ad 23 f6 bd a8 d5 07 3e
       -0.09450968 -0.12396636 -0.12018523 0.13265097
000160 88 cd 81 3c 90 87 42 be 98 7d 0e 3e aa ee a4 bd
       0.015845075 -0.18997025 0.13915098 -0.08053334
000170 f5 2b 08 be c8 24 4a 3d 40 5c da bc 22 17 91 bd
       -0.13298018 0.049351484 -0.026655316 -0.0708449
000180 d4 33 06 be 84 a3 c3 3d 7c 72 1e 3e f8 23 5c 3d
       -0.13105708 0.095526725 0.1547336 0.05374524
000190 f4 a8 17 bd 60 fa 77 3d 70 7e 43 3e fe 97 8c bd
       -0.03702636 0.06054151 0.19091201 -0.06864928
0001a0 83 a9 fe bd ac 1c 2b be 54 48 7d bd e2 49 53 be
       -0.124346755 -0.16710156 -0.061836556 -0.20633653
0001b0 fe 07 50 be 8e 9d 29 be ec 80 aa 3d 80 8b b9 bd
       -0.20315549 -0.16564009 0.08325371 -0.09059811
0001c0 7a c5 52 3e e2 2e 91 bd 44 98 39 be 28 1a e0 3d
       0.20583144 -0.0708902 -0.18124491 0.10942489
0001d0 50 0b 12 3e 5c 05 12 bd 98 75 83 bc 30 c3 f7 3c
       0.14262128 -0.035649642 -0.016047284 0.03024444
0001e0 a0 a4 f6 bc 3f d0 08 be 7c 6b 2e be 00 11 50 3e
       -0.030107796 -0.1336069 -0.1703319 0.20318985
0001f0 2c 73 5b bd 26 d8 2d be e4 83 41 3e 04 32 a0 bd
       -0.053576633 -0.16976985 0.18897969 -0.0782204
