Client/results/test2/Move to target.onnx (onnx, 71561 bytes, 4 tensors)

network_body._body_endoder.seq_layers.0.weight f4 [128, 1]
000000 37 7b d4 3e a6 5b 5e 3f 31 5f b4 3f 3b f8 95 3f
       0.41500255 0.86858594 1.409155 1.1716379
000010 c2 ff 85 bf 7c fc 8e 3f 7b b9 88 bf 11 f2 37 3f
       -1.0468676 1.1170802 -1.0681604 0.7185374
000020 c1 c7 bb bf 89 2f 47 3e 8c 07 e1 be 76 75 57 be
       -1.4670335 0.19451727 -0.4395107 -0.21040902
000030 9f 5d b6 3e b3 f4 c1 bf ae 1f 81 3e 08 24 74 bf
       0.35618302 -1.5152801 0.25219482 -0.9536748
000040 4c 36 82 bf 52 0f 9a 3e ad e4 9b bf 2c c8 9e be
       -1.017282 0.30089813 -1.2179161 -0.31012094
000050 eb df 7e be d3 e0 24 3f fd a0 24 3f 50 2c 9c 3f
       -0.24890105 0.64405555 0.6430815 1.2201023
000060 30 ba b2 bd 76 21 6f 3f 0b 0d a6 3f 9f 39 83 3f
       -0.08726919 0.9341043 1.297273 1.025196
000070 51 b9 44 bf c2 f4 95 bd 65 90 28 3e 89 89 b6 bf
       -0.7684527 -0.073220745 0.16461332 -1.4260722
000080 38 82 79 3f 3f 0f b3 3f 6d f8 6f 3f d8 70 98 3f
       0.97464323 1.3989028 0.9373844 1.1909437
000090 a1 9a 3c 3f 67 52 22 3e 23 de 50 bf ad 47 d4 bf
       0.73673445 0.15851746 -0.81588954 -1.6584374
0000a0 46 8e 03 bf d0 29 be bf 6c a9 95 be b8 0e fe 3b
       -0.5138897 -1.485651 -0.2923082 0.0077532195
0000b0 dc 84 d8 3f 0e 22 96 3e c3 c8 cc bf 52 48 9d bf
       1.6915545 0.29322857 -1.5998768 -1.2287695
0000c0 87 91 53 3e 0c a8 62 bf 4f e1 08 be 45 98 90 3f
       0.20660983 -0.8853767 -0.13367198 1.1296469
0000d0 d1 26 f8 bf de fd 56 3e b1 53 83 3f 5a 9a 04 3f
       -1.9386846 0.2099528 1.0259916 0.5179802
0000e0 ba 78 f2 bf 74 8c 30 3f 40 b3 4a bf 00 6b 26 bf
       -1.8943093 0.68964314 -0.79179764 -0.6500702
0000f0 e7 e5 8e bf 6d d8 61 bf 42 1d ea 3d 3b f8 39 3e
       -1.1163911 -0.88220865 0.11431362 0.18161099
000100 e5 0b 0e 3f f6 29 d4 3e 09 ed 4d bf d9 31 ae bf
       0.554869 0.41438264 -0.8043981 -1.3608962
000110 53 ce b8 3f 0d 38 67 bf 58 e7 7d 3f 12 a7 97 3e
       1.4437965 -0.903199 0.9918113 0.29619652
000120 62 6e eb bd f0 21 49 3f ad 33 85 bf d3 24 f1 be
       -0.11495663 0.7856741 -1.0406395 -0.47098407
000130 dc af 86 bf ee 5b 99 bf 63 ee 51 be b8 97 43 bd
       -1.0522418 -1.198118 -0.20501094 -0.047752112
000140 e9 35 cf bd 3f d0 1a 3f 17 91 ab bd 00 37 cd bf
       -0.101177044 0.6047401 -0.08377283 -1.603241
000150 6c 73 85 3f 18 6d 12 3d 23 9f 41 bf c4 75 2b 3f
       1.0425849 0.03574857 -0.7563345 0.6697657
000160 f4 60 8f be 4a 62 9d bf cb f3 ab bf 10 6f e6 3f
       -0.28003657 -1.229562 -1.3433775 1.8002644
000170 42 f6 b1 3f 1b 88 7a be 6f 81 8f 3f 6f dd 47 bf
       1.3903277 -0.24465983 1.1211375 -0.78072256
000180 2f 6d 5d be 30 a0 1f bf 30 05 04 c0 01 41 19 bd
       -0.21623681 -0.623538 -2.0628166 -0.03741551
000190 d0 06 75 bf ab 78 c4 bf 98 a9 c4 bf e0 c2 b0 bf
       -0.9571352 -1.5349325 -1.5364256 -1.3809471
0001a0 4c b0 87 bf 0a 19 db 3f d8 ec 56 3f b6 5d 1b c0
       -1.0600677 1.7117016 0.83955145 -2.4275947
0001b0 f1 23 a5 bf 5d df 7f 3e a3 ac f3 bf f1 2d 18 40
       -1.2901593 0.2498755 -1.903706 2.377804
0001c0 2c 83 f3 be 95 3c 68 3e df 03 28 3f fd 73 85 be
       -0.47561014 0.2267936 0.65630907 -0.26065055
0001d0 ff 98 7f be 77 88 ab be b0 41 cd 3e 95 70 f2 be
       -0.24960707 -0.33502552 0.40089178 -0.47351518
0001e0 34 8a 81 3f ec 53 fe 3f cd d2 d9 3f 6e 62 bc 3d
       1.0120301 1.9869361 1.7017456 0.091984615
0001f0 79 39 48 3d 7c 17 17 3b d5 96 0d 3f 98 a1 d9 3d
       0.048882935 0.002305477 0.55308276 0.10626525

network_body._body_endoder.seq_layers.0.bias f4 [128]
000000 00 00 00 00 00 00 00 00 00 00 00 00 00 00 00 00
       0.0 0.0 0.0 0.0
000010 00 00 00 00 00 00 00 00 00 00 00 00 00 00 00 00
       0.0 0.0 0.0 0.0
000020 00 00 00 00 00 00 00 00 00 00 00 00 00 00 00 00
       0.0 0.0 0.0 0.0
000030 00 00 00 00 00 00 00 00 00 00 00 00 00 00 00 00
       0.0 0.0 0.0 0.0
000040 00 00 00 00 00 00 00 00 00 00 00 00 00 00 00 00
       0.0 0.0 0.0 0.0
000050 00 00 00 00 00 00 00 00 00 00 00 00 00 00 00 00
       0.0 0.0 0.0 0.0
000060 00 00 00 00 00 00 00 00 00 00 00 00 00 00 00 00
       0.0 0.0 0.0 0.0
000070 00 00 00 00 00 00 00 00 00 00 00 00 00 00 00 00
       0.0 0.0 0.0 0.0
000080 00 00 00 00 00 00 00 00 00 00 00 00 00 00 00 00
       0.0 0.0 0.0 0.0
000090 00 00 00 00 00 00 00 00 00 00 00 00 00 00 00 00
       0.0 0.0 0.0 0.0
0000a0 00 00 00 00 00 00 00 00 00 00 00 00 00 00 00 00
       0.0 0.0 0.0 0.0
0000b0 00 00 00 00 00 00 00 00 00 00 00 00 00 00 00 00
       0.0 0.0 0.0 0.0
0000c0 00 00 00 00 00 00 00 00 00 00 00 00 00 00 00 00
       0.0 0.0 0.0 0.0
0000d0 00 00 00 00 00 00 00 00 00 00 00 00 00 00 00 00
       0.0 0.0 0.0 0.0
0000e0 00 00 00 00 00 00 00 00 00 00 00 00 00 00 00 00
       0.0 0.0 0.0 0.0
0000f0 00 00 00 00 00 00 00 00 00 00 00 00 00 00 00 00
       0.0 0.0 0.0 0.0
000100 00 00 00 00 00 00 00 00 00 00 00 00 00 00 00 00
       0.0 0.0 0.0 0.0
000110 00 00 00 00 00 00 00 00 00 00 00 00 00 00 00 00
       0.0 0.0 0.0 0.0
000120 00 00 00 00 00 00 00 00 00 00 00 00 00 00 00 00
       0.0 0.0 0.0 0.0
000130 00 00 00 00 00 00 00 00 00 00 00 00 00 00 00 00
       0.0 0.0 0.0 0.0
000140 00 00 00 00 00 00 00 00 00 00 00 00 00 00 00 00
       0.0 0.0 0.0 0.0
000150 00 00 00 00 00 00 00 00 00 00 00 00 00 00 00 00
       0.0 0.0 0.0 0.0
000160 00 00 00 00 00 00 00 00 00 00 00 00 00 00 00 00
       0.0 0.0 0.0 0.0
000170 00 00 00 00 00 00 00 00 00 00 00 00 00 00 00 00
       0.0 0.0 0.0 0.0
000180 00 00 00 00 00 00 00 00 00 00 00 00 00 00 00 00
       0.0 0.0 0.0 0.0
000190 00 00 00 00 00 00 00 00 00 00 00 00 00 00 00 00
       0.0 0.0 0.0 0.0
0001a0 00 00 00 00 00 00 00 00 00 00 00 00 00 00 00 00
       0.0 0.0 0.0 0.0
0001b0 00 00 00 00 00 00 00 00 00 00 00 00 00 00 00 00
       0.0 0.0 0.0 0.0
0001c0 00 00 00 00 00 00 00 00 00 00 00 00 00 00 00 00
       0.0 0.0 0.0 0.0
0001d0 00 00 00 00 00 00 00 00 00 00 00 00 00 00 00 00
       0.0 0.0 0.0 0.0
0001e0 00 00 00 00 00 00 00 00 00 00 00 00 00 00 00 00
       0.0 0.0 0.0 0.0
0001f0 00 00 00 00 00 00 00 00 00 00 00 00 00 00 00 00
       0.0 0.0 0.0 0.0

network_body._body_endoder.seq_layers.2.weight f4 [128, 128]
000000 f1 cb 2d be 1d a5 3e 3c eb 1f 81 bc a9 bc 2a bd
       -0.16972329 0.011636046 -0.01576229 -0.041683827
000010 50 2b 89 3d eb 07 00 3e ba 73 1f bd 73 a3 fa 38
       0.06697714 0.1250302 -0.038928725 0.00011951374
000020 af 50 eb 3d 62 68 b8 bc fd d4 95 bd e5 c0 a8 3c
       0.114899985 -0.022510711 -0.07316015 0.020599792
000030 a8 84 97 3d 80 31 26 be 75 aa b3 3b 1e d6 10 be
       0.07398349 -0.1622982 0.0054829665 -0.14144179
000040 94 68 da 3c 94 3c 9a 3d cb 31 68 bd 05 e6 33 3c
       0.026661195 0.075310856 -0.05668811 0.010980134
000050 42 8c 26 3d 1f 15 07 3c 40 94 69 bd 37 53 59 be
       0.040661104 0.008244782 -0.057026148 -0.2122315
000060 66 f0 e0 3d ca 70 c7 bd 1f e5 99 bb e6 15 d3 bc
       0.10983352 -0.0973831 -0.004696503 -0.025767278
000070 ee 21 2e be fe 4d af 3c 03 d3 de bd 4b c2 dc bc
       -0.1700513 0.021399494 -0.10880091 -0.026948115
000080 00 7f ab bd 5f 52 cc 3d 40 99 1e 3e 33 62 cf bd
       -0.08373833 0.099766485 0.15488148 -0.10126152
000090 bb 86 23 3d fe 55 e1 bd 90 f9 54 3d 33 8e a5 3c
       0.03992341 -0.1100273 0.051995814 0.020209407
0000a0 1a a2 44 bd 19 43 4f 3e 93 ba bf 3c 5b 1b dc bd
       -0.048006155 0.2024044 0.023404395 -0.10747405
0000b0 e4 dc 09 be 1a ed 3c 3d e0 6f fb 3d cf f0 b1 bd
       -0.1346317 0.046124555 0.12277198 -0.08688509
0000c0 c2 49 69 bd 51 af c1 bd 8b 27 4e bc 31 1c 16 3d
       -0.056955107 -0.09457267 -0.01258267 0.03664798
0000d0 35 3d 0c bd 6b 23 6d 3c a7 ed dd bd f5 5c 8f 3d
       -0.03423806 0.014473776 -0.10836344 0.07000152
0000e0 dd b6 c7 3c d0 c5 74 bd d9 63 31 3d d4 f3 fa 3d
       0.024379188 -0.05975896 0.043308113 0.12253538
0000f0 3f f0 dd bb 76 9a 50 bd 8b af db bd 9b 1f b9 3d
       -0.0067730243 -0.050928555 -0.107268415 0.090392314
000100 c1 bd e0 3d 0f 05 aa bc f0 6a a8 bd 7b f1 07 bd
       0.10973693 -0.020754365 -0.08223522 -0.033189278
000110 1f 7f 99 3d aa ec 44 bd 99 5c 10 3e b9 3f 5c 3d
       0.074949495 -0.048077263 0.14097823 0.05377171
000120 7c 6f ed bd 52 c9 cc 3d b1 ae fb 3d ae e5 d5 3d
       -0.115935296 0.09999336 0.12289179 0.104441985
000130 03 4d 6c bd 3f bf 78 3c 33 98 b1 3d 59 53 25 3b
       -0.05769063 0.015182315 0.08671608 0.002522668
000140 4c aa 4b 3d e0 0d 06 bc ae 6d 0b 3d d3 b2 dc 3d
       0.049722955 -0.008182019 0.034040146 0.107762955
000150 4f 7c 86 bd 4d 69 03 be 66 ae bb 3d 02 0c 99 bd
       -0.06566679 -0.12833138 0.09164123 -0.074729934
000160 e1 ae 8a 3d eb 78 0b be 06 f1 bb bd 8d 47 95 3d
       0.06771637 -0.13620345 -0.09176831 0.07289038
000170 7e 8c 09 be 94 5b 24 bd f2 6f a5 3c 0c 62 56 bd
       -0.134325 -0.0401264 0.020194981 -0.0523396
000180 11 22 5e 3b 1e ce e5 bd 70 05 50 bd 9b b9 ad 3c
       0.0033894817 -0.11220954 -0.050786436 0.021206668
000190 09 ac 23 3c 59 74 60 bd 1a ec d9 3d af 40 62 bd
       0.009989747 -0.054798458 0.10640736 -0.05523747
0001a0 e1 06 bf 3d 82 49 aa 3d 16 2d 7f bd cc fd 1e bd
       0.09327484 0.08314802 -0.062298857 -0.03881626
0001b0 52 0b 4a 3d 4e 8d 56 bd d1 a8 2a 3d 8d dd 72 3d
       0.049327202 -0.052380852 0.041664902 0.05929332
0001c0 83 7f e1 3b c7 47 76 3d c9 5b a3 3d 4c c7 6d be
       0.0068816557 0.060127046 0.07976491 -0.23220557
0001d0 73 bd dd 3d b1 d5 be 3c 12 d4 ee bc d5 54 b6 3d
       0.1082715 0.023295255 -0.029153857 0.08902899
0001e0 43 16 ad bd 04 64 32 3d f3 db bd 3d c5 eb b1 3d
       -0.08451512 0.043552414 0.092704676 0.086875476
0001f0 23 07 c5 3b e4 9b 7c bd df 9f 91 3d d6 73 82 bc
       0.0060128137 -0.061672106 0.07110571 -0.015924376
000200 22 9b 47 3e 0b 17 9d bd 9c 18 df bd 08 ac 48 3d
       0.19492772 -0.07670411 -0.10893366 0.048992187
000210 51 37 05 3e 1a 2e 92 3d 81 ac 6a 3d 71 2a c7 bd
       0.13009383 0.071376994 0.05729342 -0.09724892
000220 3b fa 0b 3e 98 4d 22 be 96 75 84 bc c8 ab 5e 3d
       0.13669674 -0.15849912 -0.01616935 0.054363042
000230 15 4b cd 3b c1 5f f5 3d 54 47 b6 3c a1 ac a2 3d
       0.006265054 0.11981154 0.022250809 0.079430826
000240 53 0a ab bd e2 5e 36 3e 08 53 0e be c8 95 ff 3b
       -0.083515786 0.17809632 -0.13898861 0.0077998377
000250 78 6e 91 bd ff b9 87 bd 81 85 45 be 54 83 ce bc
       -0.07101148 -0.06627273 -0.19289209 -0.025209107
000260 84 13 b8 3d 57 9f 35 3e 81 8e 3b bc 09 12 98 bd
       0.08988097 0.17736565 -0.01144755 -0.07425315
000270 5b f0 2f be 51 c9 9a bc 2e 2d e8 3c ea a6 1e bd
       -0.17181532 -0.018894823 0.028341856 -0.0387334
000280 ac 16 e7 3d 3b db 02 be 9e 3f 8c 3c ec cb 1a bd
       0.11283621 -0.12778942 0.017120179 -0.03779213
000290 fa cd 8d bb c6 08 8d 3c 18 9a a5 3d 72 42 b3 bd
       -0.004327533 0.017216098 0.08086032 -0.08752908
0002a0 70 64 2f bd 4c 3d 92 bc 9d 10 e5 bc 6a 80 1a bc
       -0.042820394 -0.017851494 -0.027962023 -0.00943003
0002b0 85 8e 83 bd e6 03 2e 3d a2 b6 06 3e 67 4f 28 3d
       -0.06423668 0.042484187 0.13155606 0.04109135
0002c0 cb 11 71 3d c7 6f b6 bd 98 99 ed bc 5c 6a 2b 3c
       0.05885486 -0.089080386 -0.029003903 0.01046237
0002d0 e8 5a 90 bd 12 01 68 3d c7 94 6c bc 14 c4 ae bc
       -0.07048589 0.056641646 -0.014439768 -0.021333732
0002e0 da 43 b1 bd 83 d0 be 3d 5d fd 5f be d7 cf 0e bd
       -0.0865552 0.09317114 -0.21873994 -0.03486618
0002f0 71 71 e6 3b bc 2f 07 be c2 de 34 3d 9e 01 86 bd
       0.0070325662 -0.13201803 0.04415775 -0.06543277
000300 85 19 0b 3c 4f 62 04 be 4f c8 c9 bd 3e 3a 38 bc
       0.008489971 -0.12928127 -0.09852659 -0.011244355
000310 54 6d 9e bc 07 2e 11 be 5c 52 5a bd be b6 f6 bd
       -0.019339241 -0.14177714 -0.0533012 -0.12046574
000320 dd 08 d8 3d b2 5a 98 bb 03 0c 31 3d f0 0b 4a bc
       0.105485655 -0.0046494836 0.043224346 -0.012331948
000330 2c bd 8e bd 5f c0 1d 3e fc b1 e6 3d f9 99 10 be
       -0.069696754 0.15405415 0.112644166 -0.14121236
000340 fd 44 a3 3d 3c 08 d2 3d a4 53 14 3e 25 72 80 3c
       0.07972143 0.10255477 0.14485031 0.015679428
000350 10 8e 08 3d 39 59 a5 bc 12 30 34 be e6 b8 cc 3d
       0.033338606 -0.020184146 -0.17596462 0.09996204
000360 63 51 8f bd 8b 56 31 3d e8 74 44 3d 1f 87 9e 3c
       -0.06997945 0.043295424 0.047963053 0.01935154
000370 16 94 a6 3d 31 be ae 3d 9f 75 4c 3e 73 f7 b9 3d
       0.08133714 0.0853237 0.19966744 0.090804
000380 cc b2 30 3d ba 01 c5 3d ce 57 75 bc f8 6a 08 3e
       0.043139264 0.0961947 -0.014974548 0.13322055
000390 cc 28 4c 3d 52 19 59 3d 80 17 ae bd 7b ea 0a 3d
       0.049843594 0.053002663 -0.08500576 0.033915024
0003a0 6b 21 a5 3d e8 a9 cd bd 40 39 25 bd 17 a4 b1 bd
       0.080630146 -0.10042173 -0.0403378 -0.08673876
0003b0 79 9b 13 3d 75 49 86 be ff ed 25 3d 91 3f ae bc
       0.036036942 -0.26227918 0.040510174 -0.021270545
0003c0 21 cb fd bd 6c bb f0 3c 60 67 ef bd bf d5 e9 3d
       -0.123922594 0.029386245 -0.11689639 0.11417722
0003d0 68 f2 9f bd a7 10 55 bd 80 30 0c 3d a3 86 71 3d
       -0.07809907 -0.052017834 0.03422594 0.05896629
0003e0 ac 5a bb bd 56 e1 4c 3d 46 d0 d5 bc 42 f7 bf bd
       -0.09148154 0.050019585 -0.02610029 -0.093733326
0003f0 9f f5 e1 3c 99 bb d6 3d bf 54 c4 3d 52 7e 63 3c
       0.027582942 0.10485 0.095864765 0.013885098

action_model._continuous_distribution.mu.weight f4 [1, 128]
000000 3a 49 5c bc 3b 14 d1 bb ce 3f 8a 3c d5 8b bd bb
       -0.013445193 -0.0063805855 0.016876128 -0.0057844915
000010 53 97 1e bb 33 a3 0b bd c6 78 c5 bb 0f 9e 18 bc
       -0.0024199083 -0.034091186 -0.00602636 -0.009315028
000020 8b 6b c0 3c 4d f1 85 3b d3 68 9f 3b 37 e6 00 bd
       0.02348878 0.004087603 0.004864791 -0.03146955
000030 d1 db 13 bd af e4 03 bc 62 69 35 bb b3 2d 0a bc
       -0.036098305 -0.008050128 -0.0027681221 -0.008433747
000040 c1 a3 c5 3c bf 7e ed 3b 71 1f 89 3c 0b 9f 12 3c
       0.024125936 0.0072477753 0.016738625 0.008949052
000050 97 a6 88 bc 43 6f 09 3c 70 77 2c bc e5 62 90 bc
       -0.016680999 0.008388343 -0.010526523 -0.017625282
000060 60 94 1e bc 59 a9 1c bb 1c d8 ae bc a7 00 7b bb
       -0.00967893 -0.002390465 -0.021343283 -0.003829995
000070 3e 6c 13 bc 9f ff ef 3c b1 32 a6 3b 1b 80 60 bc
       -0.008997975 0.029296694 0.005071961 -0.013702418
000080 e1 cb 8a 39 39 50 20 3b 80 3e c2 3c 8f 98 f3 ba
       0.00026473313 0.002446188 0.023711443 -0.0018584895
000090 2f 65 9f bc f8 41 69 3a 0f e5 30 bc 5c bd 35 3c
       -0.019457428 0.0008898075 -0.010796799 0.01109251
0000a0 72 c9 69 3b 1c af 3c bb ac 22 90 bc 02 ab 6b 3b
       0.003567305 -0.0028790897 -0.017594658 0.0035960083
0000b0 2d 1b d6 3c ab 5d cb 3c 6b f7 b9 3b df 8c 35 3c
       0.026136005 0.024824938 0.0056752465 0.01108095
0000c0 75 5d d4 3c 62 ca e5 3c be 79 a1 bc 9b ba 3d bd
       0.02592347 0.028050605 -0.019711372 -0.04632054
0000d0 d3 fe 37 bc eb e0 f2 3c d5 8b 92 b9 79 1a 03 3d
       -0.011230188 0.029648265 -0.00027951473 0.03200767
0000e0 e0 3e 99 bc eb c7 c2 3b 14 81 03 3c c0 31 62 bc
       -0.018706739 0.0059442422 0.00802638 -0.013805807
0000f0 b8 10 b0 bc 1d 8b b6 bc 8b e5 9e bc c7 2e 80 3c
       -0.021492347 -0.022283131 -0.019396564 0.015647305
000100 b5 fb 31 3c b7 50 9a bc 2b 74 72 bc fb b6 a2 3c
       0.010863234 -0.018837316 -0.014798204 0.019862643
000110 82 24 fa 3b b8 58 05 3b 2c d4 c8 3b ba 52 5e 3c
       0.0076337466 0.002034707 0.0061288085 0.013569528
000120 72 bd 18 3c 9a ca e0 3b c2 50 89 3c cb 19 2c bb
       0.009322511 0.0068600895 0.016762141 -0.002626049
000130 f2 3f e8 3c 00 85 63 bc 42 af d6 3c b2 a2 28 3d
       0.028350804 -0.01388669 0.026206616 0.041170783
000140 67 13 e3 ba e7 35 9c 3c f7 4c 9d bc bd dc 22 3d
       -0.0017324508 0.019068671 -0.019201739 0.039761294
000150 5b 3e 0f 3d c7 11 95 3c 37 ae 4e bb 07 48 4b bb
       0.034971576 0.018196953 -0.0031536946 -0.0031018273
000160 3a a5 e7 3a b0 6f 34 3c c5 f6 f4 bc 98 7d dc 3c
       0.0017673143 0.0110129565 -0.029902825 0.026915357
000170 33 2b 8f 3c b3 cb 13 bb f2 65 22 3b c8 50 64 3b
       0.017476654 -0.0022551834 0.0024780002 0.0034838188
000180 fd 5d 05 bc 4a 1a 1a 3c fd c6 e1 bc d8 0c 4d bc
       -0.008140084 0.009405682 -0.027560705 -0.012515269
000190 9e 39 cb bc 7a 76 73 bb d3 bc e2 3b 48 7f 8e bc
       -0.024807747 -0.0037149475 0.0069194823 -0.017394677
0001a0 e7 32 df 3c 85 f6 31 3c e0 b6 8c 39 2f 6d 83 3c
       0.027245952 0.0108619975 0.00026839133 0.016043274
0001b0 6f 84 49 3d a7 fe a3 bb 57 92 b4 3b 61 55 3e 39
       0.049198564 -0.005004722 0.005510609 0.00018151618
0001c0 fd 8b fa 3b b3 33 c0 bc 17 9b 89 bc aa 63 e7 bc
       0.0076460824 -0.023462152 -0.016797585 -0.028245766
0001d0 e0 55 63 bb 6b f2 b6 3c 37 e9 a7 3b 78 9b e5 ba
       -0.0034688637 0.02233239 0.005124237 -0.0017517647
0001e0 30 56 9e 3c e5 ca 8b 3c 37 91 cd bc db f4 05 3c
       0.019328207 0.017064521 -0.025093658 0.008176054
0001f0 13 01 1f bc 1b 73 0b 3c d3 56 7a bc 5a 12 83 bc
       -0.009704846 0.00851133 -0.01527949 -0.015999962
