Client/results/ppo/Move to target/Move to target-80.pt (torch, 145795 bytes, 11 tensors)

network_body._body_endoder.seq_layers.0.weight f4 [128, 1]
0	0x3f9b244c	1.2120452
1	0xbcb799f7	-0.022412283
2	0xbf24cce8	-0.6437516
3	0xc002c02b	-2.042979
4	0x3f865c85	1.0496985
5	0xbf211c9b	-0.62934273
6	0x3fe5a51f	1.7941016
7	0x3e465889	0.19369711
8	0xbf70c54d	-0.9405106
9	0x3ec31d90	0.38108492
10	0x3d48be1d	0.04900943
11	0xbf7ecc87	-0.99530834
12	0xbd4e1e88	-0.050322086
13	0xbede5cb2	-0.43430096
14	0x3e85de45	0.2614614
15	0x3f2dd7ef	0.67907614
16	0x3ffc6c6f	1.9720591
17	0xbf8dc72c	-1.1076407
18	0x3ce11f6e	0.027480807
19	0x3e08f774	0.13375646
20	0xbf850537	-1.0392216
21	0x3ef73f31	0.482904
22	0x3f0d9c26	0.5531639
23	0x3f18bc22	0.5966207
24	0xbfb676dc	-1.4255023
25	0xbfc88844	-1.5666585
26	0xbf19d7c2	-0.60094845
27	0xbf40f97c	-0.7538068
28	0x3f99198b	1.196092
29	0xbe178345	-0.14796169
30	0x3f995cd7	1.1981457
31	0x4015856b	2.3362682
32	0xbfb9d3e2	-1.4517787
33	0xbf413708	-0.75474596
34	0x3ef72bdb	0.48275647
35	0xc02a9893	-2.6655624
36	0xbfa56b75	-1.2923418
37	0x3d551b13	0.052027773
38	0x3e674b3e	0.22587296
39	0xbfb9c6e8	-1.4513826
40	0x3ede5214	0.43421996
41	0x3ea61760	0.3243971
42	0x3fb9796e	1.4490182
43	0xbe02fdb8	-0.12792099
44	0x3ec6cb50	0.3882699
45	0x3eb782f6	0.35842103
46	0xbf1726bd	-0.59043485
47	0xbfe1974a	-1.7624295
48	0xbe96db31	-0.29464105
49	0xbfb47b3c	-1.4100108
50	0xbfb2a450	-1.3956394
51	0xbfa6aa94	-1.3020806
52	0x3ed6925f	0.41908547
53	0xbf30f1c9	-0.69118935
54	0x3e641466	0.22273406
55	0xbe6f20d4	-0.23352367
56	0x3de1db30	0.11028135
57	0x3f650947	0.8946728
58	0xbee9a91f	-0.45636842
59	0x3e3d16b5	0.18465693
60	0xbf845d5f	-1.0340995
61	0xbf086417	-0.53277725
62	0x3fd060f3	1.6279587
63	0xbefe0828	-0.49615598
64	0xbed5f15c	-0.41785705
65	0x3ef8babf	0.48579976
66	0xbf361902	-0.7113191
67	0x3d111677	0.035421815
68	0xbf95e700	-1.1711121
69	0xbf11f6a6	-0.5701698
70	0x3f85c852	1.0451758
71	0xbf8bb8ff	-1.0915831
72	0x3dd05476	0.1017236
73	0x3ea2fef9	0.31835154
74	0x400c0e82	2.1883855
75	0x3faffa33	1.374823
76	0x3f24adc1	0.6432763
77	0xbf46776c	-0.77525973
78	0x403e9f64	2.9784784
79	0xbfc8c101	-1.56839
80	0x3e8c5b2e	0.27413315
81	0x3f29f109	0.66383415
82	0xbef60e75	-0.48057905
83	0xbf9c957a	-1.2233117
84	0x3d84ab05	0.06477932
85	0x3eac5e88	0.33665872
86	0x3da8c828	0.08241302
87	0xbf371d16	-0.71528757
88	0xbd8d64cc	-0.06903991
89	0xbfb11f97	-1.3837765
90	0x3e787921	0.24264957
91	0xbf38559e	-0.7200564
92	0x3fb4d009	1.4125987
93	0x3ff96ed0	1.9486942
94	0xbe8a8e74	-0.27061808
95	0xbdb085f4	-0.086192995
96	0x3f19efbf	0.6013145
97	0x3f1b1699	0.60581356
98	0x3ebd273c	0.36943996
99	0xbd09d115	-0.03364666
100	0xbfcfaaad	-1.6223961
101	0xbd43e956	-0.04782995
102	0xbf34d007	-0.70629925
103	0x3fd71f0e	1.6806352
104	0x3e41b242	0.18915656
105	0xbf454ea2	-0.7707311
106	0xbfc3eece	-1.5307252
107	0xbf8a8a2e	-1.0823419
108	0x3fbe3ba6	1.4861953
109	0xbf3f33d3	-0.7468845
110	0x3f868c28	1.0511522
111	0x3ed99f2a	0.42504245
112	0xbf8d2049	-1.1025478
113	0x3eae46bd	0.34038344
114	0x3dd2f04c	0.10299739
115	0xbf564dbd	-0.8371237
116	0xbe00709f	-0.12542962
117	0xbf8ffb5b	-1.1248583
118	0xbf94a1dc	-1.1611896
119	0x3ed92d4d	0.42417374
120	0xbf26b736	-0.6512331
121	0x3e0740c4	0.132083
122	0x3ebe6dc2	0.37193114
123	0xbe340b4e	-0.17582437
124	0x3f28044e	0.6563157
125	0x3d8633a1	0.06552816
126	0x3fb56d9e	1.4174078
127	0xbfb6ac8d	-1.4271408

network_body._body_endoder.seq_layers.0.bias f4 [128]
0	0x00000000	0.0
1	0x00000000	0.0
2	0x00000000	0.0
3	0x00000000	0.0
4	0x00000000	0.0
5	0x00000000	0.0
6	0x00000000	0.0
7	0x00000000	0.0
8	0x00000000	0.0
9	0x00000000	0.0
10	0x00000000	0.0
11	0x00000000	0.0
12	0x00000000	0.0
13	0x00000000	0.0
14	0x00000000	0.0
15	0x00000000	0.0
16	0x00000000	0.0
17	0x00000000	0.0
18	0x00000000	0.0
19	0x00000000	0.0
20	0x00000000	0.0
21	0x00000000	0.0
22	0x00000000	0.0
23	0x00000000	0.0
24	0x00000000	0.0
25	0x00000000	0.0
26	0x00000000	0.0
27	0x00000000	0.0
28	0x00000000	0.0
29	0x00000000	0.0
30	0x00000000	0.0
31	0x00000000	0.0
32	0x00000000	0.0
33	0x00000000	0.0
34	0x00000000	0.0
35	0x00000000	0.0
36	0x00000000	0.0
37	0x00000000	0.0
38	0x00000000	0.0
39	0x00000000	0.0
40	0x00000000	0.0
41	0x00000000	0.0
42	0x00000000	0.0
43	0x00000000	0.0
44	0x00000000	0.0
45	0x00000000	0.0
46	0x00000000	0.0
47	0x00000000	0.0
48	0x00000000	0.0
49	0x00000000	0.0
50	0x00000000	0.0
51	0x00000000	0.0
52	0x00000000	0.0
53	0x00000000	0.0
54	0x00000000	0.0
55	0x00000000	0.0
56	0x00000000	0.0
57	0x00000000	0.0
58	0x00000000	0.0
59	0x00000000	0.0
60	0x00000000	0.0
61	0x00000000	0.0
62	0x00000000	0.0
63	0x00000000	0.0
64	0x00000000	0.0
65	0x00000000	0.0
66	0x00000000	0.0
67	0x00000000	0.0
68	0x00000000	0.0
69	0x00000000	0.0
70	0x00000000	0.0
71	0x00000000	0.0
72	0x00000000	0.0
73	0x00000000	0.0
74	0x00000000	0.0
75	0x00000000	0.0
76	0x00000000	0.0
77	0x00000000	0.0
78	0x00000000	0.0
79	0x00000000	0.0
80	0x00000000	0.0
81	0x00000000	0.0
82	0x00000000	0.0
83	0x00000000	0.0
84	0x00000000	0.0
85	0x00000000	0.0
86	0x00000000	0.0
87	0x00000000	0.0
88	0x00000000	0.0
89	0x00000000	0.0
90	0x00000000	0.0
91	0x00000000	0.0
92	0x00000000	0.0
93	0x00000000	0.0
94	0x00000000	0.0
95	0x00000000	0.0
96	0x00000000	0.0
97	0x00000000	0.0
98	0x00000000	0.0
99	0x00000000	0.0
100	0x00000000	0.0
101	0x00000000	0.0
102	0x00000000	0.0
103	0x00000000	0.0
104	0x00000000	0.0
105	0x00000000	0.0
106	0x00000000	0.0
107	0x00000000	0.0
108	0x00000000	0.0
109	0x00000000	0.0
110	0x00000000	0.0
111	0x00000000	0.0
112	0x00000000	0.0
113	0x00000000	0.0
114	0x00000000	0.0
115	0x00000000	0.0
116	0x00000000	0.0
117	0x00000000	0.0
118	0x00000000	0.0
119	0x00000000	0.0
120	0x00000000	0.0
121	0x00000000	0.0
122	0x00000000	0.0
123	0x00000000	0.0
124	0x00000000	0.0
125	0x00000000	0.0
126	0x00000000	0.0
127	0x00000000	0.0

network_body._body_endoder.seq_layers.2.weight f4 [128, 128]
0	0x3d16986c	0.036766455
1	0xbbd16149	-0.006389771
2	0x3d8ceffc	0.06881711
3	0xbdabc04e	-0.083862886
4	0xbe0438d5	-0.12912305
5	0x3dbad147	0.09121948
6	0xbcc0b827	-0.02352531
7	0xbe2e6863	-0.17032008
8	0x3ce1e1b6	0.027573448
9	0xbd63d0ff	-0.055619236
10	0x3d5ecd3a	0.054394938
11	0xbe0f9f19	-0.14025535
12	0x3dad5748	0.08463913
13	0x3db688dd	0.08912823
14	0xbd640607	-0.05566981
15	0xbd527473	-0.051380586
16	0xbd039f36	-0.032134257
17	0xbe14de41	-0.14537908
18	0xbca12abe	-0.019673701
19	0xbd96ec40	-0.0736928
20	0xbd50436e	-0.050845556
21	0x3d24151e	0.0400592
22	0xbd8e9bd1	-0.06963313
23	0x3c236618	0.0099730715
24	0x3e39ba95	0.18137582
25	0xbd1adaa2	-0.03780616
26	0xbe23461c	-0.15944713
27	0xbdbe20d0	-0.09283602
28	0x3e0c73f0	0.13716102
29	0x3d6d529c	0.05794011
30	0xbd6596f4	-0.056052163
31	0xbe006625	-0.12538965
32	0xbe004c13	-0.1252902
33	0xbdb9cff8	-0.0907287
34	0x3b6a95b4	0.0035794796
35	0xbda54b2a	-0.08070977
36	0x3d8f4ff3	0.06997671
37	0xbe15338c	-0.14570445
38	0xbca9deca	-0.020736117
39	0xbc5f0d8d	-0.013614071
40	0xbd5bdd86	-0.053678058
41	0xbc70c7ec	-0.014696103
42	0x3be7b82d	0.007071516
43	0x3af4f8c8	0.0018689865
44	0xbc7843fc	-0.0151529275
45	0x3c9c706b	0.019096574
46	0x3d8f798a	0.070056036
47	0xbe185df7	-0.14879595
48	0x3d2ceaa3	0.042215955
49	0xbd394ae0	-0.045237422
50	0x3c85672d	0.01628455
51	0xbe2f75ed	-0.17134829
52	0xbd46a2a3	-0.048494946
53	0xbe31bd57	-0.17357384
54	0xbd2d4bd9	-0.042308662
55	0xbe0e5721	-0.13900425
56	0x3c59ca24	0.013292823
57	0xbdbaf2cb	-0.0912834
58	0x3e7118e6	0.23544654
59	0x3da61600	0.08109665
60	0xbd1a9670	-0.037741125
61	0xbe08ee5b	-0.13372175
62	0x3d026c3f	0.031841513
63	0x3d50b68c	0.05095534
64	0x3bbdeb7f	0.0057958956
65	0xbd55165c	-0.052023277
66	0xbd272e65	-0.04081573
67	0xbd43bf14	-0.04778965
68	0xbd21c6bc	-0.03949617
69	0xbd1e340f	-0.038623866
70	0x3d6deaf1	0.058085386
71	0xbda21339	-0.07913823
72	0xbdcaf8c6	-0.09910731
73	0x3c3ed00a	0.01164628
74	0x3e2018d6	0.15634474
75	0xbdd04272	-0.101689234
76	0xb91364e1	-0.00014056593
77	0x3e305738	0.17220771
78	0xbdc46905	-0.095903434
79	0xbd5b022b	-0.053468864
80	0x3debfd1c	0.11522886
81	0xbcdd7812	-0.027034793
82	0xbe148a48	-0.14505875
83	0x3cf02c97	0.029318137
84	0xbd3f3d25	-0.04668917
85	0xbcf5a03d	-0.029983634
86	0xbdf94731	-0.12171782
87	0x3d9e1d82	0.07720472
88	0xbd494467	-0.0491375
89	0xbd8a0cdf	-0.06740736
90	0xbd737186	-0.059434436
91	0x3b394a31	0.0028272981
92	0xbdd15c31	-0.10222662
93	0x3e80d3b7	0.25161526
94	0x3d5acf8d	0.053420592
95	0xbd7b0096	-0.061279856
96	0x3d38e18d	0.045136977
97	0x3c908ce1	0.017645301
98	0xbdc44d1a	-0.095850185
99	0x3de83417	0.1133806
100	0xbbe766be	-0.0070618084
101	0x3c44f217	0.012020609
102	0x3d25e13c	0.040498003
103	0xbe005fb8	-0.12536514
104	0xbe2a34b8	-0.16621673
105	0x3d8726f9	0.0659923
106	0x3d6fb5bb	0.05852292
107	0x3b5c49be	0.003361329
108	0xbd099800	-0.033592224
109	0x3db38149	0.087648936
110	0x3dae6697	0.08515661
111	0x3dc73520	0.0972693
112	0xbd5caae4	-0.05387391
113	0x3d22a039	0.03970358
114	0xbdf8a6bc	-0.12141177
115	0x3b3cb7e6	0.0028796135
116	0x3c3f5b13	0.011679429
117	0x3dcffecd	0.10156021
118	0xbd6e5efc	-0.058196053
119	0xbdb6be18	-0.08922976
120	0x3df85a58	0.12126607
121	0x3dcec4a3	0.10096099
122	0xbd4e386c	-0.050346777
123	0xbd562de9	-0.052289877
124	0xbb4289c0	-0.0029684156
125	0xbe096344	-0.13416773
126	0x3e07f45e	0.13276812
127	0xbc8a1158	-0.016853973
128	0x3e07594b	0.13217656
129	0x3d4fbb21	0.05071557
130	0xbe002b99	-0.12516631
131	0xbdd056f4	-0.10172835
132	0x3c8aab28	0.016927317
133	0x3cc8259f	0.024432002
134	0xbd59a095	-0.05313166
135	0xbe0da632	-0.1383293
136	0xbdde38ba	-0.108506635
137	0xbdecd85b	-0.11564704
138	0xbd0a3c8c	-0.03374915
139	0xbdabbcdf	-0.08385634
140	0x3a05b488	0.00051004486
141	0x3d615a84	0.055017963
142	0x3d49eec1	0.04929996
143	0xbe01dac3	-0.12681107
144	0x3cce567f	0.025187729
145	0x3db65b70	0.08904159
146	0xbd482d31	-0.048871223
147	0x3ce07df3	0.027403807
148	0xbd67e6d5	-0.056616623
149	0x3d5b7bb0	0.053584754
150	0xbe0f3a4f	-0.13987087
151	0x3cdcc60d	0.026949907
152	0x3daf73a6	0.0856698
153	0xbc9f5448	-0.019449368
154	0x3e0d239e	0.13783118
155	0x3d09a2eb	0.033602636
156	0x3e4f020d	0.20215626
157	0xbda794d3	-0.08182683
158	0x3e9127e2	0.2835074
159	0x3bae96e4	0.005328046
160	0x3d111266	0.035417937
161	0xbe757e1c	-0.23973888
162	0xbc92ded8	-0.017928526
163	0x3d9cd808	0.07658392
164	0xbcbeb5c6	-0.023280036
165	0xbd88ea60	-0.066853285
166	0x3ce958d1	0.028484734
167	0x3d8fa742	0.07014324
168	0xbcd96446	-0.026537072
169	0x3d7818a9	0.060570393
170	0xbdc3b224	-0.09555462
171	0xbbb01433	-0.0053735017
172	0xbd2b3d72	-0.041806646
173	0x3dfc841f	0.123298876
174	0x3da46d8f	0.08028709
175	0xbd30861a	-0.04309664
176	0xbc3d1b74	-0.01154219
177	0xbd1869c4	-0.03721024
178	0x3dc9a2f9	0.09845538
179	0xbbd9b39a	-0.0066437246
180	0xbdf94110	-0.12170613
181	0xbe7c32a3	-0.24628691
182	0x3ce5b854	0.028041996
183	0x3e3be257	0.1834806
184	0x3d93d64c	0.07218608
185	0xbd5413e9	-0.0517768
186	0x3d26aff3	0.040695142
187	0xbd998273	-0.07495584
188	0xbd6e8f5d	-0.05824219
189	0x3da84c51	0.08217681
190	0x3b44b481	0.0030014815
191	0x3e35d5c4	0.17757326
192	0x3d994d78	0.07485479
193	0x3e3245bd	0.17409416
194	0x3d301a03	0.042993557
195	0x3d844fea	0.06460555
196	0xbcb91ac8	-0.022595778
197	0x3c4545e0	0.012040585
198	0x3cefb296	0.029259961
199	0xbe29707d	-0.16546817
200	0x3d71befb	0.059020024
201	0x3dfa21b2	0.12213458
202	0x3ca89952	0.020580921
203	0x3e0c137c	0.13679308
204	0x3e470809	0.19436659
205	0x3cac0049	0.02099623
206	0x3c03ce26	0.008044755
207	0x3d408536	0.04700204
208	0x3ded35a9	0.115825005
209	0x3e3a37ab	0.18185298
210	0xbca635fd	-0.020289415
211	0xbd6f882d	-0.058479477
212	0xb9bc8097	-0.0003595396
213	0xbd900c1d	-0.070335604
214	0x3b3155c5	0.002705918
215	0x3d9cbeef	0.07653605
216	0x3dded386	0.10880189
217	0xbe3b7a91	-0.18308474
218	0xbe16dea6	-0.14733371
219	0x3d73f254	0.059557274
220	0x3e67e8bf	0.2264738
221	0x3d8b86ed	0.068128444
222	0xbd9ee12c	-0.07757792
223	0xbcaf3644	-0.02138818
224	0xbdad481d	-0.0846102
225	0xbe25322b	-0.16132419
226	0x3d78a5b1	0.06070489
227	0xbccd970c	-0.025096439
228	0xbc23865e	-0.009980766
229	0x3d59af36	0.05314561
230	0xbdaebc27	-0.08531981
231	0xbe46c5a5	-0.19411333
232	0xbe0b8fc3	-0.1362906
233	0x3e0290ff	0.12750624
234	0x3d9105bd	0.070811726
235	0x3d9cfc8a	0.076653555
236	0xbd32739d	-0.04356729
237	0x3e064134	0.1311081
238	0x379a5dc4	1.8401894e-05
239	0x3d746e97	0.05967578
240	0x3c0d128a	0.008610377
241	0xbc0e5a8c	-0.00868858
242	0xbd84a2df	-0.06476378
243	0x3af439ae	0.0018632913
244	0x3e0018c8	0.12509453
245	0x3df8538d	0.12125311
246	0xbce74c92	-0.028234754
247	0xbe094307	-0.13404475
248	0xbe155046	-0.14581403
249	0x3dc6e8bb	0.097123586
250	0x3dea0065	0.114258565
251	0xbe1a2272	-0.15052202
252	0x3db0d5e8	0.086345494
253	0x3d481019	0.048843477
254	0x3d20009b	0.039063077
255	0x3d62d102	0.055375107

network_body._body_endoder.seq_layers.2.bias f4 [128]
0	0x00000000	0.0
1	0x00000000	0.0
2	0x00000000	0.0
3	0x00000000	0.0
4	0x00000000	0.0
5	0x00000000	0.0
6	0x00000000	0.0
7	0x00000000	0.0
8	0x00000000	0.0
9	0x00000000	0.0
10	0x00000000	0.0
11	0x00000000	0.0
12	0x00000000	0.0
13	0x00000000	0.0
14	0x00000000	0.0
15	0x00000000	0.0
16	0x00000000	0.0
17	0x00000000	0.0
18	0x00000000	0.0
19	0x00000000	0.0
20	0x00000000	0.0
21	0x00000000	0.0
22	0x00000000	0.0
23	0x00000000	0.0
24	0x00000000	0.0
25	0x00000000	0.0
26	0x00000000	0.0
27	0x00000000	0.0
28	0x00000000	0.0
29	0x00000000	0.0
30	0x00000000	0.0
31	0x00000000	0.0
32	0x00000000	0.0
33	0x00000000	0.0
34	0x00000000	0.0
35	0x00000000	0.0
36	0x00000000	0.0
37	0x00000000	0.0
38	0x00000000	0.0
39	0x00000000	0.0
40	0x00000000	0.0
41	0x00000000	0.0
42	0x00000000	0.0
43	0x00000000	0.0
44	0x00000000	0.0
45	0x00000000	0.0
46	0x00000000	0.0
47	0x00000000	0.0
48	0x00000000	0.0
49	0x00000000	0.0
50	0x00000000	0.0
51	0x00000000	0.0
52	0x00000000	0.0
53	0x00000000	0.0
54	0x00000000	0.0
55	0x00000000	0.0
56	0x00000000	0.0
57	0x00000000	0.0
58	0x00000000	0.0
59	0x00000000	0.0
60	0x00000000	0.0
61	0x00000000	0.0
62	0x00000000	0.0
63	0x00000000	0.0
64	0x00000000	0.0
65	0x00000000	0.0
66	0x00000000	0.0
67	0x00000000	0.0
68	0x00000000	0.0
69	0x00000000	0.0
70	0x00000000	0.0
71	0x00000000	0.0
72	0x00000000	0.0
73	0x00000000	0.0
74	0x00000000	0.0
75	0x00000000	0.0
76	0x00000000	0.0
77	0x00000000	0.0
78	0x00000000	0.0
79	0x00000000	0.0
80	0x00000000	0.0
81	0x00000000	0.0
82	0x00000000	0.0
83	0x00000000	0.0
84	0x00000000	0.0
85	0x00000000	0.0
86	0x00000000	0.0
87	0x00000000	0.0
88	0x00000000	0.0
89	0x00000000	0.0
90	0x00000000	0.0
91	0x00000000	0.0
92	0x00000000	0.0
93	0x00000000	0.0
94	0x00000000	0.0
95	0x00000000	0.0
96	0x00000000	0.0
97	0x00000000	0.0
98	0x00000000	0.0
99	0x00000000	0.0
100	0x00000000	0.0
101	0x00000000	0.0
102	0x00000000	0.0
103	0x00000000	0.0
104	0x00000000	0.0
105	0x00000000	0.0
106	0x00000000	0.0
107	0x00000000	0.0
108	0x00000000	0.0
109	0x00000000	0.0
110	0x00000000	0.0
111	0x00000000	0.0
112	0x00000000	0.0
113	0x00000000	0.0
114	0x00000000	0.0
115	0x00000000	0.0
116	0x00000000	0.0
117	0x00000000	0.0
118	0x00000000	0.0
119	0x00000000	0.0
120	0x00000000	0.0
121	0x00000000	0.0
122	0x00000000	0.0
123	0x00000000	0.0
124	0x00000000	0.0
125	0x00000000	0.0
126	0x00000000	0.0
127	0x00000000	0.0

action_model._discrete_distribution.branches.0.weight f4 [5, 128]
0	0x3ac3d2ec	0.0014940179
1	0xbbe9fad0	-0.007140495
2	0xbbb553f9	-0.005533692
3	0xbb34b4b2	-0.0027573523
4	0xbc864daf	-0.016394464
5	0x3b2416a7	0.0025037916
6	0x3c16b175	0.0091975825
7	0x3bbfcbf0	0.0058531687
8	0x3aecc57d	0.0018064227
9	0x3b8268c3	0.0039797737
10	0xbc10e632	-0.008843945
11	0x3755a048	1.2733108e-05
12	0xbbf5695f	-0.007489368
13	0xbb3a8d3b	-0.0028465528
14	0x3bb1c9b8	0.005425658
15	0xbad2e62f	-0.0016090329
16	0xbae673ad	-0.0017582081
17	0xbcb18564	-0.02167005
18	0x3c221047	0.009891576
19	0x3b270360	0.002548419
20	0xbc1ff2c6	-0.009762472
21	0xbc20ead7	-0.009821615
22	0x3c06ade7	0.0082201725
23	0xba27b8de	-0.0006398092
24	0x3c946c46	0.018118035
25	0x3c11d05b	0.0088997735
26	0xbb29500d	-0.0025835067
27	0xbb8d8ac7	-0.004319522
28	0x396812c2	0.00022132232
29	0xbb8d8857	-0.0043192315
30	0xbb6433e2	-0.0034820964
31	0x3c8eab33	0.017415619
32	0x3c474b32	0.012163924
33	0x3b13a1c2	0.0022526835
34	0xb8a4ff1f	-7.8676494e-05
35	0xbbaf6c96	-0.0053535206
36	0x3c497e0f	0.012298121
37	0xbc5d9e53	-0.013526517
38	0x3c86194b	0.016369483
39	0x39a29846	0.000310125
40	0x3c0e37d2	0.008680301
41	0x3c3865fa	0.011254782
42	0xbc5dbe6b	-0.013534169
43	0xbc6810a2	-0.014164122
44	0x3b962993	0.0045825928
45	0x38c8fa57	9.5833726e-05
46	0xbc7cc4ff	-0.015427827
47	0xbc2acc47	-0.01042468
48	0x3c62919a	0.013828659
49	0x3bc24460	0.005928561
50	0x39a18067	0.0003080398
51	0x3ba336e3	0.0049809082
52	0xbbbec7d6	-0.005822162
53	0x3bb0d05d	0.0053959326
54	0x3a09c088	0.00052548246
55	0xbad0f0b3	-0.0015940875
56	0xbb82debe	-0.003993838
57	0x3acf0c58	0.0015796525
58	0x3c06a94c	0.008219074
59	0xbb5e5a58	-0.003392836
60	0xbb2b270d	-0.0026115805
61	0x3ac4769d	0.0014988963
62	0xbb707185	-0.0036688757
63	0xbc1101ae	-0.008850498
64	0x3b9ffa1a	0.0048821094
65	0x3a882a87	0.0010388651
66	0x3bdb5583	0.0066935434
67	0x3b9ff1b8	0.00488111
68	0xbaec4900	-0.0018027127
69	0x3be7567d	0.0070598708
70	0x3b1145f2	0.0022166935
71	0xbb96265f	-0.004582211
72	0x3b2fdbbf	0.002683386
73	0x3b85fe8d	0.0040891827
74	0xba16b695	-0.0005749253
75	0xbc97ef0b	-0.018546602
76	0xbc06f0ef	-0.008236154
77	0xbc6bb6ff	-0.014386891
78	0x3b965bdb	0.0045885867
79	0xbc7722d0	-0.015083984
80	0xbc1639ca	-0.009169051
81	0xbb6f5503	-0.0036519177
82	0xbaeb8ccd	-0.0017971039
83	0x3be4f84b	0.0069876066
84	0xbc18bc73	-0.009322274
85	0xbb46fc6f	-0.0030362864
86	0x3c9636bd	0.018336648
87	0x3bd4cc0a	0.00649405
88	0xbbecfb10	-0.0072320774
89	0x3c0ce50e	0.008599533
90	0x3b6f469b	0.003651059
91	0xbbbd890f	-0.005784161
92	0x3c152b23	0.009104523
93	0x3c2a72ac	0.0104033165
94	0xbc3ec9d7	-0.011644802
95	0x3c23d619	0.009999775
96	0x3af8f307	0.0018993326
97	0x3a8d9010	0.001080038
98	0x3a05e55b	0.0005107724
99	0xbbc18f0c	-0.005906945
100	0x3b33e1fa	0.0027447925
101	0x3c09f276	0.008419624
102	0xbab68107	-0.0013923951
103	0xbb9f3125	-0.0048581534
104	0xbc8763ad	-0.016527021
105	0x3997f6e0	0.000289849
106	0x3b2d6ea7	0.002646366
107	0x3ab41da7	0.0013741747
108	0x3b2dfd45	0.0026548665
109	0xbb9ad72c	-0.0047253575
110	0xbc1ac497	-0.009446285
111	0xbc829ef3	-0.015944934
112	0xbc21b173	-0.009868967
113	0xbbe5b045	-0.0070095384
114	0xbb9a5c8f	-0.004710741
115	0xbc98a64f	-0.01863399
116	0x3ae27827	0.001727824
117	0x3bda5138	0.006662514
118	0x3b455a04	0.0030113468
119	0xbbb7e8c8	-0.0056124665
120	0x3b0402fe	0.0020143385
121	0x3b691155	0.003556331
122	0x3be255b3	0.006907189
123	0x3bf5c618	0.0075004213
124	0x3c47906b	0.012180428
125	0xbb5416d7	-0.0032362246
126	0x3b01d487	0.0019810514
127	0x3b3a4730	0.0028423779
128	0xb9e314da	-0.0004331235
129	0xbc38f4c0	-0.011288822
130	0xbc6549c7	-0.013994641
131	0xbb0c754b	-0.0021432217
132	0xbc1afd2f	-0.009459778
133	0xbb6dfac7	-0.0036312805
134	0x3c344981	0.011003853
135	0xbc35dd82	-0.011100175
136	0x3c4dd188	0.012562163
137	0x3b9f931a	0.004869831
138	0x3afab2cb	0.0019126771
139	0x3ba0435c	0.0048908424
140	0xbc062820	-0.0081882775
141	0xbca86a9e	-0.020558652
142	0xbb0e78dd	-0.002173952
143	0xbc1785ed	-0.009248239
144	0x3c203329	0.0097778225
145	0xbc39778e	-0.011320008
146	0xb8a99d75	-8.0878766e-05
147	0x3b98ff56	0.0046691103
148	0xbb89705b	-0.004194302
149	0x3bb28263	0.005447672
150	0xbc0107ec	-0.007875424
151	0xbb3d0ff9	-0.0028848632
152	0x3bf3d720	0.0074414164
153	0x3bd0c7a2	0.0063714543
154	0xbad17f70	-0.0015983414
155	0xbc16fc17	-0.009215376
156	0x3b21aa92	0.0024668318
157	0x3b1caa21	0.0023905116
158	0xbc08b757	-0.008344493
159	0x3a8caa64	0.0010731933
160	0x3c423e13	0.01185562
161	0xbc3d03e5	-0.011536573
162	0x3c31359e	0.010816006
163	0x3b5b1c6f	0.0033433696
164	0xbb37c6ba	-0.0028042034
165	0xbc1a4781	-0.009416462
166	0xbb46bee7	-0.003032619
167	0x3c631740	0.013860524
168	0x3be5ef7d	0.0070170746
169	0xb9fda5e0	-0.00048379507
170	0x3beb64b5	0.007183636
171	0x3b5b3e2d	0.0033453808
172	0x3ca16534	0.019701578
173	0xbc203c78	-0.009780042
174	0xbc30567f	-0.01076281
175	0x3c8e8a0f	0.017399816
176	0xbbc2f143	-0.005949171
177	0xba4aab70	-0.00077312347
178	0x3b9cd878	0.0047865473
179	0x3c88113d	0.016609782
180	0x3c126bf0	0.008936867
181	0x3b236f00	0.0024937987
182	0xbb330677	-0.0027317086
183	0x3a920fe8	0.0011143656
184	0xbc905ad7	-0.01762144
185	0x3b829705	0.003985288
186	0x3bab8b92	0.005235144
187	0xb9fadf15	-0.00047849925
188	0x3b1cdec3	0.0023936487
189	0xbb468dcb	-0.0030296918
190	0xbb2f3915	-0.0026736904
191	0x3a88950f	0.00104204
192	0xbc51df45	-0.012809579
193	0xb9edddd7	-0.00045369446
194	0xbb0c609f	-0.0021419895
195	0xbc29e56c	-0.01036964
196	0x3c179d8f	0.0092538735
197	0xba977f07	-0.0011558243
198	0xbb9d4b83	-0.0048002615
199	0x3ad46532	0.0016204475
200	0x3be3ba9a	0.006949735
201	0x3ac4345b	0.0014969216
202	0xbb1e86a5	-0.002418914
203	0x3b6af697	0.0035852545
204	0x3be1ee47	0.00689486
205	0x3c1f13bc	0.009709295
206	0x3b57328f	0.0032836532
207	0x3b3170b5	0.0027075235
208	0x3c8ba58d	0.017046714
209	0x3c42a1fa	0.011879439
210	0xbc8a8b88	-0.016912237
211	0x3c0d229e	0.00861421
212	0x3c5be0b5	0.013420274
213	0xbc74de12	-0.014945524
214	0x3b88ebe9	0.0041785133
215	0xbb97f213	-0.004637012
216	0x3a691d07	0.000889257
217	0xba8391a5	-0.0010037912
218	0x3c5ec73b	0.013597305
219	0xbc9b010f	-0.018921403
220	0xbc476ff0	-0.012172684
221	0x3c3cd9d4	0.011526544
222	0xbb8f7fb6	-0.004379238
223	0x3c86f093	0.016472137
224	0xbbec3407	-0.0072083506
225	0x3b8ee40f	0.004360683
226	0x3ca52842	0.020160798
227	0x3bc516c3	0.0060146763
228	0xbc7261da	-0.014793837
229	0xbb5f5423	-0.003407725
230	0xbc59bec0	-0.013290107
231	0x3b694798	0.0035595652
232	0xbaf3e317	-0.0018607107
233	0x3b643c1a	0.0034825862
234	0x3b986a52	0.0046513462
235	0xbc9cde9b	-0.019149115
236	0x3bcf1cc5	0.0063205683
237	0xbb8c18db	-0.004275424
238	0x3c053dc4	0.008132402
239	0x3bd0b838	0.006369617
240	0xbbe416b7	-0.0069607156
241	0xbab7ffe2	-0.0014038051
242	0x3be2cff8	0.0069217645
243	0x3bd673d2	0.0065445686
244	0x3c7329da	0.014841521
245	0x3c12fab2	0.008970903
246	0x3c4ec3b5	0.012619902
247	0xbc894208	-0.016755119
248	0xbac0704d	-0.0014681906
249	0x3c37e613	0.011224288
250	0x3895c29d	7.141123e-05
251	0x3b2aacf3	0.0026043027
252	0xbc2c291d	-0.010507849
253	0x3c8af7d3	0.016963875
254	0x3ad0b7c2	0.0015923905
255	0x3bc6c2c0	0.0060656965

action_model._discrete_distribution.branches.0.bias f4 [5]
0	0x00000000	0.0
1	0x00000000	0.0
2	0x00000000	0.0
3	0x00000000	0.0
4	0x00000000	0.0

network_body._body_endoder.seq_layers.0.weight f4 [128, 1]
0	0x3f3b3b9a	0.7313782
1	0xbee76e68	-0.4520142
2	0x3e0c56b1	0.13704945
3	0xbf036f60	-0.5134182
4	0x3ed7d72a	0.42156345
5	0x40059822	2.0874104
6	0x3d6d682a	0.057960667
7	0x3f781e25	0.96920997
8	0xbd8c5d52	-0.06853737
9	0x3eb72168	0.35767674
10	0xbf7d8a31	-0.9903899
11	0x3e90145e	0.2814054
12	0xbf96b3fc	-1.1773677
13	0xbea89e07	-0.32933065
14	0xbe88eeb9	-0.2674463
15	0x3f51b683	0.81919116
16	0xbe55cabe	-0.20878121
17	0xbce4d8d1	-0.027935417
18	0x3e55ddc3	0.20885377
19	0x3e9cff3e	0.30663484
20	0xbfb74544	-1.4318013
21	0x3f091425	0.53546363
22	0x3f368f41	0.7131234
23	0x3fa07fc4	1.2538991
24	0xc018bd0c	-2.3865385
25	0x3f10c9b9	0.56557804
26	0xbe660634	-0.22463304
27	0xbff50475	-1.9141985
28	0xbdd772cc	-0.10519943
29	0x40103f42	2.253861
30	0xc0209792	-2.509251
31	0x3f451181	0.76979834
32	0x4016a51d	2.3538277
33	0xbfb64718	-1.4240446
34	0xbea0b243	-0.31386003
35	0xbea62517	-0.32450172
36	0xbfc0fb7f	-1.507675
37	0x3f91a1eb	1.1377538
38	0xbfe46f18	-1.7846403
39	0xbf35823f	-0.70901865
40	0xbf94ec24	-1.1634564
41	0x3f424f18	0.7590194
42	0xbf0e4833	-0.5557892
43	0xbc2e746e	-0.010647876
44	0xbd12ad70	-0.035809934
45	0xbfbfc61f	-1.4982337
46	0x3e334968	0.17508471
47	0xbf4a3548	-0.7898755
48	0xbe7eecd4	-0.2489503
49	0x3e635d7d	0.22203632
50	0xbe72e4c4	-0.2372008
51	0x3ee0aabc	0.4388026
52	0xbe832d9f	-0.25620744
53	0xbe91b420	-0.28457737
54	0xbec4f7db	-0.3847035
55	0xbed94ba5	-0.42440525
56	0xc01614bc	-2.3450155
57	0x3f6c643a	0.92340434
58	0xc015c89b	-2.340369
59	0x3cd43560	0.025904357
60	0x3f32e8b1	0.6988631
61	0xbf9e795d	-1.2380787
62	0xbf820927	-1.0159043
63	0xbf1f8b65	-0.62322074
64	0xbfa2a053	-1.2705177
65	0x3f476e26	0.7790245
66	0xbe8e13e5	-0.27749553
67	0x3f047e1c	0.5175493
68	0xbf6aa0af	-0.91651434
69	0x3dfdd917	0.12394922
70	0xbfb13281	-1.3843538
71	0x3f49cb5f	0.78825945
72	0x3e2260db	0.1585726
73	0xbfa0aed3	-1.2553352
74	0xbee0fd28	-0.43943143
75	0x3ecde823	0.4021617
76	0xbf0f7ddc	-0.5605142
77	0x3f3971c7	0.72439235
78	0x4024f792	2.5776105
79	0xbe78a2c6	-0.24280843
80	0xbf6025b2	-0.8755752
81	0xbe68ce69	-0.22734989
82	0xbf4e9ebc	-0.8071096
83	0x3f6ee45b	0.9331719
84	0x3fb76b14	1.4329553
85	0xbfd05f34	-1.6279054
86	0xbf1d9238	-0.6155124
87	0x3eee4945	0.46540275
88	0x3f8c7503	1.0973209
89	0x3e27b0d1	0.16376044
90	0xbe04db6c	-0.12974328
91	0x3eec8378	0.46194053
92	0x3efe84d8	0.49710727
93	0x40060a0a	2.0943627
94	0x3e8f4ac3	0.27986726
95	0x3e8bc2cd	0.2729706
96	0xbfdd4cdd	-1.7289082
97	0xbf92bb30	-1.1463375
98	0x3f8c2fe1	1.0952111
99	0x3fa68b7c	1.3011317
100	0x3e5aa4a1	0.21351863
101	0x3f2a0e7d	0.6642836
102	0xbd1216f4	-0.03566642
103	0x3e1e2fc1	0.15447904
104	0xbfafcc6a	-1.3734257
105	0x3f00c9b6	0.50307786
106	0xbf6987ba	-0.9122273
107	0xbf3eb794	-0.7449887
108	0xbfaa3951	-1.3298742
109	0xbf5ffc27	-0.8749413
110	0xbef023a8	-0.46902204
111	0x3ec7eb8b	0.39046893
112	0x3f020618	0.5079055
113	0x3e7e4c00	0.24833679
114	0x3d831c30	0.06401861
115	0xbdcbf44a	-0.09958704
116	0xbdad2e6f	-0.08456122
117	0xbf09300a	-0.53588927
118	0x3f80aa02	1.0051882
119	0xbf11cd17	-0.5695357
120	0xbe9f28a4	-0.31085694
121	0x3f632c17	0.8873915
122	0x3d5235e2	0.051320918
123	0xbf928ad7	-1.144862
124	0x3f8bd860	1.0925407
125	0xbee52c21	-0.4476023
126	0xbf2d6c4f	-0.6774339
127	0xbee8e301	-0.4548569

network_body._body_endoder.seq_layers.0.bias f4 [128]
0	0x00000000	0.0
1	0x00000000	0.0
2	0x00000000	0.0
3	0x00000000	0.0
4	0x00000000	0.0
5	0x00000000	0.0
6	0x00000000	0.0
7	0x00000000	0.0
8	0x00000000	0.0
9	0x00000000	0.0
10	0x00000000	0.0
11	0x00000000	0.0
12	0x00000000	0.0
13	0x00000000	0.0
14	0x00000000	0.0
15	0x00000000	0.0
16	0x00000000	0.0
17	0x00000000	0.0
18	0x00000000	0.0
19	0x00000000	0.0
20	0x00000000	0.0
21	0x00000000	0.0
22	0x00000000	0.0
23	0x00000000	0.0
24	0x00000000	0.0
25	0x00000000	0.0
26	0x00000000	0.0
27	0x00000000	0.0
28	0x00000000	0.0
29	0x00000000	0.0
30	0x00000000	0.0
31	0x00000000	0.0
32	0x00000000	0.0
33	0x00000000	0.0
34	0x00000000	0.0
35	0x00000000	0.0
36	0x00000000	0.0
37	0x00000000	0.0
38	0x00000000	0.0
39	0x00000000	0.0
40	0x00000000	0.0
41	0x00000000	0.0
42	0x00000000	0.0
43	0x00000000	0.0
44	0x00000000	0.0
45	0x00000000	0.0
46	0x00000000	0.0
47	0x00000000	0.0
48	0x00000000	0.0
49	0x00000000	0.0
50	0x00000000	0.0
51	0x00000000	0.0
52	0x00000000	0.0
53	0x00000000	0.0
54	0x00000000	0.0
55	0x00000000	0.0
56	0x00000000	0.0
57	0x00000000	0.0
58	0x00000000	0.0
59	0x00000000	0.0
60	0x00000000	0.0
61	0x00000000	0.0
62	0x00000000	0.0
63	0x00000000	0.0
64	0x00000000	0.0
65	0x00000000	0.0
66	0x00000000	0.0
67	0x00000000	0.0
68	0x00000000	0.0
69	0x00000000	0.0
70	0x00000000	0.0
71	0x00000000	0.0
72	0x00000000	0.0
73	0x00000000	0.0
74	0x00000000	0.0
75	0x00000000	0.0
76	0x00000000	0.0
77	0x00000000	0.0
78	0x00000000	0.0
79	0x00000000	0.0
80	0x00000000	0.0
81	0x00000000	0.0
82	0x00000000	0.0
83	0x00000000	0.0
84	0x00000000	0.0
85	0x00000000	0.0
86	0x00000000	0.0
87	0x00000000	0.0
88	0x00000000	0.0
89	0x00000000	0.0
90	0x00000000	0.0
91	0x00000000	0.0
92	0x00000000	0.0
93	0x00000000	0.0
94	0x00000000	0.0
95	0x00000000	0.0
96	0x00000000	0.0
97	0x00000000	0.0
98	0x00000000	0.0
99	0x00000000	0.0
100	0x00000000	0.0
101	0x00000000	0.0
102	0x00000000	0.0
103	0x00000000	0.0
104	0x00000000	0.0
105	0x00000000	0.0
106	0x00000000	0.0
107	0x00000000	0.0
108	0x00000000	0.0
109	0x00000000	0.0
110	0x00000000	0.0
111	0x00000000	0.0
112	0x00000000	0.0
113	0x00000000	0.0
114	0x00000000	0.0
115	0x00000000	0.0
116	0x00000000	0.0
117	0x00000000	0.0
118	0x00000000	0.0
119	0x00000000	0.0
120	0x00000000	0.0
121	0x00000000	0.0
122	0x00000000	0.0
123	0x00000000	0.0
124	0x00000000	0.0
125	0x00000000	0.0
126	0x00000000	0.0
127	0x00000000	0.0

network_body._body_endoder.seq_layers.2.weight f4 [128, 128]
0	0xbd4a585c	-0.049400672
1	0xbd8dd4a2	-0.06925322
2	0x3e14b68a	0.14522758
3	0xbd6e6b29	-0.058207665
4	0x3d8ef7e5	0.06980876
5	0xbe319243	-0.1734095
6	0x3ca8292d	0.020527447
7	0xbe2320fc	-0.15930551
8	0x3bef0f9b	0.0072955615
9	0xbd05edee	-0.03269761
10	0xbd6831a9	-0.056687985
11	0x3d21b9ff	0.03948402
12	0xbe221a95	-0.15830453
13	0xbc4fdc1c	-0.0126867555
14	0x3cedfc8d	0.02905109
15	0x3cc1758a	0.023615617
16	0x3d1c4fd2	0.03816206
17	0xbc933b15	-0.017972508
18	0xbd5ee63b	-0.054418784
19	0xbd0b0ce6	-0.033947848
20	0xbd83d460	-0.06436992
21	0xbdeb38ed	-0.11485467
22	0x3e0d3815	0.13790925
23	0x3bec6553	0.007214227
24	0x3d80cf1e	0.062895045
25	0x3d1bdab2	0.03805036
26	0xbd79af3d	-0.060958136
27	0xbce7eaa7	-0.028310133
28	0xbd898500	-0.06714821
29	0x3dccd0b6	0.10000746
30	0x3dd2517b	0.102694474
31	0x3d99fc90	0.075188756
32	0xbd893648	-0.066998065
33	0xbdd3da4f	-0.103443734
34	0x3b9a76e1	0.0047138785
35	0x3d8f3df4	0.069942385
36	0x3ce9dff1	0.028549166
37	0x3d20d41f	0.039264794
38	0xbe5f8f9a	-0.21832123
39	0x3e1b12c5	0.15143879
40	0x3de9ff8a	0.11425693
41	0x3e2a22ae	0.16614792
42	0x3deb293f	0.114824764
43	0x3c53110b	0.012882481
44	0x3cc72044	0.024307378
45	0x3e307a3f	0.17234133
46	0xbdbbfb38	-0.091787755
47	0x3da6b5cd	0.081401445
48	0x3d88fadc	0.06688473
49	0x3e121af6	0.14268097
50	0x3ddf0c9d	0.10891078
51	0xbcdd79b9	-0.027035581
52	0x3c94d466	0.018167686
53	0xbde71ca9	-0.11284763
54	0x3d9e975a	0.07743712
55	0x3d3422cd	0.0439785
56	0xbd507fec	-0.050903246
57	0x3e0e1a65	0.13877256
58	0x3acf568d	0.0015818641
59	0xbe1658aa	-0.1468226
60	0xbd22c8c5	-0.03974225
61	0x3dd00cdf	0.10158705
62	0xbd879591	-0.066203244
63	0xbc49b00f	-0.012310042
64	0x3d1c035e	0.03808915
65	0xbdaa650f	-0.08320057
66	0x3de7e3b6	0.11322729
67	0x3cfc9bce	0.030836012
68	0x3bf82567	0.007572818
69	0x3d4ae10e	0.049531035
70	0xbdd9a9cf	-0.106280915
71	0xbd0e2b0c	-0.03470902
72	0xbdf13912	-0.117784634
73	0xbd368c70	-0.044567525
74	0x3e2c97a6	0.16854724
75	0xbae8aa36	-0.0017750922
76	0xbd6f8548	-0.058476716
77	0xbc255931	-0.010092066
78	0xbd2955b2	-0.04134149
79	0xbd117862	-0.035515197
80	0xbd90fa19	-0.07078952
81	0x3c6e3df7	0.014541141
82	0x3dc695ac	0.096965164
83	0xbd8360f1	-0.064149745
84	0x3d342a4c	0.04398565
85	0x3d475407	0.04866412
86	0xbc14eb7d	-0.009089348
87	0xbdb665f2	-0.08906163
88	0x3df023cd	0.117255785
89	0xbde63784	-0.112410575
90	0xbd8d0a96	-0.06886785
91	0x3de109d1	0.109882005
92	0xbd85d27a	-0.06534286
93	0xbc07a830	-0.008279845
94	0xb9c19289	-0.00036921006
95	0x3e73e01f	0.23815964
96	0x3dfe07dc	0.12403843
97	0x3d09507e	0.03352403
98	0xbdb101f8	-0.08642954
99	0x3e32bd85	0.17455108
100	0x3bbb0d2f	0.0057083587
101	0x3e031cb6	0.12803921
102	0xbdb8a031	-0.09014929
103	0xbce87bf5	-0.02837942
104	0xbdb7c485	-0.0897303
105	0xbd36a25c	-0.04458843
106	0xbd3f0665	-0.046636958
107	0x3d7699d0	0.06020528
108	0x3c60bd47	0.013717002
109	0xbd9d364e	-0.076763734
110	0xbd24f46d	-0.040272165
111	0x3d051099	0.032486532
112	0xbe0680d1	-0.13135077
113	0x3d6acd34	0.057324603
114	0xbda9531f	-0.08267807
115	0xbd46fbb2	-0.04857988
116	0x3ca60a1c	0.020268492
117	0xbe1cf464	-0.15327603
118	0x3d42b2bc	0.047533736
119	0xbcc47c06	-0.02398492
120	0x3dac7d30	0.08422315
121	0x3de4aba8	0.11165553
122	0x3d3e87bc	0.046516165
123	0xbe248519	-0.16066398
124	0x3c65e16b	0.014030795
125	0x3caefc77	0.021360619
126	0xbd89e270	-0.06732643
127	0x3c10a03e	0.008827267
128	0x3dafcd04	0.085840255
129	0x3e4f7f93	0.2026351
130	0xbe303c5c	-0.17210525
131	0x3df69225	0.120395936
132	0xbda973c3	-0.08274033
133	0xbd269027	-0.04066482
134	0xbcf5b413	-0.029993093
135	0xbcad4e76	-0.021155577
136	0x3c044a75	0.008074393
137	0x3e43d4da	0.19124165
138	0xbd3e36ba	-0.04643891
139	0xbc7ce225	-0.015434776
140	0xbd523692	-0.051321574
141	0xbdb983d9	-0.09058351
142	0xbc90bd12	-0.01766828
143	0x3dde6b3d	0.10860298
144	0xbc0dc6ad	-0.008653325
145	0x3e3aac25	0.1822973
146	0x3d67b0bb	0.056565028
147	0x3d63a80b	0.05558018
148	0x3d177c40	0.03698373
149	0x3d1b8049	0.03796414
150	0xbd88a30e	-0.06671725
151	0xbd710d35	-0.058850486
152	0x3d1c259b	0.0381218
153	0xbdc8c3b8	-0.098029554
154	0xbe27c77f	-0.16384695
155	0x3e753bb3	0.23948555
156	0x3dfee5c0	0.12446165
157	0xbc86522a	-0.0163966
158	0xbe03d792	-0.12875202
159	0xbe263aec	-0.16233414
160	0x3e14ff49	0.14550509
161	0x3db259a6	0.08708505
162	0xbd5dad43	-0.054120313
163	0xbe31c1c5	-0.17359073
164	0xbc4eba95	-0.012617727
165	0x3c46efec	0.012142163
166	0x3e315295	0.17316659
167	0x3cb5b051	0.0221788
168	0xbce5fd98	-0.028075024
169	0xbc8c6994	-0.017140187
170	0xbe7dde51	-0.24791838
171	0x3d880857	0.06642216
172	0x3c68afdf	0.014202087
173	0xbd806151	-0.06268562
174	0x3da3ef3f	0.08004617
175	0x3d4bace3	0.049725424
176	0xbdf412df	-0.11917662
177	0xbe04b994	-0.12961417
178	0x3de4c1cc	0.11169776
179	0x3cc0fcdc	0.023558073
180	0xbd886233	-0.06659355
181	0xbd2596ae	-0.040426902
182	0xbd0a08e7	-0.033699896
183	0x3dfe9164	0.12430075
184	0xbd7f011a	-0.06225691
185	0x3d714132	0.058900066
186	0x3e189de8	0.14903986
187	0xbd3e902f	-0.046524223
188	0x3d570692	0.0524965
189	0x3d258b61	0.040416125
190	0x3e351968	0.17685473
191	0x3d765292	0.06013734
192	0x3a69ea82	0.0008923189
193	0x3e035303	0.12824635
194	0x3d585e29	0.052824173
195	0x3d9d6721	0.07685686
196	0x3d95d5c1	0.07316161
197	0x3d07bece	0.03314095
198	0x3dadf622	0.08494212
199	0xbe0c0cee	-0.13676807
200	0xbd604c65	-0.054760356
201	0xbd2970be	-0.041367285
202	0x3d0c7bac	0.03429763
203	0xbcacf1e1	-0.02111143
204	0xbc960316	-0.018312018
205	0xbe2a98f4	-0.1665991
206	0xbdeedbed	-0.11663041
207	0x3e013e31	0.1262138
208	0x3e686216	0.22693667
209	0x3c3d94fe	0.011571167
210	0xbd0eb470	-0.034840047
211	0x3d70e017	0.05880746
212	0x3d69dd5e	0.057095878
213	0x3d9abc28	0.07555419
214	0xbd9151bb	-0.07095667
215	0xbc20591c	-0.00978687
216	0x3cfb94e4	0.030710645
217	0x3dbcf06f	0.092255466
218	0x3cf34505	0.029695997
219	0xbe1ab820	-0.151093
220	0xbde1b7cf	-0.11021387
221	0x3b4b4ec5	0.0031022292
222	0x3d87d18b	0.06631764
223	0xbd4084fd	-0.047001828
224	0xbda218f3	-0.07914915
225	0xbdbacb41	-0.09120799
226	0xbd89007f	-0.06689548
227	0x3d01f3dc	0.031726703
228	0x3d0e7553	0.034779858
229	0x3e0bdf64	0.13659436
230	0xbe0f9c38	-0.14024436
231	0x3cc23632	0.023707483
232	0xbbd85bba	-0.0066027315
233	0xbd390353	-0.045169186
234	0x3e5ec581	0.2175503
235	0x3dd62618	0.104564846
236	0x3cd97c14	0.026548423
237	0xbd9f66ba	-0.077832654
238	0x3dd3c276	0.10339825
239	0xbda20553	-0.07911172
240	0x3b574726	0.0032848804
241	0xbc85efda	-0.016349722
242	0xbd56330c	-0.052294776
243	0x3e0c633b	0.13709728
244	0x3e01461e	0.12624404
245	0x3d145072	0.03620953
246	0x3d6e6991	0.058206145
247	0xbdaa51a1	-0.08316351
248	0xbd3dc7f2	-0.04633326
249	0xbdb27390	-0.08713448
250	0x3d1fd8a2	0.039024957
251	0x3d829c73	0.063774966
252	0xbdaf6398	-0.08563918
253	0x3d5c5bc3	0.05379845
254	0x3b3dd7a3	0.002896764
255	0x3d2621e2	0.040559657

network_body._body_endoder.seq_layers.2.bias f4 [128]
0	0x00000000	0.0
1	0x00000000	0.0
2	0x00000000	0.0
3	0x00000000	0.0
4	0x00000000	0.0
5	0x00000000	0.0
6	0x00000000	0.0
7	0x00000000	0.0
8	0x00000000	0.0
9	0x00000000	0.0
10	0x00000000	0.0
11	0x00000000	0.0
12	0x00000000	0.0
13	0x00000000	0.0
14	0x00000000	0.0
15	0x00000000	0.0
16	0x00000000	0.0
17	0x00000000	0.0
18	0x00000000	0.0
19	0x00000000	0.0
20	0x00000000	0.0
21	0x00000000	0.0
22	0x00000000	0.0
23	0x00000000	0.0
24	0x00000000	0.0
25	0x00000000	0.0
26	0x00000000	0.0
27	0x00000000	0.0
28	0x00000000	0.0
29	0x00000000	0.0
30	0x00000000	0.0
31	0x00000000	0.0
32	0x00000000	0.0
33	0x00000000	0.0
34	0x00000000	0.0
35	0x00000000	0.0
36	0x00000000	0.0
37	0x00000000	0.0
38	0x00000000	0.0
39	0x00000000	0.0
40	0x00000000	0.0
41	0x00000000	0.0
42	0x00000000	0.0
43	0x00000000	0.0
44	0x00000000	0.0
45	0x00000000	0.0
46	0x00000000	0.0
47	0x00000000	0.0
48	0x00000000	0.0
49	0x00000000	0.0
50	0x00000000	0.0
51	0x00000000	0.0
52	0x00000000	0.0
53	0x00000000	0.0
54	0x00000000	0.0
55	0x00000000	0.0
56	0x00000000	0.0
57	0x00000000	0.0
58	0x00000000	0.0
59	0x00000000	0.0
60	0x00000000	0.0
61	0x00000000	0.0
62	0x00000000	0.0
63	0x00000000	0.0
64	0x00000000	0.0
65	0x00000000	0.0
66	0x00000000	0.0
67	0x00000000	0.0
68	0x00000000	0.0
69	0x00000000	0.0
70	0x00000000	0.0
71	0x00000000	0.0
72	0x00000000	0.0
73	0x00000000	0.0
74	0x00000000	0.0
75	0x00000000	0.0
76	0x00000000	0.0
77	0x00000000	0.0
78	0x00000000	0.0
79	0x00000000	0.0
80	0x00000000	0.0
81	0x00000000	0.0
82	0x00000000	0.0
83	0x00000000	0.0
84	0x00000000	0.0
85	0x00000000	0.0
86	0x00000000	0.0
87	0x00000000	0.0
88	0x00000000	0.0
89	0x00000000	0.0
90	0x00000000	0.0
91	0x00000000	0.0
92	0x00000000	0.0
93	0x00000000	0.0
94	0x00000000	0.0
95	0x00000000	0.0
96	0x00000000	0.0
97	0x00000000	0.0
98	0x00000000	0.0
99	0x00000000	0.0
100	0x00000000	0.0
101	0x00000000	0.0
102	0x00000000	0.0
103	0x00000000	0.0
104	0x00000000	0.0
105	0x00000000	0.0
106	0x00000000	0.0
107	0x00000000	0.0
108	0x00000000	0.0
109	0x00000000	0.0
110	0x00000000	0.0
111	0x00000000	0.0
112	0x00000000	0.0
113	0x00000000	0.0
114	0x00000000	0.0
115	0x00000000	0.0
116	0x00000000	0.0
117	0x00000000	0.0
118	0x00000000	0.0
119	0x00000000	0.0
120	0x00000000	0.0
121	0x00000000	0.0
122	0x00000000	0.0
123	0x00000000	0.0
124	0x00000000	0.0
125	0x00000000	0.0
126	0x00000000	0.0
127	0x00000000	0.0

value_heads.value_heads.extrinsic.weight f4 [1, 128]
0	0x3c82ede0	0.015982568
1	0x3dcf504c	0.10122737
2	0x3c1aedc0	0.009456098
3	0xbd9fc498	-0.07801169
4	0xbcd25e98	-0.025679871
5	0x3db63444	0.088966876
6	0x3e1856e6	0.14876899
7	0x3e2ac982	0.16678432
8	0x3ddcadb4	0.10775319
9	0xbd98adac	-0.07455
10	0xbe068d3c	-0.13139814
11	0xbe47b8a4	-0.19504029
12	0xbdf90575	-0.12159244
13	0xbe15ac88	-0.14616597
14	0x3d643638	0.05571577
15	0xbdc725e5	-0.09724025
16	0x3e41f606	0.18941507
17	0x3d276178	0.040864438
18	0x3e5929ba	0.21207324
19	0x3d961870	0.0732888
20	0xbe376fb2	-0.17913702
21	0xbde03d4a	-0.1094919
22	0x3d3a6798	0.04550895
23	0x3e13cbd4	0.14433223
24	0xbc21fb30	-0.009886548
25	0xbddc238d	-0.10748968
26	0xbd32c740	-0.04364705
27	0x3d194fb0	0.03742951
28	0xbe354508	-0.17702115
29	0x3d98f6ec	0.074689716
30	0xbce1bc38	-0.02755557
31	0xbdce3cec	-0.10070214
32	0x3e370d4e	0.17876169
33	0xbca78370	-0.020448416
34	0x3e0e295a	0.13882962
35	0x3e22a116	0.15881762
36	0x3ccf9ed8	0.025344297
37	0x3ddd18c0	0.10795736
38	0xbe5acae4	-0.21366459
39	0xbcab0670	-0.020877093
40	0x3db8cd08	0.090234816
41	0x3c340960	0.010988563
42	0x3d0b8cbc	0.03406976
43	0x3e296de6	0.16545829
44	0x3cf112d8	0.02942793
45	0xbd8fb4a6	-0.07016878
46	0xbdf68e1c	-0.12038824
47	0xbd1d88ac	-0.03846042
48	0xbc063840	-0.008192122
49	0x3ca65840	0.020305753
50	0xbd1774d0	-0.036976635
51	0x3e15c194	0.14624625
52	0xbe4ac717	-0.19802509
53	0x3e13ae58	0.14421976
54	0xbd9d5060	-0.07681346
55	0xbe536057	-0.2064222
56	0x3e5a4c3c	0.21318144
57	0xbe165365	-0.1468025
58	0xbd61a674	-0.055090383
59	0x3b19bac0	0.002345726
60	0xbd828b62	-0.063742414
61	0xbe256363	-0.16151194
62	0x3e2addfa	0.1668624
63	0xbd6e8bf0	-0.058238924
64	0x3c7a5cb0	0.0152808875
65	0xbdf15674	-0.11784068
66	0x3e5066e6	0.20351753
67	0x3e5619fc	0.2090835
68	0x3b719680	0.0036863387
69	0xbd9983d8	-0.0749585
70	0xbe3fa14b	-0.18713872
71	0xbcfa4098	-0.030548379
72	0xbcd60af8	-0.026128277
73	0xbddbeb3c	-0.10738227
74	0xbe15b12e	-0.1461837
75	0x3e4601e0	0.19336653
76	0x3dbf66c4	0.09345773
77	0xbd64d4e8	-0.055867106
78	0xbe444638	-0.19167411
79	0x3d759f10	0.059966147
80	0x3e03a812	0.12857082
81	0xbd946fd0	-0.07247889
82	0x3cebc758	0.028781578
83	0x3b90cec0	0.004419178
84	0x3e4607be	0.19338891
85	0xbd092800	-0.033485413
86	0xbdaa413a	-0.08313222
87	0xbd12a6bc	-0.03580354
88	0xbe51ca01	-0.20487215
89	0xbe1d7954	-0.15378314
90	0xbda0f2da	-0.0785882
91	0x3d487ac8	0.04894522
92	0xbe48c64a	-0.19606891
93	0xbad49280	-0.0016217977
94	0xbe57d1a7	-0.2107607
95	0xbdba300a	-0.09091194
96	0xbd80f104	-0.0629597
97	0x3e20fa76	0.15720543
98	0x3daa90d0	0.08328402
99	0x3b249400	0.002511263
100	0x3d55f430	0.05223483
101	0x3e192f0c	0.14959353
102	0x3e3e5276	0.18586144
103	0x3c87c2a8	0.016572312
104	0xbdca5c5c	-0.098808974
105	0x3cf21dd8	0.029555246
106	0xbc006850	-0.00783737
107	0xbdd3099f	-0.103045695
108	0xbdb6b3ce	-0.08921014
109	0xbd20418c	-0.03912501
110	0xbd02c8c8	-0.03192976
111	0xbd4645dc	-0.048406467
112	0x3db669e8	0.08906919
113	0x3e028c1e	0.12748763
114	0x3b933720	0.0044926554
115	0xbca56308	-0.020188823
116	0x3e0c6a82	0.13712505
117	0x3e491600	0.19637299
118	0xbcc62688	-0.024188295
119	0xbdde3688	-0.10850245
120	0xbdba70be	-0.09103535
121	0x3de314a8	0.11087924
122	0xbda87db4	-0.08227101
123	0x3e55dbdc	0.20884651
124	0xbdf81e35	-0.121151365
125	0x3e110958	0.1416372
126	0xbc8c9b58	-0.017163917
127	0xbd51030c	-0.051028296
