Client/results/test2/Move to target/Move to target-130.pt (torch, 143970 bytes, 10 tensors)

network_body._body_endoder.seq_layers.0.weight f4 [128, 1]
0	0x3ed47b37	0.41500255
1	0x3f5e5ba6	0.86858594
2	0x3fb45f31	1.409155
3	0x3f95f83b	1.1716379
4	0xbf85ffc2	-1.0468676
5	0x3f8efc7c	1.1170802
6	0xbf88b97b	-1.0681604
7	0x3f37f211	0.7185374
8	0xbfbbc7c1	-1.4670335
9	0x3e472f89	0.19451727
10	0xbee1078c	-0.4395107
11	0xbe577576	-0.21040902
12	0x3eb65d9f	0.35618302
13	0xbfc1f4b3	-1.5152801
14	0x3e811fae	0.25219482
15	0xbf742408	-0.9536748
16	0xbf82364c	-1.017282
17	0x3e9a0f52	0.30089813
18	0xbf9be4ad	-1.2179161
19	0xbe9ec82c	-0.31012094
20	0xbe7edfeb	-0.24890105
21	0x3f24e0d3	0.64405555
22	0x3f24a0fd	0.6430815
23	0x3f9c2c50	1.2201023
24	0xbdb2ba30	-0.08726919
25	0x3f6f2176	0.9341043
26	0x3fa60d0b	1.297273
27	0x3f83399f	1.025196
28	0xbf44b951	-0.7684527
29	0xbd95f4c2	-0.073220745
30	0x3e289065	0.16461332
31	0xbfb68989	-1.4260722
32	0x3f798238	0.97464323
33	0x3fb30f3f	1.3989028
34	0x3f6ff86d	0.9373844
35	0x3f9870d8	1.1909437
36	0x3f3c9aa1	0.73673445
37	0x3e225267	0.15851746
38	0xbf50de23	-0.81588954
39	0xbfd447ad	-1.6584374
40	0xbf038e46	-0.5138897
41	0xbfbe29d0	-1.485651
42	0xbe95a96c	-0.2923082
43	0x3bfe0eb8	0.0077532195
44	0x3fd884dc	1.6915545
45	0x3e96220e	0.29322857
46	0xbfccc8c3	-1.5998768
47	0xbf9d4852	-1.2287695
48	0x3e539187	0.20660983
49	0xbf62a80c	-0.8853767
50	0xbe08e14f	-0.13367198
51	0x3f909845	1.1296469
52	0xbff826d1	-1.9386846
53	0x3e56fdde	0.2099528
54	0x3f8353b1	1.0259916
55	0x3f049a5a	0.5179802
56	0xbff278ba	-1.8943093
57	0x3f308c74	0.68964314
58	0xbf4ab340	-0.79179764
59	0xbf266b00	-0.6500702
60	0xbf8ee5e7	-1.1163911
61	0xbf61d86d	-0.88220865
62	0x3dea1d42	0.11431362
63	0x3e39f83b	0.18161099
64	0x3f0e0be5	0.554869
65	0x3ed429f6	0.41438264
66	0xbf4ded09	-0.8043981
67	0xbfae31d9	-1.3608962
68	0x3fb8ce53	1.4437965
69	0xbf67380d	-0.903199
70	0x3f7de758	0.9918113
71	0x3e97a712	0.29619652
72	0xbdeb6e62	-0.11495663
73	0x3f4921f0	0.7856741
74	0xbf8533ad	-1.0406395
75	0xbef124d3	-0.47098407
76	0xbf86afdc	-1.0522418
77	0xbf995bee	-1.198118
78	0xbe51ee63	-0.20501094
79	0xbd4397b8	-0.047752112
80	0xbdcf35e9	-0.101177044
81	0x3f1ad03f	0.6047401
82	0xbdab9117	-0.08377283
83	0xbfcd3700	-1.603241
84	0x3f85736c	1.0425849
85	0x3d126d18	0.03574857
86	0xbf419f23	-0.7563345
87	0x3f2b75c4	0.6697657
88	0xbe8f60f4	-0.28003657
89	0xbf9d624a	-1.229562
90	0xbfabf3cb	-1.3433775
91	0x3fe66f10	1.8002644
92	0x3fb1f642	1.3903277
93	0xbe7a881b	-0.24465983
94	0x3f8f816f	1.1211375
95	0xbf47dd6f	-0.78072256
96	0xbe5d6d2f	-0.21623681
97	0xbf1fa030	-0.623538
98	0xc0040530	-2.0628166
99	0xbd194101	-0.03741551
100	0xbf7506d0	-0.9571352
101	0xbfc478ab	-1.5349325
102	0xbfc4a998	-1.5364256
103	0xbfb0c2e0	-1.3809471
104	0xbf87b04c	-1.0600677
105	0x3fdb190a	1.7117016
106	0x3f56ecd8	0.83955145
107	0xc01b5db6	-2.4275947
108	0xbfa523f1	-1.2901593
109	0x3e7fdf5d	0.2498755
110	0xbff3aca3	-1.903706
111	0x40182df1	2.377804
112	0xbef3832c	-0.47561014
113	0x3e683c95	0.2267936
114	0x3f2803df	0.65630907
115	0xbe8573fd	-0.26065055
116	0xbe7f98ff	-0.24960707
117	0xbeab8877	-0.33502552
118	0x3ecd41b0	0.40089178
119	0xbef27095	-0.47351518
120	0x3f818a34	1.0120301
121	0x3ffe53ec	1.9869361
122	0x3fd9d2cd	1.7017456
123	0x3dbc626e	0.091984615
124	0x3d483979	0.048882935
125	0x3b17177c	0.002305477
126	0x3f0d96d5	0.55308276
127	0x3dd9a198	0.10626525

network_body._body_endoder.seq_layers.0.bias f4 [128]
0	0x00000000	0.0
1	0x00000000	0.0
2	0x00000000	0.0
3	0x00000000	0.0
4	0x00000000	0.0
5	0x00000000	0.0
6	0x00000000	0.0
7	0x00000000	0.0
8	0x00000000	0.0
9	0x00000000	0.0
10	0x00000000	0.0
11	0x00000000	0.0
12	0x00000000	0.0
13	0x00000000	0.0
14	0x00000000	0.0
15	0x00000000	0.0
16	0x00000000	0.0
17	0x00000000	0.0
18	0x00000000	0.0
19	0x00000000	0.0
20	0x00000000	0.0
21	0x00000000	0.0
22	0x00000000	0.0
23	0x00000000	0.0
24	0x00000000	0.0
25	0x00000000	0.0
26	0x00000000	0.0
27	0x00000000	0.0
28	0x00000000	0.0
29	0x00000000	0.0
30	0x00000000	0.0
31	0x00000000	0.0
32	0x00000000	0.0
33	0x00000000	0.0
34	0x00000000	0.0
35	0x00000000	0.0
36	0x00000000	0.0
37	0x00000000	0.0
38	0x00000000	0.0
39	0x00000000	0.0
40	0x00000000	0.0
41	0x00000000	0.0
42	0x00000000	0.0
43	0x00000000	0.0
44	0x00000000	0.0
45	0x00000000	0.0
46	0x00000000	0.0
47	0x00000000	0.0
48	0x00000000	0.0
49	0x00000000	0.0
50	0x00000000	0.0
51	0x00000000	0.0
52	0x00000000	0.0
53	0x00000000	0.0
54	0x00000000	0.0
55	0x00000000	0.0
56	0x00000000	0.0
57	0x00000000	0.0
58	0x00000000	0.0
59	0x00000000	0.0
60	0x00000000	0.0
61	0x00000000	0.0
62	0x00000000	0.0
63	0x00000000	0.0
64	0x00000000	0.0
65	0x00000000	0.0
66	0x00000000	0.0
67	0x00000000	0.0
68	0x00000000	0.0
69	0x00000000	0.0
70	0x00000000	0.0
71	0x00000000	0.0
72	0x00000000	0.0
73	0x00000000	0.0
74	0x00000000	0.0
75	0x00000000	0.0
76	0x00000000	0.0
77	0x00000000	0.0
78	0x00000000	0.0
79	0x00000000	0.0
80	0x00000000	0.0
81	0x00000000	0.0
82	0x00000000	0.0
83	0x00000000	0.0
84	0x00000000	0.0
85	0x00000000	0.0
86	0x00000000	0.0
87	0x00000000	0.0
88	0x00000000	0.0
89	0x00000000	0.0
90	0x00000000	0.0
91	0x00000000	0.0
92	0x00000000	0.0
93	0x00000000	0.0
94	0x00000000	0.0
95	0x00000000	0.0
96	0x00000000	0.0
97	0x00000000	0.0
98	0x00000000	0.0
99	0x00000000	0.0
100	0x00000000	0.0
101	0x00000000	0.0
102	0x00000000	0.0
103	0x00000000	0.0
104	0x00000000	0.0
105	0x00000000	0.0
106	0x00000000	0.0
107	0x00000000	0.0
108	0x00000000	0.0
109	0x00000000	0.0
110	0x00000000	0.0
111	0x00000000	0.0
112	0x00000000	0.0
113	0x00000000	0.0
114	0x00000000	0.0
115	0x00000000	0.0
116	0x00000000	0.0
117	0x00000000	0.0
118	0x00000000	0.0
119	0x00000000	0.0
120	0x00000000	0.0
121	0x00000000	0.0
122	0x00000000	0.0
123	0x00000000	0.0
124	0x00000000	0.0
125	0x00000000	0.0
126	0x00000000	0.0
127	0x00000000	0.0

network_body._body_endoder.seq_layers.2.weight f4 [128, 128]
0	0xbe2dcbf1	-0.16972329
1	0x3c3ea51d	0.011636046
2	0xbc811feb	-0.01576229
3	0xbd2abca9	-0.041683827
4	0x3d892b50	0.06697714
5	0x3e0007eb	0.1250302
6	0xbd1f73ba	-0.038928725
7	0x38faa373	0.00011951374
8	0x3deb50af	0.114899985
9	0xbcb86862	-0.022510711
10	0xbd95d4fd	-0.07316015
11	0x3ca8c0e5	0.020599792
12	0x3d9784a8	0.07398349
13	0xbe263180	-0.1622982
14	0x3bb3aa75	0.0054829665
15	0xbe10d61e	-0.14144179
16	0x3cda6894	0.026661195
17	0x3d9a3c94	0.075310856
18	0xbd6831cb	-0.05668811
19	0x3c33e605	0.010980134
20	0x3d268c42	0.040661104
21	0x3c07151f	0.008244782
22	0xbd699440	-0.057026148
23	0xbe595337	-0.2122315
24	0x3de0f066	0.10983352
25	0xbdc770ca	-0.0973831
26	0xbb99e51f	-0.004696503
27	0xbcd315e6	-0.025767278
28	0xbe2e21ee	-0.1700513
29	0x3caf4dfe	0.021399494
30	0xbdded303	-0.10880091
31	0xbcdcc24b	-0.026948115
32	0xbdab7f00	-0.08373833
33	0x3dcc525f	0.099766485
34	0x3e1e9940	0.15488148
35	0xbdcf6233	-0.10126152
36	0x3d2386bb	0.03992341
37	0xbde155fe	-0.1100273
38	0x3d54f990	0.051995814
39	0x3ca58e33	0.020209407
40	0xbd44a21a	-0.048006155
41	0x3e4f4319	0.2024044
42	0x3cbfba93	0.023404395
43	0xbddc1b5b	-0.10747405
44	0xbe09dce4	-0.1346317
45	0x3d3ced1a	0.046124555
46	0x3dfb6fe0	0.12277198
47	0xbdb1f0cf	-0.08688509
48	0xbd6949c2	-0.056955107
49	0xbdc1af51	-0.09457267
50	0xbc4e278b	-0.01258267
51	0x3d161c31	0.03664798
52	0xbd0c3d35	-0.03423806
53	0x3c6d236b	0.014473776
54	0xbdddeda7	-0.10836344
55	0x3d8f5cf5	0.07000152
56	0x3cc7b6dd	0.024379188
57	0xbd74c5d0	-0.05975896
58	0x3d3163d9	0.043308113
59	0x3dfaf3d4	0.12253538
60	0xbbddf03f	-0.0067730243
61	0xbd509a76	-0.050928555
62	0xbddbaf8b	-0.107268415
63	0x3db91f9b	0.090392314
64	0x3de0bdc1	0.10973693
65	0xbcaa050f	-0.020754365
66	0xbda86af0	-0.08223522
67	0xbd07f17b	-0.033189278
68	0x3d997f1f	0.074949495
69	0xbd44ecaa	-0.048077263
70	0x3e105c99	0.14097823
71	0x3d5c3fb9	0.05377171
72	0xbded6f7c	-0.115935296
73	0x3dccc952	0.09999336
74	0x3dfbaeb1	0.12289179
75	0x3dd5e5ae	0.104441985
76	0xbd6c4d03	-0.05769063
77	0x3c78bf3f	0.015182315
78	0x3db19833	0.08671608
79	0x3b255359	0.002522668
80	0x3d4baa4c	0.049722955
81	0xbc060de0	-0.008182019
82	0x3d0b6dae	0.034040146
83	0x3ddcb2d3	0.107762955
84	0xbd867c4f	-0.06566679
85	0xbe03694d	-0.12833138
86	0x3dbbae66	0.09164123
87	0xbd990c02	-0.074729934
88	0x3d8aaee1	0.06771637
89	0xbe0b78eb	-0.13620345
90	0xbdbbf106	-0.09176831
91	0x3d95478d	0.07289038
92	0xbe098c7e	-0.134325
93	0xbd245b94	-0.0401264
94	0x3ca56ff2	0.020194981
95	0xbd56620c	-0.0523396
96	0x3b5e2211	0.0033894817
97	0xbde5ce1e	-0.11220954
98	0xbd500570	-0.050786436
99	0x3cadb99b	0.021206668
100	0x3c23ac09	0.009989747
101	0xbd607459	-0.054798458
102	0x3dd9ec1a	0.10640736
103	0xbd6240af	-0.05523747
104	0x3dbf06e1	0.09327484
105	0x3daa4982	0.08314802
106	0xbd7f2d16	-0.062298857
107	0xbd1efdcc	-0.03881626
108	0x3d4a0b52	0.049327202
109	0xbd568d4e	-0.052380852
110	0x3d2aa8d1	0.041664902
111	0x3d72dd8d	0.05929332
112	0x3be17f83	0.0068816557
113	0x3d7647c7	0.060127046
114	0x3da35bc9	0.07976491
115	0xbe6dc74c	-0.23220557
116	0x3dddbd73	0.1082715
117	0x3cbed5b1	0.023295255
118	0xbceed412	-0.029153857
119	0x3db654d5	0.08902899
120	0xbdad1643	-0.08451512
121	0x3d326404	0.043552414
122	0x3dbddbf3	0.092704676
123	0x3db1ebc5	0.086875476
124	0x3bc50723	0.0060128137
125	0xbd7c9be4	-0.061672106
126	0x3d919fdf	0.07110571
127	0xbc8273d6	-0.015924376
128	0x3e479b22	0.19492772
129	0xbd9d170b	-0.07670411
130	0xbddf189c	-0.10893366
131	0x3d48ac08	0.048992187
132	0x3e053751	0.13009383
133	0x3d922e1a	0.071376994
134	0x3d6aac81	0.05729342
135	0xbdc72a71	-0.09724892
136	0x3e0bfa3b	0.13669674
137	0xbe224d98	-0.15849912
138	0xbc847596	-0.01616935
139	0x3d5eabc8	0.054363042
140	0x3bcd4b15	0.006265054
141	0x3df55fc1	0.11981154
142	0x3cb64754	0.022250809
143	0x3da2aca1	0.079430826
144	0xbdab0a53	-0.083515786
145	0x3e365ee2	0.17809632
146	0xbe0e5308	-0.13898861
147	0x3bff95c8	0.0077998377
148	0xbd916e78	-0.07101148
149	0xbd87b9ff	-0.06627273
150	0xbe458581	-0.19289209
151	0xbcce8354	-0.025209107
152	0x3db81384	0.08988097
153	0x3e359f57	0.17736565
154	0xbc3b8e81	-0.01144755
155	0xbd981209	-0.07425315
156	0xbe2ff05b	-0.17181532
157	0xbc9ac951	-0.018894823
158	0x3ce82d2e	0.028341856
159	0xbd1ea6ea	-0.0387334
160	0x3de716ac	0.11283621
161	0xbe02db3b	-0.12778942
162	0x3c8c3f9e	0.017120179
163	0xbd1acbec	-0.03779213
164	0xbb8dcdfa	-0.004327533
165	0x3c8d08c6	0.017216098
166	0x3da59a18	0.08086032
167	0xbdb34272	-0.08752908
168	0xbd2f6470	-0.042820394
169	0xbc923d4c	-0.017851494
170	0xbce5109d	-0.027962023
171	0xbc1a806a	-0.00943003
172	0xbd838e85	-0.06423668
173	0x3d2e03e6	0.042484187
174	0x3e06b6a2	0.13155606
175	0x3d284f67	0.04109135
176	0x3d7111cb	0.05885486
177	0xbdb66fc7	-0.089080386
178	0xbced9998	-0.029003903
179	0x3c2b6a5c	0.01046237
180	0xbd905ae8	-0.07048589
181	0x3d680112	0.056641646
182	0xbc6c94c7	-0.014439768
183	0xbcaec414	-0.021333732
184	0xbdb143da	-0.0865552
185	0x3dbed083	0.09317114
186	0xbe5ffd5d	-0.21873994
187	0xbd0ecfd7	-0.03486618
188	0x3be67171	0.0070325662
189	0xbe072fbc	-0.13201803
190	0x3d34dec2	0.04415775
191	0xbd86019e	-0.06543277
192	0x3c0b1985	0.008489971
193	0xbe04624f	-0.12928127
194	0xbdc9c84f	-0.09852659
195	0xbc383a3e	-0.011244355
196	0xbc9e6d54	-0.019339241
197	0xbe112e07	-0.14177714
198	0xbd5a525c	-0.0533012
199	0xbdf6b6be	-0.12046574
200	0x3dd808dd	0.105485655
201	0xbb985ab2	-0.0046494836
202	0x3d310c03	0.043224346
203	0xbc4a0bf0	-0.012331948
204	0xbd8ebd2c	-0.069696754
205	0x3e1dc05f	0.15405415
206	0x3de6b1fc	0.112644166
207	0xbe1099f9	-0.14121236
208	0x3da344fd	0.07972143
209	0x3dd2083c	0.10255477
210	0x3e1453a4	0.14485031
211	0x3c807225	0.015679428
212	0x3d088e10	0.033338606
213	0xbca55939	-0.020184146
214	0xbe343012	-0.17596462
215	0x3dccb8e6	0.09996204
216	0xbd8f5163	-0.06997945
217	0x3d31568b	0.043295424
218	0x3d4474e8	0.047963053
219	0x3c9e871f	0.01935154
220	0x3da69416	0.08133714
221	0x3daebe31	0.0853237
222	0x3e4c759f	0.19966744
223	0x3db9f773	0.090804
224	0x3d30b2cc	0.043139264
225	0x3dc501ba	0.0961947
226	0xbc7557ce	-0.014974548
227	0x3e086af8	0.13322055
228	0x3d4c28cc	0.049843594
229	0x3d591952	0.053002663
230	0xbdae1780	-0.08500576
231	0x3d0aea7b	0.033915024
232	0x3da5216b	0.080630146
233	0xbdcda9e8	-0.10042173
234	0xbd253940	-0.0403378
235	0xbdb1a417	-0.08673876
236	0x3d139b79	0.036036942
237	0xbe864975	-0.26227918
238	0x3d25edff	0.040510174
239	0xbcae3f91	-0.021270545
240	0xbdfdcb21	-0.123922594
241	0x3cf0bb6c	0.029386245
242	0xbdef6760	-0.11689639
243	0x3de9d5bf	0.11417722
244	0xbd9ff268	-0.07809907
245	0xbd5510a7	-0.052017834
246	0x3d0c3080	0.03422594
247	0x3d7186a3	0.05896629
248	0xbdbb5aac	-0.09148154
249	0x3d4ce156	0.050019585
250	0xbcd5d046	-0.02610029
251	0xbdbff742	-0.093733326
252	0x3ce1f59f	0.027582942
253	0x3dd6bb99	0.10485
254	0x3dc454bf	0.095864765
255	0x3c637e52	0.013885098

network_body._body_endoder.seq_layers.2.bias f4 [128]
0	0x00000000	0.0
1	0x00000000	0.0
2	0x00000000	0.0
3	0x00000000	0.0
4	0x00000000	0.0
5	0x00000000	0.0
6	0x00000000	0.0
7	0x00000000	0.0
8	0x00000000	0.0
9	0x00000000	0.0
10	0x00000000	0.0
11	0x00000000	0.0
12	0x00000000	0.0
13	0x00000000	0.0
14	0x00000000	0.0
15	0x00000000	0.0
16	0x00000000	0.0
17	0x00000000	0.0
18	0x00000000	0.0
19	0x00000000	0.0
20	0x00000000	0.0
21	0x00000000	0.0
22	0x00000000	0.0
23	0x00000000	0.0
24	0x00000000	0.0
25	0x00000000	0.0
26	0x00000000	0.0
27	0x00000000	0.0
28	0x00000000	0.0
29	0x00000000	0.0
30	0x00000000	0.0
31	0x00000000	0.0
32	0x00000000	0.0
33	0x00000000	0.0
34	0x00000000	0.0
35	0x00000000	0.0
36	0x00000000	0.0
37	0x00000000	0.0
38	0x00000000	0.0
39	0x00000000	0.0
40	0x00000000	0.0
41	0x00000000	0.0
42	0x00000000	0.0
43	0x00000000	0.0
44	0x00000000	0.0
45	0x00000000	0.0
46	0x00000000	0.0
47	0x00000000	0.0
48	0x00000000	0.0
49	0x00000000	0.0
50	0x00000000	0.0
51	0x00000000	0.0
52	0x00000000	0.0
53	0x00000000	0.0
54	0x00000000	0.0
55	0x00000000	0.0
56	0x00000000	0.0
57	0x00000000	0.0
58	0x00000000	0.0
59	0x00000000	0.0
60	0x00000000	0.0
61	0x00000000	0.0
62	0x00000000	0.0
63	0x00000000	0.0
64	0x00000000	0.0
65	0x00000000	0.0
66	0x00000000	0.0
67	0x00000000	0.0
68	0x00000000	0.0
69	0x00000000	0.0
70	0x00000000	0.0
71	0x00000000	0.0
72	0x00000000	0.0
73	0x00000000	0.0
74	0x00000000	0.0
75	0x00000000	0.0
76	0x00000000	0.0
77	0x00000000	0.0
78	0x00000000	0.0
79	0x00000000	0.0
80	0x00000000	0.0
81	0x00000000	0.0
82	0x00000000	0.0
83	0x00000000	0.0
84	0x00000000	0.0
85	0x00000000	0.0
86	0x00000000	0.0
87	0x00000000	0.0
88	0x00000000	0.0
89	0x00000000	0.0
90	0x00000000	0.0
91	0x00000000	0.0
92	0x00000000	0.0
93	0x00000000	0.0
94	0x00000000	0.0
95	0x00000000	0.0
96	0x00000000	0.0
97	0x00000000	0.0
98	0x00000000	0.0
99	0x00000000	0.0
100	0x00000000	0.0
101	0x00000000	0.0
102	0x00000000	0.0
103	0x00000000	0.0
104	0x00000000	0.0
105	0x00000000	0.0
106	0x00000000	0.0
107	0x00000000	0.0
108	0x00000000	0.0
109	0x00000000	0.0
110	0x00000000	0.0
111	0x00000000	0.0
112	0x00000000	0.0
113	0x00000000	0.0
114	0x00000000	0.0
115	0x00000000	0.0
116	0x00000000	0.0
117	0x00000000	0.0
118	0x00000000	0.0
119	0x00000000	0.0
120	0x00000000	0.0
121	0x00000000	0.0
122	0x00000000	0.0
123	0x00000000	0.0
124	0x00000000	0.0
125	0x00000000	0.0
126	0x00000000	0.0
127	0x00000000	0.0

action_model._continuous_distribution.mu.weight f4 [1, 128]
0	0xbc5c493a	-0.013445193
1	0xbbd1143b	-0.0063805855
2	0x3c8a3fce	0.016876128
3	0xbbbd8bd5	-0.0057844915
4	0xbb1e9753	-0.0024199083
5	0xbd0ba333	-0.034091186
6	0xbbc578c6	-0.00602636
7	0xbc189e0f	-0.009315028
8	0x3cc06b8b	0.02348878
9	0x3b85f14d	0.004087603
10	0x3b9f68d3	0.004864791
11	0xbd00e637	-0.03146955
12	0xbd13dbd1	-0.036098305
13	0xbc03e4af	-0.008050128
14	0xbb356962	-0.0027681221
15	0xbc0a2db3	-0.008433747
16	0x3cc5a3c1	0.024125936
17	0x3bed7ebf	0.0072477753
18	0x3c891f71	0.016738625
19	0x3c129f0b	0.008949052
20	0xbc88a697	-0.016680999
21	0x3c096f43	0.008388343
22	0xbc2c7770	-0.010526523
23	0xbc9062e5	-0.017625282
24	0xbc1e9460	-0.00967893
25	0xbb1ca959	-0.002390465
26	0xbcaed81c	-0.021343283
27	0xbb7b00a7	-0.003829995
28	0xbc136c3e	-0.008997975
29	0x3cefff9f	0.029296694
30	0x3ba632b1	0.005071961
31	0xbc60801b	-0.013702418
32	0x398acbe1	0.00026473313
33	0x3b205039	0.002446188
34	0x3cc23e80	0.023711443
35	0xbaf3988f	-0.0018584895
36	0xbc9f652f	-0.019457428
37	0x3a6941f8	0.0008898075
38	0xbc30e50f	-0.010796799
39	0x3c35bd5c	0.01109251
40	0x3b69c972	0.003567305
41	0xbb3caf1c	-0.0028790897
42	0xbc9022ac	-0.017594658
43	0x3b6bab02	0.0035960083
44	0x3cd61b2d	0.026136005
45	0x3ccb5dab	0.024824938
46	0x3bb9f76b	0.0056752465
47	0x3c358cdf	0.01108095
48	0x3cd45d75	0.02592347
49	0x3ce5ca62	0.028050605
50	0xbca179be	-0.019711372
51	0xbd3dba9b	-0.04632054
52	0xbc37fed3	-0.011230188
53	0x3cf2e0eb	0.029648265
54	0xb9928bd5	-0.00027951473
55	0x3d031a79	0.03200767
56	0xbc993ee0	-0.018706739
57	0x3bc2c7eb	0.0059442422
58	0x3c038114	0.00802638
59	0xbc6231c0	-0.013805807
60	0xbcb010b8	-0.021492347
61	0xbcb68b1d	-0.022283131
62	0xbc9ee58b	-0.019396564
63	0x3c802ec7	0.015647305
64	0x3c31fbb5	0.010863234
65	0xbc9a50b7	-0.018837316
66	0xbc72742b	-0.014798204
67	0x3ca2b6fb	0.019862643
68	0x3bfa2482	0.0076337466
69	0x3b0558b8	0.002034707
70	0x3bc8d42c	0.0061288085
71	0x3c5e52ba	0.013569528
72	0x3c18bd72	0.009322511
73	0x3be0ca9a	0.0068600895
74	0x3c8950c2	0.016762141
75	0xbb2c19cb	-0.002626049
76	0x3ce83ff2	0.028350804
77	0xbc638500	-0.01388669
78	0x3cd6af42	0.026206616
79	0x3d28a2b2	0.041170783
80	0xbae31367	-0.0017324508
81	0x3c9c35e7	0.019068671
82	0xbc9d4cf7	-0.019201739
83	0x3d22dcbd	0.039761294
84	0x3d0f3e5b	0.034971576
85	0x3c9511c7	0.018196953
86	0xbb4eae37	-0.0031536946
87	0xbb4b4807	-0.0031018273
88	0x3ae7a53a	0.0017673143
89	0x3c346fb0	0.0110129565
90	0xbcf4f6c5	-0.029902825
91	0x3cdc7d98	0.026915357
92	0x3c8f2b33	0.017476654
93	0xbb13cbb3	-0.0022551834
94	0x3b2265f2	0.0024780002
95	0x3b6450c8	0.0034838188
96	0xbc055dfd	-0.008140084
97	0x3c1a1a4a	0.009405682
98	0xbce1c6fd	-0.027560705
99	0xbc4d0cd8	-0.012515269
100	0xbccb399e	-0.024807747
101	0xbb73767a	-0.0037149475
102	0x3be2bcd3	0.0069194823
103	0xbc8e7f48	-0.017394677
104	0x3cdf32e7	0.027245952
105	0x3c31f685	0.0108619975
106	0x398cb6e0	0.00026839133
107	0x3c836d2f	0.016043274
108	0x3d49846f	0.049198564
109	0xbba3fea7	-0.005004722
110	0x3bb49257	0.005510609
111	0x393e5561	0.00018151618
112	0x3bfa8bfd	0.0076460824
113	0xbcc033b3	-0.023462152
114	0xbc899b17	-0.016797585
115	0xbce763aa	-0.028245766
116	0xbb6355e0	-0.0034688637
117	0x3cb6f26b	0.02233239
118	0x3ba7e937	0.005124237
119	0xbae59b78	-0.0017517647
120	0x3c9e5630	0.019328207
121	0x3c8bcae5	0.017064521
122	0xbccd9137	-0.025093658
123	0x3c05f4db	0.008176054
124	0xbc1f0113	-0.009704846
125	0x3c0b731b	0.00851133
126	0xbc7a56d3	-0.01527949
127	0xbc83125a	-0.015999962

network_body._body_endoder.seq_layers.0.weight f4 [128, 1]
0	0x3f7a4458	0.97760534
1	0x3f8e9131	1.1138059
2	0xbe428034	-0.18994218
3	0xbe8cbbb8	-0.27486968
4	0xbf814b47	-1.0101098
5	0x3f9b049d	1.2110783
6	0xbf53c7ba	-0.82726634
7	0xbe410420	-0.1884923
8	0x3f33fd51	0.70308405
9	0x3f7e19f3	0.99258345
10	0xbe7113ca	-0.23542705
11	0x3e85c6cb	0.2612823
12	0xbf762b2c	-0.96159625
13	0x3eb9fb6c	0.36324632
14	0xbedb0168	-0.4277451
15	0x3f9b5a54	1.2136941
16	0x3fa4877d	1.2853848
17	0x3fa78ba4	1.308949
18	0x3c182213	0.009285468
19	0x3f379f12	0.717271
20	0xbfd4caf2	-1.6624434
21	0xc015f83c	-2.343276
22	0x3ee73241	0.45155528
23	0xbfa45251	-1.2837621
24	0xbf105397	-0.5637755
25	0x3ff789df	1.933895
26	0x3e9c0996	0.30476063
27	0xbef11ac7	-0.47090742
28	0xbee1adda	-0.4407795
29	0x3c95ee0a	0.018301982
30	0x3f832bd1	1.0247747
31	0xbfaa1a6d	-1.3289315
32	0xbf8e7bf2	-1.1131575
33	0x3ed56de8	0.41685414
34	0x3e989655	0.29802194
35	0x3f988f3c	1.1918712
36	0x3eb88391	0.36037877
37	0xbf59388d	-0.84851915
38	0xbdcaeb46	-0.09908156
39	0x3e5a2447	0.21302901
40	0x3eb4aa67	0.35286257
41	0xbd7c1c46	-0.0615504
42	0xbe9cf662	-0.30656725
43	0xbfae08dc	-1.3596454
44	0x3f0e8855	0.55676776
45	0x3ee60990	0.4492917
46	0x3eb1ec8b	0.3475078
47	0xbfdb4281	-1.712967
48	0xbd8074ad	-0.06272254
49	0x3f90e3eb	1.1319555
50	0xbfe25f6d	-1.7685372
51	0xbd31610e	-0.04330545
52	0x3eea4492	0.4575544
53	0xbfae65c5	-1.3624808
54	0xbf734b5d	-0.9503687
55	0xbf7b03b8	-0.9805255
56	0x3e87b6ef	0.26506755
57	0x3f8c5a0f	1.0964984
58	0xbf0314fb	-0.5120389
59	0xbf4c3725	-0.79771644
60	0xbea88ae3	-0.32918462
61	0xbfbb27c5	-1.4621512
62	0xbf7aecbd	-0.98017484
63	0x3fa4280e	1.2824724
64	0xbe9b8e2b	-0.30381903
65	0xbc484865	-0.012224291
66	0x3fa27304	1.269135
67	0x3fe246e9	1.767789
68	0xbf873ae3	-1.0564846
69	0xbfb9b89c	-1.4509463
70	0x3ed49875	0.41522565
71	0xbfd84363	-1.6895565
72	0xbfe66a1c	-1.8001132
73	0x3f11ff1a	0.5702988
74	0xbf7d678a	-0.98986113
75	0xbfa350b9	-1.275901
76	0x3efa2d27	0.48862574
77	0x3d51e9af	0.05124825
78	0x3ec29728	0.38005948
79	0xbffc5d74	-1.971602
80	0xbe290124	-0.16504341
81	0xbf4adf7d	-0.79247266
82	0xbf7b6d39	-0.98213536
83	0x3f7faf7a	0.9987713
84	0xbf05f6f2	-0.52329934
85	0x3e712f92	0.23553303
86	0xbd994f88	-0.074858725
87	0xbc370683	-0.011170986
88	0xbe61efc2	-0.22064117
89	0x3fa9bff6	1.3261707
90	0x401cec08	2.4519062
91	0xbfb2ed23	-1.3978618
92	0xbfb8e589	-1.4445049
93	0xbfb2ac27	-1.3958787
94	0xbf0dec5d	-0.55438787
95	0xbf93d0f1	-1.1548139
96	0xbfce85cd	-1.6134583
97	0x3f835d9d	1.0262944
98	0x3f689137	0.9084658
99	0x3db5b2e1	0.08872009
100	0x3f4c12e1	0.79716307
101	0xbf0ddc4f	-0.5541429
102	0xbe44b334	-0.19208986
103	0xc00fdf7b	-2.2480152
104	0x400c4f8a	2.1923547
105	0xbb929429	-0.0044732285
106	0xbfc8ab59	-1.5677291
107	0xbebe9aaa	-0.37227374
108	0x3f972fcc	1.1811461
109	0x3f7a099c	0.9767091
110	0xbe2c16e1	-0.16805603
111	0x3f8d5c3f	1.1043776
112	0xc0052ffb	-2.0810535
113	0x3f8fe307	1.1241158
114	0xbf21c4b2	-0.6319076
115	0x3d7aa5c5	0.061193246
116	0xbf832983	-1.0247043
117	0xbc042840	-0.008066237
118	0x3d5a358e	0.05327373
119	0x3f93c1f8	1.154357
120	0xbf366b16	-0.7125715
121	0x3fbd37a6	1.4782608
122	0x3f3b5a6b	0.7318484
123	0xbe963a57	-0.29341385
124	0x401ca1ab	2.4473674
125	0x3eb16508	0.34647393
126	0x3f636812	0.88830674
127	0x3f2e8b3a	0.6818119

network_body._body_endoder.seq_layers.0.bias f4 [128]
0	0x00000000	0.0
1	0x00000000	0.0
2	0x00000000	0.0
3	0x00000000	0.0
4	0x00000000	0.0
5	0x00000000	0.0
6	0x00000000	0.0
7	0x00000000	0.0
8	0x00000000	0.0
9	0x00000000	0.0
10	0x00000000	0.0
11	0x00000000	0.0
12	0x00000000	0.0
13	0x00000000	0.0
14	0x00000000	0.0
15	0x00000000	0.0
16	0x00000000	0.0
17	0x00000000	0.0
18	0x00000000	0.0
19	0x00000000	0.0
20	0x00000000	0.0
21	0x00000000	0.0
22	0x00000000	0.0
23	0x00000000	0.0
24	0x00000000	0.0
25	0x00000000	0.0
26	0x00000000	0.0
27	0x00000000	0.0
28	0x00000000	0.0
29	0x00000000	0.0
30	0x00000000	0.0
31	0x00000000	0.0
32	0x00000000	0.0
33	0x00000000	0.0
34	0x00000000	0.0
35	0x00000000	0.0
36	0x00000000	0.0
37	0x00000000	0.0
38	0x00000000	0.0
39	0x00000000	0.0
40	0x00000000	0.0
41	0x00000000	0.0
42	0x00000000	0.0
43	0x00000000	0.0
44	0x00000000	0.0
45	0x00000000	0.0
46	0x00000000	0.0
47	0x00000000	0.0
48	0x00000000	0.0
49	0x00000000	0.0
50	0x00000000	0.0
51	0x00000000	0.0
52	0x00000000	0.0
53	0x00000000	0.0
54	0x00000000	0.0
55	0x00000000	0.0
56	0x00000000	0.0
57	0x00000000	0.0
58	0x00000000	0.0
59	0x00000000	0.0
60	0x00000000	0.0
61	0x00000000	0.0
62	0x00000000	0.0
63	0x00000000	0.0
64	0x00000000	0.0
65	0x00000000	0.0
66	0x00000000	0.0
67	0x00000000	0.0
68	0x00000000	0.0
69	0x00000000	0.0
70	0x00000000	0.0
71	0x00000000	0.0
72	0x00000000	0.0
73	0x00000000	0.0
74	0x00000000	0.0
75	0x00000000	0.0
76	0x00000000	0.0
77	0x00000000	0.0
78	0x00000000	0.0
79	0x00000000	0.0
80	0x00000000	0.0
81	0x00000000	0.0
82	0x00000000	0.0
83	0x00000000	0.0
84	0x00000000	0.0
85	0x00000000	0.0
86	0x00000000	0.0
87	0x00000000	0.0
88	0x00000000	0.0
89	0x00000000	0.0
90	0x00000000	0.0
91	0x00000000	0.0
92	0x00000000	0.0
93	0x00000000	0.0
94	0x00000000	0.0
95	0x00000000	0.0
96	0x00000000	0.0
97	0x00000000	0.0
98	0x00000000	0.0
99	0x00000000	0.0
100	0x00000000	0.0
101	0x00000000	0.0
102	0x00000000	0.0
103	0x00000000	0.0
104	0x00000000	0.0
105	0x00000000	0.0
106	0x00000000	0.0
107	0x00000000	0.0
108	0x00000000	0.0
109	0x00000000	0.0
110	0x00000000	0.0
111	0x00000000	0.0
112	0x00000000	0.0
113	0x00000000	0.0
114	0x00000000	0.0
115	0x00000000	0.0
116	0x00000000	0.0
117	0x00000000	0.0
118	0x00000000	0.0
119	0x00000000	0.0
120	0x00000000	0.0
121	0x00000000	0.0
122	0x00000000	0.0
123	0x00000000	0.0
124	0x00000000	0.0
125	0x00000000	0.0
126	0x00000000	0.0
127	0x00000000	0.0

network_body._body_endoder.seq_layers.2.weight f4 [128, 128]
0	0x3cd4b2f3	0.025964236
1	0xbbe30b14	-0.006928811
2	0xbdcc9536	-0.09989397
3	0xbd3d17df	-0.046165343
4	0xbd790907	-0.060799625
5	0xbc8d95c3	-0.017283326
6	0x3cd9e72f	0.026599495
7	0x3dd27bf6	0.1027755
8	0xbcf628a5	-0.030048678
9	0xbe0a1a33	-0.13486557
10	0x3dfe0f43	0.12405255
11	0x3c852fbc	0.016258113
12	0x3d1583d2	0.036502667
13	0x3d52cb51	0.05146343
14	0xbcde7f21	-0.02716023
15	0xbd98c011	-0.07458509
16	0x3d4fad83	0.050702583
17	0xbdb2ce44	-0.08730748
18	0xbd5039ae	-0.050836258
19	0xbdd2938b	-0.10282048
20	0xbe401758	-0.18758905
21	0xbc219d5c	-0.009864178
22	0x3b599a2e	0.003320347
23	0x3e6d7fb2	0.23193243
24	0xbdd98404	-0.10620883
25	0xbd83e186	-0.064394996
26	0xbdcf04db	-0.10108348
27	0x3dd5ee6d	0.10445867
28	0xbd64728b	-0.0557733
29	0x3da7f696	0.082013294
30	0xbd23710f	-0.039902743
31	0x3d934c54	0.07192293
32	0xbdd3432c	-0.103155464
33	0x3da2adac	0.079432815
34	0x3d012723	0.031531464
35	0xbc36a366	-0.011147356
36	0x3df49f51	0.1194445
37	0x3e5e6e5a	0.21721783
38	0x3a94d527	0.0011355028
39	0xbe837fad	-0.25683346
40	0x3e3e98aa	0.18612924
41	0x3e3894bb	0.18025486
42	0x3e185976	0.14877877
43	0xbe5cdc6f	-0.21568464
44	0xbcaa88e0	-0.02081722
45	0x3d0222d2	0.03177149
46	0xbe0146aa	-0.12624612
47	0x3e0b6508	0.13612759
48	0x3e2ff3ba	0.17182818
49	0xbdd5d87a	-0.1044168
50	0xbd11ab32	-0.035563655
51	0xbe00dc11	-0.12583949
52	0xbdf54eed	-0.119779445
53	0xbc177ca1	-0.009246022
54	0xbd20872f	-0.03919142
55	0x3cf03624	0.029322691
56	0x3d5a3574	0.053273633
57	0xbd957c55	-0.07299105
58	0xbde7f0d8	-0.11325234
59	0x3d963cce	0.07335816
60	0xbd8d5994	-0.06901851
61	0xbc77fbf1	-0.015135751
62	0x3bb5d711	0.0055493196
63	0x3d3a6c15	0.04551323
64	0x3cfd7ae4	0.030942388
65	0x3d11b919	0.035576914
66	0xbc7f41b8	-0.015579633
67	0xbdf26501	-0.11835671
68	0x3e8b2764	0.2717849
69	0xbe291c30	-0.16514659
70	0xbdee8dda	-0.1164815
71	0x3cbad815	0.022808114
72	0x3e326d3e	0.17424485
73	0x3c91adc7	0.017783059
74	0x3d9b4d24	0.07583073
75	0x3d85abd8	0.06526917
76	0x3cc25ae5	0.023724983
77	0xbe08a8c0	-0.13345623
78	0x3d53335c	0.051562652
79	0x3d6937e1	0.056938056
80	0x3df46deb	0.11935028
81	0xbe20f1be	-0.15717217
82	0x3da1fd17	0.07909601
83	0xbdff74ad	-0.12473426
84	0x3de859ab	0.11345228
85	0xbd14aa36	-0.03629514
86	0xbd225957	-0.039635982
87	0x3da45428	0.08023864
88	0xbcbe3bc9	-0.023221867
89	0xbd95d673	-0.073162936
90	0xbd6afb2b	-0.05736844
91	0xbd2d3114	-0.042283133
92	0x3da9fba0	0.08299947
93	0xbdad9482	-0.08475591
94	0xbe063633	-0.13106613
95	0x3c936f86	0.017997514
96	0x3d9547be	0.07289074
97	0x3d89661e	0.067089304
98	0x3d1ba4c7	0.03799894
99	0xbddcfe71	-0.10790718
100	0xbcee890e	-0.029118087
101	0x3dd37f26	0.10326986
102	0x3e0b642a	0.13612428
103	0x3c9497ac	0.018138729
104	0xbdaee707	-0.08540159
105	0x3c591b21	0.013251097
106	0x3d53de40	0.051725626
107	0x3d3975f3	0.0452785
108	0xbd996138	-0.07489246
109	0xbd27911c	-0.04090987
110	0x3bb7ef14	0.005613217
111	0x3d90db78	0.0707311
112	0x3da19097	0.078889064
113	0x3e5995a4	0.2124849
114	0xbdb322d6	-0.08746879
115	0x3ca5bb06	0.020230781
116	0xbbbb1e1a	-0.0057103755
117	0xbd97f44f	-0.07419645
118	0x3dd3e644	0.10346654
119	0xbc9b1ad8	-0.018933699
120	0xbd71dcc8	-0.059048444
121	0x3dd83f28	0.10558921
122	0x3dcc26ad	0.09968314
123	0x3e3c69dd	0.18399759
124	0x3e016a7d	0.12638278
125	0x3d23419f	0.039857503
126	0xbdcd7783	-0.10032561
127	0x3c9979de	0.018734869
128	0x3c413264	0.011791799
129	0x3da499fa	0.08037181
130	0xbd7443ba	-0.0596349
131	0xbdfef51c	-0.12449095
132	0x3d310d43	0.043225538
133	0x3dcef8d6	0.101060554
134	0xbdcf7c2a	-0.10131104
135	0x3c30dcc2	0.01079482
136	0x3de1abbd	0.110190846
137	0x3d6fb092	0.058518
138	0x3d5f98ab	0.054588955
139	0x3d731b9e	0.05935251
140	0x3e137507	0.14400111
141	0xbc02c67d	-0.007981894
142	0x3d51a529	0.0511829
143	0x3dd96801	0.1061554
144	0xbd8e9570	-0.06962097
145	0x3d9a0f8c	0.075224966
146	0x3db26915	0.08711449
147	0x3e4468ad	0.19180556
148	0xbd20dc99	-0.03927288
149	0x3bcf45ae	0.006325445
150	0xbd34c874	-0.04413648
151	0xbe060ade	-0.13090083
152	0x3b8a926d	0.004228881
153	0xbd2d5757	-0.042319622
154	0x3e0787f0	0.1323545
155	0x3df74e6c	0.12075505
156	0xbe1222ee	-0.14271137
157	0xbda31be4	-0.07964304
158	0xbdc90579	-0.09815497
159	0x3d2fe42b	0.042942207
160	0x3cadb6bd	0.0212053
161	0xbc8de2d8	-0.017320082
162	0xbc17703c	-0.009243067
163	0xbd9e95ed	-0.0774344
164	0xbdb9b9f1	-0.09068669
165	0xbe02e16a	-0.12781301
166	0x3e114c51	0.14189269
167	0x3d90e2af	0.070744865
168	0xbdc05622	-0.093914285
169	0x3db15dda	0.08660479
170	0x3ccc66e1	0.0249514
171	0x3da8404e	0.0821539
172	0xbccf9ef9	-0.025344359
173	0xbdac0eec	-0.084012836
174	0xbe219a77	-0.1578158
175	0x3a70a640	0.00091800466
176	0x3dbd0ff2	0.09231557
177	0x3cc3d486	0.02390505
178	0x3c5cf007	0.013484961
179	0xbc880836	-0.016605478
180	0x3cf20301	0.029542448
181	0x3df73504	0.12070659
182	0x3cc7237a	0.024308909
183	0x3d9b1fe7	0.07574444
184	0xbd73c6ee	-0.059515886
185	0xbd2386d6	-0.03992351
186	0x3d0480b6	0.03234931
187	0xbdd85b3b	-0.10564276
188	0xbc8ed5a5	-0.017435858
189	0x3dd6f161	0.10495258
190	0xbd7771af	-0.06041115
191	0xbe24d58b	-0.16097085
192	0xbc99331f	-0.018701134
193	0xbd6b7b78	-0.057490796
194	0x3bf156bb	0.0073650754
195	0xbd557cf8	-0.052121133
196	0xbdcf6c54	-0.10128084
197	0xbd03885a	-0.032112457
198	0xbd16e9d5	-0.036844093
199	0x3cbbf30b	0.02294304
200	0xbde663b8	-0.112494886
201	0xbd8774df	-0.06614088
202	0xbe0994e5	-0.13435705
203	0x3c08fbab	0.008360784
204	0x3e62f784	0.22164732
205	0xbc8e68eb	-0.017384013
206	0xbdcf11b8	-0.101108015
207	0xbe10ef8d	-0.14153881
208	0xbe019ff7	-0.12658678
209	0xbbe62d25	-0.0070244246
210	0xbdcdabf7	-0.10042565
211	0x3d0a6176	0.033784352
212	0x3c1f1b44	0.0097110905
213	0xbc9f4c01	-0.019445421
214	0xbdfea9e3	-0.12434747
215	0x3d425b3e	0.047450297
216	0xbdbb3344	-0.091406375
217	0x3dc73d91	0.0972854
218	0xbda826df	-0.08210539
219	0xbc670646	-0.014100617
220	0xbca21c36	-0.019788843
221	0xbad6996b	-0.0016372626
222	0x3b775a8f	0.0037743186
223	0xbcca8287	-0.024720443
224	0xbddf6dce	-0.109096155
225	0xbd07a769	-0.03311864
226	0x3dc5713c	0.09640738
227	0xbe4fa2e5	-0.20276983
228	0x3b4c25cb	0.0031150456
229	0x3d6b72ce	0.057482533
230	0x3e008c3b	0.12553494
231	0xbc1ec387	-0.009690172
232	0x3d848219	0.06470127
233	0xbe21c4a8	-0.15797675
234	0x3dc32e67	0.09530335
235	0xbd1ee0e1	-0.03878868
236	0x3cb2901b	0.02179723
237	0xbd857a4a	-0.065174654
238	0xbd92bdad	-0.07165084
239	0xbe106280	-0.14100075
240	0x3e492b00	0.1964531
241	0xbe48b4b7	-0.19600187
242	0x3c711464	0.014714334
243	0x3daa543a	0.08316846
244	0x3d4ed04a	0.05049161
245	0xbd2ce7f0	-0.04221338
246	0xbd8fdb9e	-0.070243105
247	0x3cdf47a5	0.027255842
248	0xbbef05f1	-0.0072944094
249	0x3d992072	0.074768916
250	0x3d4c95da	0.049947597
251	0x3c74a723	0.014932427
252	0x3d1d259f	0.038365956
253	0xbd946338	-0.07245487
254	0xbab72075	-0.0013971465
255	0x3d7e5e2b	0.062101524

network_body._body_endoder.seq_layers.2.bias f4 [128]
0	0x00000000	0.0
1	0x00000000	0.0
2	0x00000000	0.0
3	0x00000000	0.0
4	0x00000000	0.0
5	0x00000000	0.0
6	0x00000000	0.0
7	0x00000000	0.0
8	0x00000000	0.0
9	0x00000000	0.0
10	0x00000000	0.0
11	0x00000000	0.0
12	0x00000000	0.0
13	0x00000000	0.0
14	0x00000000	0.0
15	0x00000000	0.0
16	0x00000000	0.0
17	0x00000000	0.0
18	0x00000000	0.0
19	0x00000000	0.0
20	0x00000000	0.0
21	0x00000000	0.0
22	0x00000000	0.0
23	0x00000000	0.0
24	0x00000000	0.0
25	0x00000000	0.0
26	0x00000000	0.0
27	0x00000000	0.0
28	0x00000000	0.0
29	0x00000000	0.0
30	0x00000000	0.0
31	0x00000000	0.0
32	0x00000000	0.0
33	0x00000000	0.0
34	0x00000000	0.0
35	0x00000000	0.0
36	0x00000000	0.0
37	0x00000000	0.0
38	0x00000000	0.0
39	0x00000000	0.0
40	0x00000000	0.0
41	0x00000000	0.0
42	0x00000000	0.0
43	0x00000000	0.0
44	0x00000000	0.0
45	0x00000000	0.0
46	0x00000000	0.0
47	0x00000000	0.0
48	0x00000000	0.0
49	0x00000000	0.0
50	0x00000000	0.0
51	0x00000000	0.0
52	0x00000000	0.0
53	0x00000000	0.0
54	0x00000000	0.0
55	0x00000000	0.0
56	0x00000000	0.0
57	0x00000000	0.0
58	0x00000000	0.0
59	0x00000000	0.0
60	0x00000000	0.0
61	0x00000000	0.0
62	0x00000000	0.0
63	0x00000000	0.0
64	0x00000000	0.0
65	0x00000000	0.0
66	0x00000000	0.0
67	0x00000000	0.0
68	0x00000000	0.0
69	0x00000000	0.0
70	0x00000000	0.0
71	0x00000000	0.0
72	0x00000000	0.0
73	0x00000000	0.0
74	0x00000000	0.0
75	0x00000000	0.0
76	0x00000000	0.0
77	0x00000000	0.0
78	0x00000000	0.0
79	0x00000000	0.0
80	0x00000000	0.0
81	0x00000000	0.0
82	0x00000000	0.0
83	0x00000000	0.0
84	0x00000000	0.0
85	0x00000000	0.0
86	0x00000000	0.0
87	0x00000000	0.0
88	0x00000000	0.0
89	0x00000000	0.0
90	0x00000000	0.0
91	0x00000000	0.0
92	0x00000000	0.0
93	0x00000000	0.0
94	0x00000000	0.0
95	0x00000000	0.0
96	0x00000000	0.0
97	0x00000000	0.0
98	0x00000000	0.0
99	0x00000000	0.0
100	0x00000000	0.0
101	0x00000000	0.0
102	0x00000000	0.0
103	0x00000000	0.0
104	0x00000000	0.0
105	0x00000000	0.0
106	0x00000000	0.0
107	0x00000000	0.0
108	0x00000000	0.0
109	0x00000000	0.0
110	0x00000000	0.0
111	0x00000000	0.0
112	0x00000000	0.0
113	0x00000000	0.0
114	0x00000000	0.0
115	0x00000000	0.0
116	0x00000000	0.0
117	0x00000000	0.0
118	0x00000000	0.0
119	0x00000000	0.0
120	0x00000000	0.0
121	0x00000000	0.0
122	0x00000000	0.0
123	0x00000000	0.0
124	0x00000000	0.0
125	0x00000000	0.0
126	0x00000000	0.0
127	0x00000000	0.0

value_heads.value_heads.extrinsic.weight f4 [1, 128]
0	0xbe254469	-0.16139378
1	0x3e4cb014	0.19989043
2	0x3dc51838	0.0962376
3	0xbded01fc	-0.11572644
4	0x3dbfad7c	0.093592614
5	0xbd82a6d0	-0.06379473
6	0x3c233190	0.009960547
7	0xbe1b9d8f	-0.15196823
8	0xbe266e17	-0.16252933
9	0xbcf2bd58	-0.029631302
10	0x3cc542c0	0.02407968
11	0xbe5bfce8	-0.21483195
12	0xbe0f6d40	-0.1400652
13	0x3d321ce8	0.0434846
14	0xbdd96200	-0.10614395
15	0x3d701ea0	0.058622956
16	0x3e56a44c	0.20961112
17	0xbd52c244	-0.051454797
18	0xbdd0dfce	-0.10198937
19	0xbe1a6ee8	-0.1508137
20	0xbd98442c	-0.07434878
21	0xbe434f37	-0.19073187
22	0xbd872c22	-0.066002145
23	0x3e344412	0.17604092
24	0xbc978ec8	-0.0185007
25	0x3e19ff8e	0.15038893
26	0x3e17685c	0.14785904
27	0x3e0cee2e	0.13762733
28	0xbdf88fcc	-0.12136802
29	0xbe01b332	-0.12666014
30	0xbdc87f86	-0.09789948
31	0xbe4d4d48	-0.20049012
32	0x3dea4a90	0.11440003
33	0x3d971a08	0.07378012
34	0xbe1c45f6	-0.15261063
35	0xbde8bf30	-0.11364591
36	0x3d211c78	0.03933379
37	0xbd5f5288	-0.054522067
38	0x3e1f4dd2	0.1555703
39	0xbd7efafc	-0.062251076
40	0xbdd22d6d	-0.102625705
41	0x3dfbc5fc	0.12293622
42	0x3db61dd0	0.08892405
43	0x3d837314	0.06418434
44	0x3cd83208	0.026391044
45	0xbd2d3f84	-0.0422969
46	0x3e51e9e6	0.20499381
47	0x3e116a54	0.14200717
48	0x3e45b6c2	0.19307998
49	0x3df38b3c	0.11891791
50	0xbe5c1ef1	-0.21496178
51	0xbdd787af	-0.105239265
52	0x3e4347d2	0.19070366
53	0x3e24cb5c	0.160932
54	0xbcb29908	-0.021801487
55	0x3dae2490	0.085030675
56	0xbd399d14	-0.045315817
57	0xbd8bbb64	-0.06822851
58	0xbdeea4ff	-0.11652564
59	0xbd4f8010	-0.05065924
60	0xbdf69838	-0.12040752
61	0x3e11463c	0.14186949
62	0xbe24f4d8	-0.16109025
63	0x3d2d51f0	0.04231447
64	0x3e29a35c	0.16566223
65	0xbe587c4e	-0.21141168
66	0x3d9dd358	0.07706326
67	0x3daf1e80	0.08550739
68	0xbde4a6c9	-0.11164624
69	0xbe45ac34	-0.19303972
70	0xbe3782a8	-0.17920935
71	0x3d2694e8	0.04066935
72	0xbdd1fa4a	-0.10252817
73	0x3e48f110	0.19623208
74	0x3ca4a8e8	0.020100072
75	0x3e17d19c	0.14826053
76	0xbd0182b4	-0.03161879
77	0x3d5bc470	0.053654134
78	0x3e1d0b24	0.15336281
79	0xbdc65720	-0.096845865
80	0x3d5fd558	0.05464682
81	0x3e451312	0.19245556
82	0x3e41dab6	0.18931088
83	0x3dc247c8	0.094863474
84	0x3d1a4dc0	0.037671804
85	0xbe1af918	-0.15134084
86	0x3e127c8e	0.14305326
87	0xbdeb261e	-0.1148188
88	0x3dfa7450	0.12229216
89	0xbd9d949a	-0.07694359
90	0x3d94f420	0.07273126
91	0x3d59ee28	0.05320564
92	0x3e49d4ac	0.19710034
93	0x3de86d30	0.11348951
94	0x3cfd6cb0	0.030935615
95	0x3d619f20	0.055083394
96	0xbdfb87a7	-0.12281733
97	0xbe52d38b	-0.2058851
98	0xbe17860e	-0.14797232
99	0x3d311e78	0.043241948
100	0x3e0e9f5a	0.13927975
101	0xbd1a67fc	-0.037696823
102	0xbdf2a339	-0.118475385
103	0x3e2095f2	0.156822
104	0xbe25d946	-0.16196164
105	0xbddfa985	-0.10921005
106	0xbe5311ce	-0.2061226
107	0x3de760fc	0.11297795
108	0xbe1c8938	-0.1528672
109	0x3e345bd2	0.17613152
110	0xbdf3a9a6	-0.11897592
111	0x3e0dfd92	0.1386626
112	0x3e55f780	0.20895195
113	0x3d8a9e1c	0.06768438
114	0x3d47b0f8	0.048752755
115	0xbe34b7b2	-0.17648199
116	0xbe09afed	-0.13446017
117	0x3d981088	0.07425028
118	0x3e03d79e	0.1287522
119	0x3df40750	0.11915457
120	0x3cae4398	0.021272466
121	0x3cb37d50	0.02191034
122	0x3e0537f0	0.1300962
123	0xbce7ac78	-0.028280482
124	0xbe59cbd2	-0.21269158
125	0xbd3df124	-0.046372548
126	0xbe0ca3c0	-0.1373434
127	0x3c242500	0.010018587
