Client/results/test3/Move to target/Move to target-0.pt (torch, 143922 bytes, 10 tensors)

network_body._body_endoder.seq_layers.0.weight f4 [128, 1]
0	0x40144932	2.3169675
1	0xbdce7a6e	-0.10081945
2	0xbee38d64	-0.4444381
3	0xbfba57b5	-1.4558016
4	0x3ede6c06	0.4344179
5	0xbdfefab7	-0.12450164
6	0xbfaeff12	-1.3671591
7	0xbf3208a0	-0.6954441
8	0xbf34dfb2	-0.7065383
9	0x3f05b619	0.52230984
10	0x3e3bd097	0.1834129
11	0x3f1fd7bc	0.6243856
12	0xbfac2ae9	-1.3450595
13	0x3d3a5612	0.04549224
14	0x3dea7a89	0.11449153
15	0x3f555480	0.8333206
16	0x3f9c3cc2	1.2206042
17	0x3ea3f6a3	0.32024106
18	0x3f259fed	0.6469715
19	0x3f32c5ab	0.6983287
20	0x3f15edd1	0.58566004
21	0xc039ba46	-2.9019942
22	0x3e81882e	0.2529921
23	0x3e40e4f6	0.18837342
24	0xbf8a1627	-1.078801
25	0x3db7fc8a	0.08983715
26	0x3ed03701	0.40666965
27	0xbf780860	-0.9688778
28	0x3ebc55df	0.36784264
29	0xbf18d042	-0.59692776
30	0x3f1b78be	0.6073111
31	0x3f0c1da4	0.5473273
32	0xbfd0dc05	-1.6317145
33	0xbf98c4ac	-1.193502
34	0xbcf98140	-0.030457139
35	0x3f699c22	0.91253865
36	0x3e824743	0.25444993
37	0xbf98876a	-1.1916325
38	0xbf900e77	-1.1254414
39	0x3f2210c8	0.63306856
40	0xbfe0b28f	-1.7554492
41	0xbfca7d69	-1.5819522
42	0xbef82256	-0.48463696
43	0x3fe6425f	1.7989005
44	0x3f4b1a0b	0.79336613
45	0xbed04829	-0.40680054
46	0x3f03fc68	0.51557016
47	0x3edb7784	0.4286462
48	0xbc4d774d	-0.012540651
49	0xbf24598e	-0.6419915
50	0x3da10c8c	0.07863721
51	0xbf26ec3a	-0.65204203
52	0x3fb707d7	1.4299268
53	0xbe9f971c	-0.31169975
54	0xbf8a113e	-1.0786512
55	0xc00ff8c7	-2.2495592
56	0xbe42d3ac	-0.19026059
57	0x3ee600c1	0.4492245
58	0xbf945c9b	-1.1590761
59	0x3f8a25df	1.0792807
60	0x3d2326ce	0.03983193
61	0xbe9e96f7	-0.30974552
62	0xbfcb8ab7	-1.5901707
63	0xbd4193b9	-0.04726002
64	0xbf945b13	-1.1590294
65	0xbf244842	-0.64172757
66	0xbd6902b3	-0.05688734
67	0x3ea01e72	0.31273228
68	0xbed6ad14	-0.41928923
69	0xc014e550	-2.3264961
70	0xbfe35896	-1.7761409
71	0xbff3988e	-1.9030931
72	0xbf27fa74	-0.65616536
73	0x3f4fe9d4	0.8121617
74	0x3edce1dd	0.4314107
75	0xbf1a5b31	-0.602954
76	0xbee9ec97	-0.45688316
77	0xbf83fd30	-1.0311642
78	0x3ed2d997	0.41181633
79	0x3ed48618	0.41508555
80	0xbe99ecfd	-0.3006362
81	0x3fb7966c	1.434278
82	0x3ed38191	0.4130979
83	0x3e475d52	0.19469193
84	0x3f33c01f	0.7021503
85	0xbf0d77da	-0.55261004
86	0x3c8a9c0d	0.016920114
87	0x3ed1c190	0.4096799
88	0x3ed8c97f	0.4234123
89	0xbe33da48	-0.17563736
90	0x3eae4c6d	0.34042683
91	0x3f9c4b5e	1.22105
92	0x3fad08a9	1.3518268
93	0x3f835980	1.0261688
94	0xbfb1cb13	-1.3890098
95	0xbec00549	-0.37504032
96	0x3f35f86b	0.7108218
97	0x3f7d4bcc	0.9894378
98	0x3f0b2074	0.54346395
99	0x3fb31cf9	1.3993217
100	0x3f5a792e	0.85341156
101	0xbf943e83	-1.1581577
102	0xbec1bb6e	-0.3783831
103	0x3f80f99d	1.0076176
104	0x3fa8fdff	1.3202513
105	0x400b8a08	2.1802998
106	0x3edf1fad	0.43578854
107	0xbece92f4	-0.4034649
108	0xbf30699c	-0.6891115
109	0xbe241900	-0.16025162
110	0xbf4873b4	-0.7830155
111	0xbf0cb478	-0.54962873
112	0x3ff11f67	1.8837708
113	0xbe9cec1d	-0.3064889
114	0xbf18c823	-0.59680384
115	0x3f95e48a	1.171037
116	0x3f98bb20	1.1932106
117	0xbf7fe575	-0.999595
118	0xbe83ad89	-0.25718334
119	0xc025e952	-2.5923657
120	0x3f5d5580	0.8645859
121	0xbf8664d2	-1.0499518
122	0x3d85cdfe	0.065334305
123	0xbfbaa503	-1.4581608
124	0x3ffb2508	1.9620676
125	0xbab14892	-0.0013525656
126	0x3f4d87ec	0.80285525
127	0x3e73f3bf	0.2382345

network_body._body_endoder.seq_layers.0.bias f4 [128]
0	0x00000000	0.0
1	0x00000000	0.0
2	0x00000000	0.0
3	0x00000000	0.0
4	0x00000000	0.0
5	0x00000000	0.0
6	0x00000000	0.0
7	0x00000000	0.0
8	0x00000000	0.0
9	0x00000000	0.0
10	0x00000000	0.0
11	0x00000000	0.0
12	0x00000000	0.0
13	0x00000000	0.0
14	0x00000000	0.0
15	0x00000000	0.0
16	0x00000000	0.0
17	0x00000000	0.0
18	0x00000000	0.0
19	0x00000000	0.0
20	0x00000000	0.0
21	0x00000000	0.0
22	0x00000000	0.0
23	0x00000000	0.0
24	0x00000000	0.0
25	0x00000000	0.0
26	0x00000000	0.0
27	0x00000000	0.0
28	0x00000000	0.0
29	0x00000000	0.0
30	0x00000000	0.0
31	0x00000000	0.0
32	0x00000000	0.0
33	0x00000000	0.0
34	0x00000000	0.0
35	0x00000000	0.0
36	0x00000000	0.0
37	0x00000000	0.0
38	0x00000000	0.0
39	0x00000000	0.0
40	0x00000000	0.0
41	0x00000000	0.0
42	0x00000000	0.0
43	0x00000000	0.0
44	0x00000000	0.0
45	0x00000000	0.0
46	0x00000000	0.0
47	0x00000000	0.0
48	0x00000000	0.0
49	0x00000000	0.0
50	0x00000000	0.0
51	0x00000000	0.0
52	0x00000000	0.0
53	0x00000000	0.0
54	0x00000000	0.0
55	0x00000000	0.0
56	0x00000000	0.0
57	0x00000000	0.0
58	0x00000000	0.0
59	0x00000000	0.0
60	0x00000000	0.0
61	0x00000000	0.0
62	0x00000000	0.0
63	0x00000000	0.0
64	0x00000000	0.0
65	0x00000000	0.0
66	0x00000000	0.0
67	0x00000000	0.0
68	0x00000000	0.0
69	0x00000000	0.0
70	0x00000000	0.0
71	0x00000000	0.0
72	0x00000000	0.0
73	0x00000000	0.0
74	0x00000000	0.0
75	0x00000000	0.0
76	0x00000000	0.0
77	0x00000000	0.0
78	0x00000000	0.0
79	0x00000000	0.0
80	0x00000000	0.0
81	0x00000000	0.0
82	0x00000000	0.0
83	0x00000000	0.0
84	0x00000000	0.0
85	0x00000000	0.0
86	0x00000000	0.0
87	0x00000000	0.0
88	0x00000000	0.0
89	0x00000000	0.0
90	0x00000000	0.0
91	0x00000000	0.0
92	0x00000000	0.0
93	0x00000000	0.0
94	0x00000000	0.0
95	0x00000000	0.0
96	0x00000000	0.0
97	0x00000000	0.0
98	0x00000000	0.0
99	0x00000000	0.0
100	0x00000000	0.0
101	0x00000000	0.0
102	0x00000000	0.0
103	0x00000000	0.0
104	0x00000000	0.0
105	0x00000000	0.0
106	0x00000000	0.0
107	0x00000000	0.0
108	0x00000000	0.0
109	0x00000000	0.0
110	0x00000000	0.0
111	0x00000000	0.0
112	0x00000000	0.0
113	0x00000000	0.0
114	0x00000000	0.0
115	0x00000000	0.0
116	0x00000000	0.0
117	0x00000000	0.0
118	0x00000000	0.0
119	0x00000000	0.0
120	0x00000000	0.0
121	0x00000000	0.0
122	0x00000000	0.0
123	0x00000000	0.0
124	0x00000000	0.0
125	0x00000000	0.0
126	0x00000000	0.0
127	0x00000000	0.0

network_body._body_endoder.seq_layers.2.weight f4 [128, 128]
0	0xbda78a70	-0.08180702
1	0xbe11867e	-0.14211461
2	0xbc06bc0f	-0.008223548
3	0xbd3228df	-0.04349601
4	0xbd9002a3	-0.07031753
5	0xbb71996e	-0.0036865133
6	0xbe2a6fc3	-0.16644196
7	0xbd940415	-0.07227341
8	0xbbee8110	-0.007278569
9	0x3da3b321	0.079931505
10	0xbe05dc5e	-0.13072345
11	0x3dca2dde	0.0987203
12	0xbd07415f	-0.033021327
13	0xbcc41b44	-0.023938783
14	0x3d82c01f	0.063843004
15	0x3cc9bd32	0.024626348
16	0x3d318e80	0.04334879
17	0xbdb3cf5d	-0.08779786
18	0xbcac0278	-0.020997271
19	0x3d959826	0.07304411
20	0xbe35c433	-0.17750625
21	0x3d93b3b5	0.07212011
22	0x3e368c2b	0.17826907
23	0x3d96a9c3	0.07356598
24	0xbd18e936	-0.037331782
25	0xbdc79925	-0.09746007
26	0x3d3104d9	0.043217514
27	0xbd7f4881	-0.062325004
28	0xbde884c6	-0.113534495
29	0x3c7e6217	0.015526316
30	0x3d21473b	0.03937457
31	0xbdccccbc	-0.099999875
32	0xbdc7f4be	-0.09763478
33	0x3d9a6802	0.07539369
34	0x3d1a6fe6	0.03770437
35	0x3e349bce	0.1763756
36	0x3c73f1bb	0.014889176
37	0xbded9983	-0.11601546
38	0x3cd0aed7	0.025473995
39	0x3dc7fba8	0.097647965
40	0x3d14f6c0	0.03636813
41	0xbd0b77d3	-0.03404982
42	0xbc67d493	-0.014149803
43	0x3cfb3ad2	0.030667696
44	0xbdf5a231	-0.11993826
45	0x3e2d3cd7	0.1691774
46	0xbc00d44f	-0.007863118
47	0x3d1fbd02	0.03899861
48	0x3e06db78	0.13169658
49	0x3cac850b	0.021059534
50	0xbdf645e3	-0.120250486
51	0xbdb88e3d	-0.09011505
52	0x3cc4c30a	0.024018783
53	0x3d89c066	0.0672615
54	0xbca7597d	-0.020428414
55	0xbe1c1d51	-0.15245558
56	0x3e0a59fb	0.13510887
57	0x3c6972c4	0.014248554
58	0x3dd785a7	0.10523539
59	0xbd816c6f	-0.0631951
60	0xbe4284a5	-0.18995912
61	0x3dd37bf6	0.10326378
62	0x3c1de6fb	0.00963759
63	0xbd98317c	-0.074313134
64	0xbc2f280c	-0.0106907
65	0x3dabb72d	0.083845474
66	0xbdcb8c2e	-0.099388465
67	0xbe786ea4	-0.24260956
68	0xbc1eb9a1	-0.009687812
69	0x3d8e5405	0.06949619
70	0x3c373095	0.011181016
71	0xbdfc3de1	-0.1231649
72	0x3da13808	0.07872015
73	0xbd34da90	-0.04415375
74	0x3ca6260e	0.020281818
75	0xbd3af5d9	-0.045644615
76	0xbbf38b4a	-0.007432376
77	0x3e3d6180	0.18494225
78	0xbbe7349c	-0.007055832
79	0x3d9dedd6	0.07711379
80	0x3d1a224a	0.037630357
81	0xbcf4ed65	-0.029898355
82	0xbca40319	-0.020021008
83	0xbe23551e	-0.15950438
84	0x3db5ab69	0.088705845
85	0xbc635b7d	-0.013876793
86	0xbd1c8538	-0.038212985
87	0x3d7189f9	0.05896947
88	0x3e1d2662	0.15346673
89	0xbd817a3b	-0.06322142
90	0xbd5aa6e4	-0.053381816
91	0x3d4a3b22	0.0493728
92	0x3d6c9fd1	0.0577696
93	0xbd571428	-0.052509457
94	0x3ce14350	0.027497917
95	0xbb0e4bce	-0.0021712664
96	0xbcf84642	-0.030306939
97	0xbd18769b	-0.037222486
98	0x3c019afe	0.007910488
99	0xbd9426aa	-0.07233937
100	0xbdeaa614	-0.11457458
101	0x3d06c344	0.032901064
102	0x3dc933b5	0.098243155
103	0x3db5522f	0.08853566
104	0xbcf6463e	-0.030062791
105	0xbcfb17c3	-0.030650979
106	0x3e5067ab	0.20352046
107	0xbc123b4c	-0.00892527
108	0xbd9d7c3e	-0.07689713
109	0xbde828f0	-0.11335933
110	0x3d80c792	0.06288065
111	0x3d839149	0.06424195
112	0xb93cb6e6	-0.00017997212
113	0x3dd020b0	0.10162485
114	0xbd8ed419	-0.06974048
115	0x3e0bf487	0.13667499
116	0x3d96ef96	0.07369916
117	0x3de4fb05	0.11180691
118	0x3a907c1d	0.0011023317
119	0x3d03402b	0.032043617
120	0x3ca30a18	0.019902274
121	0xbdaab160	-0.08334613
122	0xbd778d36	-0.060437404
123	0x3b54b219	0.0032454787
124	0xbd334607	-0.043767955
125	0x3cdb75b3	0.026789522
126	0x3e1c1e20	0.15245867
127	0xbd4101a5	-0.04712071
128	0x3dedb918	0.116075695
129	0x3d667674	0.05626531
130	0xbdd0091c	-0.101579875
131	0x3d7c116a	0.061540045
132	0x3e059f77	0.13049112
133	0xbd8be84d	-0.06831417
134	0xbe30e6a7	-0.17275487
135	0x3e0c34a5	0.13691957
136	0xbe0f0c6d	-0.13969584
137	0x3d932f8e	0.07186805
138	0xbc799f4e	-0.015235735
139	0xbdcb38f9	-0.09922976
140	0x3d9424d4	0.07233587
141	0x3dabf3c0	0.08396101
142	0xbdd96924	-0.10615757
143	0xba97201b	-0.0011529954
144	0xbdf9fb69	-0.12206156
145	0xbd820a1f	-0.06349587
146	0xbd98c035	-0.074585356
147	0x3da0433e	0.078253254
148	0xbd5e23d4	-0.054233387
149	0xbbf5894d	-0.007493174
150	0x3e45d4ff	0.19319533
151	0xbd97ce51	-0.074123986
152	0x3e216653	0.1576169
153	0xbd983b27	-0.074331574
154	0x3c5019fa	0.012701506
155	0xbcf9a5bc	-0.030474536
156	0xbddbe7ee	-0.107375965
157	0x3dfe20e2	0.12408616
158	0x3cdb2a33	0.02675352
159	0x3d915c5f	0.070976965
160	0x3dc617c6	0.09672503
161	0x3e0d4c3d	0.13798614
162	0xbb552a2e	-0.0032526362
163	0x3deebbee	0.116569385
164	0xbb73c6f9	-0.0037197454
165	0xbcaeec1f	-0.021352826
166	0x3daa0d15	0.083032764
167	0x3e15a4cc	0.14613646
168	0x3d5181db	0.05114923
169	0x3e210e69	0.15728153
170	0x3d40e355	0.0470918
171	0xbde55a64	-0.11198881
172	0x3bc9cea4	0.0061586667
173	0x3d7d7122	0.06187547
174	0x3ceb46ee	0.028720345
175	0x3e15dab2	0.14634207
176	0xbd178e70	-0.037001073
177	0x3d2ccff8	0.042190522
178	0x3dd3e486	0.10346322
179	0x3b85d7b5	0.004084552
180	0xbc3a9632	-0.011388348
181	0xbdd2650d	-0.1027318
182	0x3c441c4b	0.011969636
183	0x3dfc97f7	0.123336725
184	0xbdc2b952	-0.09508003
185	0xbe0e4499	-0.13893355
186	0x3e0c2966	0.13687667
187	0x3e64f0dd	0.22357507
188	0xbe428d80	-0.1899929
189	0x3ce2ef45	0.027701983
190	0x3d72ebed	0.059307028
191	0x3d06d0ca	0.03291396
192	0xbd7cd748	-0.061728746
193	0xbd36eda0	-0.04466021
194	0xbe7cbcd5	-0.24681409
195	0x3e039672	0.12850359
196	0x3e076248	0.13221085
197	0x3d9a646d	0.07538686
198	0xbd1b8e53	-0.037977528
199	0xbd0f796c	-0.035027906
200	0xbdd98430	-0.10620916
201	0xbbf25385	-0.00739521
202	0x3e2b0636	0.16701588
203	0x3d04c19c	0.032411203
204	0x3dafae66	0.08578186
205	0x3da356a7	0.07975512
206	0x3c6affdf	0.014343231
207	0x3da0022b	0.078129135
208	0x3ddae587	0.1068831
209	0xbc199526	-0.009373939
210	0x3dca7fda	0.09887667
211	0x3dba0cbd	0.09084461
212	0xba969814	-0.0011489415
213	0x3e862fae	0.26208252
214	0xbd1280b5	-0.035767276
215	0xbdbcae93	-0.09212985
216	0x39c652a0	0.00037827063
217	0x3e2187d3	0.15774469
218	0x3e045148	0.12921631
219	0xbd4b641b	-0.049656015
220	0x3d48eb66	0.04905262
221	0xbdc3a8ba	-0.095536664
222	0xbc5b020c	-0.013367187
223	0xbe5edda9	-0.21764244
224	0x3ccc34d0	0.024927527
225	0xbcfc1cf3	-0.030775523
226	0xbd2cf40b	-0.042224925
227	0xbc26a1f0	-0.010170445
228	0x3d7a20af	0.061066326
229	0x3c3ce4a8	0.011529125
230	0x3db9a153	0.09063973
231	0x3d894492	0.06702532
232	0xbdb11987	-0.08647447
233	0x3c8c23ef	0.017106978
234	0x3d439930	0.047753513
235	0xbd41bc22	-0.047298558
236	0xbb3da69f	-0.0028938425
237	0x3dbe8471	0.09302605
238	0xbd8ff8c1	-0.07029868
239	0x3cab78a4	0.02093155
240	0xbb9f2f87	-0.0048579606
241	0xbdda28cd	-0.106523134
242	0xbde06260	-0.109562635
243	0xbd98c493	-0.074593686
244	0x3d3dc079	0.046326134
245	0x3d2e81df	0.042604323
246	0x3bf6bac1	0.007529587
247	0x3de8d98f	0.11369621
248	0x3dec01d5	0.11523787
249	0x3dca500a	0.098785475
250	0x3e37c728	0.17947066
251	0xbd99183e	-0.07475327
252	0x3dc2266d	0.094799854
253	0x3d179417	0.037006464
254	0x3ca5c7be	0.020236846
255	0xbd1a0428	-0.03760162

network_body._body_endoder.seq_layers.2.bias f4 [128]
0	0x00000000	0.0
1	0x00000000	0.0
2	0x00000000	0.0
3	0x00000000	0.0
4	0x00000000	0.0
5	0x00000000	0.0
6	0x00000000	0.0
7	0x00000000	0.0
8	0x00000000	0.0
9	0x00000000	0.0
10	0x00000000	0.0
11	0x00000000	0.0
12	0x00000000	0.0
13	0x00000000	0.0
14	0x00000000	0.0
15	0x00000000	0.0
16	0x00000000	0.0
17	0x00000000	0.0
18	0x00000000	0.0
19	0x00000000	0.0
20	0x00000000	0.0
21	0x00000000	0.0
22	0x00000000	0.0
23	0x00000000	0.0
24	0x00000000	0.0
25	0x00000000	0.0
26	0x00000000	0.0
27	0x00000000	0.0
28	0x00000000	0.0
29	0x00000000	0.0
30	0x00000000	0.0
31	0x00000000	0.0
32	0x00000000	0.0
33	0x00000000	0.0
34	0x00000000	0.0
35	0x00000000	0.0
36	0x00000000	0.0
37	0x00000000	0.0
38	0x00000000	0.0
39	0x00000000	0.0
40	0x00000000	0.0
41	0x00000000	0.0
42	0x00000000	0.0
43	0x00000000	0.0
44	0x00000000	0.0
45	0x00000000	0.0
46	0x00000000	0.0
47	0x00000000	0.0
48	0x00000000	0.0
49	0x00000000	0.0
50	0x00000000	0.0
51	0x00000000	0.0
52	0x00000000	0.0
53	0x00000000	0.0
54	0x00000000	0.0
55	0x00000000	0.0
56	0x00000000	0.0
57	0x00000000	0.0
58	0x00000000	0.0
59	0x00000000	0.0
60	0x00000000	0.0
61	0x00000000	0.0
62	0x00000000	0.0
63	0x00000000	0.0
64	0x00000000	0.0
65	0x00000000	0.0
66	0x00000000	0.0
67	0x00000000	0.0
68	0x00000000	0.0
69	0x00000000	0.0
70	0x00000000	0.0
71	0x00000000	0.0
72	0x00000000	0.0
73	0x00000000	0.0
74	0x00000000	0.0
75	0x00000000	0.0
76	0x00000000	0.0
77	0x00000000	0.0
78	0x00000000	0.0
79	0x00000000	0.0
80	0x00000000	0.0
81	0x00000000	0.0
82	0x00000000	0.0
83	0x00000000	0.0
84	0x00000000	0.0
85	0x00000000	0.0
86	0x00000000	0.0
87	0x00000000	0.0
88	0x00000000	0.0
89	0x00000000	0.0
90	0x00000000	0.0
91	0x00000000	0.0
92	0x00000000	0.0
93	0x00000000	0.0
94	0x00000000	0.0
95	0x00000000	0.0
96	0x00000000	0.0
97	0x00000000	0.0
98	0x00000000	0.0
99	0x00000000	0.0
100	0x00000000	0.0
101	0x00000000	0.0
102	0x00000000	0.0
103	0x00000000	0.0
104	0x00000000	0.0
105	0x00000000	0.0
106	0x00000000	0.0
107	0x00000000	0.0
108	0x00000000	0.0
109	0x00000000	0.0
110	0x00000000	0.0
111	0x00000000	0.0
112	0x00000000	0.0
113	0x00000000	0.0
114	0x00000000	0.0
115	0x00000000	0.0
116	0x00000000	0.0
117	0x00000000	0.0
118	0x00000000	0.0
119	0x00000000	0.0
120	0x00000000	0.0
121	0x00000000	0.0
122	0x00000000	0.0
123	0x00000000	0.0
124	0x00000000	0.0
125	0x00000000	0.0
126	0x00000000	0.0
127	0x00000000	0.0

action_model._continuous_distribution.mu.weight f4 [1, 128]
0	0x3c983e38	0.018584356
1	0x3bbab3ec	0.005697718
2	0x3a862459	0.0010234221
3	0x3b815643	0.003947051
4	0xbc978cdf	-0.01849979
5	0x3ba7c243	0.0051195933
6	0xbc194110	-0.009353891
7	0x3ccfb8af	0.025356619
8	0xba39eed3	-0.00070927775
9	0x3b9a2555	0.0047041574
10	0xbca29eba	-0.019851077
11	0x3be866f7	0.0070923525
12	0x3cf2d267	0.029641343
13	0x3c47d8eb	0.012197713
14	0x3c990ab1	0.018681856
15	0xbcfaf07a	-0.030632246
16	0xbd297ab9	-0.041376803
17	0x3b4a3a3b	0.0030857462
18	0xbcbcd675	-0.02305148
19	0xbd00c812	-0.031440802
20	0xbc8feca8	-0.017568901
21	0x3b6104ad	0.0034335062
22	0x3c6ec027	0.01457218
23	0x3b67bc1d	0.0035359927
24	0xbcfb0872	-0.030643675
25	0xbc5a3f4b	-0.013320754
26	0x3a2ba233	0.0006547302
27	0xbd39ce73	-0.0453629
28	0xba63ab37	-0.0008684876
29	0x3d0b7ba7	0.03405347
30	0xbc18962c	-0.0093131475
31	0x3ab4d187	0.0013795354
32	0x3cba9650	0.022776753
33	0x3bf39847	0.0074339244
34	0xbc84afda	-0.016197134
35	0x3afe882a	0.0019419242
36	0x3b5d62e3	0.0033780865
37	0xbc025d77	-0.007956854
38	0xbc28530f	-0.010273709
39	0x3c9d31c4	0.01918877
40	0x3c1bd4bf	0.009511172
41	0x3d0b9630	0.034078777
42	0x3c963dd8	0.018340036
43	0xbcdef502	-0.027216438
44	0x3ba2dbf7	0.0049700695
45	0x3c039de8	0.008033253
46	0x3ad10cc0	0.0015949234
47	0x3ca7caba	0.02048241
48	0x3c83e218	0.01609902
49	0xbc53d043	-0.012928071
50	0x3cbb9b46	0.022901189
51	0x3bdaff7d	0.0066832886
52	0x3c450649	0.012025424
53	0x3b502f55	0.0031766493
54	0xb8bf4673	-9.120712e-05
55	0x3c81104c	0.015754841
56	0xba46d2ff	-0.00075845415
57	0x3b4c5188	0.0031176526
58	0x3d0efcf9	0.034909222
59	0xbd056a70	-0.03257221
60	0xbc586f67	-0.013210154
61	0xbb4b3c7c	-0.0031011393
62	0xbc7ca568	-0.015420295
63	0xbd156104	-0.036469474
64	0x3c5405b3	0.012940812
65	0x3c7d91a7	0.015476621
66	0x3d0815d0	0.033223927
67	0xbc1026fe	-0.008798359
68	0xbcbf7da5	-0.023375342
69	0xbb87bf9b	-0.004142714
70	0x3c1449e9	0.009050825
71	0xbb53bcba	-0.0032308535
72	0x3be40f25	0.006959813
73	0x3c8313c7	0.016000642
74	0xbaf6c7c0	-0.0018827841
75	0x3c27a11f	0.010231285
76	0xbcd8a7eb	-0.026447257
77	0xbcdb1198	-0.026741788
78	0x3c8bd9a3	0.01707155
79	0xbc1db2ff	-0.0096251955
80	0xbc9cf98b	-0.01916196
81	0x3c80491f	0.015659867
82	0x3c9bff9d	0.019042784
83	0x3c1aeecb	0.009456347
84	0xbc2f632b	-0.010704796
85	0xbbac5555	-0.005259196
86	0xbb71236a	-0.003679479
87	0xbcb33679	-0.02187656
88	0x3cb8e3d8	0.022569582
89	0x3bf71ccd	0.007541275
90	0x3c9937eb	0.018703422
91	0xbc543a63	-0.012953374
92	0x3c25104b	0.010074685
93	0xbd0b775d	-0.03404938
94	0xbcbc0936	-0.02295361
95	0x3be5d00a	0.0070133256
96	0xbc4bdce5	-0.012442802
97	0x3d092883	0.0334859
98	0x3b4fda7f	0.0031715927
99	0xbb5bb327	-0.0033523531
100	0x3c29ecf3	0.0103714345
101	0x3b609887	0.00342706
102	0x3c3bb749	0.011457273
103	0xbc22e667	-0.0099426275
104	0xbc87c6e8	-0.016574338
105	0xbcd11213	-0.025521314
106	0xbc8770b3	-0.016533231
107	0x3cc0a3a6	0.023515534
108	0xbc5126f2	-0.012765633
109	0xbbaf798a	-0.0053550648
110	0xbc96a193	-0.018387591
111	0x3a67c97f	0.0008841976
112	0xbcc68e5d	-0.024237806
113	0x39eeb11d	0.00045526857
114	0x3bf4c7c3	0.0074701025
115	0x3d030bb4	0.031993583
116	0x3d0a36e5	0.033743758
117	0xbcdcd282	-0.026955847
118	0x3b6edb57	0.0036446655
119	0xba13c9a6	-0.0005637653
120	0x39bd0427	0.00036051983
121	0xbbbe84a1	-0.0058141504
122	0xbcb61df3	-0.022231078
123	0x3baaee3b	0.0052163876
124	0xbc270281	-0.010193468
125	0x3d1757e2	0.036949046
126	0xbbf0bb50	-0.007346548
127	0x3ceea18a	0.029129762

network_body._body_endoder.seq_layers.0.weight f4 [128, 1]
0	0xbec6b95b	-0.3881329
1	0x3e9c60e4	0.30542672
2	0x3ef796eb	0.4835733
3	0x3f46dde8	0.7768235
4	0x3f45dff6	0.7729486
5	0xbf0c1502	-0.54719555
6	0xbda1ea2c	-0.07905993
7	0xbd2a5a49	-0.04159001
8	0xbf9a461e	-1.2052648
9	0xbe89b74c	-0.26897657
10	0xbfa2588e	-1.2683275
11	0x3ed51acc	0.41622007
12	0xbfb1bf45	-1.3886496
13	0xbf7d73ad	-0.9900463
14	0x3fbb48e7	1.4631623
15	0x3f46e223	0.7768881
16	0xbf69aa86	-0.91275823
17	0x3f533d73	0.8251564
18	0xbd701495	-0.05861338
19	0x3f39149d	0.7229708
20	0x3f7f47a5	0.99718696
21	0x3f83b899	1.029071
22	0x3eeba32e	0.46022934
23	0x3ff383ca	1.9024594
24	0xbfc75755	-1.5573527
25	0xbf80bec3	-1.0058216
26	0x3fe27bbc	1.7694011
27	0xbf26fc4b	-0.6522872
28	0xbecaaf6a	-0.39586955
29	0xbe4630d0	-0.19354558
30	0x3f6aa24c	0.91653895
31	0xbdcbdb99	-0.09953994
32	0x3f9491b0	1.160696
33	0x3fd12356	1.6338909
34	0xbe59b910	-0.21262002
35	0xbefd1efb	-0.494377
36	0xbccd7acd	-0.02508297
37	0x3f1450d2	0.5793582
38	0x403539d3	2.8316543
39	0xbf1658dc	-0.5872934
40	0xbf23a723	-0.63926905
41	0x3f075e48	0.52878237
42	0x40071554	2.1106768
43	0x3f013717	0.50474685
44	0xbf80b31e	-1.0054662
45	0x3eba080c	0.36334264
46	0xbf483b3a	-0.7821537
47	0x3f787bf6	0.9706415
48	0x3e7a6eec	0.24456376
49	0xbd9bdb44	-0.07610181
50	0x3c842792	0.01613215
51	0xbedd8847	-0.43268034
52	0xbf6e4d14	-0.9308636
53	0xbef7a3a6	-0.4836704
54	0xbf71598f	-0.9427728
55	0x3eab5d66	0.33469695
56	0xbf1ce2dc	-0.6128366
57	0xbe2a1870	-0.16610885
58	0xbfa7a498	-1.3097105
59	0x3f5c67a5	0.8609565
60	0x3f87ad8c	1.0599837
61	0x3f5fe113	0.8745281
62	0x3ffa297a	1.9543908
63	0x3f2b8dc1	0.67013174
64	0x3eadf42e	0.33975357
65	0xc0141e04	-2.314332
66	0x3f03d0d6	0.51490533
67	0xbfaa0a23	-1.3284343
68	0xbed91c3d	-0.42404357
69	0xbf9f7cb8	-1.2459936
70	0x3eccc8ff	0.39997098
71	0x3f834812	1.0256369
72	0xbfb49707	-1.410859
73	0xbf0ca3f3	-0.54937667
74	0xbe0f272a	-0.13979784
75	0xbf7f00e6	-0.99610746
76	0x3f68e511	0.9097453
77	0x3f868c38	1.0511541
78	0xc00709e2	-2.1099782
79	0x3f887057	1.0659283
80	0x3e981a34	0.2970749
81	0x3f466713	0.7750103
82	0xbf760e97	-0.9611601
83	0xbf8d329e	-1.1031072
84	0xbfb48b36	-1.4104984
85	0xbff52860	-1.9152946
86	0xbfcf817d	-1.6211392
87	0x3fb406c4	1.4064565
88	0xbeec4e31	-0.46153405
89	0xbee576e8	-0.4481728
90	0xbf898fe6	-1.0747039
91	0xbfe17bc7	-1.7615899
92	0xbe781361	-0.24226142
93	0xbf7e44e1	-0.9932385
94	0xbe9306f3	-0.2871624
95	0xbec67478	-0.38760734
96	0x3fd018fc	1.6257625
97	0xbec6be0c	-0.3881687
98	0xbf0094d8	-0.5022712
99	0x3e44e294	0.19227058
100	0xbf89d96b	-1.0769476
101	0xbe1e7142	-0.15472892
102	0x3f50e56f	0.8160009
103	0x3f7404a7	0.953196
104	0xbee656ae	-0.44988006
105	0x3ea81182	0.32825857
106	0x3f55a123	0.83449
107	0xbfd303e9	-1.6485568
108	0xbf048a1b	-0.5177323
109	0xbf26e776	-0.6519693
110	0x3f570a08	0.8399968
111	0x3f5369bf	0.8258323
112	0xbd88b19b	-0.066745006
113	0x3f6f3c61	0.93451506
114	0x3df51da3	0.119685434
115	0x3f1826a7	0.5943398
116	0xbf2c5ec7	-0.6733212
117	0x3f6add52	0.9174396
118	0xbf5c8bc2	-0.86150753
119	0xbf36f9e6	-0.71475065
120	0x3fba3332	1.4546874
121	0xbfd3de3d	-1.6552197
122	0x3e96434d	0.2934822
123	0xbfacfac7	-1.3514031
124	0x3efe1aee	0.4962992
125	0x3ff4945e	1.9107778
126	0x3f0f159e	0.5589236
127	0xbdea6e2a	-0.114467934

network_body._body_endoder.seq_layers.0.bias f4 [128]
0	0x00000000	0.0
1	0x00000000	0.0
2	0x00000000	0.0
3	0x00000000	0.0
4	0x00000000	0.0
5	0x00000000	0.0
6	0x00000000	0.0
7	0x00000000	0.0
8	0x00000000	0.0
9	0x00000000	0.0
10	0x00000000	0.0
11	0x00000000	0.0
12	0x00000000	0.0
13	0x00000000	0.0
14	0x00000000	0.0
15	0x00000000	0.0
16	0x00000000	0.0
17	0x00000000	0.0
18	0x00000000	0.0
19	0x00000000	0.0
20	0x00000000	0.0
21	0x00000000	0.0
22	0x00000000	0.0
23	0x00000000	0.0
24	0x00000000	0.0
25	0x00000000	0.0
26	0x00000000	0.0
27	0x00000000	0.0
28	0x00000000	0.0
29	0x00000000	0.0
30	0x00000000	0.0
31	0x00000000	0.0
32	0x00000000	0.0
33	0x00000000	0.0
34	0x00000000	0.0
35	0x00000000	0.0
36	0x00000000	0.0
37	0x00000000	0.0
38	0x00000000	0.0
39	0x00000000	0.0
40	0x00000000	0.0
41	0x00000000	0.0
42	0x00000000	0.0
43	0x00000000	0.0
44	0x00000000	0.0
45	0x00000000	0.0
46	0x00000000	0.0
47	0x00000000	0.0
48	0x00000000	0.0
49	0x00000000	0.0
50	0x00000000	0.0
51	0x00000000	0.0
52	0x00000000	0.0
53	0x00000000	0.0
54	0x00000000	0.0
55	0x00000000	0.0
56	0x00000000	0.0
57	0x00000000	0.0
58	0x00000000	0.0
59	0x00000000	0.0
60	0x00000000	0.0
61	0x00000000	0.0
62	0x00000000	0.0
63	0x00000000	0.0
64	0x00000000	0.0
65	0x00000000	0.0
66	0x00000000	0.0
67	0x00000000	0.0
68	0x00000000	0.0
69	0x00000000	0.0
70	0x00000000	0.0
71	0x00000000	0.0
72	0x00000000	0.0
73	0x00000000	0.0
74	0x00000000	0.0
75	0x00000000	0.0
76	0x00000000	0.0
77	0x00000000	0.0
78	0x00000000	0.0
79	0x00000000	0.0
80	0x00000000	0.0
81	0x00000000	0.0
82	0x00000000	0.0
83	0x00000000	0.0
84	0x00000000	0.0
85	0x00000000	0.0
86	0x00000000	0.0
87	0x00000000	0.0
88	0x00000000	0.0
89	0x00000000	0.0
90	0x00000000	0.0
91	0x00000000	0.0
92	0x00000000	0.0
93	0x00000000	0.0
94	0x00000000	0.0
95	0x00000000	0.0
96	0x00000000	0.0
97	0x00000000	0.0
98	0x00000000	0.0
99	0x00000000	0.0
100	0x00000000	0.0
101	0x00000000	0.0
102	0x00000000	0.0
103	0x00000000	0.0
104	0x00000000	0.0
105	0x00000000	0.0
106	0x00000000	0.0
107	0x00000000	0.0
108	0x00000000	0.0
109	0x00000000	0.0
110	0x00000000	0.0
111	0x00000000	0.0
112	0x00000000	0.0
113	0x00000000	0.0
114	0x00000000	0.0
115	0x00000000	0.0
116	0x00000000	0.0
117	0x00000000	0.0
118	0x00000000	0.0
119	0x00000000	0.0
120	0x00000000	0.0
121	0x00000000	0.0
122	0x00000000	0.0
123	0x00000000	0.0
124	0x00000000	0.0
125	0x00000000	0.0
126	0x00000000	0.0
127	0x00000000	0.0

network_body._body_endoder.seq_layers.2.weight f4 [128, 128]
0	0x3dc046b1	0.09388483
1	0xbd2e20d0	-0.04251176
2	0x3da8362c	0.082134575
3	0x3dffc898	0.12489432
4	0xbd822065	-0.06353835
5	0x3d403750	0.04692775
6	0xbd40197a	-0.046899296
7	0xbdfeb1cd	-0.124362566
8	0x3d4d7093	0.050156187
9	0x3d3dc283	0.04632808
10	0x3add6650	0.0016891453
11	0x3dac94c9	0.08426816
12	0x3d4b5a48	0.049646646
13	0xbd85f39c	-0.065406054
14	0x3d4495b0	0.047994316
15	0xbda78639	-0.08179898
16	0x3d841847	0.06449943
17	0x3d9d2cb1	0.0767454
18	0xbd94b6d6	-0.07261436
19	0xbd823370	-0.06357467
20	0x3ca56c43	0.020193225
21	0xbda962e3	-0.08270814
22	0xbcff926a	-0.031197745
23	0x3bc67539	0.0060564545
24	0x3df56151	0.11981452
25	0xbde838f5	-0.11338989
26	0x3c9407ec	0.018070184
27	0xbdad9593	-0.08475795
28	0xbd8d5655	-0.06901232
29	0xbd41bcc7	-0.047299173
30	0xbe4bc03c	-0.1989755
31	0xbca8e00f	-0.020614652
32	0x3d2b2509	0.041783366
33	0xbe172eca	-0.14763942
34	0xbd0a50aa	-0.033768333
35	0xbd27d8b9	-0.040978167
36	0x3d8a4aaf	0.06752526
37	0x3ceb5d61	0.02873105
38	0xbdb5ba61	-0.088734396
39	0xbcea5d2b	-0.02860888
40	0xbd9d2cd0	-0.07674563
41	0x3be4bee3	0.0069807633
42	0xbdc59db5	-0.09649221
43	0x3dddb632	0.108257666
44	0x3ce2d037	0.027687175
45	0xbc93e2de	-0.018052515
46	0xbcd92a20	-0.026509345
47	0x3e3c88a4	0.184115
48	0xbdb9b405	-0.09067539
49	0xbce7bcd9	-0.028288292
50	0x3d351cf8	0.04421708
51	0xbe3614fb	-0.17781441
52	0xbdd1f050	-0.10250914
53	0x3cc4e017	0.024032636
54	0x3d81d0bd	0.06338642
55	0x3dd5fc43	0.10448506
56	0x3c07984b	0.008276056
57	0xbdc4675d	-0.095900275
58	0x3d8ad883	0.067795776
59	0x3cffdd13	0.031233346
60	0x3d5852f9	0.052813504
61	0xbe347ddf	-0.17626141
62	0x3c0f06b6	0.008729627
63	0xbcbcaeca	-0.023032565
64	0x3dd63d1b	0.10460874
65	0xbd243742	-0.04009176
66	0xbdcd57e1	-0.10026527
67	0xba869d32	-0.0010270237
68	0x3bd51a26	0.0065033613
69	0xbcf50a8f	-0.029912261
70	0x3daab8eb	0.083360516
71	0xbd057f1f	-0.032591935
72	0xbdc361f7	-0.0954017
73	0x3d0c38fb	0.03423403
74	0xbaa8b822	-0.0012872259
75	0x3db79bbc	0.08965251
76	0x3de4e62e	0.11176716
77	0x3cc46594	0.023974217
78	0x3d302f58	0.0430139
79	0x3d18b3bd	0.037280787
80	0x3e2ae6cb	0.16689603
81	0x3d642101	0.055695537
82	0x3e1d086c	0.15335244
83	0xbd65cba3	-0.056102406
84	0xbdc1f55c	-0.09470627
85	0xb8e90c06	-0.00011112545
86	0x3df643a1	0.12024618
87	0xbd95ad7f	-0.073084824
88	0x3d868170	0.06567657
89	0x3ca1fd43	0.019774085
90	0x3da6388d	0.08116255
91	0xbc810a93	-0.015752112
92	0x3e591a4d	0.21201439
93	0xbe13c45c	-0.14430374
94	0x3cd56439	0.026048766
95	0x3be22acf	0.006902076
96	0xbd8e272e	-0.06941067
97	0xbe190e3f	-0.1494684
98	0xbdacff02	-0.084470764
99	0x3d183ed0	0.037169278
100	0xbd441e23	-0.047880303
101	0xbdb939e5	-0.09044246
102	0x3b0c5982	0.0021415656
103	0x3ce43fdf	0.027862487
104	0x3df88d28	0.121362984
105	0xbc48a802	-0.012247087
106	0x3db85067	0.089997105
107	0xbdb94167	-0.09045678
108	0xbe2c7450	-0.16841245
109	0x3d6f4914	0.058419302
110	0xbd0429c6	-0.0322664
111	0xbd542dfa	-0.05180166
112	0xbd8d79f4	-0.06908026
113	0xbe27cc39	-0.16386499
114	0xbdce948f	-0.10086929
115	0xbdc2a8a6	-0.095048234
116	0x3c8f69f9	0.017506586
117	0x3da97a45	0.08275274
118	0xbd4fabfe	-0.050701134
119	0x3ddfbbd5	0.10924498
120	0x3d9f561b	0.07780095
121	0xbd9124cc	-0.070870966
122	0x3db18760	0.08668399
123	0xbe0f6b1c	-0.14005703
124	0x3bbae16e	0.005703143
125	0x3dd16398	0.10224074
126	0xbd41a5fb	-0.047277432
127	0x3e982d25	0.29721943
128	0x3cf244b7	0.029573781
129	0xbd52883c	-0.051399454
130	0xbd49f4eb	-0.049305838
131	0xbdfd167f	-0.123578064
132	0xbd373dac	-0.04473655
133	0xbe4ebdd2	-0.20189598
134	0xbc1672f1	-0.009182678
135	0x3d8468e9	0.064653225
136	0xbdcc7a7b	-0.09984299
137	0x3d87c9c5	0.06630281
138	0xbc0918dc	-0.008367743
139	0xbdab5715	-0.08366219
140	0x3da97b0b	0.08275422
141	0x3d0ebefe	0.034850113
142	0xbd4778d3	-0.04869921
143	0x3d92669d	0.07148478
144	0xbb216727	-0.0024628134
145	0xbe300faa	-0.17193475
146	0x3d105604	0.03523828
147	0x3ca43860	0.020046413
148	0x3d47aa4c	0.048746392
149	0xbc1ac3b1	-0.0094460705
150	0x3ab3a2d3	0.0013705142
151	0x3dba93ef	0.09110247
152	0xbdecf253	-0.11569657
153	0xbd4a41f6	-0.04937931
154	0xbe17a3f1	-0.14808632
155	0xbcf84c9a	-0.030309964
156	0x3ca6966e	0.020335402
157	0xbd084d7b	-0.033277016
158	0xbd9a534c	-0.07535419
159	0xbe3f1385	-0.1865979
160	0x3d590083	0.052979004
161	0x3c93880b	0.018009206
162	0xbdb3c458	-0.08777684
163	0xbe615b81	-0.22007562
164	0xbd20cbbb	-0.039256793
165	0xbdae6840	-0.08515978
166	0xbd9b8249	-0.07593209
167	0xbdcf9628	-0.10136062
168	0xbd3f1741	-0.046653036
169	0xbe1c6c97	-0.15275799
170	0x3d2003ca	0.039066114
171	0xbca4f1c5	-0.020134816
172	0xbcd75d90	-0.026289731
173	0xbdf5be46	-0.119991824
174	0xbd8d9dcf	-0.06914865
175	0x3cdb3a84	0.0267613
176	0x3d8ad998	0.06779784
177	0xbc345275	-0.011005987
178	0x3d110bce	0.03541165
179	0x3d803815	0.06260697
180	0xbd08468e	-0.03327041
181	0x3cc86636	0.0244628
182	0xbccdcc39	-0.025121795
183	0xbc917045	-0.01775373
184	0x3cf6a3e5	0.030107448
185	0x3d02e136	0.03195306
186	0x3d8612b7	0.06546538
187	0x3d22924f	0.039690312
188	0x3e1d8b93	0.15385275
189	0xbb5a17fb	-0.0033278454
190	0xbc031619	-0.008000874
191	0xbdd52e0f	-0.104091756
192	0xbd96b6d4	-0.073590904
193	0xbe099d0e	-0.13438818
194	0xbe2116a4	-0.15731293
195	0x3d2a2df0	0.041547716
196	0xbe34f795	-0.1767257
197	0xbd91f022	-0.0712588
198	0xbd2b9d23	-0.041897904
199	0xbb6443f9	-0.0034830554
200	0xbce357d3	-0.027751839
201	0xbc7a056c	-0.015260082
202	0x3dd32ecf	0.103116624
203	0xbd2fbec6	-0.042906545
204	0x3e2c1ac2	0.16807082
205	0xbe34b439	-0.17646874
206	0x3c8b69da	0.017018247
207	0x3e13cf30	0.14434505
208	0xbe00eabc	-0.12589544
209	0x3da21bd7	0.07915466
210	0xbdaf7342	-0.085669056
211	0xbd54c535	-0.051945884
212	0xbc3ffb89	-0.0117176855
213	0xbdaaffdd	-0.08349583
214	0x3d73b9f4	0.05950351
215	0x3d92c372	0.071661845
216	0xbd9893ca	-0.074500635
217	0xbe258269	-0.16163029
218	0xbd53982a	-0.051658787
219	0xbc9c67c3	-0.019092446
220	0x3c83926c	0.01606103
221	0x3d3769b9	0.04477856
222	0xbe130dee	-0.14360783
223	0xbda94a81	-0.082661636
224	0xbd9a6455	-0.07538668
225	0x3df6e6ec	0.120557636
226	0x3ba4de1b	0.00503136
227	0xbe007086	-0.12542924
228	0xbce310bd	-0.027717942
229	0x3c8d50fe	0.017250534
230	0xbd0b0935	-0.033944327
231	0xbe1405e3	-0.1445537
232	0xbda8e312	-0.08246435
233	0x3ca6a130	0.020340532
234	0x3e00882c	0.12551945
235	0xbd652471	-0.055942956
236	0xbddb7fcb	-0.10717734
237	0x3e0d292e	0.1378524
238	0x3dc922b4	0.09821072
239	0xbe2cd41a	-0.16877785
240	0x3cbd3a1b	0.023098996
241	0xbda057d1	-0.0782925
242	0x3c80a6e6	0.015704583
243	0x3d962684	0.07331565
244	0xbdfa433d	-0.12219856
245	0xbbc85cf2	-0.0061145956
246	0xbc8d8810	-0.017276794
247	0xbcaef86e	-0.021358695
248	0x3dac1eb1	0.084042914
249	0xbdbc6968	-0.09199792
250	0xbd6b45eb	-0.057439726
251	0x3bbe8386	0.0058140187
252	0xbdb5c58f	-0.08875572
253	0xbe2ba925	-0.16763742
254	0xbd918280	-0.07104969
255	0xbc53ed0b	-0.012934933

network_body._body_endoder.seq_layers.2.bias f4 [128]
0	0x00000000	0.0
1	0x00000000	0.0
2	0x00000000	0.0
3	0x00000000	0.0
4	0x00000000	0.0
5	0x00000000	0.0
6	0x00000000	0.0
7	0x00000000	0.0
8	0x00000000	0.0
9	0x00000000	0.0
10	0x00000000	0.0
11	0x00000000	0.0
12	0x00000000	0.0
13	0x00000000	0.0
14	0x00000000	0.0
15	0x00000000	0.0
16	0x00000000	0.0
17	0x00000000	0.0
18	0x00000000	0.0
19	0x00000000	0.0
20	0x00000000	0.0
21	0x00000000	0.0
22	0x00000000	0.0
23	0x00000000	0.0
24	0x00000000	0.0
25	0x00000000	0.0
26	0x00000000	0.0
27	0x00000000	0.0
28	0x00000000	0.0
29	0x00000000	0.0
30	0x00000000	0.0
31	0x00000000	0.0
32	0x00000000	0.0
33	0x00000000	0.0
34	0x00000000	0.0
35	0x00000000	0.0
36	0x00000000	0.0
37	0x00000000	0.0
38	0x00000000	0.0
39	0x00000000	0.0
40	0x00000000	0.0
41	0x00000000	0.0
42	0x00000000	0.0
43	0x00000000	0.0
44	0x00000000	0.0
45	0x00000000	0.0
46	0x00000000	0.0
47	0x00000000	0.0
48	0x00000000	0.0
49	0x00000000	0.0
50	0x00000000	0.0
51	0x00000000	0.0
52	0x00000000	0.0
53	0x00000000	0.0
54	0x00000000	0.0
55	0x00000000	0.0
56	0x00000000	0.0
57	0x00000000	0.0
58	0x00000000	0.0
59	0x00000000	0.0
60	0x00000000	0.0
61	0x00000000	0.0
62	0x00000000	0.0
63	0x00000000	0.0
64	0x00000000	0.0
65	0x00000000	0.0
66	0x00000000	0.0
67	0x00000000	0.0
68	0x00000000	0.0
69	0x00000000	0.0
70	0x00000000	0.0
71	0x00000000	0.0
72	0x00000000	0.0
73	0x00000000	0.0
74	0x00000000	0.0
75	0x00000000	0.0
76	0x00000000	0.0
77	0x00000000	0.0
78	0x00000000	0.0
79	0x00000000	0.0
80	0x00000000	0.0
81	0x00000000	0.0
82	0x00000000	0.0
83	0x00000000	0.0
84	0x00000000	0.0
85	0x00000000	0.0
86	0x00000000	0.0
87	0x00000000	0.0
88	0x00000000	0.0
89	0x00000000	0.0
90	0x00000000	0.0
91	0x00000000	0.0
92	0x00000000	0.0
93	0x00000000	0.0
94	0x00000000	0.0
95	0x00000000	0.0
96	0x00000000	0.0
97	0x00000000	0.0
98	0x00000000	0.0
99	0x00000000	0.0
100	0x00000000	0.0
101	0x00000000	0.0
102	0x00000000	0.0
103	0x00000000	0.0
104	0x00000000	0.0
105	0x00000000	0.0
106	0x00000000	0.0
107	0x00000000	0.0
108	0x00000000	0.0
109	0x00000000	0.0
110	0x00000000	0.0
111	0x00000000	0.0
112	0x00000000	0.0
113	0x00000000	0.0
114	0x00000000	0.0
115	0x00000000	0.0
116	0x00000000	0.0
117	0x00000000	0.0
118	0x00000000	0.0
119	0x00000000	0.0
120	0x00000000	0.0
121	0x00000000	0.0
122	0x00000000	0.0
123	0x00000000	0.0
124	0x00000000	0.0
125	0x00000000	0.0
126	0x00000000	0.0
127	0x00000000	0.0

value_heads.value_heads.extrinsic.weight f4 [1, 128]
0	0x3d58d690	0.052938998
1	0x3d40de30	0.047086895
2	0x3e333c7e	0.17503545
3	0x3dcbaaa8	0.099446595
4	0xbd87fd56	-0.06640117
5	0xbd7ea4a0	-0.062168717
6	0x3e079882	0.13241771
7	0xbe4f4b85	-0.20243652
8	0x3b8cc900	0.004296422
9	0x3d6c1e58	0.057646126
10	0x3d85a8a4	0.06526306
11	0xbe0eb4c8	-0.1393615
12	0x3e4b2c7a	0.19841185
13	0xbe364460	-0.1779952
14	0xbda5ccbc	-0.080956906
15	0x3e22b6d2	0.15890053
16	0xbdf44596	-0.11927335
17	0x3df3e7e8	0.11909467
18	0xbdb55d58	-0.088556945
19	0xbcc1f458	-0.023676082
20	0x3dc04ad8	0.09389275
21	0x3e39051a	0.18068352
22	0xbe391a15	-0.18076356
23	0xbe214ae5	-0.15751226
24	0x3e35ab8e	0.17741224
25	0x3d1182c0	0.035525084
26	0xbe2535d9	-0.16133823
27	0x3e283f26	0.16430339
28	0xbd9ca10a	-0.07647903
29	0xbe0412a8	-0.12897742
30	0x3e3d2d5c	0.18474334
31	0x3dfa0c34	0.12209359
32	0xbe12b530	-0.1432693
33	0x3e13d8fe	0.14438245
34	0xbdfe7c1a	-0.12426014
35	0x3d96615c	0.073427886
36	0xbe43dcaf	-0.19127153
37	0x3c660500	0.014039278
38	0xbe22fe07	-0.15917216
39	0x3d68c2f8	0.05682656
40	0xba459e00	-0.00075384974
41	0xbd9bc5a6	-0.07606058
42	0xbdd8c37d	-0.105841614
43	0xbdde82fd	-0.10864828
44	0x3e464928	0.19363844
45	0xbde5f678	-0.11228651
46	0xbcac55b8	-0.021036968
47	0x3d87ecf8	0.06636995
48	0xbd10ee20	-0.035383344
49	0xbc82a020	-0.015945494
50	0x3da6470c	0.0811902
51	0x3be7c7e0	0.0070733875
52	0xbe224fc0	-0.15850735
53	0x3dadc794	0.08485332
54	0x3dd2dbe8	0.1029585
55	0x3c269a50	0.010168627
56	0xbcf65a18	-0.030072257
57	0xbd20027c	-0.03906487
58	0x3e559bb4	0.20860177
59	0xbc6d5d30	-0.01448755
60	0x3dfacdcc	0.12246284
61	0xbe521e0e	-0.20519277
62	0xbe54bac4	-0.2077437
63	0xbdb639d8	-0.088977516
64	0x3e12893a	0.1431016
65	0x3d3e6ef8	0.046492547
66	0xbbc25ac0	-0.0059312284
67	0x3e393dfc	0.18090051
68	0x3dee73d4	0.11643186
69	0x3e423676	0.18966088
70	0xbb8d45e0	-0.0043113083
71	0xbd0f0454	-0.034916237
72	0x3d863820	0.06553674
73	0xbdbf01b0	-0.09326494
74	0x3e4938ba	0.19650546
75	0xbe518e38	-0.20464408
76	0x3dac16d8	0.084027946
77	0xbe5443d5	-0.20729001
78	0x3deb9d68	0.11504632
79	0xbc5ebd20	-0.013594896
80	0x3e4fef84	0.20306212
81	0xbcecd238	-0.028908834
82	0xbcdcfb98	-0.026975438
83	0x3e159488	0.14607441
84	0x3dc67544	0.096903354
85	0xbd312344	-0.043246523
86	0xbd560238	-0.05224821
87	0x3d96cd04	0.073633224
88	0xba26fc00	-0.00063699484
89	0xbdc386d4	-0.09547201
90	0x3de25f90	0.11053383
91	0xbe400dff	-0.18755339
92	0xbd41073c	-0.04712604
93	0x3de9b84c	0.11412105
94	0x3cdf94b8	0.027292594
95	0xbe461257	-0.19342934
96	0x3daccbec	0.084373325
97	0x3dab66c4	0.0836921
98	0x3cbb1b38	0.022840127
99	0x3e2878fe	0.16452405
100	0xbd0cf758	-0.034415573
101	0xbdc62677	-0.09675305
102	0x3d950eac	0.07278189
103	0x3e2a4584	0.1662808
104	0x3e275d0c	0.16344088
105	0xbdcbe971	-0.09956635
106	0x3e34bc10	0.17649865
107	0xbd4911d0	-0.049089253
108	0x3dec29b8	0.11531395
109	0x3dd85e68	0.105648816
110	0x3e3374c4	0.17525011
111	0x3df56190	0.11981499
112	0xbe1675a7	-0.14693318
113	0xbe56a6d5	-0.20962079
114	0x3e150d50	0.1455586
115	0xbd77f2c4	-0.060534254
116	0x3d354a88	0.04426053
117	0xbd66abb4	-0.056316093
118	0x3d35ccc0	0.044384718
119	0x3db42a9c	0.087971896
120	0x3e398a4c	0.18119162
121	0x3dce2cfc	0.10067174
122	0x3e192fe8	0.14959681
123	0xbe26a4cc	-0.16273803
124	0x3d880868	0.06642228
125	0xbe132c7c	-0.14372438
126	0x3d0b4694	0.034002855
127	0x3d8deaa4	0.0692952
