Client/Assets/148.onnx (onnx, 268776 bytes, 9 tensors)

discrete_act_size_vector f4 [1, 2]
0	0x43b40000	360.0
1	0x41300000	11.0

network_body._body_endoder.seq_layers.0.weight f4 [128, 7]
0	0x3f846a1f	1.0344886
1	0xbf923137	-1.1421269
2	0xbd70c042	-0.0587771
3	0xbe59c9b9	-0.21268357
4	0xbe9ef805	-0.310486
5	0x3f06b9c7	0.52627224
6	0xbe913bbf	-0.28365895
7	0x3f00495d	0.50111943
8	0x3f5d5073	0.8645088
9	0xbe093bbc	-0.13401693
10	0xbe849301	-0.25893405
11	0xbee19a79	-0.44063166
12	0xbe781f2e	-0.24230644
13	0x3eaf3091	0.3421674
14	0xbe5b9384	-0.21442991
15	0x3ef5920d	0.4796299
16	0xbe9c6ddc	-0.30552566
17	0x3e203b0e	0.15647528
18	0xbdbf6fc7	-0.09347492
19	0x3e5dce83	0.21660809
20	0xbefe7d42	-0.4970494
21	0x3e8a6ef5	0.27037778
22	0x3dcceb80	0.100058556
23	0x3e691ffb	0.22766106
24	0xbe7e7815	-0.24850495
25	0xbeb124d8	-0.34598422
26	0xbebb3ca4	-0.36569703
27	0xbd9707bd	-0.07374523
28	0x3f241f51	0.64110285
29	0x3eaaa800	0.333313
30	0x3ea498cc	0.32147825
31	0xbeb6034d	-0.35549393
32	0xbf0706ec	-0.52744937
33	0xbeea0f28	-0.45714688
34	0xbeccf003	-0.40026864
35	0xbf390758	-0.7227683
36	0x3f21ff5b	0.63280267
37	0x3f16a1be	0.5884055
38	0xbdf0cd26	-0.11757879
39	0x3f177fbc	0.5917928
40	0x3ed00a5d	0.40632907
41	0xbe0149ec	-0.12625855
42	0x3e69b7bd	0.22823997
43	0x3e87bda3	0.2651187
44	0xbf02cb9c	-0.51091933
45	0xbe3f25ee	-0.18666813
46	0xbdec90ba	-0.11551042
47	0x3ee3d2ae	0.44496673
48	0xbf908a14	-1.1292138
49	0xbd8b7cfa	-0.06810947
50	0x3fa11de4	1.2587247
51	0x3e9aaade	0.30208486
52	0x3e81530f	0.2525868
53	0x3eddebd3	0.43343982
54	0xbe1ff644	-0.15621287
55	0x3ee19c64	0.4406463
56	0xbf38ad63	-0.7213957
57	0xbed9e3ab	-0.4255651
58	0x3e9d2c0b	0.30697665
59	0xbec3d3b6	-0.3824746
60	0xbf045453	-0.5169117
61	0x3eecb0ed	0.46228734
62	0xbeaf6752	-0.34258515
63	0xbd0cd447	-0.03438213
64	0x3edc14d9	0.42984655
65	0x3df88743	0.12135174
66	0xbeaf5aa0	-0.3424883
67	0xbf6d52be	-0.9270438
68	0x3e102bc8	0.14079201
69	0x3cc610b0	0.02417788
70	0x3ec56882	0.38556296
71	0x3ebd6223	0.36988935
72	0xbd6070b1	-0.05479497
73	0x3e972911	0.2952352
74	0xbf26ba3e	-0.65127933
75	0xbea39320	-0.31948185
76	0xbeb01251	-0.34388974
77	0x3e9a23de	0.3010549
78	0xbb7f336d	-0.0038940564
79	0xbee75563	-0.45182332
80	0xbd239cff	-0.039944645
81	0x3d71aa3a	0.05900023
82	0xbd12dc11	-0.035854403
83	0x3ec39e3e	0.38206667
84	0x3e7e1af0	0.24814963
85	0x3f29820b	0.66214055
86	0xbe8b5a28	-0.2721722
87	0x3eafd315	0.3434073
88	0xbf79f08c	-0.9763267
89	0x3e6e2263	0.23255305
90	0x3ee35602	0.44401556
91	0xbe8d2eab	-0.27574667
92	0x3e6f3ff6	0.23364243
93	0xbe24f386	-0.16108522
94	0x3f2ad2dd	0.66728
95	0x3e8f52d3	0.27992877
96	0x3e75abd4	0.23991328
97	0x3e78be78	0.24291408
98	0x3f5d2b9b	0.8639466
99	0xbddba803	-0.10725405
100	0x3e3cd27f	0.18439673
101	0x3d238251	0.0399192
102	0xbe56c4ee	-0.2097356
103	0xbd4be95f	-0.049783107
104	0x3e6d5d83	0.23180203
105	0xbf5700a6	-0.83985364
106	0x3f3297be	0.6976279
107	0x3e0c1cb2	0.13682821
108	0x3e01afcd	0.12664719
109	0xbd600fd4	-0.054702595
110	0x3d289352	0.04115612
111	0xbe71aee3	-0.2360187
112	0x3e7451df	0.23859356
113	0xbf8aa234	-1.083075
114	0x3e8ede6b	0.27904066
115	0xbe49b406	-0.1969758
116	0x3f525262	0.82156956
117	0x3f063296	0.5242094
118	0xbeb13e39	-0.34617785
119	0xbd29e722	-0.04148019
120	0x3f40850f	0.7520303
121	0x3ea93804	0.3305055
122	0xbd937937	-0.07200854
123	0xbea367b9	-0.31915072
124	0xbed05d54	-0.40696204
125	0xbdcca89a	-0.09993096
126	0xbe9921bb	-0.29908547
127	0x3f19de98	0.60105276
128	0x3dd8c343	0.10584118
129	0x3ea98f7e	0.33117288
130	0x3e96a2c3	0.29421052
131	0x3f61f73d	0.8826788
132	0xbdee10fa	-0.11624332
133	0x3e8cba6b	0.27485976
134	0xbef7ce93	-0.4839979
135	0xbed64f29	-0.4185727
136	0xbbf6abbd	-0.007527797
137	0x3e89637a	0.26833707
138	0xbe404eca	-0.18780056
139	0x3e7b9061	0.24566795
140	0xbf6526ad	-0.8951214
141	0xbedf3721	-0.43596748
142	0xbe7ffe51	-0.24999358
143	0xbf04dae6	-0.5189651
144	0xbf12647d	-0.5718458
145	0xbd1d3ca6	-0.038387917
146	0x3d18b5ea	0.03728286
147	0x3f3bb1b8	0.7331805
148	0xbc9d03cc	-0.01916685
149	0xbe9bd6f6	-0.3043744
150	0x3f507fe5	0.8144515
151	0xbbdc3e36	-0.0067212833
152	0x3e37d909	0.17953886
153	0x3e484115	0.19556077
154	0x3f038fdb	0.5139138
155	0xbf006ca2	-0.5016576
156	0xbe60cf28	-0.21954024
157	0xbeb23780	-0.34807968
158	0xbf4f39eb	-0.8094775
159	0xbf1a0f54	-0.6017964
160	0xbf3763a5	-0.7163642
161	0x3f8631d0	1.0483952
162	0xbfaa9144	-1.3325582
163	0x3f00d8b5	0.5033067
164	0xbf169449	-0.58820015
165	0x3e5a5187	0.21320163
166	0x3ebe0989	0.3711665
167	0xbe8c0997	-0.27351066
168	0x3f3b6384	0.73198724
169	0x3ed80d6b	0.42197737
170	0x3e157380	0.14594841
171	0xbd519fc6	-0.051177762
172	0xbf0f070c	-0.5587013
173	0xbe88982c	-0.26678598
174	0xbe864370	-0.26223326
175	0x3e216b05	0.15763481
176	0x3e86c1d6	0.2631976
177	0xbe27296d	-0.16324396
178	0x3f380c84	0.718941
179	0x3dac1518	0.08402461
180	0x3e1ede94	0.15514594
181	0x3d05ea60	0.03269422
182	0xbf1935f2	-0.5984794
183	0xbe35652b	-0.17714374
184	0x3d3cf6ad	0.046133686
185	0xbf0b1635	-0.5433076
186	0x3e8f4a2a	0.2798627
187	0x3ea2dc68	0.31808782
188	0x3ec7d1a7	0.3902714
189	0xbead12a3	-0.3380328
190	0xbeedfffb	-0.4648436
191	0xbed77996	-0.4208495
192	0xbf6b5739	-0.91929966
193	0xbf009c1c	-0.50238204
194	0x3db0a802	0.08625795
195	0x3f39c70f	0.72569364
196	0x3eb04ba9	0.34432724
197	0xbf8c1ac6	-1.0945671
198	0x3ebf79ec	0.37397707
199	0xbf0650db	-0.52467126
200	0x3ef829d5	0.48469415
201	0x3eda3827	0.42620966
202	0xbeeb180e	-0.4591679
203	0x3ef553ae	0.47915405
204	0x3e9e049d	0.30862895
205	0xbc60d3e3	-0.013722393
206	0x3e826dbf	0.25474355
207	0xbf278a25	-0.65445167
208	0x3f244082	0.6416093
209	0x3ea23928	0.31684232
210	0xbed2499e	-0.4107179
211	0xbca055db	-0.01957219
212	0x3bf154a9	0.0073648286
213	0x3f14f7f4	0.58190846
214	0x3ee3540d	0.44400063
215	0xbe05e213	-0.13074522
216	0xbeff9496	-0.4991805
217	0xbd4610e2	-0.048355944
218	0x3fad0f35	1.3520266
219	0x3eece820	0.46270847
220	0xbddf1485	-0.10892586
221	0x3ed7d994	0.42158186
222	0x3deb57e5	0.11491374
223	0xbe4bf02c	-0.19915837
224	0x3dbaeb21	0.091268785
225	0x3e18bbd6	0.14915404
226	0xbee159f4	-0.4401394
227	0x3e9178ee	0.28412575
228	0xbe25e6e5	-0.1620136
229	0xbe7f0bcc	-0.24906844
230	0xbdaba232	-0.08380546
231	0x3edf9300	0.4366684
232	0x3ec42ad0	0.38313913
233	0xbdef342b	-0.11679872
234	0xbefc8808	-0.49322534
235	0x3d2d6238	0.042329997
236	0x3eadf304	0.3397447
237	0x3eda4736	0.42632455
238	0x3f4c959d	0.7991579
239	0x3d3570ba	0.044296958
240	0x3e9ae5ec	0.3025354
241	0xbe9acb48	-0.30233216
242	0x3f02afe7	0.51049656
243	0x3e50748a	0.20356956
244	0x3ec6643a	0.38748342
245	0xbee73999	-0.4516113
246	0xbe980865	-0.29693905
247	0xbdb104e5	-0.08643512
248	0x3ead2543	0.3381749
249	0x3f0da921	0.55336195
250	0x3e95b37b	0.29238495
251	0x3f4ed8ee	0.8079976
252	0x3f32d823	0.6986105
253	0x3fa76654	1.3078103
254	0x3ecf00b1	0.40430215
255	0x3d1e9a33	0.038721275

network_body._body_endoder.seq_layers.0.bias f4 [128]
0	0x3f22a3ea	0.63531363
1	0xbebb01ef	-0.36524913
2	0xbcecefe2	-0.028922979
3	0x3d27e0ff	0.040986057
4	0x3e8582bd	0.26076308
5	0xbf2b6199	-0.669458
6	0xbdab075a	-0.083510116
7	0xbe940e03	-0.2891694
8	0x3c636ffb	0.013881679
9	0x3e17fd8c	0.14842814
10	0xbe720fd8	-0.23638856
11	0xbd7924ae	-0.060825996
12	0xbdb09b24	-0.08623341
13	0xbed5f1a3	-0.41785917
14	0xbe33caa0	-0.17557764
15	0xbf789b5d	-0.97112066
16	0x3e2cfd96	0.1689361
17	0xbf022f7a	-0.50853693
18	0xbebeb561	-0.37247756
19	0xbdbda410	-0.09259808
20	0x3ea0d5ac	0.3141302
21	0xbdb36eee	-0.087613925
22	0x3e64784d	0.22311516
23	0x3f50b26e	0.8152226
24	0xbe880f4d	-0.26574174
25	0xbeca48d9	-0.39508703
26	0x3f19a53e	0.60017765
27	0x3e29a83a	0.1656808
28	0x3f320f92	0.6955501
29	0xbe20435b	-0.15650694
30	0xbedd5c61	-0.43234542
31	0xbf0af051	-0.54272944
32	0xbe35ea84	-0.17765242
33	0xbec819b8	-0.39082122
34	0x3e2b496d	0.16727228
35	0xbf1e8da8	-0.619349
36	0xbea34a77	-0.3189275
37	0x3f64d5e2	0.8938886
38	0x3ddf00d1	0.108888276
39	0x3f04079d	0.51574117
40	0xbf529760	-0.8226223
41	0x3f292b54	0.6608174
42	0xbe449f4f	-0.19201396
43	0xbe8de46f	-0.27713344
44	0x3f0aa150	0.54152393
45	0xbee34d53	-0.4439493
46	0xbe4c8baf	-0.1997516
47	0x3f3604d8	0.7110114
48	0xbeaecb63	-0.34139547
49	0x3f480dff	0.78146356
50	0xbeb12bb5	-0.34603658
51	0xbe20225c	-0.15638107
52	0x3e061cf3	0.13096981
53	0xbf0fa4bc	-0.5611074
54	0x3d378561	0.044804934
55	0x3f22ffdc	0.6367166
56	0xbe78c37d	-0.24293323
57	0xbf1b9d92	-0.6078731
58	0x3f5d6de5	0.8649581
59	0x3f112e07	0.5671086
60	0xbdf19270	-0.11795509
61	0xbf0ef939	-0.55849034
62	0x3ed9a2f1	0.42507127
63	0x3ea323fe	0.31863397
64	0x3ead52d1	0.33852246
65	0x3da31f11	0.0796491
66	0xbc1451a7	-0.009052671
67	0xbe0e0115	-0.138676
68	0xbd9780b6	-0.073975965
69	0x3e0fd3ce	0.14045641
70	0xbf1a05cd	-0.601651
71	0xbe7db25e	-0.24775073
72	0xbebbdbdb	-0.36691174
73	0xbf132bc4	-0.57488656
74	0xbf2527c0	-0.6451378
75	0x3dbd343f	0.09238481
76	0xbe8f1776	-0.27947587
77	0x3e00d780	0.12582207
78	0x3d9c4938	0.07631153
79	0x3da929d9	0.08259935
80	0x3ec45811	0.3834844
81	0xbe93a283	-0.28834924
82	0xbe8981c8	-0.26856828
83	0x3e18b19c	0.14911503
84	0x3db45cc1	0.08806754
85	0x3f0caad9	0.5494819
86	0x3e9eba77	0.31001636
87	0x3e307180	0.17230797
88	0xbec9f45d	-0.39444247
89	0xbdfa41bf	-0.12219571
90	0x3e60f338	0.2196778
91	0x3f15dd03	0.5854036
92	0x3f1ddd1f	0.6166553
93	0x3efbe1ef	0.4919581
94	0xbcf1f5d4	-0.029536165
95	0x3e383f49	0.17992891
96	0xbe247844	-0.16061503
97	0xbf0c1c1b	-0.54730386
98	0xbe8d8911	-0.27643636
99	0xbeea1105	-0.4571611
100	0xbd0480d6	-0.03234943
101	0xbe7b4249	-0.24537005
102	0xbe84a89f	-0.25909898
103	0x3f008195	0.50197726
104	0xbe538760	-0.2065711
105	0x3e13920a	0.14411178
106	0x3daff18e	0.08590995
107	0x3d16b03e	0.03678917
108	0xbe39d114	-0.18146163
109	0x3e8e5804	0.27801526
110	0x3ed13d50	0.4086709
111	0x3d38b6d3	0.04509623
112	0xbecfdc0c	-0.4059757
113	0x3e45a46d	0.19301005
114	0x3f266150	0.6499224
115	0x3e1cbced	0.15306444
116	0xbd9b79f2	-0.075916186
117	0xbd6de2e8	-0.058077723
118	0x3cb01e28	0.021498755
119	0xbef5b255	-0.4798762
120	0x3ec3cc24	0.38241684
121	0xbe8f1303	-0.27944192
122	0xbcbc6bc5	-0.023000607
123	0xbcfbab0c	-0.03072121
124	0xbf0d83a1	-0.55278975
125	0xbf431350	-0.76201344
126	0x3d8ca96e	0.06868254
127	0xbef1512a	-0.47132236

network_body._body_endoder.seq_layers.2.weight f4 [128, 128]
0	0x3c138c1c	0.009005573
1	0x3c8b1eb4	0.016982414
2	0xbdea8f82	-0.11453153
3	0x3e4ff419	0.2030796
4	0x3d83fbb4	0.06444493
5	0xbdbcacd5	-0.092126526
6	0x3e52618e	0.20545027
7	0xbc64eef2	-0.013972985
8	0xbd9e53b7	-0.07730811
9	0x3e7c9f66	0.2467018
10	0x3dc79f51	0.09747184
11	0x3f278d3d	0.6544989
12	0xbe485b28	-0.19566023
13	0x3d16df2b	0.036833923
14	0x3debad47	0.115076594
15	0xbe979bab	-0.29610953
16	0xbf894a99	-1.072589
17	0x3d055307	0.032549884
18	0x3dc438a2	0.09581114
19	0x3f90c170	1.1309032
20	0x3e39ea08	0.18155682
21	0xbd67edf9	-0.056623433
22	0x3e2fd61e	0.17171523
23	0xbdc7edd9	-0.09762163
24	0x3da59c13	0.080864094
25	0xbdc83158	-0.097750366
26	0xbdb01eae	-0.08599602
27	0x3dc17dc4	0.09447816
28	0xbe89f30e	-0.2694325
29	0x3d6be292	0.05758912
30	0x3cda3772	0.026637767
31	0xbe80d730	-0.25164175
32	0xbe3f7418	-0.1869663
33	0xbe12395a	-0.1427969
34	0xbdf35bc3	-0.118827365
35	0xbecb2bce	-0.39681858
36	0xbc82dd0e	-0.015974548
37	0x3f82fb80	1.0233002
38	0x3e9577f3	0.29193076
39	0xbe67dd79	-0.22643079
40	0xbe5df98b	-0.21677224
41	0x3e970d9f	0.2950258
42	0x3e4569ff	0.19278716
43	0xbdf441e7	-0.119266324
44	0xbcfd713e	-0.030937787
45	0x3e4a4c6e	0.19755718
46	0x3f0a69a4	0.54067445
47	0xbe0dcb35	-0.13847049
48	0xbd421f34	-0.04739304
49	0x3e65b200	0.22431183
50	0x3dadb675	0.084820665
51	0x3e2df307	0.16987239
52	0xbe004365	-0.12525709
53	0x3dafab39	0.0857758
54	0xbda21119	-0.07913417
55	0x3d0a050e	0.033696227
56	0xbe6d20be	-0.23157021
57	0xbde101b3	-0.10986652
58	0xbea0d234	-0.31410372
59	0xbeb85006	-0.35998553
60	0x3cfc778c	0.030818723
61	0xbcd59551	-0.026072176
62	0xbe12cf87	-0.14336978
63	0xbeaeb48b	-0.34122118
64	0xbd27372c	-0.0408241
65	0x3dd33c8b	0.10314282
66	0x3fba5b08	1.455903
67	0x3ef7e7bc	0.48418987
68	0x3ea74f3e	0.32677644
69	0x3d1a7724	0.037711278
70	0x3bab2e1b	0.005224002
71	0xbe765281	-0.2405491
72	0xbcfc2ff9	-0.030784594
73	0x3d261285	0.040545005
74	0xbe377b9a	-0.17918244
75	0x3e0c24ac	0.13685864
76	0x3e36685d	0.17813249
77	0x3dbab5dc	0.09116718
78	0x3e47b97f	0.19504355
79	0xbe1e51a1	-0.15460826
80	0xbd471a29	-0.048608933
81	0x3ebaa9cb	0.36457667
82	0xbd95bed7	-0.073117904
83	0x3e485205	0.19562538
84	0x3daf7504	0.08567241
85	0x3d775397	0.06038245
86	0xbf4210f5	-0.75807124
87	0xbeca55ea	-0.39518672
88	0x3b7abd95	0.0038259972
89	0xbef526b0	-0.4788108
90	0xbe85323f	-0.26014897
91	0xbf047ab6	-0.5174974
92	0x3e00a67d	0.1256351
93	0xbf271f2d	-0.65281945
94	0x3f4395b7	0.7640032
95	0x3e3680aa	0.17822519
96	0xbec083c9	-0.37600544
97	0x3d59bdb8	0.053159446
98	0xbe47e0ca	-0.19519344
99	0xbd326fe7	-0.04356375
100	0x3da01c6c	0.07817921
101	0x3f5dd5f8	0.86654615
102	0x3ead9d9d	0.33909312
103	0xbd91bbb8	-0.07115883
104	0x3dab42d1	0.083623536
105	0xbc866bde	-0.016408857
106	0xbf9f2fb1	-1.2436429
107	0x3d778993	0.060433935
108	0x3f4c2a2b	0.79751843
109	0xbe7c0f1d	-0.2461514
110	0xbf0756f7	-0.5286707
111	0x3fa645dd	1.299007
112	0x3e028ff4	0.12750226
113	0x3e4859c5	0.19565494
114	0xbe7e92cd	-0.24860688
115	0x3d818f34	0.06326142
116	0x3d987c50	0.07445586
117	0xbd1b7037	-0.037948813
118	0xbc9be02c	-0.019027792
119	0x3d0a6484	0.033787265
120	0x3c7e24b1	0.015511678
121	0xbee2f9ab	-0.44331107
122	0x3e20753e	0.15669724
123	0x3d48912a	0.048966564
124	0x3cf7ed82	0.03026462
125	0xbe16af0d	-0.14715214
126	0x3edca35f	0.43093392
127	0x3db1a429	0.08673889
128	0xbd3de2b7	-0.04635879
129	0x3ea57dc0	0.32322502
130	0x3f057040	0.52124405
131	0x3e14fec8	0.14550316
132	0x3d6fceb8	0.05854675
133	0x3d22e57d	0.03976964
134	0x3f6898ac	0.9085796
135	0x3de61445	0.11234335
136	0x3c448994	0.011995692
137	0xbb7b618a	-0.0038357698
138	0x3c6feff7	0.014644614
139	0x3f711ef7	0.94187874
140	0x3e6f00b5	0.23340113
141	0x3e937fd4	0.28808463
142	0x3e2c9d49	0.16856875
143	0x3e1e110b	0.15436189
144	0xbcdab55b	-0.026697805
145	0x3e0a23c2	0.13490203
146	0x3c8a1bcd	0.01685896
147	0x3fa18998	1.2620115
148	0xbd89baac	-0.06725058
149	0x3da0b475	0.078469194
150	0xbd91b210	-0.07114041
151	0xbde2e93a	-0.11079641
152	0x3cbb8f96	0.022895616
153	0xbde4777b	-0.111556016
154	0xbf231ae5	-0.6371291
155	0xbf030d96	-0.51192605
156	0xbf4c6bd2	-0.7985202
157	0x3d8b3370	0.0679692
158	0x3e2460c6	0.16052541
159	0x3d9e3efc	0.07726857
160	0x3edc45f4	0.4302212
161	0x3f4f2cf6	0.8092798
162	0xbe876c5c	-0.2644986
163	0x3ead41d6	0.3383929
164	0x3e4d02f0	0.20020652
165	0xbf24fe5f	-0.6445064
166	0x3f009749	0.5023084
167	0x3f59fd93	0.8515255
168	0x3f101e67	0.5629639
169	0xbebb6fb5	-0.36608663
170	0x3e0cbaab	0.13743083
171	0x3c0e9a42	0.00870377
172	0xbe9d6b0a	-0.30745727
173	0xbd428963	-0.047494303
174	0x3f71a0e6	0.94386137
175	0xbf888f96	-1.0668819
176	0x3f06ae83	0.52610034
177	0xbdfc4379	-0.12317557
178	0xbc75d32b	-0.01500396
179	0x3eaf718f	0.34266326
180	0x3d8169ce	0.06319009
181	0x3db3cd69	0.08779413
182	0x3e2a34b1	0.16621663
183	0x3d532941	0.051553015
184	0x3d4e5d34	0.050381854
185	0x3de55188	0.111971915
186	0xbfc84601	-1.5646363
187	0x3edf167c	0.43571842
188	0x3e3cb602	0.18428805
189	0x3ddb4fa9	0.10708553
190	0xbf360036	-0.7109407
191	0xbf8323be	-1.0245283
192	0xbdd12bce	-0.10213433
193	0x3d92229f	0.0713551
194	0x3f3d57cc	0.7396209
195	0x3f7c8f50	0.9865618
196	0x3e5461ed	0.2074048
197	0xbe9ab4c3	-0.30216035
198	0x3e135ab1	0.14390065
199	0x3f0c1dfa	0.5473324
200	0x3f0befa2	0.54662526
201	0x3e5feb35	0.21867068
202	0x3d29aab4	0.04142256
203	0x3e05e744	0.13076502
204	0x3f3b8255	0.73245746
205	0x3dacf2f2	0.08444776
206	0x3dcf54ee	0.10123621
207	0x3ccab2df	0.024743496
208	0x3d5feb0a	0.05466751
209	0x3f433f6c	0.7626865
210	0x3e4a8c7a	0.1978015
211	0x3d01cbdb	0.031688552
212	0xbd678ab1	-0.05652875
213	0xbd8982f5	-0.06714431
214	0xbd58c2d2	-0.05292017
215	0xbd3c9f38	-0.04605028
216	0x3da14127	0.07873755
217	0x3d90b02e	0.070648536
218	0xbdd4baaa	-0.10387166
219	0xbe227e0d	-0.15868397
220	0xbe476ebf	-0.1947584
221	0x3db6a577	0.08918279
222	0x3f8f852b	1.1212515
223	0x3d53fc0d	0.051754046
224	0xbdea4ac2	-0.1144004
225	0x3e5aa233	0.21350937
226	0x3f041f7f	0.5161056
227	0x3c137a75	0.009001364
228	0x3f20d62d	0.62826806
229	0x3f83f916	1.031039
230	0x3f5a268c	0.8521507
231	0xbdd627f0	-0.10456836
232	0x3cdafbcf	0.0267314
233	0x3d79a6d4	0.060950115
234	0x3ff96672	1.9484389
235	0x3f6e532a	0.9309565
236	0x3f919d33	1.1376098
237	0xbd856a9f	-0.06514477
238	0x3fe21add	1.7664448
239	0x3f8f3ab0	1.1189785
240	0xbd1735f3	-0.036916684
241	0x3daa3378	0.08310598
242	0x3ea84ccf	0.328711
243	0x3db0faf4	0.086416155
244	0x3dd2bb7e	0.102896675
245	0xbeeb1d2f	-0.45920703
246	0xbd783a34	-0.06060238
247	0xbe93b15b	-0.2884625
248	0x3e734532	0.23756865
249	0x3e554da1	0.20830394
250	0x3ead64c7	0.3386595
251	0x3d0e7951	0.034783665
252	0xbd986a04	-0.07442096
253	0x3d9ed40b	0.07755288
254	0x3f62a893	0.88538474
255	0x3e1404d5	0.14454968

network_body._body_endoder.seq_layers.2.bias f4 [128]
0	0x3e6bc4b0	0.23024249
1	0xbe5da4f0	-0.2164495
2	0x3f2f9f1f	0.68602175
3	0x3efdd775	0.49578443
4	0x3e533f24	0.20629555
5	0x3edc8734	0.43071902
6	0x3f2c91f5	0.6741021
7	0x3e46648b	0.19374292
8	0xbd131192	-0.03590543
9	0x3ed7a66f	0.42119166
10	0xbc65f82c	-0.01403622
11	0x3c9b1eea	0.01893564
12	0xbea7e304	-0.32790387
13	0xbe82065a	-0.2539547
14	0x3d1126f5	0.035437543
15	0x3edf290e	0.4358601
16	0xbe11294b	-0.14175908
17	0x3f05d673	0.5228035
18	0xbde1e0f5	-0.11029235
19	0xbe1fc061	-0.1560073
20	0x3d69f870	0.057121694
21	0x3e8635f5	0.2621304
22	0x3ed73189	0.4202998
23	0x3ecdb0d0	0.4017396
24	0x3ea86e38	0.3289659
25	0xbe6bb49b	-0.23018114
26	0x3d0e6202	0.034761436
27	0x3d3ba8a1	0.045815114
28	0x3ec98553	0.3935953
29	0x3e7347f2	0.23757914
30	0x3e9fdf01	0.31224826
31	0x3e857a0d	0.2606968
32	0x3e971bcb	0.29513392
33	0x3eeeb4a2	0.46622187
34	0xb9161c94	-0.00014315761
35	0x3cece63a	0.028918374
36	0x3d2fc03f	0.04290795
37	0x3f20bb2a	0.6278559
38	0x3e90032d	0.28127423
39	0xbea357d3	-0.31902942
40	0x3e084e33	0.1331108
41	0x3dcf3808	0.10118109
42	0x3da58437	0.080818586
43	0x3ef88910	0.4854207
44	0xbde09375	-0.10965625
45	0x3f21e041	0.6323281
46	0x3e882077	0.2658727
47	0x3eed2fc3	0.46325502
48	0x3e172cca	0.1476318
49	0x3df5fc82	0.12011053
50	0x3eb041be	0.34425157
51	0x3d82fedb	0.06396266
52	0x3dcbbb24	0.099478036
53	0x3f34f42d	0.7068508
54	0x3ee81c9c	0.45334327
55	0x3da9522f	0.082676284
56	0x3ecda200	0.4016266
57	0xbe88c25e	-0.2671079
58	0x3e6541f5	0.22388442
59	0x3e1c4f2f	0.15264581
60	0x3f25af5e	0.64720714
61	0x3e209e93	0.15685491
62	0x3d0fe213	0.03512771
63	0xbed70f59	-0.42003897
64	0x3f15aaad	0.58463556
65	0xbd65856f	-0.056035455
66	0xbe19bc57	-0.15013252
67	0x3f4ac1b0	0.79201794
68	0xbe77a952	-0.24185684
69	0x3e9a6868	0.3015778
70	0x3dcf6874	0.10127345
71	0x3e1930a0	0.14959955
72	0xbe351df6	-0.1768721
73	0x3eb676e0	0.3563757
74	0x3de6a8f3	0.11262693
75	0xbec4765f	-0.3837156
76	0x3e2d20b9	0.16907014
77	0x3f073346	0.5281261
78	0x3e8edc15	0.27902284
79	0x3f230171	0.63674074
80	0x3e4f2132	0.20227507
81	0x3eb46c66	0.3523895
82	0x3ee1dddc	0.44114578
83	0xbf214a17	-0.6300368
84	0x3ebe3e5c	0.3715695
85	0x3e8e742d	0.2782301
86	0x3e939799	0.28826597
87	0x3ee9aa8a	0.45637923
88	0x3e9a046f	0.30081508
89	0x3f0ba680	0.54550934
90	0x3ef2f71b	0.47454152
91	0x3edd75da	0.43253976
92	0x3f02c13e	0.51076114
93	0xbd2a80e2	-0.04162682
94	0x3e966050	0.29370356
95	0x3f2b705c	0.6696832
96	0xbe9380ca	-0.28809196
97	0x3ea43f3f	0.32079503
98	0x3dd96497	0.10614889
99	0x3ea061cf	0.31324622
100	0xbc3b3247	-0.011425561
101	0x3edcce72	0.43126255
102	0x3f1228f2	0.5709373
103	0x3ede740d	0.43447915
104	0x3f35b808	0.70983934
105	0x3f0f7b01	0.56047064
106	0x3e5d1d0a	0.21593109
107	0x3e971adc	0.2951268
108	0x3f1e1d6d	0.6176365
109	0xbf14a8ee	-0.58070266
110	0x3f008a0c	0.5021064
111	0x3e1fe1bb	0.15613453
112	0xbd6c3a32	-0.057672687
113	0x3f2370ff	0.63844293
114	0x3e0db28a	0.13837638
115	0x3edd9936	0.43280953
116	0x3e9978a0	0.29974842
117	0xbe60b592	-0.21944264
118	0x3edfd357	0.43715927
119	0xbe5d3b47	-0.21604644
120	0x3cc262b9	0.023728715
121	0x3f0ec92a	0.557757
122	0x3df23043	0.118256114
123	0x3d66107a	0.056168057
124	0x3e040d3d	0.12895675
125	0x3df00911	0.11720479
126	0xbe98896a	-0.2979234
127	0x3e872dd4	0.26402152

action_model._discrete_distribution.branches.0.weight f4 [360, 128]
0	0x3e10ec0d	0.14152546
1	0x3e6bedfd	0.23040004
2	0x3e2f685e	0.17129657
3	0x3e01ceca	0.1267654
4	0x3e083909	0.13303007
5	0x3e1d7fb7	0.1538075
6	0x3e49949c	0.19685596
7	0x3eb2226f	0.34791896
8	0x3e0ed2c0	0.13947582
9	0x3e668559	0.22511806
10	0x3e1c5f86	0.15270814
11	0x3f0dee09	0.5544134
12	0x3e23aac2	0.15983108
13	0x3e089ff5	0.13342269
14	0x3e81cb45	0.25350395
15	0x3dd9e8b6	0.10640089
16	0x3ea30193	0.3183714
17	0x3e02e18b	0.1278135
18	0x3e277498	0.1635307
19	0x3e9917e7	0.2990105
20	0x3e436635	0.19081958
21	0x3e74967d	0.23885532
22	0x3e1d0b92	0.15336445
23	0x3eab18be	0.33417314
24	0xbd5d6312	-0.05404956
25	0x3e62050f	0.22072242
26	0x3e460a43	0.19339852
27	0x3e04216d	0.12903376
28	0x3e1aafe6	0.15106162
29	0x3e05874d	0.13039894
30	0x3eb66110	0.35620928
31	0x3cd87fd8	0.026428148
32	0x3e84a052	0.25903565
33	0x3e3345c8	0.17507088
34	0x3f04d040	0.51880264
35	0x3e1c1614	0.15242797
36	0x3e59ea84	0.21280867
37	0x3e78a4cc	0.24281615
38	0xbd668e83	-0.056288254
39	0x3e4e9f2f	0.20177911
40	0x3e292698	0.16518629
41	0x3da3e3bc	0.08002421
42	0x3e12550a	0.14290252
43	0x3e444b53	0.19169359
44	0x3e1fadeb	0.15593688
45	0xbc501429	-0.012700119
46	0x3e050396	0.12989649
47	0x3e1cc411	0.15309168
48	0x3e72e0f4	0.23718625
49	0x3e67d1c9	0.2263862
50	0x3eb12f70	0.34606504
51	0xbdaa43eb	-0.083137356
52	0x3e317b1c	0.17332119
53	0x3e29486e	0.16531536
54	0x3d404702	0.04694272
55	0x3ed094f3	0.4073864
56	0x3e108b52	0.14115646
57	0x3e75b1bd	0.23993583
58	0x3eb0c8eb	0.34528288
59	0x3e8d75b0	0.2762885
60	0x3e1e1bbc	0.15440267
61	0x3db18085	0.08667091
62	0x3e1ac265	0.15113218
63	0x3e338fe7	0.17535363
64	0x3e420bd6	0.18949828
65	0x3e494ae0	0.19657469
66	0x3eb6d27b	0.3570746
67	0x3e10c4ed	0.14137621
68	0x3e2dc93d	0.16971298
69	0x3e001bbc	0.1251058
70	0x3ebf58cd	0.37372437
71	0x3e275fbe	0.16345116
72	0x3e9e0f92	0.30871254
73	0x3e29036d	0.16505213
74	0x3e2150df	0.15753506
75	0x3e3bccce	0.18339846
76	0x3eadde5a	0.33958703
77	0x3de0e9e3	0.1098211
78	0x3e5599cb	0.20859449
79	0x3e35350c	0.17696017
80	0x3e0d4c33	0.13798599
81	0x3e8d61c2	0.27613646
82	0x3ec42da5	0.38316074
83	0xbd88ce36	-0.066799566
84	0x3ed6b6f2	0.4193645
85	0x3e9438da	0.28949624
86	0x3eacc007	0.33740255
87	0x3dfcee44	0.12350133
88	0xbda97165	-0.082735814
89	0x3ea86f5f	0.3289747
90	0x3ea9cde5	0.33164898
91	0x3e3dbd49	0.18529238
92	0x3e60e7b6	0.2196339
93	0x3e9002b1	0.28127053
94	0x3e1ca4dc	0.15297264
95	0x3e91c199	0.28468016
96	0x3e450001	0.19238283
97	0x3e077d2a	0.1323134
98	0x3e4644b2	0.19362143
99	0x3dfaacce	0.12239991
100	0x3e4f9e4f	0.20275234
101	0x3e485c8b	0.19566552
102	0x3e17361a	0.14766732
103	0x3e8b7072	0.27234226
104	0x3e6df1b5	0.23236735
105	0x3ec5ce83	0.38634118
106	0x3dbc6e0c	0.09200677
107	0x3e09977a	0.1343669
108	0x3ea217b8	0.3165872
109	0xbcc923ec	-0.024553262
110	0x3e5a8e45	0.21343334
111	0xbc8b2dfe	-0.016989704
112	0x3e982f8a	0.2972377
113	0x3e3f1f1b	0.1866421
114	0x3dfca221	0.12335611
115	0x3ebf1c02	0.37326056
116	0x3e52fd2c	0.2060439
117	0x3e897c66	0.2685272
118	0x3ebb328e	0.36562008
119	0x3e3461fe	0.17615506
120	0x3e0c609e	0.13708732
121	0x3eb5b906	0.35492724
122	0x3d2dde39	0.042448256
123	0x3e94e091	0.2907758
124	0x3dc8aba6	0.09798364
125	0x3e0871bc	0.13324636
126	0x3e5e3faa	0.21703973
127	0x3d91bfa8	0.07116634
128	0x3e7a2f74	0.24432164
129	0x3eae0ac3	0.33992586
130	0xbf07b996	-0.53017557
131	0xbece796a	-0.40327007
132	0x3d94f233	0.07272758
133	0xbe5bd541	-0.21468069
134	0xbe62e60f	-0.22158073
135	0x3e6aa98a	0.22916237
136	0xbd19207b	-0.03738449
137	0xbcceded7	-0.025252743
138	0x3e6c28f1	0.23062493
139	0x3e79dad7	0.24399887
140	0x3d3db119	0.04631147
141	0x3dad784c	0.084702104
142	0xbd8aa3af	-0.067695014
143	0x3eaa7222	0.332902
144	0xbe43582c	-0.19076604
145	0x3e063033	0.13104324
146	0x3e45c645	0.19313915
147	0xbe7dc6f1	-0.24782921
148	0x3e11760c	0.14205188
149	0x3e6d6c88	0.23185933
150	0x3e61cf7b	0.22051804
151	0x3e6bfcf4	0.23045713
152	0x3d030135	0.031983573
153	0x3e230cc3	0.15922837
154	0x3e6b96f4	0.23006803
155	0x3e4bfad3	0.199199
156	0xbde8644b	-0.11347254
157	0x3e840059	0.25781515
158	0x3f031ed2	0.51218903
159	0xbd7db3d6	-0.061939083
160	0x3db80d05	0.08986858
161	0x3d09eab9	0.033671115
162	0x3e9e74ba	0.3094843
163	0xbe08da16	-0.13364443
164	0x3e5c7971	0.21530701
165	0x3d2fda0e	0.042932563
166	0xbd2a1960	-0.041528106
167	0x3da2ebd3	0.07955136
168	0x3e6f1321	0.23347141
169	0x3d0da3d8	0.03458008
170	0x3d9092ce	0.07059251
171	0x3e6dc20b	0.23218553
172	0x3e284c7f	0.16435431
173	0x3ebcef99	0.36901549
174	0xbe97e8aa	-0.29669696
175	0x3dd64e47	0.10464149
176	0x3dc1bb92	0.09459604
177	0xbeb3498b	-0.35017046
178	0x3e60a3c0	0.21937466
179	0xbe8a2433	-0.26980743
180	0xbc18a7c8	-0.009317346
181	0x3dc91eb5	0.0982031
182	0x3d3d590e	0.046227507
183	0xbe617ea2	-0.22020963
184	0x3e623ac7	0.22092734
185	0xbd5ded49	-0.05418137
186	0x3e1357b1	0.1438892
187	0x3e938f54	0.28820288
188	0x3e87b3fe	0.2650451
189	0xbd13d2e2	-0.036089785
190	0x3e136d4a	0.14397159
191	0xbdd5f3b8	-0.10446876
192	0x3d67850c	0.056523368
193	0x3e219262	0.15778497
194	0x3d1d4a98	0.038401216
195	0x3eae094a	0.33991462
196	0xbd68f021	-0.05686963
197	0x3e0ad4da	0.13557759
198	0x3e338a92	0.17533329
199	0xbeb429e1	-0.351882
200	0xbe47b393	-0.19502096
201	0x3e7659cc	0.24057692
202	0xbe18f66f	-0.14937757
203	0x3dbebdb1	0.093135245
204	0x3e645a63	0.22300105
205	0x3e5622ab	0.20911662
206	0xbeb9a44d	-0.36258164
207	0xbe90c7fb	-0.28277573
208	0xbe8b779b	-0.2723969
209	0xbf090fe9	-0.535399
210	0x3e6f0615	0.23342164
211	0xbe059dfe	-0.1304855
212	0x3e77d2d8	0.24201524
213	0x3ec8eef3	0.39244804
214	0x3e823c03	0.2543641
215	0x3dd35afc	0.10320088
216	0x3d8999ca	0.06718786
217	0x3e18db06	0.14927301
218	0x3e5387df	0.206573
219	0x3da145b5	0.07874624
220	0x3c9d74ca	0.019220728
221	0xbe834043	-0.25634965
222	0xbe0094e2	-0.12556794
223	0x3e466352	0.19373825
224	0x3eb0c7e4	0.34527504
225	0xbe622190	-0.22083116
226	0x3e8721b7	0.2639291
227	0xbe338041	-0.17529394
228	0xbe6a9fa6	-0.22912464
229	0x3d5b6eae	0.05357235
230	0xbecf09aa	-0.4043706
231	0x3e4b76d7	0.19869553
232	0x3db3f82a	0.08787568
233	0x3e742b2d	0.23844595
234	0x3cbfc8f5	0.023411253
235	0x3d90b7b3	0.07066288
236	0x3c86e9f9	0.016468989
237	0xbcdd433e	-0.027009603
238	0x3e7391c0	0.23786068
239	0x3d6e376f	0.058158334
240	0xbdee56c6	-0.116376445
241	0xbe9ea94b	-0.30988535
242	0xbdb6d2da	-0.089269355
243	0x3e66c9b8	0.22537887
244	0x3e8d4cc6	0.27597636
245	0x3d4b2e3b	0.049604636
246	0x3e74e834	0.23916703
247	0x3df3d39d	0.119055964
248	0x3e65c5c6	0.22438726
249	0x3ea178d1	0.31537488
250	0x3d9ba20f	0.075992696
251	0x3e8a85d1	0.2705522
252	0x3e02ac32	0.12761
253	0x3e75e631	0.24013592
254	0x3df8d32d	0.121496536
255	0xbe4a46c1	-0.19753553

action_model._discrete_distribution.branches.0.bias f4 [360]
0	0x3d8d1564	0.068888456
1	0x3e57635c	0.21033996
2	0xbc40fece	-0.0117795
3	0x3dd7497f	0.10512065
4	0xbd0f6341	-0.035006765
5	0x3dfa1d4b	0.122126184
6	0x3d1ceac7	0.03830984
7	0x3cc3942e	0.023874369
8	0x3e6609ff	0.2246475
9	0x3e0be7f5	0.13662703
10	0x3da06385	0.07831482
11	0x3e82ca2a	0.25544864
12	0x3e8eb46a	0.2787202
13	0x3d576377	0.05258509
14	0x3e0a9c81	0.13536264
15	0x3da11975	0.07866184
16	0x3cb78643	0.022402888
17	0x3e90543a	0.2818926
18	0xbcbfba7d	-0.023404354
19	0x3cbed8d0	0.023296744
20	0xbc13bdac	-0.009017389
21	0x3dfc31f0	0.12314212
22	0x3cb4ac0c	0.022054695
23	0xbbca8b2c	-0.0061811414
24	0x3c7f2ebf	0.01557511
25	0x3e98a750	0.2981515
26	0xbb2eab80	-0.0026652515
27	0x3e8de28c	0.27711904
28	0x3cb1f4aa	0.02172311
29	0x3d030ffd	0.03199767
30	0x3e4e6cb1	0.2015865
31	0x3d0c116b	0.0341963
32	0x3e07581c	0.13217205
33	0x3e991b8d	0.29903832
34	0x3dde52c2	0.108556286
35	0x3d917676	0.07102673
36	0x3d2010ef	0.03907865
37	0xbd428cf7	-0.047497716
38	0x3e709bc2	0.23496917
39	0x3e0552cc	0.13019866
40	0x3e1daf59	0.15398921
41	0x3da69187	0.08133226
42	0x3e2835b8	0.16426742
43	0x3dbc7742	0.09202434
44	0x3e217f9b	0.15771334
45	0x3df2dcaf	0.11858498
46	0xbcf3258b	-0.029680988
47	0xbbacae19	-0.0052697775
48	0x3e3e5816	0.1858829
49	0x3e484c1d	0.19560285
50	0x3d69412e	0.056946926
51	0x3e7ab7ca	0.24484172
52	0xbdccf943	-0.100084804
53	0x3d82a58d	0.063792326
54	0x3da4cd9b	0.08047029
55	0x3d89e38a	0.06732853
56	0x3e29d022	0.16583303
57	0xbba94367	-0.0051655057
58	0x3defcd76	0.117091104
59	0x3d97853a	0.07398458
60	0xbc1ab48a	-0.009442458
61	0x3d914400	0.07093048
62	0xbd00fa8b	-0.031488936
63	0x3e68d3af	0.22737001
64	0x3e0bfcc5	0.13670643
65	0xbd15c221	-0.03656209
66	0x3e092af7	0.13395296
67	0xbc291ee5	-0.010322307
68	0x3d9dfb36	0.0771393
69	0x3d9c1556	0.07621257
70	0x3bbe5d9a	0.005809498
71	0x3d723849	0.05913571
72	0x3dfa6355	0.12225977
73	0x3da4a914	0.080400616
74	0x3d5583f3	0.05212779
75	0x3e11c9aa	0.14237085
76	0x3d95995d	0.07304642
77	0x3e455450	0.19270444
78	0x3de9c5da	0.1141469
79	0x3e00659f	0.12538765
80	0xbd184cf8	-0.037182778
81	0x3d94b56f	0.07261168
82	0x3dc1f941	0.094713695
83	0x3dc8f3d1	0.09812129
84	0x3e12a0e1	0.14319183
85	0x3d507d33	0.05090065
86	0x3e165154	0.14679462
87	0xbd25d477	-0.040485825
88	0x3d82539b	0.06363603
89	0xbcaee7e8	-0.021350816
90	0xbd706adf	-0.05869567
91	0x3c09dc6b	0.008414368
92	0x3d86a9a3	0.065753244
93	0xbccef04a	-0.025261063
94	0x3dab50bc	0.08365008
95	0x3d562ac8	0.052286893
96	0x3d14b156	0.036301933
97	0xbd442410	-0.047885954
98	0x3d3b5dc2	0.04574371
99	0x3e0edc85	0.13951309
100	0x3c9bfbb7	0.019040925
101	0xbd2d67ce	-0.042335324
102	0x3de7599b	0.11296388
103	0x3ea58fa8	0.32336164
104	0x3e66ea95	0.22550423
105	0x3bb0487b	0.005379734
106	0xbb8cb095	-0.004293511
107	0x3e830cc9	0.25595692
108	0xbc8c2d75	-0.01711152
109	0x3d4b8be9	0.049693976
110	0x3dc6b7bd	0.09703014
111	0x3c9043b4	0.017610408
112	0x3d45111d	0.048112024
113	0x3d5503d0	0.05200559
114	0x3db93a3d	0.09044311
115	0xbd10c05b	-0.035339694
116	0x3eb66897	0.3562667
117	0x3da95483	0.082680725
118	0x3c6ed7c4	0.01457781
119	0xbb5008fd	-0.0031743639
120	0x3dd10b25	0.10207204
121	0x3c80b334	0.01571045
122	0x3d2ea271	0.042635385
123	0x3dfadcad	0.12249122
124	0x3e7d2466	0.24720916
125	0x3e9714d7	0.29508087
126	0x3db1bf8b	0.08679112
127	0x3c679b74	0.014136184
128	0x3dc5a03b	0.09649702
129	0x3deb4aa5	0.11488847
130	0x3d3ee7e0	0.046607852
131	0x3e4be611	0.19911982
132	0x3eaa8b43	0.33309373
133	0x3f00bb57	0.5028586
134	0x3e466808	0.19375622
135	0x3db7c34d	0.089727975
136	0x3df31fd6	0.118713066
137	0x3e1fcea1	0.15606166
138	0x3e090772	0.13381746
139	0x3e62b7b5	0.22140391
140	0x3bd11df7	0.006381746
141	0x3e8a63e4	0.27029335
142	0x3e946e12	0.28990227
143	0x3d534a0b	0.051584285
144	0x3ec68c78	0.38779044
145	0x3dd88351	0.105719216
146	0x3e57b22d	0.21064062
147	0x3e5e5575	0.21712287
148	0xbce27760	-0.027644813
149	0x3e16559b	0.14681093
150	0x3d60c9bc	0.05487989
151	0x3c9c2256	0.019059341
152	0x3d24d4cf	0.040242013
153	0x3ea2e128	0.31812406
154	0xbb1e4098	-0.0024147388
155	0x3e0a2ece	0.13494417
156	0x3d7c26e9	0.061560545
157	0x3e065b2e	0.1312072
158	0x3e734773	0.23757724
159	0x3d4c8440	0.04993081
160	0x3d04c096	0.032410227
161	0xbc333018	-0.010936759
162	0x3d98ee5e	0.0746734
163	0x3cf30155	0.029663721
164	0x3c36903b	0.011142786
165	0x3d803b5e	0.062613234
166	0x3e1bbc80	0.15208626
167	0x3db3b0a9	0.087739296
168	0x3de6b6c3	0.11265328
169	0xbc06e7cb	-0.008233975
170	0x3cfa3626	0.030543398
171	0x3db7465a	0.08948965
172	0x3e638d89	0.2222196
173	0x3b16b6d7	0.0022997165
174	0x3d61a6d6	0.055090748
175	0x3e746307	0.23865901
176	0x3e49a5f0	0.19692206
177	0x3dc59c2a	0.096489266
178	0x3da4e151	0.08050788
179	0x3e351f26	0.17687663
180	0x3beffebe	0.007324069
181	0x3c4f9d78	0.012671821
182	0x3df7a347	0.120916896
183	0xbcd27859	-0.025692152
184	0x3e9d0754	0.30669653
185	0x3db7c0b5	0.08972303
186	0xbc0b783a	-0.008512551
187	0x3dcebfbb	0.100951634
188	0x3e7d091c	0.24710506
189	0x3e851b0a	0.25997192
190	0x3e1c9293	0.15290289
191	0x3cb975f0	0.022639245
192	0x3e8db546	0.27677363
193	0x3e1fc138	0.15601051
194	0x3e0dec1f	0.13859604
195	0x3e59a7fc	0.21255487
196	0xbca05cd6	-0.019575518
197	0xbd186528	-0.037205845
198	0xbccbbe9a	-0.02487116
199	0x3d08b4dd	0.03337561
200	0x3b422c27	0.0029628368
201	0x3eae26d9	0.34014013
202	0x3ce90005	0.028442392
203	0x3d875e03	0.06609728
204	0xbc2b34b1	-0.010449574
205	0x3b5d1cc6	0.0033739074
206	0x3e65a538	0.22426307
207	0xbd0b5f5b	-0.034026485
208	0x3c480c81	0.012210012
209	0x3d203968	0.039117247
210	0x3e209d7c	0.15685076
211	0x3d7f155b	0.062276226
212	0x3cec5a40	0.028851628
213	0x3d9a1e33	0.07525291
214	0xbd3396cd	-0.043844987
215	0x3e673379	0.22578229
216	0xbd14e6ec	-0.036353037
217	0xbd2cc2d8	-0.042178005
218	0xbb66e5be	-0.0035232152
219	0x3e4107de	0.18850657
220	0x3d29be8a	0.041441478
221	0x3ddfeeff	0.10934257
222	0x3e862b75	0.2620503
223	0xbcaa8517	-0.020815415
224	0x3dfe016f	0.12402617
225	0x3d85aec8	0.065274775
226	0x3ce9136c	0.028451644
227	0x3dcbfddf	0.099605314
228	0xbc7df9c5	-0.015501444
229	0x3d08c5aa	0.033391632
230	0xbc8307ce	-0.015994933
231	0x3dfa5b85	0.12224487
232	0x3e654024	0.22387749
233	0x3e2f37e5	0.17111166
234	0x3e21f6d6	0.15816817
235	0xbcc99e8b	-0.024611732
236	0x3da25271	0.07925881
237	0x3d850d71	0.06496704
238	0x3e19a480	0.15004158
239	0x3cc717c9	0.024303334
240	0xbc911bd3	-0.017713463
241	0xbc105f5a	-0.008811796
242	0x3d19ccd1	0.037548844
243	0xbcf8359a	-0.030298997
244	0x3e483e0b	0.19554918
245	0x3d20dd54	0.039273575
246	0x3d98a229	0.074528046
247	0xbd574198	-0.05255279
248	0x3d401f80	0.04690504
249	0x3c810d79	0.015753495
250	0x3bb01c64	0.005374478
251	0xbd21e146	-0.039521478
252	0xbb75ce0c	-0.0037506847
253	0x3dd54d9d	0.10415194
254	0x3d59fc29	0.053218994
255	0x3db9696f	0.09053313

action_model._discrete_distribution.branches.1.weight f4 [11, 128]
0	0x3e2aff8f	0.1669905
1	0x3dc420d0	0.09576571
2	0x3d5539af	0.052056964
3	0x3e1a43da	0.15064946
4	0xbe8b56da	-0.272147
5	0x3e24f032	0.16107252
6	0x3e032c1c	0.12809795
7	0xbe89dbb7	-0.26925442
8	0xbeec4413	-0.46145687
9	0xbe39e3df	-0.18153332
10	0x3d8806b3	0.06641903
11	0xbe889bf8	-0.26681495
12	0xbe078390	-0.13233781
13	0xbef6c717	-0.48198768
14	0x3e0a37f4	0.13497907
15	0xbd81c00e	-0.0633546
16	0x3dcf579f	0.10124134
17	0xbdc18e03	-0.09450915
18	0x3dd110f9	0.102083154
19	0x3d706bdd	0.058696616
20	0xbebf9613	-0.37419185
21	0xbcaac962	-0.02084798
22	0x3cc5d8ab	0.024151167
23	0xbcff67a9	-0.031177359
24	0xbf0ccc69	-0.54999405
25	0x3d9dae81	0.076992996
26	0x3d561de7	0.05227461
27	0x3cdcee06	0.026968967
28	0xbec3f3d4	-0.38271964
29	0x3e1d069a	0.1533455
30	0xbc773485	-0.015088205
31	0xbf076f55	-0.52904254
32	0x3dc2eada	0.09517451
33	0x3de49a26	0.11162214
34	0x3d177e88	0.036985904
35	0x3eb350f4	0.350227
36	0x3dcbe6e7	0.099561505
37	0x3e252561	0.1612754
38	0xbf0ab91a	-0.5418869
39	0xbe3d5874	-0.18490773
40	0x3e3b1f13	0.18273573
41	0x3c70f248	0.014706202
42	0xbf22c943	-0.6358835
43	0x3cb00368	0.021486
44	0x3dd21d70	0.10259521
45	0x3da08794	0.078383595
46	0x3d419ba6	0.04726758
47	0xbec2d683	-0.38054284
48	0x3eed43de	0.4634084
49	0x3c1d9d4f	0.009620025
50	0xbe2f95b7	-0.17146955
51	0xbef49557	-0.47770187
52	0x3ebe72cf	0.37196967
53	0x3e0aec52	0.13566712
54	0xbc94c67a	-0.018161047
55	0xbc1505d1	-0.009095625
56	0xbe972fd7	-0.29528686
57	0xbd29b604	-0.04143335
58	0x3e866bff	0.2625427
59	0xbcd1ce9d	-0.025611216
60	0xbd8d46b1	-0.06898249
61	0xbf1408c8	-0.578259
62	0xbe5ba7a0	-0.21450663
63	0xbe4b3bb4	-0.19846994
64	0x3e630649	0.22170366
65	0xbebc4f3f	-0.3677921
66	0x3cf87d58	0.030333206
67	0xbc37f18b	-0.011227022
68	0xbef03d93	-0.46921977
69	0xbd4ecec4	-0.050490156
70	0xbeb2690d	-0.34845772
71	0x3e2e69d5	0.17032559
72	0x3dd9a0e0	0.106263876
73	0x3e3ac121	0.18237735
74	0x3e2af148	0.16693604
75	0xbe22c1af	-0.15894197
76	0xbea57ef3	-0.32323417
77	0x3e49d1d2	0.19708946
78	0x3eea7aa6	0.45796698
79	0x3e3cec7f	0.18449591
80	0x3db2f5b5	0.08738271
81	0x3e46b4c6	0.19404897
82	0xbea297a1	-0.3175631
83	0xbd9d3b02	-0.076772705
84	0xbe90d462	-0.28287035
85	0xbea672d0	-0.3250947
86	0x3eb71eaf	0.35765597
87	0xbdb47a26	-0.088123605
88	0xbf082b8a	-0.53191435
89	0x3f05297a	0.52016413
90	0x3ed52f04	0.41637433
91	0x3df1011c	0.1176779
92	0xbd6bb389	-0.057544265
93	0x3dec1191	0.11526788
94	0xbed1d160	-0.40980053
95	0x3ef078d1	0.46967176
96	0x3dc54a48	0.09633309
97	0x3b2400ea	0.002502496
98	0xbeab5cee	-0.33469337
99	0x3d7ed86a	0.062218107
100	0x3e0a1714	0.13485366
101	0x3c7be795	0.015375038
102	0x3de1b6bc	0.11021182
103	0x3f1d7fd8	0.615232
104	0xbe35cb32	-0.17753294
105	0xbd3347d8	-0.043769687
106	0xbf1d8ea7	-0.61545795
107	0x3d7cd604	0.06172754
108	0xbdde94cc	-0.108682245
109	0xbe6d6557	-0.2318319
110	0xbd8b66f6	-0.068067476
111	0xbf24a9e5	-0.6432174
112	0x3dbb16cd	0.09135208
113	0x3e2c309b	0.16815417
114	0xbf1c7a24	-0.6112387
115	0xbc6054d7	-0.013692102
116	0x3e2c5d24	0.16832405
117	0xbc3f0f08	-0.011661299
118	0x3d6dc852	0.05805237
119	0xbdf2fc56	-0.118645355
120	0xbeadef3a	-0.33971578
121	0x3f14bc04	0.5809939
122	0xbf24cf37	-0.64378685
123	0x3e0c44b3	0.13698082
124	0xbf193752	-0.5985004
125	0x3e335739	0.17513742
126	0xbdf0cf59	-0.117582984
127	0xbee74677	-0.45170948
128	0x3e4564f3	0.1927679
129	0x3cc0983d	0.023510093
130	0x3d0e241f	0.034702417
131	0x3d95c0ae	0.07312141
132	0xbe1a021d	-0.15039869
133	0x3d17eeb9	0.037092898
134	0x3c87831f	0.016542016
135	0x3e666ef7	0.22503267
136	0xbb970e88	-0.0046098866
137	0x3e7234de	0.2365298
138	0x3e24ebb6	0.16105542
139	0x3efd778c	0.4950527
140	0x3c8a0c57	0.016851587
141	0x3c3816f5	0.011235942
142	0x3cfb8e16	0.0307074
143	0xbbf87d2b	-0.0075832806
144	0xbc3eafb0	-0.011638567
145	0xbe14726e	-0.14496776
146	0xbe0d6566	-0.13808212
147	0x3d0aae0a	0.033857383
148	0xbefcce42	-0.49376112
149	0xbc65289d	-0.013986734
150	0x3d68d6c7	0.056845453
151	0x3ddc2797	0.10749739
152	0xbd13816b	-0.036012094
153	0x3ac6dd99	0.0015172242
154	0x3e9ffd60	0.31247997
155	0x3df1d9e4	0.118091375
156	0xbe057bf8	-0.13035572
157	0x3e41c59c	0.18923038
158	0xbd76dad1	-0.060267273
159	0xbdef3cef	-0.11681544
160	0x3c2a964c	0.01041181
161	0x3d442b19	0.047892664
162	0x3ed360a0	0.41284657
163	0x3e924ed3	0.28575763
164	0x3e87265b	0.2639645
165	0x3c9fa257	0.01948659
166	0xbe018934	-0.12649995
167	0x3c264221	0.010147602
168	0x3e1371d4	0.1439889
169	0x3d193618	0.037405103
170	0xbe153316	-0.14570269
171	0x3c83a4dc	0.016069822
172	0x3bd83c6b	0.0065989993
173	0x3b95481e	0.004555716
174	0xbd3c550f	-0.045979556
175	0x3d089976	0.033349477
176	0x3e0c8b6d	0.13725062
177	0xbdd59a88	-0.10429865
178	0xbd2967ef	-0.041358884
179	0xbeb36249	-0.35035923
180	0x3e929e10	0.28636217
181	0x3d37d795	0.04488333
182	0xbd1b45fc	-0.03790854
183	0xbe4e07d3	-0.20120172
184	0xbce88821	-0.028385224
185	0x3d387d8e	0.045041613
186	0x3e05dcbf	0.13072489
187	0xbde8cad5	-0.11366812
188	0xbe032972	-0.12808779
189	0xbe1fcfb1	-0.15606572
190	0xbd0aa310	-0.033846915
191	0x3bef82ac	0.0073092785
192	0x3d31f876	0.04344984
193	0xbcf376c7	-0.029719723
194	0x3d6e7003	0.05821229
195	0xbd16c25c	-0.03680645
196	0xbce90886	-0.028446447
197	0xbdfe9df9	-0.12432475
198	0x3e709bf1	0.23496987
199	0x3e6245ea	0.22096983
200	0xbc38e0f5	-0.011284103
201	0x3e0900fd	0.13379283
202	0x3eb02c88	0.34408975
203	0xbb481b26	-0.003053376
204	0x3e4f6982	0.20255092
205	0x3dd2150d	0.10257921
206	0x3e43d283	0.19123273
207	0xbc971cb4	-0.018446304
208	0xbd9bf52b	-0.076151215
209	0xbc88b657	-0.016688509
210	0x3e41a3f3	0.18910198
211	0xbea909c2	-0.33015257
212	0x3e687aa6	0.22703037
213	0x3e167a81	0.14695169
214	0x3d0e43e6	0.03473272
215	0xbd377812	-0.044792242
216	0xbdc1ee63	-0.09469297
217	0x3b876a87	0.004132572
218	0x3db5bd5f	0.0887401
219	0x3d46400f	0.048400935
220	0xbdf5c900	-0.12001228
221	0xbcf8ce6e	-0.03037187
222	0xbe755365	-0.23957594
223	0xbce7cc84	-0.028295763
224	0xbb360c04	-0.0027778158
225	0xbe38a10b	-0.18030183
226	0x3d7de5bc	0.06198667
227	0xbe033051	-0.128114
228	0x3bd82cce	0.006597138
229	0x3d3297d7	0.043601837
230	0x3d63f2f7	0.05565163
231	0x3c866b0e	0.01640847
232	0x3e2f596c	0.17123955
233	0x3d9b467c	0.07581803
234	0xbe0b4c9c	-0.13603443
235	0xbbe9fdd1	-0.007140853
236	0x3e37ecaa	0.17961374
237	0xbf250008	-0.6445317
238	0x3e0407c0	0.12893581
239	0xbf00283f	-0.5006141
240	0x3c2f3e07	0.010695941
241	0x3d0059c1	0.031335596
242	0xbeabffef	-0.335937
243	0x3e2c2f95	0.16815026
244	0x3d94dbda	0.07268496
245	0x3d0f7265	0.035021205
246	0xbd974a3d	-0.07387207
247	0x3b9d71bc	0.004804818
248	0x3c9cf76f	0.019160954
249	0xbdc9f2d9	-0.09860773
250	0xbea7bb82	-0.32760245
251	0x3ca2beca	0.019866366
252	0xbe63d5aa	-0.22249475
253	0x3e521573	0.20515995
254	0xbc176836	-0.009241154
255	0xbe94c5ea	-0.29057246

action_model._discrete_distribution.branches.1.bias f4 [11]
0	0x3e543709	0.20724119
1	0x3e03334d	0.12812538
2	0x3ce01ccc	0.027357481
3	0xbe0bc015	-0.13647492
4	0xbd45ed94	-0.048322275
5	0x3d1140f3	0.03546233
6	0x3d064d54	0.03278859
7	0xb9bd3c5d	-0.00036093863
8	0xbb60e52a	-0.003431628
9	0xba47f766	-0.0007628113
10	0xbd3d00a2	-0.04614318
