Client/Assets/MoveToGoal.onnx (onnx, 74038 bytes, 7 tensors)

network_body._body_endoder.seq_layers.0.weight f4 [128, 4]
0	0x3e176088	0.14782917
1	0xbecf25ba	-0.4045847
2	0x3e986b3d	0.29769316
3	0x3e69862a	0.22805086
4	0xbe40090e	-0.18753454
5	0x3f23b092	0.639413
6	0xbe54e9b8	-0.20792282
7	0xbef79abc	-0.4836024
8	0x3ebf84d7	0.37406036
9	0x3f370a45	0.71500045
10	0x3eec246f	0.46121547
11	0xbf1ae263	-0.6050169
12	0x3f0b8b87	0.54509777
13	0x3dbe180a	0.09281929
14	0xbea0264c	-0.31279218
15	0x3d948877	0.07252591
16	0xbed66a2f	-0.41877887
17	0x3f364d62	0.71211827
18	0xbf1e56a6	-0.61850965
19	0xbd12e374	-0.035861447
20	0x3f0b1ed6	0.54343927
21	0x3ec3160e	0.38102764
22	0x3eba9fa2	0.36449915
23	0x3f0e7d3d	0.5565985
24	0xbf015c26	-0.5053123
25	0xbf5225b5	-0.82088786
26	0xbe2169c4	-0.15763003
27	0xbef55530	-0.47916555
28	0x3e672fa2	0.22576764
29	0x3e6429cf	0.22281574
30	0x3f3862e4	0.72025895
31	0xbefd8f83	-0.49523553
32	0x3cb90343	0.022584563
33	0x3e0b2a54	0.13590366
34	0x3f075aa6	0.52872694
35	0x3fbfe92c	1.4993033
36	0x3e806aeb	0.25081572
37	0xbd20e037	-0.039276328
38	0x3f474ce2	0.7785169
39	0xbf205bf6	-0.6264032
40	0xbf6ebc4a	-0.93256056
41	0x3e557b50	0.20847821
42	0x3e32baa5	0.17454012
43	0xbf3784c7	-0.7168698
44	0x3e7698cf	0.2408173
45	0xbf093557	-0.53597015
46	0x3f22f915	0.6366132
47	0xbf3ed4df	-0.74543566
48	0xbe4c007d	-0.19922061
49	0xbed3b26b	-0.4134706
50	0x3e74337d	0.23847766
51	0xbf6a1717	-0.9144148
52	0x3f5c68c2	0.8609735
53	0xbf0f8043	-0.56055087
54	0x3e951c27	0.2912304
55	0xbf7c08b8	-0.98450804
56	0x3ed033bc	0.4066447
57	0xbf40fbc9	-0.75384194
58	0xbf04dd8f	-0.5190057
59	0x3d8a62cc	0.06757125
60	0xbd9d8033	-0.07690468
61	0xbea09b6e	-0.31368583
62	0xbe68aa16	-0.22721133
63	0xbe957700	-0.29192352
64	0x3f6a6767	0.9156403
65	0xbdac1da2	-0.084040895
66	0x3f4eb07f	0.8073806
67	0xbd604a43	-0.05475832
68	0xbe77c6a9	-0.24196877
69	0xbf177d76	-0.59175813
70	0xbeb29c2c	-0.34884775
71	0xbf1d8f25	-0.61546546
72	0x3f2d128f	0.67606443
73	0xbe84cca0	-0.25937366
74	0x3dd85737	0.1056351
75	0xbf0a6cb7	-0.54072136
76	0xbf8b472c	-1.0881095
77	0x3ebdeee2	0.37096316
78	0x3f08da14	0.5345776
79	0x3bd6c204	0.00655389
80	0xbeb46c68	-0.35238957
81	0xbe99d199	-0.30042723
82	0x3efd1ceb	0.49436125
83	0x3e392e4e	0.1808407
84	0x3f2112d3	0.6291935
85	0x3f032e18	0.5124221
86	0xbf2877cf	-0.65807813
87	0xbf6bd769	-0.92125565
88	0xbf30d45c	-0.69074035
89	0x3f3033b3	0.68828887
90	0xbe7a5057	-0.2444471
91	0x3e096ad4	0.13419658
92	0xbf0f3f70	-0.5595617
93	0xbe235320	-0.15949678
94	0xbd8464a5	-0.06464509
95	0xbbdfda1d	-0.006831421
96	0x3ec2024b	0.37892374
97	0xbf5eab07	-0.86979717
98	0xbd19b9fb	-0.03753088
99	0xbedf5f7c	-0.43627536
100	0xbe19bb50	-0.1501286
101	0x3eee0b34	0.46492922
102	0x3f1b7493	0.60724753
103	0xbebfad09	-0.37436703
104	0xbe44c02c	-0.19213933
105	0xbe887929	-0.26654938
106	0xbe320ed5	-0.1738847
107	0xbf1c03a4	-0.60943055
108	0x3ed248d9	0.41071203
109	0x3f3a9518	0.7288375
110	0x3eca86b9	0.3955591
111	0xbef6f05a	-0.4823025
112	0x3e4f9145	0.2027026
113	0x3e289f75	0.16467078
114	0x3e1650a2	0.14679196
115	0x3e0b0549	0.13576235
116	0x3d6ce031	0.057830993
117	0xbeac1187	-0.33607122
118	0xbea0d7d0	-0.31414652
119	0x3d753340	0.05986333
120	0x3d37676c	0.044776365
121	0x3f5c6050	0.8608446
122	0x3f37c407	0.7178349
123	0x3c7587c3	0.014985981
124	0xbe97c21e	-0.29640287
125	0xbf3ce4cb	-0.7378661
126	0x3eeabe80	0.45848465
127	0x3f380600	0.71884155
128	0xbf187358	-0.59551
129	0xbf13d591	-0.5774775
130	0x3dbff9f7	0.09373849
131	0x3ebe79fb	0.3720244
132	0x3d8cc156	0.068728134
133	0x3f9f97dc	1.2468219
134	0xbc8a0a3e	-0.016850587
135	0x3e02b262	0.1276336
136	0xbec1c853	-0.37848148
137	0xbe05105d	-0.12994523
138	0x3f1798c4	0.59217477
139	0x3f319657	0.69370025
140	0xbe4406ca	-0.19143215
141	0x3e617110	0.22015786
142	0x3ed5ddbf	0.4177074
143	0x3ee1b31e	0.44081968
144	0x3f418676	0.75595796
145	0xbc4874e2	-0.012234898
146	0x3e3eaa0a	0.18619552
147	0xbf262b0c	-0.64909434
148	0x3e0b2080	0.13586617
149	0x3e3d49dd	0.18485208
150	0x3e8b3e42	0.27195936
151	0x3c279d12	0.01023032
152	0x3f21d926	0.6322197
153	0x3f14a524	0.58064485
154	0xbeea998a	-0.45820266
155	0xbf1e658e	-0.6187371
156	0x3d862b63	0.06551244
157	0x3edb7c2b	0.4286817
158	0xbd9fac60	-0.0779655
159	0x3c91ca75	0.017796734
160	0xbf0f47f9	-0.55969197
161	0x3e32cca2	0.17460874
162	0xbea1907c	-0.31555545
163	0xbd917254	-0.071018845
164	0x3e6ce23e	0.2313318
165	0xbc6becee	-0.01439975
166	0x3eafebae	0.34359497
167	0x3db7cfd9	0.08975191
168	0x3f4f959b	0.81087655
169	0xbe22f130	-0.15912318
170	0x3eed928d	0.46400872
171	0xbe8b9c69	-0.2726777
172	0xbdbbc174	-0.09167758
173	0x3e230e94	0.1592353
174	0xbeeed3d5	-0.4664599
175	0xbe9c0e59	-0.30479696
176	0xbf454dee	-0.77072036
177	0xbe0c7700	-0.1371727
178	0xbe74400c	-0.23852557
179	0xbe43097c	-0.19046587
180	0xbf31f442	-0.6951333
181	0x3e8e082d	0.27740613
182	0x3f82218b	1.0166487
183	0xbf0291ec	-0.5100391
184	0x3ecfd5ee	0.40592903
185	0xbf6a01ca	-0.9140898
186	0xbecd0eba	-0.40050298
187	0x3d50d335	0.050982673
188	0x3f0ae512	0.54255784
189	0xbf712fee	-0.9421376
190	0x3e84caf4	0.2593609
191	0x3d8c7ee9	0.06860144
192	0x3f1d873b	0.6153447
193	0x3f1e6042	0.6186563
194	0xbe3813ec	-0.1797635
195	0xbed57eb4	-0.4169823
196	0x3ee9388a	0.45550948
197	0xbe128f72	-0.14312533
198	0xbf1a0f03	-0.60179156
199	0x3ec20cf0	0.37900496
200	0xbd5d9d50	-0.054105103
201	0x3e0181ce	0.12647173
202	0x3f0dc847	0.55383724
203	0x3e20b1b6	0.15692791
204	0xbf008c49	-0.5021406
205	0xbecaf5fa	-0.3964079
206	0xbdb56b8f	-0.08858406
207	0xbed29133	-0.41126403
208	0xbed36bed	-0.41293278
209	0xbf6e549e	-0.93097866
210	0xbf9c8241	-1.222725
211	0xbd8a3bfd	-0.06749723
212	0xbc861967	-0.016369535
213	0xbd304d91	-0.043042723
214	0x3ea9bea6	0.33153266
215	0x3e9283b9	0.2861612
216	0xbef7f1d1	-0.4842668
217	0x3d04ff11	0.032469813
218	0xbcdeb354	-0.02718512
219	0xbedaff97	-0.42773125
220	0x3eee3b28	0.46529508
221	0xbe657b50	-0.22410321
222	0x3e432f14	0.19060928
223	0x3d52f380	0.05150175
224	0x3dbf9101	0.09353829
225	0x3d1b03fb	0.037845593
226	0x3d84ebb9	0.06490273
227	0xbf0f302c	-0.5593288
228	0xbe55f08a	-0.2089254
229	0x3e816de8	0.25279164
230	0xbd6f9573	-0.058492135
231	0xbef258ea	-0.4733346
232	0xbe3a0085	-0.1816426
233	0x3ed54742	0.41655928
234	0x3e825c0b	0.25460848
235	0x3f03bbe9	0.51458603
236	0xbf99a52a	-1.2003529
237	0xbec11f26	-0.37719077
238	0x3d09af0a	0.033614196
239	0xbf0c53c7	-0.54815334
240	0x3e8e7e58	0.27830768
241	0x3e9dc919	0.30817488
242	0x3f3b8472	0.7324897
243	0xbfe1b670	-1.76338
244	0xbf19a3b4	-0.60015416
245	0x3b69149b	0.003556526
246	0x3e1a0fc1	0.15045072
247	0x3e333813	0.1750186
248	0x3e5288d3	0.20560007
249	0xbc0cda36	-0.008596947
250	0xbf5d5535	-0.8645814
251	0xbf0cc9ec	-0.5499561
252	0xbde9f754	-0.11424127
253	0x3e2da7aa	0.1695849
254	0x3db59f81	0.088683136
255	0xbf1ddf0b	-0.6166846

network_body._body_endoder.seq_layers.0.bias f4 [128]
0	0xbbd6cf3d	-0.0065554664
1	0xbd0e3f3b	-0.03472827
2	0xbe0806f0	-0.13283896
3	0x3cb04866	0.021518897
4	0xbdaead24	-0.08529118
5	0xbd23b041	-0.03996301
6	0xbd1fdde3	-0.039029967
7	0xbc6c5066	-0.014423465
8	0xbc7fcc75	-0.015612711
9	0xbd1c3587	-0.038136985
10	0xbd831b22	-0.064016595
11	0xbd6f095a	-0.058358528
12	0xbcc3596e	-0.023846354
13	0xbc572f92	-0.0131339
14	0xbdc326be	-0.09528874
15	0xbc1a842f	-0.009430929
16	0x3ca118f8	0.019665226
17	0xbbb6bb4b	-0.0055765263
18	0xbd8ec7fb	-0.06971737
19	0xbbfd415a	-0.007728738
20	0xbdec5828	-0.11540252
21	0xbd15349e	-0.036427133
22	0xbcc43da1	-0.023955168
23	0xbc116829	-0.008874931
24	0xbe0ecd44	-0.1394549
25	0x3bc0fa4f	0.005889214
26	0xbd680fd9	-0.05665574
27	0xbd57d33f	-0.052691694
28	0xbb9dea72	-0.004819208
29	0xbbaac0ff	-0.005210995
30	0xbb9debe3	-0.0048193797
31	0xbb4b4f2b	-0.003102253
32	0xbd32af82	-0.04362441
33	0xbcaae2e9	-0.020860152
34	0xbd12dcae	-0.035854988
35	0xbdabdf03	-0.083921455
36	0xbd2172b6	-0.039416037
37	0x3cf96399	0.030443
38	0xbafd6609	-0.0019332777
39	0xbd2e9014	-0.042617872
40	0xbb526020	-0.0032100752
41	0xbc3425fa	-0.010995382
42	0xbda2ffa8	-0.07958919
43	0xbc814b36	-0.015782934
44	0xbc70c4b2	-0.014695333
45	0xbc00ddc5	-0.007865374
46	0xbcd8028c	-0.026368402
47	0xbd02404c	-0.0317996
48	0x3b3b3b90	0.0028569438
49	0xbbf11b49	-0.007357989
50	0xbda7b7ad	-0.0818933
51	0xbd035ee2	-0.03207291
52	0x3d60a14a	0.054841317
53	0xbd2e1ded	-0.04250901
54	0x3bd84230	0.006599687
55	0x3d86ee8d	0.06588469
56	0xbd801a94	-0.062550694
57	0xbe2185ef	-0.15773748
58	0x3a6de159	0.0009074412
59	0xbdc96d74	-0.0983533
60	0xbcce41fe	-0.025177952
61	0xbcc1ed65	-0.023672769
62	0xbd27fbdd	-0.04101168
63	0xbd807830	-0.06272924
64	0xbd1a3718	-0.037650198
65	0x3a08dd02	0.0005220921
66	0xbe13773d	-0.14400955
67	0xbbb6623b	-0.005565909
68	0x3bc1dfe9	0.0059165847
69	0x3cb10fec	0.021614037
70	0xbc7430d8	-0.014904223
71	0x3c38ee42	0.011287274
72	0xbd415792	-0.047202654
73	0xbd4962c1	-0.049166445
74	0xbd533f10	-0.051573813
75	0xbc92ba3d	-0.017911071
76	0xbdd951ae	-0.10611282
77	0xbddc233e	-0.107489094
78	0xbbe0b516	-0.0068575246
79	0xbd6c24bb	-0.057652216
80	0xbb4065fd	-0.0029357665
81	0xbc865d32	-0.01640186
82	0x3c5afbff	0.013365745
83	0xbd118cf0	-0.0355348
84	0xbd3e34da	-0.046437122
85	0x3c84c412	0.016206775
86	0xbce22ccd	-0.027609253
87	0x3a9878bd	0.0011632662
88	0xbd0ae7eb	-0.03391258
89	0x3b65bf77	0.003505675
90	0xbc1d2e47	-0.009593553
91	0xbd301822	-0.042991765
92	0xbd32f503	-0.043690693
93	0xbd41a949	-0.047280584
94	0xbc9e6232	-0.019333933
95	0xbd980a2a	-0.07423814
96	0x39854252	0.0002541715
97	0xbc397277	-0.011318794
98	0xbd728d8f	-0.059217032
99	0xbd311ed7	-0.0432423
100	0xbd01940f	-0.03163534
101	0xbccd6267	-0.025071336
102	0xbc609f07	-0.01370979
103	0xbd03c6d6	-0.032172047
104	0xbd315e33	-0.043302726
105	0xbd25eb47	-0.04050758
106	0xbce35346	-0.027749669
107	0xbbe790f3	-0.00706684
108	0xbc8f63d4	-0.017503656
109	0xbd46c01c	-0.048523054
110	0xbd150f2f	-0.036391433
111	0xbdc122bc	-0.09430453
112	0x3c96fff7	0.0184326
113	0x3d8a0b73	0.06740465
114	0xbc364d8d	-0.011126888
115	0xbc8702bf	-0.016480802
116	0x3b8643e7	0.00409745
117	0xbd173a91	-0.036921088
118	0xbbe99197	-0.0071279514
119	0xbd58b9b9	-0.052911494
120	0xbd34caa4	-0.044138566
121	0x3cb9a481	0.02266145
122	0xbb3b2acc	-0.0028559444
123	0xbcb21df6	-0.021742802
124	0xbc79c877	-0.015245548
125	0xbc910211	-0.01770118
126	0xb9535d78	-0.00020157348
127	0x3b9cacfe	0.0047813645

network_body._body_endoder.seq_layers.2.weight f4 [128, 128]
0	0x3cc8b956	0.024502438
1	0x3ce285ad	0.027651632
2	0x3c76dd30	0.015067384
3	0xbd82525c	-0.06363365
4	0xbe5f5918	-0.2181133
5	0xbca75224	-0.02042491
6	0xba7f5de0	-0.00097414665
7	0x3e316897	0.17325054
8	0xb6f1f318	-7.2106595e-06
9	0x3d6f5659	0.058431957
10	0x3d08080d	0.033210803
11	0x3bd6cbc5	0.006555053
12	0xbd7eb1ba	-0.062181212
13	0x3d2210ff	0.03956699
14	0x3d96e179	0.07367224
15	0x3df4d763	0.11955144
16	0x3c0b75f1	0.008512006
17	0x3cba8481	0.02276826
18	0xbda6b227	-0.081394486
19	0x3b222f6b	0.0024747502
20	0x3d0db28e	0.03459411
21	0xbd170d74	-0.036878064
22	0xbdf3b0e1	-0.11898971
23	0x3d2852fb	0.04109476
24	0x3e093dae	0.13402435
25	0x3b992b8d	0.004674381
26	0x3e4bee9c	0.19915241
27	0xbbdaad69	-0.006673504
28	0x3b4a95e2	0.003091209
29	0x3db2e185	0.08734421
30	0xbc5cc574	-0.013474811
31	0xbdf29ce8	-0.11846334
32	0xbd4be3bc	-0.04977773
33	0xbe22bbc6	-0.15891942
34	0xbc85f453	-0.016351854
35	0xbe1b3735	-0.15157779
36	0x3d2e539e	0.042560212
37	0xbdb97112	-0.090547696
38	0x3d4dc2ce	0.05023461
39	0xbe056acb	-0.1302902
40	0x3d0742d5	0.03302272
41	0x3d611cfc	0.054959282
42	0x3d7f4f77	0.062331643
43	0xbd58612e	-0.052827053
44	0x3e4cff95	0.20019372
45	0x3db39bd9	0.0876996
46	0x3dae6a20	0.085163355
47	0x3d3e894b	0.04651765
48	0x3e25eeaf	0.16204332
49	0x3d0cf4fe	0.03441333
50	0x3ccab2dd	0.024743492
51	0xbc34ef53	-0.011043387
52	0x3d64e4c1	0.05588222
53	0x3df10ddd	0.11770222
54	0xbc85a50a	-0.016314048
55	0x3e010c23	0.12602286
56	0xbe381d0c	-0.1797983
57	0x3da89b3f	0.08232736
58	0x3de9f8f8	0.1142444
59	0x3e1003ce	0.14063951
60	0x3b16b703	0.0022997267
61	0x3c160124	0.009155545
62	0xbd306064	-0.043060675
63	0xbd5e9498	-0.05434093
64	0x3e082e6b	0.13298957
65	0xbde86420	-0.11347222
66	0xbd6ed23e	-0.05830597
67	0x3ce0f6c7	0.027461423
68	0xbd93390d	-0.07188616
69	0xbd7fe73b	-0.062476378
70	0xbc2d3a85	-0.010573034
71	0x3d516ba7	0.051128056
72	0x3dd865b8	0.10566276
73	0x36a1f2b8	4.82643e-06
74	0xbe1f536f	-0.15559171
75	0xbdc9c0ff	-0.09851264
76	0x3dc26df2	0.09493627
77	0xbdd5a82e	-0.10432468
78	0x3dd73345	0.10507826
79	0xbe1932d9	-0.14960803
80	0x3d41d9c8	0.047326833
81	0x3e4f916f	0.20270322
82	0xbcdcaf2a	-0.026938993
83	0xbd356199	-0.04428253
84	0x3a960006	0.0011444099
85	0xbd0a6bae	-0.033794098
86	0x3d317db3	0.043332767
87	0xbd93ea1f	-0.072223894
88	0x3ceb0360	0.028688133
89	0x3d2965dc	0.041356906
90	0xbe418197	-0.18897091
91	0x3c0e4b9d	0.00868502
92	0xbd310138	-0.043214053
93	0xbc797330	-0.015225217
94	0x3c8e2dbe	0.017355796
95	0x3c135600	0.008992672
96	0x3d9cbfac	0.07653746
97	0xbd622a2b	-0.055215996
98	0x3d3bf4ac	0.045887634
99	0xbd496748	-0.049170762
100	0xbdd3d6bc	-0.10343692
101	0x3e37002e	0.17871162
102	0x3e297d7f	0.16551779
103	0x3dd10892	0.10206713
104	0x3d93f0af	0.07223641
105	0x3b677a60	0.0035320744
106	0xbcddefd2	-0.027091894
107	0x3d691d05	0.05691244
108	0x3ccf2667	0.025286866
109	0x3d9e7c95	0.07738606
110	0xbd15830f	-0.03650194
111	0x3d151174	0.036393598
112	0x3dcad1db	0.09903308
113	0x3dbacf95	0.091216244
114	0x3deed6d6	0.116620705
115	0x3b745196	0.0037280074
116	0xbd91c74e	-0.071180925
117	0x3d56b9f6	0.05242344
118	0xbe322643	-0.17397408
119	0xbbe7da71	-0.007075601
120	0xbd6af35a	-0.057360984
121	0x3dd11c50	0.10210478
122	0x3de4891b	0.11158963
123	0xbd96a975	-0.0735654
124	0xbcc60e12	-0.024176631
125	0x3d37f308	0.044909507
126	0xbd8564c6	-0.06513362
127	0x3e118663	0.1421142
128	0xbc569933	-0.013098049
129	0x3c2d9eec	0.010596972
130	0xbde03d31	-0.10949171
131	0xbc124327	-0.008927143
132	0x3d404002	0.046936043
133	0x3d4cc069	0.049988184
134	0x3d62ecd1	0.055401627
135	0xbe09d70f	-0.13460945
136	0xbe04f4eb	-0.12984054
137	0x3e33778f	0.17526077
138	0xbdab97c7	-0.083785586
139	0xbdce5925	-0.10075597
140	0x3cad1fc9	0.02113332
141	0xbd669442	-0.056293733
142	0x3d340865	0.04395332
143	0x3d192de1	0.03739727
144	0x3e5069f1	0.20352913
145	0xbd3e4888	-0.04645589
146	0xbc1643ba	-0.009171421
147	0xbc57f4a5	-0.013180886
148	0xbd4e9e86	-0.05044415
149	0x3db87d28	0.09008247
150	0xbe1b37a0	-0.15157938
151	0xbcfb4149	-0.030670779
152	0xbdcf7ae2	-0.1013086
153	0x3dc44ffa	0.09585567
154	0x3e4d8839	0.20071496
155	0xbdb44448	-0.08802086
156	0xbe0b7eee	-0.13622639
157	0xbde6aec9	-0.112638064
158	0xbdd78673	-0.10523691
159	0xbdb8bef7	-0.09020799
160	0x3d843b24	0.06456593
161	0xbc8c931d	-0.017159993
162	0x3d5281ff	0.051393505
163	0xbd2696b2	-0.040671058
164	0x3d24207a	0.040070035
165	0x3deac8b9	0.11464066
166	0x3c939dd5	0.018019596
167	0x3b4cd0a5	0.0031252292
168	0x3d990b59	0.074728675
169	0xbe1a57b7	-0.15072523
170	0x3d85419a	0.06506653
171	0x3dd5de19	0.104427524
172	0xbdbd9ecc	-0.09258804
173	0xbe23b4b7	-0.15986906
174	0xbda8bc46	-0.08239035
175	0x3e295f09	0.1654016
176	0x3e413005	0.18865974
177	0xbe4aad7b	-0.1979274
178	0x3dfa6ba5	0.12227563
179	0xbd99af49	-0.07504136
180	0x3e2d42fd	0.16920085
181	0xbdf7038c	-0.120612234
182	0x3e1cf5af	0.15328096
183	0x3cea3b97	0.028592868
184	0x3e0729fc	0.1319961
185	0x3de9cec8	0.114163935
186	0x3d2b155a	0.04176841
187	0x3de12063	0.109925054
188	0x3c76deb1	0.015067742
189	0xbdf979c2	-0.121814266
190	0xbdd7c324	-0.10535267
191	0x3d9304f9	0.07178683
192	0x3d79e543	0.061009657
193	0xbbf9586c	-0.0076094177
194	0xbd5eab41	-0.05436254
195	0x3dda2907	0.106523566
196	0x3e35e09c	0.17761463
197	0x3d7ddb2c	0.061976597
198	0x3d7a6230	0.061128795
199	0xbe3c1811	-0.18368556
200	0xbc2e96cd	-0.010656071
201	0xbe12365f	-0.14278553
202	0x3e446943	0.19180779
203	0x3d8b7a94	0.06810489
204	0x3d881df8	0.06646341
205	0xbd923124	-0.07138279
206	0x3bbf7bd1	0.0058436175
207	0x3d672a4f	0.056436833
208	0xbccf77ef	-0.025325743
209	0x3d70aae5	0.058756728
210	0x3e09d719	0.1346096
211	0xbdf4b4c0	-0.11948538
212	0xbc735d5d	-0.0148538025
213	0xbd898e92	-0.06716646
214	0x3d0a02ac	0.033693954
215	0x3cef7c38	0.029234037
216	0xbd36cc58	-0.04462847
217	0xbe989418	-0.29800487
218	0xbe0bfb8b	-0.13670175
219	0x3eaa969c	0.3331803
220	0xbe23bab5	-0.15989192
221	0x3e312070	0.1729753
222	0xbdbdceab	-0.092679344
223	0x3d164f28	0.036696583
224	0xbc9cc142	-0.019135121
225	0xbcff5db2	-0.031172607
226	0x3d9059fb	0.070484124
227	0x3e84bd67	0.25925753
228	0xbd4aba8e	-0.04949432
229	0xbc194f85	-0.009357338
230	0x3c8329db	0.01601117
231	0xbdb09ada	-0.086232856
232	0xbc0ed85b	-0.008718575
233	0xbe05764b	-0.13033406
234	0x3c928d2b	0.01788958
235	0x3d56ff4a	0.052489556
236	0xbc79ee42	-0.015254559
237	0xbe1f555d	-0.15559907
238	0xbdd3783d	-0.10325668
239	0x3caf1d22	0.021376196
240	0x3cc05360	0.023477256
241	0xbd8dcfa6	-0.069243714
242	0x3df790ef	0.12088191
243	0x3db78e65	0.089627065
244	0x3caad039	0.020851241
245	0xbd80884d	-0.06275997
246	0xbe6e7830	-0.23288035
247	0xbc91c149	-0.01779236
248	0x3e01776e	0.12643215
249	0x3cac770d	0.021052862
250	0xbd5f7d61	-0.05456293
251	0x3b1b5be4	0.0023705894
252	0xbdc98589	-0.09839923
253	0xbdbf25b5	-0.09333364
254	0xbd65f9d2	-0.05614645
255	0x3dd13ade	0.10216306

network_body._body_endoder.seq_layers.2.bias f4 [128]
0	0xbcaf9c98	-0.021436974
1	0xbd13183b	-0.03591178
2	0xbd005b09	-0.031336818
3	0xbbcfca6e	-0.00634127
4	0xbb9072fa	-0.0044082375
5	0xbd0f8c60	-0.03504598
6	0xbc78d249	-0.015186855
7	0x3bae0d73	0.005311662
8	0xbc0959d3	-0.008383232
9	0x3ce2f995	0.0277069
10	0xb9d11cbe	-0.00039885
11	0xbd041a11	-0.03225142
12	0xbd72fdb7	-0.059323993
13	0xbcac071d	-0.020999486
14	0xbd1a1b85	-0.0376239
15	0xbb8adf58	-0.0042380504
16	0xbc587baa	-0.013213078
17	0x3cb6cf7e	0.022315737
18	0x3cb2c17b	0.021820774
19	0xbd2e9c0e	-0.042629294
20	0xbd0ebc61	-0.03484762
21	0x3ca64ef5	0.020301322
22	0xbd2fbe8d	-0.042906333
23	0xbcaa1692	-0.020762715
24	0xbd92a64c	-0.07160625
25	0x3caa3017	0.020774884
26	0xbc2908e3	-0.01031706
27	0xba9e3f00	-0.0012073219
28	0xbd98c33b	-0.07459112
29	0xbd5807e7	-0.05274191
30	0xbc3e9a58	-0.011633478
31	0xbcbdfff0	-0.02319333
32	0xbbfd8574	-0.007736856
33	0xbcf92d32	-0.030417059
34	0x3b90a515	0.0044142106
35	0xbaf20655	-0.0018465022
36	0xbc16aa62	-0.009195896
37	0xb8b3e9a6	-8.5789055e-05
38	0x3b369ac7	0.002786325
39	0xbb1fd2d2	-0.0024387133
40	0xbb93c16d	-0.004509142
41	0xba900840	-0.0010988787
42	0xbc86ea31	-0.016469093
43	0xba923103	-0.0011153523
44	0xbd2d1209	-0.042253528
45	0x3c2e1979	0.01062619
46	0xbc91d1cd	-0.017800236
47	0x3b143c82	0.0022619073
48	0x3a048b91	0.00050561974
49	0xbc661229	-0.014042416
50	0xbce8237f	-0.028337238
51	0xbb05b4c5	-0.0020401936
52	0xbd78296c	-0.060586378
53	0xbcbc3498	-0.022974297
54	0xbb70cbab	-0.003674249
55	0x3b8f7d46	0.0043789474
56	0xbd090635	-0.033453185
57	0xbab4e4a0	-0.0013801046
58	0xbd17b225	-0.037035126
59	0x3c53c40e	0.012925161
60	0xbca1ae17	-0.019736333
61	0xbc9db12a	-0.019249517
62	0xbb6ec6be	-0.0036434378
63	0xbc9ce6a3	-0.019152945
64	0xbc584395	-0.013199707
65	0x3b844532	0.004036569
66	0x3c628b50	0.01382716
67	0xbd746ef7	-0.059676137
68	0xbbbac2cf	-0.0056994925
69	0xbccd450a	-0.025057334
70	0xbd14ec4c	-0.036358163
71	0xbcfd82ca	-0.030946154
72	0xbd510762	-0.05103243
73	0x3bbd48b7	0.0057764906
74	0xbd06d0e6	-0.032914065
75	0xbbd59606	-0.0065181283
76	0x3bd71a3e	0.0065644076
77	0x3b1a2e09	0.0023525974
78	0xbcb7aa77	-0.022420151
79	0xbd1a9a79	-0.037744973
80	0xbcad5b9f	-0.021161852
81	0xbc788e8f	-0.015170707
82	0xbc23156c	-0.009953838
83	0xbbd286a2	-0.006424741
84	0x3c16fbce	0.009215308
85	0xbb7d0d71	-0.0038612748
86	0xbcc2049a	-0.023683835
87	0xbc31d150	-0.010853127
88	0xbd4ec252	-0.050478287
89	0xbd7b8e9c	-0.0614153
90	0x3c99fd7f	0.018797634
91	0xbc469cf9	-0.012122386
92	0xbca20950	-0.019779831
93	0xbca5b1db	-0.02022641
94	0x3cb8f420	0.022577345
95	0xbcf97536	-0.030451398
96	0xb9a7b3f1	-0.0003198679
97	0x3c25abbf	0.010111748
98	0x3b86fcad	0.004119477
99	0x3a24e4f1	0.00062902184
100	0xbc85cf35	-0.016334156
101	0xbc361b8f	-0.011114969
102	0xbca9be05	-0.020720491
103	0xbcb769dc	-0.022389345
104	0xbbd42fe6	-0.0064754365
105	0xbc0aefdd	-0.008480039
106	0xbca4359b	-0.020045092
107	0xbd3d54f8	-0.04622361
108	0x3c82736a	0.015924174
109	0xb9b6dcfd	-0.00034878394
110	0xbab88c61	-0.0014079922
111	0xbb9c382a	-0.0047674375
112	0xbd761b94	-0.060084894
113	0xbd261c66	-0.040554427
114	0xbc1eec72	-0.009699928
115	0xbc9d5e6f	-0.019210069
116	0x3c6932a6	0.014233267
117	0x3bd4a8dd	0.0064898566
118	0xbcb874f6	-0.022516709
119	0xbd33aae9	-0.043864165
120	0xbd8ff6a5	-0.070294656
121	0xbd0ef7f7	-0.034904446
122	0xbc04ad67	-0.008097983
123	0x3b225127	0.002476761
124	0x3b3f9e59	0.002923867
125	0xbc70f356	-0.014706453
126	0xbd2d7970	-0.04235214
127	0xbc1cdbd5	-0.009573896

action_model._continuous_distribution.log_sigma f4 [1, 2]
0	0xbee6fa4d	-0.4511284
1	0xbea398ca	-0.31952506

action_model._continuous_distribution.mu.weight f4 [2, 128]
0	0x3d0533e5	0.032520194
1	0x3c51b0e5	0.012798523
2	0xb9113ec9	-0.00013851667
3	0x3b4025ab	0.0029319327
4	0x3d1025d6	0.035192333
5	0x3c4edf68	0.012626506
6	0x387d29e6	6.035892e-05
7	0xbbb117a5	-0.00540443
8	0xb8731335	-5.7953603e-05
9	0xbd0400ec	-0.03222744
10	0xb830fcc5	-4.219708e-05
11	0x3cf65102	0.030067924
12	0x3bda8f86	0.0066699414
13	0x3cf0dccf	0.029402165
14	0x3c349640	0.0110221505
15	0x3b03f953	0.0020137622
16	0x3cd0bbb1	0.025480123
17	0xbc6c720c	-0.014431488
18	0xbc30ac7f	-0.010783314
19	0x3c2bc08d	0.010482919
20	0x3b02ea82	0.0019976203
21	0xbb45ded1	-0.0030192623
22	0xbb08c59e	-0.0020869742
23	0x3c84349d	0.01613837
24	0x3bac2f7f	0.0052546854
25	0xbcaf4ac5	-0.021397958
26	0x3c6a1aff	0.014288663
27	0x3c28f9e1	0.010313482
28	0x3ba4e0ee	0.0050316965
29	0x3b2590fd	0.0025263422
30	0x3c38f2c2	0.011288347
31	0x3a117f41	0.00055502733
32	0x36bbd75b	5.598105e-06
33	0xba4d99c9	-0.0007843045
34	0x3d122732	0.03568191
35	0x3b755c92	0.003743921
36	0xba1b4b79	-0.0005924027
37	0x3d0265cf	0.031835373
38	0xbbe88939	-0.0070964363
39	0xbc2286c3	-0.009919825
40	0x3cd499b9	0.025952207
41	0x3cc1b774	0.023647048
42	0x3d243564	0.04008998
43	0x3c957597	0.018244548
44	0x3c348583	0.01101816
45	0x3bc2a1bc	0.0059396904
46	0x3c3d44d1	0.011552052
47	0x3d0e76e6	0.03478136
48	0xbc305b50	-0.010763958
49	0x3b9a5f6a	0.0047110813
50	0xbae13290	-0.0017181206
51	0x34217c10	1.5039427e-07
52	0x3c1df5e7	0.009641147
53	0x3c20996a	0.009802202
54	0x3cb0035f	0.021485982
55	0xbc9b90e6	-0.018989991
56	0x3c0e54d5	0.008687218
57	0xbb617d10	-0.0034406818
58	0x3cbcf418	0.023065612
59	0xbc8147b2	-0.015781257
60	0x3c7ed101	0.01555276
61	0x396283e9	0.0002160218
62	0x3c94aa95	0.018147746
63	0x3d12aa1b	0.035806756
64	0xbb0153b4	-0.001973373
65	0x3c61d88d	0.01378454
66	0xbc2ff3c8	-0.010739274
67	0x3bd30827	0.006440181
68	0x3b3e9df9	0.0029085858
69	0xbb42d07a	-0.0029726312
70	0x3c22736a	0.009915212
71	0x38d42be9	0.00010117127
72	0x3aeb9e0f	0.0017976182
73	0xbc96172a	-0.018321592
74	0x3c560882	0.013063552
75	0x3b56fb1f	0.0032803488
76	0x39623d49	0.0002157587
77	0xbc9a2217	-0.018815083
78	0x37aa4e7c	2.0302126e-05
79	0x3c90c4a9	0.0176719
80	0xbb41ce89	-0.0029572567
81	0x3788bd88	1.630072e-05
82	0x3bfc0827	0.0076914015
83	0x3cec7dbd	0.02886855
84	0xbb9a671f	-0.004712
85	0x3d01b789	0.031669173
86	0x3d1ebf7a	0.038756825
87	0x3c567c5b	0.013091172
88	0x3c22229f	0.00989595
89	0x3bac9107	0.005266312
90	0xbc98fbc3	-0.018674737
91	0xb5d36d40	-1.5752521e-06
92	0x3cc136d9	0.023585724
93	0x3c19c8a6	0.009386217
94	0xbc16a3e3	-0.009194347
95	0x3b7e6649	0.003881829
96	0x3bfd4f90	0.007730432
97	0xbc14570d	-0.009053958
98	0xbb41ed99	-0.0029591082
99	0x3c156e9d	0.009120611
100	0x39d8e563	0.00041369637
101	0xba216dfa	-0.00061580504
102	0x3c96e3be	0.018419143
103	0xb94b6fe3	-0.0001940127
104	0x392d27d0	0.00016513397
105	0xb930397a	-0.0001680608
106	0xba584c67	-0.0008251131
107	0x3a53caff	0.000807926
108	0x3c420a5b	0.011843289
109	0x3ce6ce4a	0.028174538
110	0xbbbe4734	-0.005806828
111	0xba013530	-0.0004928885
112	0x3b37058d	0.0027926893
113	0xb9267c86	-0.00015877382
114	0x3bf977a3	0.0076131388
115	0x39b81938	0.00035114004
116	0xbc4efdee	-0.012633784
117	0xbcb059a4	-0.021527119
118	0xbb947185	-0.004530134
119	0x3c07cb19	0.008288168
120	0x3b8dedee	0.004331342
121	0x3b7daa37	0.0038706192
122	0x38ba41b4	8.881409e-05
123	0x3bcef9ae	0.006316385
124	0x3cb26e88	0.021781221
125	0x3c0fdc1e	0.008780507
126	0x3bf41306	0.007448557
127	0x3c3d3843	0.011549058
128	0xbc66ccd1	-0.014086918
129	0xbc84680f	-0.0161629
130	0xb783e409	-1.5722604e-05
131	0xbd06dc8f	-0.032925185
132	0xbd61068a	-0.054937877
133	0xbc84e7c4	-0.016223796
134	0xb783022e	-1.5617432e-05
135	0xbd94e547	-0.07270294
136	0xb790e3a3	-1.727214e-05
137	0x3d7a9acd	0.061182786
138	0xb8205314	-3.8224345e-05
139	0xbc240a68	-0.010012247
140	0xbbeb8df8	-0.007188555
141	0xbc6059cb	-0.013693283
142	0xbc6b8052	-0.014373856
143	0xbc842745	-0.016132006
144	0xbc7416f3	-0.01489805
145	0x3d5b9a0b	0.053613704
146	0x3d6861cf	0.056733903
147	0x3b160f3e	0.0022897269
148	0xbc95f420	-0.018304884
149	0x3d78d4e6	0.06074991
150	0xbc31a69e	-0.010842947
151	0xbc6f7388	-0.014614947
152	0xbbca4f72	-0.0061740214
153	0x3d3e92b8	0.04652664
154	0xbc8e134e	-0.01734319
155	0xbd4bd898	-0.049767107
156	0xbbd0257d	-0.006352125
157	0xbbd9ec1b	-0.0066504604
158	0xbd08ca19	-0.03339586
159	0x39f34658	0.00046400982
160	0xb7361eed	-1.0855246e-05
161	0x3b2fdcb8	0.002683444
162	0xbd93fe1a	-0.072262004
163	0xbd5f1c01	-0.054470066
164	0xb9b30e67	-0.0003415227
165	0xbcf58d4b	-0.0299746
166	0xbd0f778a	-0.03502611
167	0xbcef7a4a	-0.029233117
168	0xbd3ed5b3	-0.04659052
169	0xbd515087	-0.051102187
170	0xbcb2e6fc	-0.021838658
171	0xbc3fc11a	-0.011703754
172	0xbc462206	-0.012093073
173	0xbd5bfa9f	-0.053705808
174	0xbc7b6026	-0.015342748
175	0xbd33fb4f	-0.04394084
176	0x3c9f565c	0.019450359
177	0xbd55bfff	-0.052185055
178	0xbcc37b63	-0.023862546
179	0x3824c2dd	3.9282128e-05
180	0xbc025690	-0.007955208
181	0xbd4004b9	-0.046879504
182	0xbd118760	-0.035529494
183	0x3cdcff22	0.026977126
184	0xbc6d3202	-0.014477255
185	0x3cca001f	0.02465826
186	0xbc725d54	-0.014792759
187	0x3d354d71	0.044263307
188	0xbcb8a5ed	-0.022540057
189	0x392a8b94	0.0001626446
190	0xbd07822a	-0.03308312
191	0xbd29c852	-0.041450806
192	0xbcce6ed6	-0.025199335
193	0xbd259d52	-0.040433235
194	0x3d1ccbed	0.038280416
195	0xbbe3d123	-0.0069524213
196	0xbd83930a	-0.0642453
197	0xbb24d33c	-0.002515032
198	0xbc35b144	-0.011089627
199	0x39471ede	0.00018989618
200	0xbbf4c67d	-0.0074699507
201	0x3d008a42	0.031381853
202	0xbc672977	-0.014109007
203	0xbdbbf808	-0.091781676
204	0xb9e0bab0	-0.00042863702
205	0x3cc253c7	0.023721589
206	0x38dd1215	0.00010541469
207	0xbca3f800	-0.020015717
208	0xbd03b12c	-0.032151386
209	0x379a54be	1.8397692e-05
210	0xbd310ac9	-0.043223176
211	0xbcea44c2	-0.02859724
212	0x3d1d94b0	0.038471878
213	0xbd81abd8	-0.06331605
214	0xbcb188fa	-0.02167176
215	0xbd201bbc	-0.03908895
216	0xbbf993f2	-0.0076165134
217	0xbbd3d83a	-0.006464985
218	0x3d3ed3fa	0.046588875
219	0xbd6552e4	-0.055987254
220	0xbd167bfe	-0.036739342
221	0xbc895649	-0.016764777
222	0x3d7e9a2c	0.06215875
223	0xbc924ff9	-0.0178604
224	0xbd5724be	-0.052525274
225	0x3d2d564a	0.04231862
226	0xbb2055d3	-0.0024465218
227	0xbd728d25	-0.059216637
228	0x39ba3fcc	0.00035524217
229	0xb9b0b94c	-0.00033707393
230	0xbcb7c31a	-0.022431899
231	0xb90defac	-0.00013536093
232	0x3a204cbc	0.000611495
233	0xb8905c50	-6.8836496e-05
234	0xb9c24006	-0.00037050265
235	0xba024278	-0.0004969011
236	0xbd3ab637	-0.04558393
237	0xbcfd9653	-0.03095547
238	0x3d141b60	0.03615892
239	0xb7864756	-1.6007263e-05
240	0xbb71157f	-0.0036786494
241	0x377dea76	1.5134565e-05
242	0xbd2ad7ae	-0.041709594
243	0xba1ac45e	-0.0005903895
244	0x3d37779d	0.044791806
245	0x3cef041f	0.02917677
246	0x3c05fdce	0.0081781875
247	0xbc3a2769	-0.011361935
248	0xbb9801c8	-0.004638884
249	0xbc720390	-0.014771357
250	0x385fa85b	5.3324136e-05
251	0xbd233462	-0.039844878
252	0xbd4354a9	-0.04768816
253	0xbd2d8079	-0.04235885
254	0xbc2af349	-0.01043398
255	0xbd0899ba	-0.03334973

action_model._continuous_distribution.mu.bias f4 [2]
0	0xbc88add5	-0.016684452
1	0x3d347d49	0.044064794
