Client/Assets/MoveToGoal.onnx (onnx, 73526 bytes, 7 tensors)

network_body._body_endoder.seq_layers.0.weight f4 [128, 3]
000000 ac c4 2c 3f 0b d8 3f bf 49 8a 5e 3f 34 6f b7 3a
       0.674876 -0.7493903 0.86929756 0.0013994933
000010 2d 5b 48 bf f2 05 39 bf 8a 99 4f bf a0 95 b2 be
       -0.78264123 -0.72274697 -0.81093657 -0.3487978
000020 c4 94 9b bf 5c 7a 06 bf fe fd f0 3e bb 9a e3 3e
       -1.2154775 -0.52530456 0.4706878 0.44453987
000030 24 a4 d1 3e c9 fe d8 3f 07 6e 00 bf c0 77 c5 be
       0.40945542 1.6952754 -0.5016789 -0.38567924
000040 38 af 0f 3f c2 70 51 3d ba 3c 03 bf 2e c9 3b 3f
       0.5612674 0.051132925 -0.51264536 0.7335385
000050 e9 cd 1f 3e 32 b1 52 3f d3 2a a2 be 48 b7 ec 3e
       0.15605892 0.8230163 -0.31673297 0.46233582
000060 cc 0f a0 be b0 34 32 3f 17 6c 93 3f a1 81 8a 3e
       -0.31262052 0.69611645 1.1517361 0.27052024
000070 36 a8 da be 58 49 9b be f2 c0 07 be 21 75 d6 be
       -0.4270646 -0.30329394 -0.13257197 -0.41886237
000080 e7 52 c1 bd 43 21 37 3f 21 1e 92 3f a9 36 0b bf
       -0.094396405 0.7153513 1.1415445 -0.5438028
000090 93 21 b5 be 9b a8 c5 3e b0 13 3b 3e 0f 19 ad bd
       -0.35377178 0.38605198 0.18269229 -0.08452045
0000a0 56 42 84 3f ba 90 67 bf 9e 94 9e bf 21 f8 b3 be
       1.0332744 -0.9045521 -1.2389104 -0.35150245
0000b0 ff 0b d3 be e8 54 13 3e 89 9e 74 3e cb 9e 0e bf
       -0.4122009 0.14387858 0.23888601 -0.5571105
0000c0 3b 3f df be 67 df 5b 3e 17 c7 d8 be fb da 60 3f
       -0.4360293 0.2147194 -0.42339393 0.8783414
0000d0 66 90 23 3e 02 2b cc bc 53 04 2e 3c 6d 33 5c bf
       0.15973052 -0.024922851 0.010621148 -0.8601597
0000e0 2b c1 03 bc ed 96 06 3f a7 8b 5c bd 00 a2 17 bf
       -0.00804166 0.52574044 -0.05384412 -0.5923157
0000f0 e9 d3 27 3f 1f da 14 3f af 2b 92 3e da 5c 1c bf
       0.65557724 0.58145326 0.28548953 -0.6107918
000100 bb 55 f7 be d6 9e c1 bf 23 46 2d 3d f4 8b 07 3f
       -0.48307595 -1.5126598 0.042303216 0.52947927
000110 5e 29 1e bc 29 a2 83 3f c6 c8 54 3e e0 c2 c3 3d
       -0.009653417 1.0283862 0.20779714 0.09558654
000120 d8 ed 64 3e c8 55 35 3f 99 46 01 be ec 8e 51 3e
       0.22356355 0.70834017 -0.12624587 0.20464677
000130 58 28 ae 3b 05 fb ef 3d 84 13 9e bf 31 ea 29 bf
       0.005314868 0.117178 -1.2349706 -0.6637297
000140 0e a9 18 3f 9f 9a 1c be dd 51 84 3f ec 14 07 3d
       0.59632957 -0.15293358 1.0337483 0.032978937
000150 95 46 23 3f 0f 6a bb be 9f 23 f3 be c7 8a e1 3e
       0.63779575 -0.36604354 -0.47488114 0.4405119
000160 e6 79 fc 3e 5a be a3 3f 89 f7 1c bf d1 09 30 bf
       0.4931175 1.2792466 -0.6131521 -0.6876498
000170 8b e0 a2 bf 29 66 72 3f 21 75 99 bf 82 51 b1 bd
       -1.2724775 0.94687134 -1.198887 -0.086581245
000180 6a 5d c8 be ca 85 7a 3f 09 d0 00 3e 2b c8 6f 3f
       -0.3913377 0.97860396 0.12579359 0.9366481
000190 5c 11 f3 be 7d d5 bb 3c f2 f1 e0 3e c3 7a 0e bf
       -0.47474182 0.022928948 0.4393459 -0.5565607
0001a0 ae e4 3b 3f 3a e8 84 3e a7 9a 8c be 2d b4 87 bc
       0.7339581 0.25958425 -0.2746174 -0.016565407
0001b0 4e e9 41 3f 5f 85 14 bf 66 5f 4f 3d 47 60 28 be
       0.7574662 -0.5801601 0.05062809 -0.16442977
0001c0 11 ee 24 3e c7 34 0a bf c9 4c c5 be bb 38 20 3f
       0.1610644 -0.5398678 -0.38535145 0.62586564
0001d0 2a ad e2 3e a7 8b e7 be 1e c8 69 bd d3 e8 1f bf
       0.4427274 -0.45223734 -0.057075612 -0.62464637
0001e0 96 2c 81 3e 56 5b b9 be 27 22 11 bf f4 e8 0c bf
       0.2522933 -0.36202496 -0.5669274 -0.5504296
0001f0 6a c4 84 3e fa a5 54 3f 52 ce 23 bf 89 96 25 bf
       0.25931102 0.8306576 -0.63986695 -0.64682823
000200 6c 37 c8 3e 0e c1 07 bd eb 4f ee be ac d5 06 3e
       0.39104784 -0.033143096 -0.46545348 0.13167447
000210 53 a9 99 3f c4 ce 60 bc 70 24 29 be 4b 93 07 bf
       1.2004799 -0.013721172 -0.16517806 -0.52959126
000220 d2 11 fd be bf 2d 4a 3f 5a 90 8b be e9 c8 bd 3f
       -0.49427658 0.78976053 -0.2725857 1.4826938
000230 25 83 8d 3f 8c 83 1c bf e4 8d ef bd ef d8 89 3e
       1.1055647 -0.61138225 -0.11696985 0.2692332
000240 81 89 11 3f 9c 45 46 3f 07 56 7b 3e d9 b7 b8 3d
       0.5685044 0.77449965 0.24544536 0.09019441
000250 27 cf 01 3d db 3f 3d bc 9e 24 01 3e 63 30 0a be
       0.031691696 -0.011550869 0.12611625 -0.1349502
000260 6c bb cf bf e0 9c 83 bf d0 c4 7c bf 1f f3 ee 3d
       -1.6229072 -1.028225 -0.9873781 0.116674654
000270 a7 76 47 3d b4 98 fd 3e 82 31 06 bf 99 61 1b 3e
       0.04869714 0.49530566 -0.5241929 0.1517395
000280 02 77 1e 3f e5 bc 90 3e cf a7 20 bf 05 70 e3 3e
       0.6190034 0.28269115 -0.62756056 0.44421402
000290 59 1d c7 3d 70 91 05 bf 8b 8c 65 3f 62 17 fa be
       0.097223945 -0.52175045 0.89667577 -0.48845965
0002a0 c6 24 a1 3e d2 4d e2 3f 04 2c d6 be 22 62 ce 3e
       0.31473368 1.7679999 -0.41830456 0.40309244
0002b0 7e f4 9a bf 2a 49 78 3f c3 4a 24 be e1 a6 95 be
       -1.2105863 0.9698664 -0.16044144 -0.2922888
0002c0 e9 1d 38 3d bc d0 21 3f 66 3e 83 3e 44 a7 31 bf
       0.0449504 0.6320913 0.25633544 -0.6939585
0002d0 f5 69 05 bf cd e7 5f 3d 5a 16 95 be 3a db e2 3e
       -0.521148 0.05466442 -0.29118615 0.44307882
0002e0 5f a9 6a 3f 24 98 a8 bf f8 d5 28 bf cc a0 53 be
       0.9166469 -1.317143 -0.6595149 -0.20666808
0002f0 9c 8f 5d bf 66 af 0d 3f 73 e5 dc 3e 3d 3a 8d bf
       -0.86547256 0.5534576 0.43143806 -1.1033398
000300 89 df 65 bf da 48 00 3f f1 db 4c 3f a5 5a e2 3d
       -0.8979421 0.5011116 0.80023104 0.11052445
000310 9c 22 16 3f ae f6 14 3e 91 55 a6 3e cf 58 df be
       0.5864656 0.14547226 0.32487157 -0.43622443
000320 9b 10 5e be a7 37 87 bf 33 d4 4a bf ef 2b 04 bf
       -0.21686022 -1.0563859 -0.7923004 -0.5162954
000330 14 58 b1 3e 23 06 4f be 4b f1 73 bf bf 82 ba 3c
       0.3463751 -0.20217185 -0.9529006 0.022767423
000340 35 86 c4 be 46 9d ff 3d dc 53 a2 be c9 fb e1 3d
       -0.38383642 0.124811694 -0.31704605 0.11034352
000350 04 67 06 be ab 60 4e 3f dc 7c 0c 3f bb 49 6d bf
       -0.13125235 0.80616254 0.5487802 -0.9269063
000360 c7 00 b2 be 9f 56 d9 be 1a 02 17 3f 3d 7e 0f bf
       -0.34766218 -0.424489 0.5898758 -0.56052
000370 f3 95 52 3e d0 16 b6 bc 61 fd ea 3e 81 ec a0 3e
       0.20565014 -0.022227675 0.45896438 0.31430438
000380 f3 f9 55 ba 55 23 15 bf 73 42 ae 3e 05 e0 b3 3d
       -0.00081625505 -0.5825704 0.34035072 0.08782963
000390 aa da cf 3e b9 97 2b bf 6d f4 7d 3f 2c 72 e2 be
       0.40596515 -0.67028385 0.9920109 -0.4422773
0003a0 42 10 6b 3f 04 43 9b bf 5a 00 f6 be 3b 19 83 bf
       0.9182168 -1.2129827 -0.48047143 -1.0242075
0003b0 e3 0c ab 3d 32 7e 9c be 77 9a 21 bf 1b 3d 88 be
       0.08352067 -0.3056503 -0.6312632 -0.2660912
0003c0 e5 6a 1e bf 26 df 59 bf e8 58 3a 3e bf 87 82 bf
       -0.6188186 -0.8510612 0.18197978 -1.0197676
0003d0 80 ff 89 3e b1 07 bb 3e e7 00 6d 3f cc fb 08 3f
       0.26952744 0.36529306 0.925795 0.5350921
0003e0 31 7e 65 bf c9 59 d3 be c2 4a d0 be 0e 53 33 3f
       -0.8964568 -0.41279438 -0.40682036 0.70048606
0003f0 45 2c 56 bf 81 4e 47 be 44 36 d3 be 22 32 13 c0
       -0.836613 -0.1946354 -0.4125234 -2.2999349

network_body._body_endoder.seq_layers.0.bias f4 [128]
000000 78 8b cc bc 98 fe 11 bd 2b fe bf bb a3 64 f9 bc
       -0.024968848 -0.03564319 -0.0058591566 -0.030443495
000010 b2 57 98 bd 89 05 ba 3d 0c 51 15 bd 7f 86 3d bd
       -0.074386016 0.09083087 -0.036454245 -0.046270844
000020 e7 88 83 bc 03 2f 0f 3d 5f c9 32 3d 59 7c c3 bd
       -0.016056491 0.034956943 0.043649074 -0.09545202
000030 56 27 09 bd ef 55 89 be a3 44 9f bd 0e 81 8c bd
       -0.03348478 -0.26823375 -0.07776763 -0.06860553
000040 c9 81 0f be b8 f1 98 bd 2f 3b 18 bd 8c f4 8c be
       -0.14014353 -0.07467979 -0.037165817 -0.27530324
000050 19 05 a2 bd 82 d9 92 bd ed 9f 03 bc 5a e8 84 bd
       -0.079111286 -0.071703926 -0.008033735 -0.0648963
000060 ef a6 d4 bc c0 be 4e bd 7f 38 03 bd cf c5 99 bd
       -0.025958506 -0.050474882 -0.0320363 -0.07508432
000070 e7 53 04 3b a2 46 29 be b6 c8 2d be 2a 64 98 bc
       0.0020191611 -0.1653085 -0.16971096 -0.01860245
000080 61 13 09 be 4c 45 60 bd de a5 16 bc b5 98 d5 bd
       -0.13386299 -0.054753587 -0.009194819 -0.10429517
000090 6d e5 33 bd 0c 04 aa bd 67 79 81 bc bc 3a 8a be
       -0.04391997 -0.08301553 -0.01580496 -0.26997936
0000a0 45 99 3b bd 85 54 82 bd 31 15 c3 bc 27 05 89 bd
       -0.045800466 -0.06363777 -0.023813816 -0.06690436
0000b0 51 3d 99 bc 64 0a 0a bd 6f 79 19 be 86 97 5a be
       -0.018705996 -0.033701316 -0.1498773 -0.21346864
0000c0 c4 6d 15 bb 08 9c 1f ba 09 99 4b bd 53 b5 c0 3c
       -0.002280102 -0.0006088619 -0.049706493 0.023523962
0000d0 48 6d 1c be ad 4b db bc a4 ed ca bd 1b 01 5e be
       -0.15276062 -0.026769483 -0.099086076 -0.21680109
0000e0 60 2c 8a bc 8b 31 d6 bc 44 5c b5 bc 3e 79 b1 bd
       -0.016866863 -0.02614667 -0.022138722 -0.08665703
0000f0 54 3a e6 bd 9a 4c ce bd 8d a7 51 be 8a 45 af bd
       -0.11241594 -0.10073204 -0.20474072 -0.085581854
000100 5d 83 1d bc ee 34 4b 39 05 e5 88 bc 7a ad a3 bd
       -0.009613839 0.00019379306 -0.016710768 -0.079920724
000110 95 03 9b ba 1e ff 62 bd 3a 60 20 bc 24 a3 ad be
       -0.0011826629 -0.05541908 -0.009788567 -0.3391353
000120 87 34 8b bd 9b 13 87 3d 4c 13 99 be b3 21 5d bd
       -0.06797128 0.06595536 -0.29897535 -0.053987216
000130 44 5f 80 bd 58 a4 5a be 8a 43 4a be 3a c2 0e bd
       -0.062681705 -0.21351755 -0.19752327 -0.034853198
000140 bc 38 f6 ba 37 09 1b be da 2d 3f bd 9c a0 60 bc
       -0.0018785219 -0.15140234 -0.046674587 -0.013710167
000150 bc 01 89 bd cd d2 28 be de cc 86 3d 81 23 93 3c
       -0.06689784 -0.16486664 0.06582044 0.017961266
000160 4c 77 55 bd ff 79 eb bd 33 a8 eb bd 1b 44 2b be
       -0.052115723 -0.11497878 -0.11506691 -0.16725199
000170 1b 95 d4 bc 00 cc 50 3c cc f0 73 bc 0e 55 02 be
       -0.025950005 0.01274395 -0.014888953 -0.12727758
000180 0b 76 aa 3c 6f 95 00 3c 96 5c 71 bc 93 08 0e be
       0.02080824 0.007848128 -0.014731547 -0.13870458
000190 eb b4 60 be 08 89 ad bd a0 70 9a bd 55 ff 05 bd
       -0.21944015 -0.08473402 -0.07541013 -0.032714207
0001a0 15 4c 6c bd fb 7d f1 bd b0 9a 70 be a7 98 1c bd
       -0.057689745 -0.11791607 -0.23496509 -0.038231518
0001b0 d6 28 bb 3d eb 66 69 bd f7 8b 8f bd 64 52 34 be
       0.09138648 -0.056982916 -0.07009118 -0.17609555
0001c0 53 83 3c bd c2 5c 87 bd ef 46 75 bc ec 57 a2 bc
       -0.046023678 -0.06609489 -0.014970525 -0.019817315
0001d0 17 30 c9 bd 7c 31 0f be 90 d0 76 bd 11 28 0e 3a
       -0.098236255 -0.1398372 -0.060257494 0.00054228405
0001e0 70 d4 c9 bb ff 3b b9 bd d2 cf 1d 3d 77 54 b3 bd
       -0.0061593577 -0.090446465 0.03852827 -0.08756345
0001f0 af 30 95 bd fe 31 81 bd 90 d7 27 bb 9d f2 28 be
       -0.07284676 -0.063083634 -0.0025610663 -0.164988

network_body._body_endoder.seq_layers.2.weight f4 [128, 128]
000000 9b c4 93 bd 9a c2 31 3e a6 11 ad bd 77 ce d4 bd
       -0.07215234 0.17359391 -0.08450632 -0.103909425
000010 45 98 15 3b 44 db 88 3d f1 dc 4b bd a8 b8 95 bd
       0.0022826355 0.066824466 -0.049771253 -0.07310611
000020 59 91 07 be ac 51 c3 3c d4 3a d0 bc 28 b8 ca 3d
       -0.1323904 0.023842655 -0.025418676 0.09898406
000030 45 6a 06 be f9 48 58 bd 8f 7a 18 3e 36 cd 6f bc
       -0.13126476 -0.052803967 0.14890502 -0.014636328
000040 97 25 c7 3c e0 63 f7 bd c8 3e 08 be 67 da bd 3d
       0.024309916 -0.120795965 -0.13305199 0.092701726
000050 ad e1 c1 bd 55 76 8d 3d 06 4a 0f be 69 3b 86 be
       -0.09466872 0.06907336 -0.13993081 -0.262172
000060 0d b2 a4 3c 0a b1 e3 bd 19 53 10 3d 2c c1 0f be
       0.020104432 -0.11117752 0.035235498 -0.14038533
000070 d0 58 eb 3d cc c5 ae bd c2 66 6a 3d 23 4a ef bd
       0.11491549 -0.085338205 0.057226904 -0.11684062
000080 14 0f 2b be 29 61 9a 3d d0 a9 f3 3c f4 a3 e6 bc
       -0.1670497 0.07538063 0.029744059 -0.02815435
000090 11 5d 7d bc 34 3e 54 3e 15 76 82 be f2 e4 d3 3c
       -0.015464083 0.20726854 -0.25480714 0.025866006
0000a0 73 0b 41 3c 80 c8 fd bb da 62 31 be f2 9a a9 3d
       0.011782515 -0.0077448487 -0.17322865 0.082815066
0000b0 d8 8c a2 bd 07 7b cd bd 8d c5 49 be 16 a8 a3 be
       -0.0793702 -0.10033231 -0.19704266 -0.31964177
0000c0 eb 0e fe bd 04 64 a4 3d fa 19 df bd 00 67 df 3d
       -0.12405189 0.08026889 -0.108936265 0.109083176
0000d0 ef ae db 3d a7 e2 92 3a fb 14 fb bd 66 4f f7 3d
       0.10726725 0.0011206464 -0.12259861 0.12075691
0000e0 19 eb 95 bd 34 45 ea bd 48 80 fd bd 4f c4 0a 3e
       -0.07320232 -0.11438981 -0.12377983 0.13551448
0000f0 f9 20 fe 3d 93 94 e8 3d 12 2f a8 3d 1f 7c 6d 3d
       0.12408633 0.11356463 0.08212103 0.0579797
000100 7f fb 86 3a 73 6d f6 3c 09 42 c0 3d 76 5f 7a bd
       0.001029834 0.030081486 0.09387595 -0.061126195
000110 24 23 3c bd d3 e0 1c 3c f1 9e 5f 3e 5d d9 04 3e
       -0.04593195 0.009575087 0.21837975 0.12973543
000120 47 f0 0c bd 58 0d d7 bd 93 31 8e be 40 a5 5c 3b
       -0.034408834 -0.10500592 -0.27772197 0.0033667833
000130 2c 05 f2 3c a4 be 3f 3e 38 a0 a5 bd 3d e0 c9 3d
       0.029543482 0.18725067 -0.080872 0.09857223
000140 2a 1c 49 bd 95 99 6c be 14 a7 9c bb 5f 9c 06 be
       -0.049099125 -0.23105462 -0.0047806595 -0.13145588
000150 b4 fe c1 3d c3 91 ba 3d 59 6f aa 3d 83 2a 5b 3d
       0.09472409 0.09109833 0.08322019 0.05350734
000160 e5 45 99 bd f6 db eb bd 1e aa 41 be 4d 58 bf 3d
       -0.074840344 -0.115165636 -0.18912551 0.09343014
000170 68 b9 7a 3e 8f 8b 5c 3d 1b 5a cb bc 4b b0 eb 3d
       0.2448479 0.05384403 -0.02482324 0.115082346
000180 43 01 4b bd 60 a9 17 3d db 5d 85 bd 39 f1 86 bd
       -0.04956175 0.037026763 -0.06512042 -0.06588978
000190 06 03 6a bd 44 45 b1 bd 08 34 a0 3c 1e 50 9b bd
       -0.05713179 -0.086557895 0.01955606 -0.075836405
0001a0 0d 5a 2d be b8 4c 8f 3d d5 08 73 bc 9e a3 0d be
       -0.16928883 0.06997055 -0.014833649 -0.13831946
0001b0 42 55 17 3d 30 ac ce bd be 09 1d 3e 52 fc 8f bd
       0.036946543 -0.10091436 0.15335748 -0.07030548
0001c0 3f 37 81 3d 23 b2 c2 3d 7b da 4d 3d 08 a6 09 3c
       0.063093655 0.09506633 0.050257187 0.008401401
0001d0 ac d6 73 bb 7f a5 3f be 82 84 3a be bf 79 92 3d
       -0.0037206812 -0.18715475 -0.1821461 0.071521275
0001e0 95 4d 9c 3d b7 d0 b1 bc 92 91 86 3d ee f9 09 3e
       0.07631985 -0.021705968 0.06570734 0.13474247
0001f0 d6 b7 4e be ae b8 16 bc ef 3e 3c be 23 77 26 be
       -0.20187315 -0.0091993045 -0.18383382 -0.16256385
000200 f1 97 22 be 78 1d 06 3e ad 4a 8a 3d 8f 03 31 be
       -0.15878274 0.13097179 0.067525245 -0.17286514
000210 ba 9b 00 3e 95 bc 30 3e 3f 61 a2 bd 6a 2f e8 bd
       0.12559405 0.17259438 -0.079287045 -0.113371685
000220 9e 33 d1 bd 65 b8 f4 3d 6c 20 a7 3d c0 77 31 3e
       -0.10214923 0.11949233 0.08160481 0.17330837
000230 1a 01 17 be 7c 48 6f 3d d8 d3 6b 3d e7 81 7a 3d
       -0.14746514 0.058418736 0.057575077 0.06115904
000240 cb 0e 2c bd d5 45 93 3d 67 3e 41 bd df cd 01 3e
       -0.042006295 0.07191054 -0.047178652 0.1267619
000250 05 19 3c 3b 7d 07 35 3c 81 71 25 bd eb ec 3a 3d
       0.0028701436 0.011049149 -0.04039145 0.0456361
000260 e8 e0 3c bb 2c a3 3a be c0 a4 1b bd 5d b3 a6 3d
       -0.0028820578 -0.18226308 -0.037998915 0.081396796
000270 3f 46 b2 bc 8d 1d 16 be 0a 38 44 3e c2 ce 56 be
       -0.021762012 -0.1465971 0.19162002 -0.2097731
000280 d3 cc 25 3c 46 89 11 be 06 de 74 be 3e 57 1b 3c
       0.010119635 -0.14212522 -0.2391282 0.009481249
000290 ad 0a a8 bd d6 fe 63 bd 6a f0 c5 bd 35 5b 22 bc
       -0.08205161 -0.055662952 -0.09664996 -0.009909441
0002a0 c9 8e d8 3d 3d 02 f0 bc 58 29 c2 3b a2 1e 37 bd
       0.10574109 -0.029297942 0.0059253387 -0.044706948
0002b0 5f 8b 35 bd 63 15 db bc 2f 19 f5 bd 1c 38 9d 3c
       -0.044322368 -0.026743596 -0.11967694 0.019191794
0002c0 47 98 93 bd df dc ab 3d 13 d3 04 3e 6e 2b 81 3c
       -0.07206779 0.08391737 0.12971143 0.01576778
0002d0 00 6e 6b 3b 33 1d 70 bd 41 0c c7 bc 22 09 c5 3c
       0.003592372 -0.058621597 -0.024297835 0.024052206
0002e0 d0 f5 84 3d 17 4b d3 bd 3f 42 ec bd 94 3a 6b 3d
       0.064921975 -0.103170566 -0.11536073 0.05742891
0002f0 5d 11 61 3e 0c 82 48 be 3c 62 d0 3c 77 f3 02 3e
       0.2197928 -0.19580859 0.025437467 0.12788187
000300 18 58 9f bd 94 1d 80 be 1d 55 d6 3d a6 23 9c 3d
       -0.077804744 -0.25022566 0.10465453 0.07623987
000310 70 ab 5c 3d 2d f6 f0 bd 71 3b 27 3e ab d2 74 bd
       0.053874433 -0.11765704 0.16331269 -0.05977122
000320 21 12 a7 3c d1 14 fe 3c ff 7e 36 be 35 00 cf bd
       0.020394387 0.031015785 -0.17821883 -0.10107461
000330 9f e6 22 3e bf b3 aa 3d d9 31 47 3d 56 5e 45 3e
       0.15908287 0.08335065 0.048631523 0.19274268
000340 ca 81 36 be 2c cd ce bd 24 52 12 3e fe 05 19 3d
       -0.17822948 -0.10097727 0.14289147 0.03735923
000350 c5 0b a6 3d 4b 49 05 be 94 d2 8b 3e f7 e6 2c 3d
       0.081077136 -0.1301624 0.27309096 0.042212453
000360 b1 ff 9b 3c 31 82 3e bd ae 89 9a bd ac 71 f3 3d
       0.019042822 -0.04651088 -0.075457916 0.118869156
000370 ff 1c 42 3e 4a b6 42 3e fb dc d5 bc 9e ac 8c bd
       0.18956374 0.1901485 -0.026106348 -0.068688616
000380 d2 c5 ca 3d 89 0d 7a be cd 17 00 3c 5e 9c d0 3d
       0.099010125 -0.24419226 0.007818175 0.10186075
000390 48 ea 74 3d a1 6d fe bc 7b e8 43 be 03 21 48 3d
       0.05979374 -0.031058135 -0.19131653 0.048859607
0003a0 f1 38 95 3d 80 b4 8a 3c f2 6e f1 3d 6c 6b c0 bd
       0.07286251 0.016931772 0.11788739 -0.09395489
0003b0 4e bc 5f bd a4 a7 b7 3d 33 d2 59 3d 55 27 63 bc
       -0.05462294 0.08967522 0.053178977 -0.013864358
0003c0 8d 8e 3b 3e 0c 9d 06 3e 1f 2f 01 3e 04 4c 08 3e
       0.18316098 0.13145846 0.12615632 0.13310248
0003d0 79 b7 9e 3d 82 7a db bc 22 5e 23 be 6e 85 99 3e
       0.077498384 -0.026791815 -0.15953878 0.2998461
0003e0 bb 4b 32 ba de 9b 28 be 66 7e 0b 3d 34 7d 16 3d
       -0.0006801446 -0.16465709 0.03405609 0.036740497
0003f0 3c 44 05 be 55 77 0b be 87 74 21 bd a7 4c 7b bd
       -0.1301431 -0.1361974 -0.03941777 -0.0613524

network_body._body_endoder.seq_layers.2.bias f4 [128]
000000 79 ce a7 bd d0 0f 8c bd 82 c4 5e bc c0 37 88 bb
       -0.081936784 -0.068389535 -0.013596656 -0.0041570365
000010 1a be b7 bd 2f 48 b1 bd 2b b2 33 ba 89 fd ca bd
       -0.08971806 -0.08656346 -0.0006854857 -0.09911639
000020 f9 64 d0 bd d8 46 d4 bc ab 92 e6 bc f2 86 91 bc
       -0.10175509 -0.025912687 -0.028146109 -0.017764542
000030 1b 79 bd bd c2 90 f3 ba a1 e8 75 3b 0b bf 96 bc
       -0.09251615 -0.001858257 0.003752269 -0.018401643
000040 1f 12 34 bd cd 6a b2 bd 32 40 cc 3b fe e0 95 bc
       -0.043962594 -0.08711777 0.0062332386 -0.018295761
000050 e2 38 b0 bd f8 cb af bd 75 b2 b8 bc 77 c4 f8 bc
       -0.086045995 -0.08583826 -0.022546032 -0.03036712
000060 4b c1 99 bc 91 5e a2 bb ad 1f 85 bc 80 3b 83 bd
       -0.018768927 -0.004955121 -0.016250456 -0.06407833
000070 be 75 ca bd 58 62 f6 bd 1f 85 bf bd e5 1c 4b bd
       -0.09885739 -0.12030476 -0.09351563 -0.049588103
000080 d5 02 aa bd 66 46 af bd 61 0c 99 bc 88 f7 9f bd
       -0.083013214 -0.08558349 -0.01868266 -0.07810885
000090 66 ee b1 bd 8a 0a b7 bd 32 96 d5 3c 7b 06 ab bd
       -0.08688049 -0.08937557 0.026072595 -0.083508454
0000a0 ae 5e ea bc 2e 83 17 bd a9 33 7a bd ac 60 c3 bb
       -0.0286096 -0.036990337 -0.061084423 -0.005962452
0000b0 56 6c 06 bc 05 c8 a8 bd ab 91 dd bd 26 52 59 bb
       -0.00820454 -0.08241276 -0.108187996 -0.0033160537
0000c0 b9 9e 43 bd 78 10 c6 bd bc 07 ba bd 10 2c b8 bc
       -0.04775879 -0.0967111 -0.090835065 -0.022481948
0000d0 2d 1a 73 bd 4f ec b0 3c 92 9d 80 bd 96 a4 45 bc
       -0.059351135 0.021597056 -0.06280054 -0.012063166
0000e0 1d fd 58 bd de 71 df bd 50 1f 03 bd da 83 c6 bd
       -0.052975763 -0.1091039 -0.032012284 -0.096931174
0000f0 7a b3 c2 3c 4c d1 1c bd b7 9e a8 bd ac b2 bd bd
       0.023767222 -0.03828554 -0.082333975 -0.092625946
000100 87 17 de bc 24 a3 8b bd a9 a0 af bd b1 3c 94 bd
       -0.027110828 -0.06818226 -0.08575565 -0.072381385
000110 f7 da 20 3c 5c d5 cf bc 9e 06 56 bc 27 57 4a bd
       0.00981783 -0.025370292 -0.013063101 -0.04939952
000120 e0 c2 89 bd a6 c7 15 bd d6 91 c0 bc d5 89 db bd
       -0.067266226 -0.036567353 -0.02350704 -0.10719649
000130 4d 54 ac 3c 62 e4 ca bd db 5b c8 bd 9c 67 25 3c
       0.021036291 -0.09906842 -0.09783145 0.010095503
000140 2e 94 c4 bd f6 37 de bd 3d 3e a7 bd 7f 40 a0 bc
       -0.095985755 -0.108505175 -0.08166168 -0.019562004
000150 59 d2 7a bc af f4 07 bc 4a 58 c2 bd 38 fb 52 bd
       -0.01530894 -0.008298083 -0.09489496 -0.051509112
000160 20 ad 82 bd b2 b6 b2 bd d0 e3 93 bd 1a 1d 35 bd
       -0.06380677 -0.087262526 -0.07221186 -0.044217207
000170 e2 f4 a8 bd 32 c7 1a bd c5 53 9c bd d4 d2 7d bd
       -0.08249833 -0.037787624 -0.07633165 -0.06196864
000180 00 98 a4 bd 6b 5a 5b 3c da 1d 34 bc 9f 29 b5 bd
       -0.08036804 0.013388257 -0.010993445 -0.08845829
000190 4b 9b 0b bd ce 0b 9e bb 30 d5 49 3b cd 54 e7 bd
       -0.034083646 -0.0048231846 0.0030797236 -0.11295471
0001a0 9b 82 7a bd 93 0a a9 bd e2 95 65 bc c2 4c ba bd
       -0.06115971 -0.0825397 -0.014012786 -0.09096672
0001b0 9e 75 2d bd e4 ea c3 bd 9c 07 58 3b fd 5b 94 bb
       -0.042348497 -0.09566286 0.003296352 -0.0045275674
0001c0 c4 d8 89 bd 87 b3 ca bc 37 78 a8 bd 89 6b a5 bd
       -0.06730798 -0.024743808 -0.08226054 -0.08077151
0001d0 d6 88 9a bb a9 a5 af bd 8f 23 86 bc 70 a4 01 bd
       -0.004716019 -0.08576519 -0.016374378 -0.03165096
0001e0 95 ca d6 bd ef 27 a4 bc 61 b5 e2 bd ee 6b b7 bc
       -0.10487858 -0.020038573 -0.110697515 -0.022390332
0001f0 66 33 96 bd cc 0a d6 bd c7 ca a1 bd bd 10 db bc
       -0.07334022 -0.10451278 -0.07900005 -0.02674138

action_model._continuous_distribution.log_sigma f4 [1, 2]
000000 30 49 ed bf bc 29 87 be
       -1.853796 -0.26399028

action_model._continuous_distribution.mu.weight f4 [2, 128]
000000 6e cb 02 bb d5 d5 b0 ba f3 41 72 bd 30 d0 b2 bc
       -0.001995768 -0.0013491461 -0.059144925 -0.021827787
000010 9e d0 29 bb c9 58 76 ba 95 af 61 bd db 72 8d ba
       -0.00259117 -0.00093973853 -0.05509909 -0.0010791676
000020 a7 4b 06 bb 09 15 6b bc 4d 48 a1 39 27 38 06 bb
       -0.002049187 -0.014348277 0.0003076218 -0.0020480247
000030 02 ef 85 bb 68 30 80 3c e4 ab 46 bd 18 4a 08 bd
       -0.00408733 0.015648082 -0.04850377 -0.033273786
000040 48 e1 01 bc fc 27 a1 ba 20 6c 74 bd 4a cf 21 bd
       -0.007927246 -0.0012295241 -0.05967343 -0.039504327
000050 ac c5 21 bb 32 93 26 bb 76 77 0b bd 8c f7 62 bc
       -0.0024684472 -0.0025417325 -0.034049474 -0.013852965
000060 9d c5 74 3b 08 5a 33 bd 2c be 12 bc 71 7a 3e bc
       0.0037349232 -0.043787032 -0.008956473 -0.011625872
000070 de bd 07 bb 17 9b 56 ba b6 67 04 ba 1a 58 a9 bc
       -0.0020712535 -0.00081865623 -0.00050508545 -0.020671893
000080 27 f5 eb b9 07 f7 79 ba 5c 82 2d bd ff 95 81 bb
       -0.00045005346 -0.0009535406 -0.04236065 -0.0039546485
000090 3d 1d c7 b9 2c 62 88 ba d9 47 6a 3d 2b 8f 5c ba
       -0.00037978022 -0.0010405234 0.057197426 -0.00084136677
0000a0 d5 8b 3d bc 33 9c 80 bb 75 93 09 bc 27 cb 13 bd
       -0.011568983 -0.0039248704 -0.008396973 -0.036082413
0000b0 96 e7 ac bc bc bd 83 39 95 a5 4c ba 3f e7 c0 bc
       -0.021106523 0.0002512763 -0.0007806656 -0.023547767
0000c0 d5 48 1e ba 5d 99 18 bb 32 4a 68 bb 09 e1 bd 38
       -0.00060380745 -0.002328477 -0.0035444614 9.054138e-05
0000d0 60 72 06 ba 99 83 53 3d 11 14 16 bc e9 93 87 bd
       -0.00051287375 0.051639173 -0.009160058 -0.066200085
0000e0 32 d8 1e ba 62 2a d6 b9 ee f8 0a bc 37 d9 ad ba
       -0.00060594373 -0.00040848838 -0.008482201 -0.0013263588
0000f0 a6 1c 2f 3d 07 fa 0f b9 a4 bd a1 ba 8c 6a 5d bb
       0.04275193 -0.00013730685 -0.0012339843 -0.003378543
000100 18 a7 31 bd ad c7 07 39 1e 62 bc b8 15 bb 2d bb
       -0.043372244 0.00012948988 -8.982814e-05 -0.0026509215
000110 55 3d 5a bd 1f 63 cc 37 96 c2 28 bd f7 73 fc ba
       -0.053281147 2.4364852e-05 -0.041201197 -0.0019260634
000120 20 2e 8d ba 2d 46 8d bc d8 d5 20 bb c4 f1 1a ba
       -0.0010771193 -0.017245376 -0.0024541523 -0.00059106597
000130 2d 6f 16 3d 4b 6f 4e ba c2 be be b9 21 b0 bb 3c
       0.03672712 -0.00078748603 -0.0003638175 0.022911133
000140 e9 37 03 bb 5a 16 59 ba 0c d8 d3 ba 2d 7c ff bc
       -0.0020022339 -0.00082812237 -0.001616241 -0.031187141
000150 bd ba 53 bd 48 f5 83 39 80 c2 ef ba 72 06 3e bb
       -0.05169176 0.00025169016 -0.0018292218 -0.002899554
000160 a3 c7 d5 ba 1b ce a9 ba 65 a3 c9 ba e1 51 83 ba
       -0.0016310107 -0.0012955101 -0.0015383778 -0.0010018909
000170 08 e0 30 b9 56 b6 2a 34 f9 39 8b ba c3 a4 67 bb
       -0.00016868126 1.5898817e-07 -0.0010622136 -0.0035346008
000180 5d 76 71 ba 55 b1 6a bd f1 95 13 bd 42 5c 9f b9
       -0.0009211058 -0.057298023 -0.036031667 -0.0003039558
000190 45 98 a2 ba 84 1d 43 3b bd 59 12 bd d7 56 8c b9
       -0.0012404999 0.0029772231 -0.035730112 -0.00026767582
0001a0 31 28 24 bc ac a9 5d bb f0 e0 41 bc 0f b0 fd b9
       -0.010019348 -0.0033823056 -0.011833414 -0.00048387094
0001b0 96 59 1d bc 5b 3c 73 bb b3 14 5f bd 29 4d 25 bd
       -0.0096038785 -0.0037114832 -0.0544631 -0.04035679
0001c0 32 d6 04 bc 0d bd 20 bc 4e bf f2 ba 97 96 30 bb
       -0.008107709 -0.009810698 -0.0018520148 -0.0026945227
0001d0 79 1d a7 bc 37 d5 29 bb 11 ed 36 bc 4d 1c 0d bc
       -0.020399796 -0.002591444 -0.0111649195 -0.008612704
0001e0 67 38 09 ba cb e9 6d bc 52 45 74 ba 80 e5 89 bc
       -0.000523454 -0.014521073 -0.0009318191 -0.016833067
0001f0 b4 be a9 ba 0a da 25 ba cb 5c f1 b9 20 62 81 bc
       -0.0012950511 -0.0006326741 -0.00046036238 -0.01579386
000200 7a bf f4 3c 20 4c 1c 3d 06 34 46 3d 5c 24 86 3c
       0.02987646 0.038158536 0.048389457 0.01637476
000210 20 f2 0d 3d e1 17 e5 3c c5 c6 d8 3c d9 a1 db 3c
       0.034654737 0.027965488 0.026461968 0.026810573
000220 c6 da ff 3c 44 7a 49 3d d9 c0 f4 3c 4e 55 4b 3d
       0.031232249 0.049188867 0.029877113 0.0496419
000230 3b 2a 10 3d 57 3d 74 bd c3 16 57 3d e8 67 e8 3c
       0.035196524 -0.05962881 0.05251194 0.028369859
000240 a7 70 ee 3c 48 24 d9 3c be bb 4e 3d c3 e3 24 3d
       0.029106451 0.026506558 0.050472014 0.040256273
000250 ad 61 06 3d 04 97 05 3d c3 95 7e 3d f6 01 3e 3d
       0.032807995 0.032614723 0.062154543 0.04638859
000260 a3 59 ca 3c e4 dc 3a 3d 53 32 5d 3d ca 56 10 3d
       0.024700945 0.045620814 0.05400307 0.03523902
000270 8e 7f 03 3d 1d e4 d1 3c 51 e5 c7 3c 8b 05 21 3d
       0.032104068 0.025621468 0.024401339 0.039311927
000280 3f 09 d3 3c 1d 7f f1 3c 18 b4 31 3d 33 7c 08 3d
       0.025761245 0.029479558 0.04338464 0.03332157
000290 0c a8 01 3d eb 10 10 3d 02 4c 33 bd 41 a5 18 3d
       0.031654403 0.035172384 -0.04377366 0.037266973
0002a0 d2 e3 07 3d 18 53 3b 3d 64 fa 53 3d 53 47 5b 3d
       0.03317625 0.04573354 0.051752463 0.053534817
0002b0 04 6b 6b 3d bb 93 fe 3c 54 e4 c7 3c 82 37 86 3d
       0.057475105 0.031076303 0.024400868 0.06553556
0002c0 c5 62 24 3d 55 9c 01 3d 43 a4 0c 3d 5d 77 8f ba
       0.040133256 0.03164323 0.03433634 -0.0010945607
0002d0 68 f5 a2 3c 65 44 4a bd 5b c0 e0 3c 0c 38 52 3d
       0.01989241 -0.049381632 0.027435472 0.05132298
0002e0 02 eb 0a 3d 2e eb b6 3c 29 24 5d 3d 29 10 e5 3c
       0.033915527 0.02232894 0.053989563 0.027961807
0002f0 6c ab 55 bd 5f 6e b2 3c ed 05 f0 3c 6e fd 0c 3d
       -0.052165434 0.021781145 0.0292997 0.034421377
000300 e8 e6 4c 3d 48 4c 3a 3c 9b b3 a4 3c bc eb 03 3d
       0.050024897 0.011370726 0.020105174 0.032207236
000310 83 aa 4e 3d ec 52 81 ba 2b cf 3d 3d 85 9c 1f 3d
       0.05045558 -0.0009866632 0.04634015 0.038967628
000320 79 01 13 3d 20 7a 47 3d 42 2d 68 3d c0 1e d1 3c
       0.035890076 0.04870045 0.056683786 0.025527358
000330 d8 3f 58 bd cc 59 d2 3c 73 e5 e0 3c 9a ea 41 bd
       -0.05279526 0.025677584 0.02745316 -0.047342874
000340 e1 03 05 3d 95 b4 d7 3c 90 79 c8 3c b9 dd 50 3d
       0.032474402 0.026331225 0.024472028 0.0509927
000350 70 e4 8f 3d c5 f2 22 bb eb be 01 3d 4d f5 0c 3d
       0.07025993 -0.002486394 0.031676214 0.034413625
000360 fa 93 88 3c 8c f9 07 3d 6e aa 16 3d 25 d1 4e 3d
       0.016672123 0.03319697 0.03678363 0.050492425
000370 2f fd c6 3c 29 a1 c2 bb cb 9b fb 3c 1d 69 da 3b
       0.02429065 -0.005939622 0.030713936 0.0066653625
000380 f1 04 07 3d 32 14 3a 3d da b4 85 3d 39 00 74 3c
       0.032963697 0.045429416 0.06528635 0.014892631
000390 0b ae 3f 3d 44 17 21 3c 9e b3 31 3d 53 e7 93 3c
       0.04679684 0.009832207 0.043384187 0.01805464
0003a0 37 e3 ab 3c 51 4f c6 3c a9 1a 26 3d 81 fd 08 3d
       0.020982368 0.024207743 0.04055277 0.033444885
0003b0 64 91 0e 3b 75 27 0e 3d f5 3f 39 3d 2e 66 5c 3d
       0.002175414 0.034705598 0.04522701 0.053808384
0003c0 c3 45 f0 3c d9 98 5c 3d e3 52 01 3d c6 26 0b 3d
       0.02933014 0.053856704 0.031573188 0.033972524
0003d0 2f 7d 42 3d da f7 02 3d 25 56 45 3d ca ca 01 3d
       0.047482666 0.03197465 0.048177857 0.031687535
0003e0 35 97 c2 3c e5 ff 5a 3d 07 ef cc 3c 1e af 3d 3d
       0.023753742 0.053466696 0.02501632 0.046309583
0003f0 fd 10 23 3d 4c 34 e4 3c 1c 41 a7 3c 02 40 02 3d
       0.039811123 0.027856968 0.020416789 0.031799324

action_model._continuous_distribution.mu.bias f4 [2]
000000 5a 31 46 3d 02 c1 3d bd
       0.04838691 -0.046326645
